Mutual_Information/mi_discriminator.model (torch_old, 21380 bytes, 7 tensors)

weight f4 [22, 90]
000000 90 02 94 bd 51 8c ef be c9 65 6a be 9c 93 8d be
       -0.07227051 -0.4678674 -0.2289039 -0.2765168
000010 0b 01 7e bd 26 4f fc bd e8 a3 0f be 28 12 8c 3d
       -0.062012713 -0.12319784 -0.14027369 0.068394005
000020 07 ce 00 3e de 90 b1 be 71 db 37 be 8c 81 00 be
       0.12578593 -0.34680837 -0.17954804 -0.12549418
000030 34 9d 8c 3d 01 72 24 bb 87 33 2d be 09 1d e0 3d
       0.068659216 -0.0025092366 -0.16914187 0.10943038
000040 ad d5 8c 3d ff ff 49 3e f3 42 3b 3e 88 c8 90 bc
       0.06876693 0.19726561 0.18287258 -0.017673746
000050 a8 94 11 be 57 8a c3 bd 80 96 28 be de e7 02 be
       -0.14216864 -0.095478706 -0.16463661 -0.12783763
000060 9e d3 a2 3e 38 cb fa bd 05 77 67 bc 27 8f a4 3e
       0.31802076 -0.12245792 -0.014127498 0.32140467
000070 4a 3d 2e 3e 26 5d fb 3c 97 1b a3 3b 02 9b 8a 3d
       0.17015567 0.030684065 0.004977654 0.06767847
000080 88 03 99 3d b2 81 d4 3d 75 fd 94 3d 67 7f 28 3e
       0.07471377 0.103763 0.072749056 0.1645485
000090 6b 80 1e bd 10 a3 84 bd 00 fc c0 bd 3a 2d 09 be
       -0.038696688 -0.06476414 -0.09423065 -0.13396159
0000a0 27 54 7e 3e 10 7f 8a bc c3 7a ed 3c e8 11 b8 bb
       0.24836789 -0.016906291 0.028989201 -0.005617369
0000b0 9b cf 03 be 32 bb 97 3c c0 5c b5 3e 3e 33 72 3e
       -0.12872164 0.018521879 0.35422325 0.2365236
0000c0 7a c1 8a 3e 8b 37 76 bc 13 0a a8 3d ac 16 97 3d
       0.27100736 -0.015027891 0.082050465 0.07377371
0000d0 c5 14 ab bd 7c 61 09 be 40 81 8c 3e f8 a4 2d 3e
       -0.08353571 -0.13416094 0.2744236 0.16957462
0000e0 fd 21 57 3e 24 10 ed bd 78 62 c8 3d f8 3e fd 3c
       0.21009059 -0.11575344 0.097844064 0.030913815
0000f0 15 7d d3 3b 1a f9 2c 3c 54 dd 81 bd c8 3b 2d bd
       0.00645412 0.010557437 -0.06341043 -0.04229334
000100 2f 89 4c 3e 64 39 c4 3d 2e 80 2b 3e b9 4c 8c 3e
       0.19974206 0.09581259 0.16748115 0.27402285
000110 2d 56 da 3d e2 df 37 be 3d 9e 13 3d d3 92 33 3d
       0.10660968 -0.17956498 0.03603958 0.043841194
000120 fd b0 78 be 1b fb 8c bd 62 23 a0 3b 91 7f 12 be
       -0.24286266 -0.06883832 0.0048870305 -0.14306475
000130 f0 0e 7d bd e5 54 2c be f1 44 12 be 34 8e 80 bd
       -0.061781824 -0.1682926 -0.14284112 -0.06277123
000140 bb 36 64 be fa e3 30 be f8 1d 81 bd fe e2 aa bc
       -0.22286503 -0.17274466 -0.06304544 -0.020860191
000150 d1 07 e5 3d cc 43 73 be 9d a9 b3 bd 74 ac f0 3d
       0.111831315 -0.23756331 -0.087725855 0.11751643
000160 81 c5 87 bd 69 12 97 3e ed cc e5 3c cb 55 89 3e
       -0.06629468 0.29506233 0.028051818 0.26823267
000170 98 a4 38 3e f4 29 a3 3e 2c 64 ae 3d 43 be 84 3d
       0.18031538 0.31867945 0.085152 0.06481602
000180 f9 46 8d 3e 0a cd 5f be d6 7a 84 be 68 9e 5d 3e
       0.2759321 -0.2185556 -0.25874966 0.21642458
000190 ab 3c 18 3e b3 9f 12 3e b9 ba e2 3c 09 c9 86 3d
       0.14866893 0.14318733 0.027676927 0.06581313
0001a0 cc c3 2b 3e 64 b3 54 be 3a 0c 06 be 6a 08 70 be
       0.1677391 -0.20771557 -0.13090602 -0.2344071
0001b0 cb 09 00 bd 88 53 f5 bc e3 d4 d9 3b 0b 9e 18 3d
       -0.03125934 -0.029947057 0.0066476925 0.037260097
0001c0 88 60 27 3e e9 43 65 3d 14 ac fc bd 6d 0a 3f 3e
       0.16345417 0.055972967 -0.12337509 0.18656321
0001d0 9e 73 f0 bc a6 08 6a bd e3 5c 44 bd e9 f9 8f bd
       -0.029352006 -0.057137154 -0.047940146 -0.070300885
0001e0 6c 51 2d be e8 59 08 be da a7 8e bd 71 55 ca bd
       -0.16925591 -0.13315547 -0.06965609 -0.09879578
0001f0 99 d3 2d be e5 db 4a be d0 f5 8c 3d 31 df 32 3d
       -0.1697525 -0.19810446 0.068828225 0.043669883
000200 d7 23 b4 bb f0 fa 81 bd f6 b2 8d be 25 e3 45 3d
       -0.0054974365 -0.06346691 -0.276756 0.048312325
000210 53 c0 24 3e ab 79 79 bc 90 f7 8d 3e 29 20 31 bc
       0.16088991 -0.015226762 0.27727938 -0.01081089
000220 a0 f1 93 be 95 22 0b be 44 a1 8d be ca 8a 7f bc
       -0.28895283 -0.13587411 -0.27662098 -0.015597055
000230 b9 37 84 3b f6 9f 15 be bb f4 57 3e 27 3d 6b 3e
       0.004034963 -0.14611802 0.21089451 0.22972547
000240 32 89 37 be 4f ac 88 bc ba a9 07 bd d6 89 9b bd
       -0.1792343 -0.016683726 -0.03312085 -0.075946495
000250 44 87 b7 bd 45 72 3c bd c9 d0 8c 3e 8c ab 3d 3e
       -0.08961347 -0.046007413 0.2750304 0.18522471
000260 25 d9 43 3e 25 25 80 3d 48 63 b4 bc 38 72 43 3d
       0.19125803 0.06257085 -0.022019997 0.04771635
000270 44 e0 2f bd ac ec 5e be 49 dd 60 bd f0 72 a1 3d
       -0.042938486 -0.2176997 -0.054898534 0.07883251
000280 26 51 2a be d2 80 8e 3d a6 e9 bd 3d 9d d7 e1 3c
       -0.16632518 0.06958164 0.092730805 0.027568633
000290 8f d2 dc 3d fd 09 c6 3d 74 4e ce 3d e3 90 25 3e
       0.10782348 0.09669874 0.100735575 0.16168551
0002a0 e6 c8 c7 3d ec 00 28 3e 56 7a d4 3d b2 4a 41 3d
       0.09755115 0.16406602 0.10374896 0.047190376
0002b0 58 ef 7f bb 97 ba 0c 3d 9e 90 51 bc 15 b2 8d 3e
       -0.0039052572 0.034357633 -0.012790827 0.27674928
0002c0 0e 31 7a 3c e1 c9 44 be 84 1b 25 3d da 58 92 be
       0.015270485 -0.19217636 0.040309444 -0.28583413
0002d0 bc 5f 8e be a2 e3 79 bd cb 33 df bc a3 b1 11 3b
       -0.27807415 -0.061008103 -0.027246376 0.0022231124
0002e0 c2 d8 30 3e 7e a0 a9 3d bb e1 0e 3e cc d3 75 3d
       0.17270187 0.082825646 0.13953297 0.06001644
0002f0 ac 0a 5c 3d 9c 6d 9c bd f9 86 c4 3d 05 64 39 3c
       0.053721115 -0.07638094 0.095960565 0.01131535
000300 67 7e 5b 3e b6 75 c3 3d 41 c9 c6 3d 59 c4 7f bd
       0.21434937 0.09543936 0.09706355 -0.06244311
000310 02 4a c5 bd 0e 62 69 bd d2 9d 09 be 56 23 1c be
       -0.096332565 -0.056978278 -0.1343911 -0.15247855
000320 1c 29 0e 3e 0d 81 06 3e aa 74 f6 bc 38 4d 41 3e
       0.1388287 0.13135166 -0.030084927 0.18877113
000330 82 90 84 3e 88 dd b3 3d e2 fb 15 3e c4 1d fd 3d
       0.258915 0.08782488 0.14646867 0.12359193
000340 1c 96 bc 3d 7c 32 e4 bc 8a 31 0c 3e 82 68 45 3e
       0.092083186 -0.027856104 0.13690773 0.19278148
000350 68 7d 17 be 11 62 c1 bd ea c3 d5 3c 02 c7 f9 3d
       -0.14793932 -0.09442533 0.026094396 0.12196161
000360 b5 07 74 bd a4 5e 39 3d 2c f6 16 3e 08 2a 54 be
       -0.059577662 0.045256272 0.14742345 -0.20719159
000370 14 00 34 3e 56 6a d3 3d 7f 93 3d 3e 47 b0 2c 3e
       0.17578155 0.10323016 0.18513297 0.1686412
000380 d7 7b dd bc 9c 73 8f be 6b f4 65 bd 51 f0 a8 bc
       -0.02703659 -0.2801789 -0.0561413 -0.020622404
000390 e1 19 85 bd 81 63 f0 3d 48 ae 22 3e 42 e7 ea bd
       -0.06499077 0.11737729 0.15886796 -0.1146989
0003a0 23 94 fe 3d e4 0c 9e 3d 93 d1 f9 bc e5 58 4b bc
       0.124305986 0.077173024 -0.03049544 -0.012411331
0003b0 6e d5 00 3e 16 07 01 3e 61 62 47 ba c7 8e ae 3d
       0.12581417 0.1260036 -0.0007605907 0.08523326
0003c0 ee 1a 0a bc d5 ab b0 bc 64 42 bb 3d 34 02 a1 bd
       -0.008429272 -0.02156631 0.091435224 -0.07861748
0003d0 f0 5e 84 bd 89 2a 0e 3d aa 80 21 3d 21 21 4d bd
       -0.064634204 0.034708533 0.039429344 -0.050080422
0003e0 a4 82 31 3e 76 2d 1b 3e 17 d7 c5 bd ad 85 d9 3c
       0.17334992 0.1515406 -0.09660166 0.026553
0003f0 b2 af 32 3e aa 86 07 3d 3a 79 3c be 89 05 25 3e
       0.17449835 0.03308741 -0.1840562 0.16115393

bias f4 [22]
000000 e4 99 7d 3d 2e 34 c5 bd 40 3a 68 3e 16 f7 14 3e
       0.06191434 -0.09629093 0.2267847 0.14547381
000010 87 fb b5 3d d7 40 64 bd 43 f0 92 3e a4 89 41 be
       0.08885866 -0.0557259 0.2869893 -0.18900162
000020 34 82 26 bd 81 66 da bd bf 8d e4 bc 13 38 55 be
       -0.040651515 -0.10664082 -0.027899621 -0.20822172
000030 cd b6 51 3d a6 63 18 3d 1a ad 0a 3e 9e 1f 5b 3d
       0.051199723 0.037204407 0.13542596 0.05349695
000040 90 53 0b 3c 6a 31 81 3e 41 5b 11 be 6f 7b ea 3c
       0.00850381 0.25233012 -0.14194967 0.02862331
000050 5c d6 9c 3c 21 26 cb 3c
       0.019145183 0.024798455

weight f4 [22, 22]
000000 16 88 30 be f4 c7 40 3f cb c1 ac 3d 0b c3 06 3d
       -0.17239413 0.75305104 0.084354006 0.03290085
000010 ba e0 c8 bd 2a ba 28 bf f8 0c 2a 3c 7f d4 c9 3d
       -0.09808488 -0.65909064 0.010379069 0.098549835
000020 26 f5 0b be af b0 b3 3e 02 8c aa 3e 4c ba 15 be
       -0.13667735 0.35095736 0.33309942 -0.14621848
000030 a1 dc 36 3f 21 14 12 bf 6a f1 1b bf ea f2 9d bd
       0.71430403 -0.57061964 -0.60915244 -0.07712348
000040 c7 d8 af be e9 66 de be 3d cd c8 3e 7a 0f 36 be
       -0.34345075 -0.4343789 0.39219084 -0.17779341
000050 1f 38 26 bf 4e 72 22 3f 95 af ee 3e 23 f8 11 bf
       -0.64929384 0.63455665 0.46618333 -0.5701925
000060 ad 61 8d 3d be cc 90 bd cc ab 9c 3e 33 dd eb 3e
       0.06903396 -0.070703015 0.3059982 0.460672
000070 be 54 a4 3e 5a e9 cb 3c b5 5c b6 3d e9 0f 0a bf
       0.32095903 0.024891544 0.08904401 -0.53930527
000080 04 13 cc be 5e 91 10 3d 5b 03 09 bf 2c 8c 15 3f
       -0.39858258 0.035294883 -0.53520745 0.5841701
000090 30 19 8c 3e 3d 30 2a bd 43 71 e5 3e 96 26 27 3e
       0.27362967 -0.04154991 0.44812974 0.16323313
0000a0 9e 92 d7 be 90 e5 f2 3e d0 67 2d 3f f9 37 0e bf
       -0.42104048 0.47440767 0.6773653 -0.5555416
0000b0 16 d1 79 be dd bc 99 be 7f 97 54 be 15 7f 53 3e
       -0.24396166 -0.30026904 -0.20760916 0.20653947
0000c0 6f 59 f7 bd 1b 3b b8 3e 24 19 5f 3c 94 39 33 be
       -0.12077605 0.35982594 0.013616834 -0.17502433
0000d0 86 ae 0c 3e e1 e3 6d be 7a 72 15 bd 69 ab 54 3d
       0.1373845 -0.2323146 -0.036486126 0.051921282
0000e0 7f 28 cd be f4 c8 39 3e e6 59 39 3f 83 54 d8 bc
       -0.4006996 0.18143064 0.724028 -0.026407486
0000f0 0b ca 39 3e a1 30 04 3f 84 b0 56 be 77 ff 9f 3e
       0.1814348 0.516367 -0.20965773 0.31249592
000100 10 44 8e 3e e4 a0 54 be a0 54 02 be 76 46 aa 3d
       0.27786303 -0.207645 -0.12727594 0.083142206
000110 0d a6 b8 be 18 f4 d5 bc 35 c7 83 3d c5 c8 9a be
       -0.36064187 -0.02611737 0.0643448 -0.302313
000120 53 3a 37 be 47 33 9f 3e 73 46 82 be 81 7f 27 3e
       -0.17893343 0.3109381 -0.25444373 0.16357233
000130 c0 1d be 3e 3b 4d 1f 3e 8e 66 e8 bd 81 e3 01 be
       0.37132072 0.15556805 -0.11347686 -0.12684442
000140 23 08 40 be 0b 4e 7e be db 10 b0 3d 50 46 0c be
       -0.18753104 -0.24834459 0.08596965 -0.13698697
000150 a0 94 f5 3d 0f 4d 0e be 92 e3 ad be 45 0a 6b 3e
       0.119912386 -0.13896583 -0.33962685 0.22953136
000160 ff d0 cb bd ad 15 9b bd 6c c0 92 be 5a 3f 56 be
       -0.09951972 -0.07572494 -0.2866243 -0.20922604
000170 b5 5c c9 bd 04 5c 59 be a4 7c f4 bd 44 ab 1a 3e
       -0.098321356 -0.21226507 -0.11937836 0.15104395
000180 ba 89 4a be 32 ea 82 3e 87 d9 79 3e 41 a9 e9 3e
       -0.19779101 0.25569302 0.24399386 0.45636943
000190 7c 62 67 bd 6a 24 e7 3d 43 76 4d be 9b 2d 96 bd
       -0.056490406 0.11286242 -0.20064645 -0.07332917
0001a0 d5 b0 3c 3e 5a 10 4f be 29 70 c6 3d 6d 35 04 be
       0.18426831 -0.20221081 0.096893616 -0.12911005
0001b0 b0 60 fc bd f6 6f c1 3c 2e b0 21 3f 0c 03 aa be
       -0.12323129 0.023612957 0.63159454 -0.3320545
0001c0 16 0b a8 3d 06 4b 2d be 42 f3 ab 3e 55 4f 9d 3e
       0.082052395 -0.1692315 0.33584028 0.30724588
0001d0 57 4d b3 3e 59 54 82 3d ed ba ed bd 0a 1f 10 bf
       0.35019943 0.06363744 -0.11607919 -0.5629736
0001e0 de 62 07 bf 80 38 a1 bd 3c 0e 4c bf e5 71 6b 3e
       -0.52885234 -0.07872105 -0.7970922 0.22992666
0001f0 08 58 86 bd f5 44 85 be 46 b0 d0 3e b8 67 bc 3e
       -0.065597594 -0.26029173 0.40759486 0.3679788
000200 d4 87 20 bf 9b b8 23 3f 53 9a 15 3f 9e 68 dc be
       -0.6270726 0.6395356 0.58438605 -0.43048567
000210 81 36 b5 3d a7 88 52 be df fa 5c 3e 39 89 52 3e
       0.088482864 -0.20559941 0.21580075 0.20560159
000220 f0 73 9a 3d 7c 5c 02 3c 9f 8b 1d bc 43 87 8a be
       0.075416446 0.00795662 -0.009615808 -0.27056322
000230 f5 97 22 3d 37 06 25 bd e0 42 81 be 22 a5 61 be
       0.0396957 -0.04028913 -0.25246334 -0.2203565
000240 51 3c 42 be cf 35 06 3e ca 58 88 3d 26 54 68 bd
       -0.18968321 0.13106464 0.0665756 -0.056720875
000250 08 84 e7 3d 0b 72 fd 3d 4e aa 84 3d 9a fe df bd
       0.1130448 0.123752676 0.064777955 -0.10937233
000260 72 7c 60 3d 87 b0 05 bb 79 be 85 be 38 2a 20 3f
       0.05480618 -0.0020399408 -0.26121882 0.6256442
000270 29 e9 d1 3d c5 57 a1 3d c9 c7 a0 bc db 23 d6 be
       0.1024955 0.07878069 -0.019626515 -0.4182423
000280 8b 9f ab bd dd 5a e5 bd 9a 27 63 3e 75 c2 0c 3f
       -0.0838004 -0.111989714 0.22183076 0.5498422
000290 3b b8 9b 3e b6 d3 08 3d ec 4c 92 3e d6 58 1f bf
       0.30413994 0.03340503 0.28574312 -0.6224493
0002a0 cc dc 17 bf d3 2b 48 3d cb 2c 84 be f5 d0 ef be
       -0.59321284 0.04886992 -0.25815424 -0.4683911
0002b0 03 f5 af bc 5e 15 6e be 8f d7 95 be 03 f8 0a 3f
       -0.021479135 -0.23250338 -0.2926602 0.54284686
0002c0 83 6e d2 3e 1f a8 f1 be 82 3a 4b 3d 3a b1 93 be
       0.4109994 -0.4719858 0.049616344 -0.2884615
0002d0 dd 73 79 3e 6b 50 49 3e de aa d3 3e 0d 5a d7 bd
       0.24360605 0.19659583 0.413413 -0.10515223
0002e0 11 a7 09 be 0d dd 35 bf a3 bf e9 be 12 b0 83 bc
       -0.13442637 -0.7104042 -0.4565402 -0.016075168
0002f0 9f c2 41 bf 20 98 e4 3e e1 fa 82 3e b9 3a 14 be
       -0.75687593 0.44647312 0.2558203 -0.14475526
000300 63 0a ff 3e eb 67 29 3c e5 a4 eb be 93 8e 16 3f
       0.49812612 0.010339717 -0.46024242 0.588113
000310 97 fc 39 3e 2d 9e 16 bf c4 1f 92 3e 00 99 17 3e
       0.18162762 -0.5883511 0.2853986 0.14804459
000320 91 d2 b9 be a4 9f 9d 3d c6 6b 15 3d 35 d5 92 be
       -0.36293462 0.07696465 0.036479734 -0.2867829
000330 ab 99 fc bd 04 8b 54 3e a2 e4 a4 bd ae b0 8b 3e
       -0.12333997 0.20756155 -0.08051421 0.27283233
000340 7b b8 5b be c5 21 da 3e e9 70 fb bd 2a e7 68 be
       -0.21457092 0.4260389 -0.12277395 -0.22744432
000350 41 31 ba 3d df d7 70 be bd 31 42 3e 78 cb d7 bd
       0.09091426 -0.23519848 0.18964286 -0.105368555
000360 2e ee b9 3e 5f 1a 8b be 34 77 73 be 6d 1a 70 3e
       0.3631453 -0.27168557 -0.23775941 0.2344758
000370 ad 59 09 bf 58 93 0e 3f bb bd 29 3e 47 a6 b6 3e
       -0.5365246 0.5569358 0.16576283 0.35673735
000380 c6 9c 0a 3f 32 17 df be 0d 1c ca bd 61 51 b3 3d
       0.5414547 -0.43572384 -0.098686315 0.08755756
000390 51 40 64 3e d3 7d 44 3f 77 a6 84 3e 64 fd 94 3c
       0.2229016 0.7675449 0.25908253 0.018187232
0003a0 0a 13 44 3f 0b 2c 3d bf 57 26 86 be 1c 6a b5 3d
       0.7659155 -0.7389533 -0.26201126 0.088581294
0003b0 32 1c 1a be 91 32 8f 3e 38 32 3b 3e ab 79 05 bf
       -0.15049818 0.27968267 0.18280876 -0.52138776
0003c0 6a 50 91 be f1 a0 f3 3e 69 cb da 3d 38 7a ab 3d
       -0.28381664 0.47583726 0.10683329 0.08372921
0003d0 54 96 a8 be ec b4 8f be c4 ce 30 be c1 6b a1 bc
       -0.3292719 -0.2806772 -0.17266375 -0.019704701
0003e0 42 7d c0 be ef 0d 4b bc 10 14 94 be c7 d6 8a 3e
       -0.37595564 -0.012393459 -0.28921556 0.27116987
0003f0 e3 40 1f be ca 27 0c 3f e3 47 bb be 1c 57 63 3e
       -0.15552096 0.54748213 -0.36578283 0.22201198

bias f4 [22]
000000 e3 06 28 be ac 3a 44 bd 4f 8d 5a bd d4 ea d1 be
       -0.16408877 -0.047907516 -0.05335742 -0.40999472
000010 d5 76 56 be 88 e1 44 3e 58 a9 aa 3e 17 48 3a be
       -0.20943768 0.19226658 0.33332324 -0.18191563
000020 6e 42 42 3e 9a bb b9 be 78 5c 07 3d 62 d9 85 be
       0.18970653 -0.3627594 0.03304717 -0.26142412
000030 b1 99 21 be d6 9a bd 3e b4 3b 9d be 46 68 22 3e
       -0.15781285 0.37032193 -0.30709612 0.1586009
000040 fc 8e 64 be 00 79 27 3e b2 6e a2 3d bf 41 26 bd
       -0.22320169 0.16354752 0.0793127 -0.040590044
000050 f1 52 32 be 53 18 40 3e
       -0.17414452 0.18759279

weight f4 [11, 22]
000000 86 cd a6 be be 0d 16 3f 2a 29 ce 3e 11 a6 46 be
       -0.32578677 0.5861472 0.4026578 -0.19399287
000010 25 8a a5 bd 9e 66 21 3f 52 4a ce 3d b1 c5 07 bf
       -0.080829896 0.63047206 0.10072769 -0.5303603
000020 5a fb 14 3f 89 85 a5 3d d2 ef db be da c5 fd 3d
       0.5819603 0.080821104 -0.42956406 0.12391253
000030 3a a8 a2 3e 0e 6e 88 3a ae 10 ca bd df e5 20 3f
       0.31768972 0.0010408775 -0.09866463 0.62850755
000040 b5 79 76 3e bb 47 e9 3e 5a 68 79 be 4a ea 39 bf
       0.24069865 0.45562539 -0.24356213 -0.7262312
000050 0f df 6e 3e fd 9f 8c be cc c1 af 3e 44 d5 7a be
       0.23327278 -0.2746581 0.34327543 -0.24495417
000060 da 2f 99 3d a2 eb 34 be f9 81 00 be d0 b4 94 be
       0.0747983 -0.17668012 -0.1254958 -0.290442
000070 91 f9 0d 3e a5 12 42 3b df f2 d3 bd 6f b4 71 be
       0.13864733 0.0029613164 -0.10349058 -0.23603986
000080 7c c3 32 be 93 c3 34 be 14 94 65 3e 55 e9 b2 3d
       -0.17457384 -0.1765273 0.22419769 0.08735911
000090 e3 22 d2 be 73 de 8e be 36 68 7f be ab 9c f1 be
       -0.4104224 -0.2790409 -0.24942097 -0.4718984
0000a0 a5 b7 d7 be 51 2d 47 3e 44 e2 d1 3e 2e 49 21 bf
       -0.42132297 0.1945088 0.4099294 -0.6300229
0000b0 25 3b 4c 3d 47 79 27 be f6 33 0f be 03 3a 0a be
       0.049861092 -0.16354857 -0.13984665 -0.13498692
0000c0 dd 7d 0f be d1 53 31 be 6e c2 7d 3e a2 c9 b3 3e
       -0.14012857 -0.1731713 0.247812 0.3511477
0000d0 84 f4 ca be a8 34 af be 7a cc e6 be f5 cc 60 be
       -0.39639676 -0.3421986 -0.45077878 -0.21953185
0000e0 29 87 36 3e 40 25 19 3e 82 7e 9f be 2f 60 c8 bd
       0.17824997 0.14955616 -0.31151205 -0.097839706
0000f0 90 cd 8a bd ff 78 9e be 9e 46 c6 be 0c 00 38 3e
       -0.06777489 -0.30951688 -0.38725752 0.17968768
000100 3f af a6 3e 4b 8c 05 bf dd c8 23 3f 77 e2 26 bf
       0.32555577 -0.52167195 0.6397837 -0.6518931
000110 d5 04 fb be 46 c0 c1 bc 2f a2 66 be 7c 16 31 bf
       -0.49027124 -0.023651253 -0.22522806 -0.69174933
000120 d0 37 d7 3c 08 04 c7 3e bc 92 d3 be 5f 3d 5b bd
       0.02627173 0.38870263 -0.41322887 -0.053525325
000130 55 f6 72 3e 90 9b 89 be 22 45 64 be 42 7e 8e 3e
       0.2372678 -0.26876497 -0.22291997 0.27830702
000140 45 86 6d bd c9 b0 2a bf ad 55 0a be af 7d 26 bf
       -0.057989378 -0.66676 -0.13509245 -0.6503553
000150 d9 5b 0e bd 37 70 37 3f 93 c0 31 bc 5e aa 19 be
       -0.03475556 0.716556 -0.010849136 -0.15006396
000160 00 3f 80 be 97 e0 75 3d ba 92 23 3e f6 ed 0d 3e
       -0.25048065 0.06002864 0.1597394 0.13860306
000170 34 8a 6c 3e 8f 0d f5 3e 54 37 9c be 49 60 9f be
       0.23099595 0.47861907 -0.30510962 -0.31128147
000180 0a a2 8b 3e a8 0d 80 3e 2e 10 21 3e 21 4b 94 3e
       0.27272063 0.2501042 0.15728828 0.2896357
000190 16 ca f0 be f0 c1 c1 be 4c df 57 3e be 03 bb 3d
       -0.4702918 -0.37843275 0.21081275 0.09131573
0001a0 ad 07 83 3d 6b 07 00 3f d8 15 0a 3f 3b a2 99 be
       0.063979484 0.5001132 0.5393958 -0.30006585
0001b0 4e a0 02 bf 09 64 d4 3e e5 f7 c7 3e f0 c8 23 be
       -0.51025856 0.4148257 0.39056316 -0.1599462
0001c0 5a 86 97 be ca 08 15 be 2c b1 cc be 70 45 47 be
       -0.2959469 -0.14554134 -0.3997892 -0.19460082
0001d0 be 04 32 3e 9a c4 9f 3e 94 9d d3 be fd c1 72 be
       0.17384622 0.31204683 -0.4133116 -0.23706813
0001e0 87 2b cd be 2d 71 78 be 1e d7 75 3e ce 08 a8 3e
       -0.4007227 -0.24261923 0.24007842 0.32819217
0001f0 16 75 bd be d0 92 92 be 36 62 24 be e9 40 ad be
       -0.37003392 -0.28627634 -0.1605309 -0.33838585
000200 0c 29 fd be 81 dc 07 3e 2d dc 11 3f ba 4c 0a bf
       -0.4944538 0.1326771 0.56976587 -0.54023325
000210 b4 77 b7 bd f4 d4 59 3e 2e 5c 34 3e 6b 97 1e 3e
       -0.089583784 0.21272641 0.17613289 0.15487449
000220 e5 91 b9 3e a2 11 9a 3e 6f db 44 be 7d a4 b7 be
       0.3624412 0.30091578 -0.19224332 -0.35867682
000230 09 de b2 3d ae 70 5a 3e 3d 94 1b 3f 26 1d 66 3e
       0.08733756 0.21332046 0.6077307 0.22472057
000240 00 c9 16 be dd 80 50 be 75 1c e5 3e 53 39 9d 3e
       -0.14725113 -0.20361657 0.44748273 0.30707797
000250 78 df fc 3d 82 04 d6 3e ac a0 ef 3e 25 f2 dd be
       0.12347311 0.41800314 0.4680227 -0.43348804
000260 ba 33 e9 be 2b 16 e1 3e 03 2e 0f be a8 29 ca 3e
       -0.45547277 0.43962225 -0.13982396 0.39484906
000270 ba 9d 73 bc 38 eb 40 3e 37 08 97 3e ab 43 04 3f
       -0.014869148 0.18839729 0.29498455 0.51665753
000280 2f 27 14 be d2 cb ab be ab e9 36 3e 82 22 8e 3e
       -0.14468072 -0.3355394 0.17862575 0.27760702
000290 66 d8 ce 3e 14 ef fd 3d 3e e9 b6 be 18 06 a4 be
       0.40399474 0.12399116 -0.35724825 -0.320359
0002a0 f9 19 aa 3e d2 17 43 3e c8 03 8c 3e 51 fc ea 3e
       0.3322294 0.19052055 0.27346635 0.45895627
0002b0 35 3f a8 3e ca f9 55 be ba 52 ca be 99 de 26 3f
       0.32860723 -0.20896068 -0.3951624 0.6518341
0002c0 de e2 46 3e de 7b ad bd 55 55 20 be ee 14 17 be
       0.1942248 -0.084708914 -0.15657552 -0.14754078
0002d0 fc 84 2a be 3a 84 dc be 7a 64 9f 3e 7b 9f 23 3c
       -0.16652292 -0.4306963 0.31131345 0.009986754
0002e0 8d af 45 be b4 c6 76 be 64 d2 e1 be 64 1c ba bd
       -0.19305249 -0.24099237 -0.44105828 -0.09087446
0002f0 98 36 be 3e a5 f8 d0 3e 94 a9 ed bd 9e a1 78 be
       0.37151027 0.408147 -0.1160461 -0.24280402
000300 72 30 be be 43 d8 54 be 0f 2a 4b be 37 90 7d 3e
       -0.37146336 -0.20785622 -0.19840263 0.24762045
000310 df 53 c8 3e 8d ee ba be 3a a8 f9 3e 5a 2c e8 be
       0.3912649 -0.36510125 0.4876116 -0.45346338
000320 58 76 b8 be 14 9a ea 3e 22 2e c2 3e 6c 9d d9 3c
       -0.3602779 0.45820677 0.37925822 0.026564322
000330 fb 7b 56 3e 1c 13 c6 3e 5f 3b 74 bd 04 99 db 3e
       0.20945732 0.38686454 -0.059626933 0.4289018
000340 95 9a 7e bc 54 21 c3 3e be f5 62 3e 83 61 41 bd
       -0.015539785 0.38111365 0.22164056 -0.047212135
000350 37 50 4a 3e 4c 3f f5 be f3 74 91 3e 70 21 cf be
       0.19757162 -0.47899854 0.28409538 -0.40455198
000360 8e fd 2a bd 56 03 b4 bd 64 cd e8 bd 47 56 bb 3d
       -0.041745715 -0.08789699 -0.113673 0.091473155
000370 a7 7e a2 be 78 f1 05 3e 3d c9 71 bd ad 39 50 3e
       -0.31737253 0.13080394 -0.059029806 0.20334502
000380 5b fe 4a 3d 7a a5 b7 3e 6a 6c 0f be 57 32 c0 bd
       0.04955898 0.35868436 -0.140062 -0.093846016
000390 75 ef 7d 3d 89 af 9c 3e eb f4 d2 3e 52 2e 4f bd
       0.061995942 0.30602673 0.41202483 -0.050581284
0003a0 21 ab ab be 2f 60 9d be dc 92 d7 3e 40 07 e3 3e
       -0.33528998 -0.30737445 0.42104232 0.4434147
0003b0 ff 86 52 bd 5d a9 85 3d e4 c6 be 3e fd 99 01 be
       -0.051398274 0.06526444 0.37261117 -0.12656398
0003c0 90 81 40 be 7b b5 d5 3e
       -0.18799424 0.4174002

bias f4 [11]
000000 f2 9c 46 3e f2 dd 86 3e 20 e5 84 3e 69 6e 87 3d
       0.19395807 0.26341206 0.25956059 0.06612856
000010 a2 10 a6 be e4 11 43 3e f5 10 4d be c1 82 8b be
       -0.32434565 0.19049793 -0.20026 -0.27248195
000020 93 d1 8e 3d ea 85 85 be 69 e5 d1 be
       0.06973567 -0.2607873 -0.4099534

weight f4 [1, 11]
000000 63 1f 1b 3f f7 26 69 bf 92 a2 73 bf 12 ca bc be
       0.6059477 -0.9107508 -0.9516994 -0.36872917
000010 1d 09 82 3f 4c e2 80 bf 02 fa 57 3f 3a 7f 86 3f
       1.0159031 -1.006906 0.84365857 1.0507576
000020 67 da 82 bf eb 07 08 3f 8d c8 7b 3f
       -1.0222901 0.5313708 0.9835289
