ModelUnpredictability/one_thousand_brains/predictor_84.model (torch_old, 109395 bytes, 7 tensors)

weight f4 [84, 168]
0	0x3d4dbf7b	0.050231438
1	0xbcca2203	-0.024674421
2	0xbd18fec7	-0.03735235
3	0x3d4f3b31	0.05059356
4	0x3cf3e885	0.02977396
5	0x3d426d44	0.047467485
6	0x3beb319a	0.007177544
7	0x3cc30c0c	0.023809455
8	0xbc0a8fcc	-0.008457135
9	0xbc8232eb	-0.01589342
10	0x3c90def9	0.017684447
11	0xbd499a5d	-0.049219478
12	0x3d8d65bd	0.06904171
13	0xbd67dd6e	-0.056607656
14	0x3cc9bf45	0.024627337
15	0xbae8eda3	-0.0017771017
16	0xbd86054c	-0.06543979
17	0xbd20b313	-0.03923328
18	0xbd24bf2c	-0.04022138
19	0xbb03b2a4	-0.0020095492
20	0xbd82088b	-0.06349286
21	0xbd211ed0	-0.039336026
22	0xbd30aa7b	-0.043131333
23	0x3d8d7197	0.06906431
24	0x3d87c4fa	0.06629367
25	0x3c88e8ef	0.016712634
26	0xbd6f66aa	-0.058447517
27	0xbd349df7	-0.04409596
28	0xbd1fc44a	-0.039005555
29	0x3d5442a7	0.051821377
30	0xbd953142	-0.07284786
31	0xbd0419ea	-0.032251276
32	0xbcf83bdd	-0.030301983
33	0x3ca8f825	0.020626137
34	0x3c11ca64	0.008898351
35	0xbd6a5fa0	-0.0572201
36	0xbd3619ec	-0.044458315
37	0xbd2e18cb	-0.042504113
38	0x3d3fcba0	0.04682505
39	0x3d508898	0.050911516
40	0x3d142ff9	0.036178563
41	0x3ca11c87	0.019666923
42	0xbd7e49a8	-0.062081963
43	0x3cc2facd	0.023801232
44	0xbc3e3224	-0.011608634
45	0xbcf0abea	-0.02937885
46	0x3cc8414e	0.024445202
47	0xbb8e3a07	-0.0043404135
48	0x3cb1ef60	0.021720588
49	0xbcdb804c	-0.026794575
50	0xbab9ee93	-0.001418548
51	0xbd15225f	-0.036409732
52	0x3d87a574	0.066233546
53	0xbd893210	-0.06699002
54	0x3cbb0f16	0.022834342
55	0x3cde0e19	0.027106332
56	0xbd52a675	-0.051428277
57	0x3d3cc900	0.046090126
58	0xbd263b04	-0.040583625
59	0xbcad92f4	-0.021188237
60	0x3bb812a0	0.0056174546
61	0x3cf8b587	0.030359996
62	0x3bd72f88	0.0065669455
63	0x3d4f039e	0.05054056
64	0xbc803d89	-0.015654342
65	0x3c3dc29e	0.011582045
66	0xbd98058f	-0.07422935
67	0x3d0ca4d1	0.03433687
68	0xbd14b412	-0.03630454
69	0xbda2d71b	-0.07951184
70	0x3d5f6ee1	0.0545491
71	0xbd295f80	-0.04135084
72	0x3d666f25	0.05625834
73	0x3b9dfe17	0.0048215496
74	0xbd807358	-0.06272
75	0x3b36de0c	0.0027903346
76	0xbc8b1f72	-0.016982768
77	0xbd65ed54	-0.056134537
78	0x3c34536f	0.01100622
79	0x3d8e2925	0.069414414
80	0x3c6beac0	0.0143992305
81	0xbd684ab0	-0.056711853
82	0xbae2bbef	-0.001729844
83	0x3bd9282f	0.0066271047
84	0xbd8ebad9	-0.06969232
85	0x3cc94697	0.024569793
86	0xbd8fd1d2	-0.07022442
87	0x3d0f2eea	0.03495685
88	0x3d8eb3df	0.069679014
89	0xbd3c50dc	-0.04597555
90	0xbcd5bc35	-0.02609072
91	0x3bfa80ba	0.00764474
92	0xbb2ad497	-0.0026066655
93	0xbcbb52a1	-0.022866549
94	0xbd4ffeb2	-0.050780006
95	0x3cf2e92f	0.029652206
96	0xbcccaebd	-0.024985665
97	0xbc28ddeb	-0.010306816
98	0xbd63873d	-0.055548895
99	0x3ce36ebb	0.027762761
100	0xbd381e46	-0.044950746
101	0xbd1efd35	-0.038815696
102	0x3d769764	0.06020297
103	0xbae23e6b	-0.0017261034
104	0xbade6879	-0.0016968391
105	0xbc36401a	-0.011123681
106	0xbd494d0f	-0.049145754
107	0x3c720b98	0.014773272
108	0x3cbb0f68	0.022834495
109	0x3d2786c4	0.040900007
110	0xbc1afbcb	-0.009459446
111	0xbce08c5f	-0.027410684
112	0xbccfd606	-0.025370609
113	0x3ce365b6	0.02775846
114	0xbc963cce	-0.01833954
115	0xbd931a7a	-0.071827844
116	0x3a7438f5	0.00093163486
117	0xb90ea2dc	-0.00013602845
118	0xbd1386c3	-0.03601719
119	0x3d087944	0.033318773
120	0x3d489288	0.048967868
121	0xbcfbf0b4	-0.030754425
122	0x3cb2faaa	0.021848042
123	0xb890686e	-6.8859066e-05
124	0xbd92445b	-0.07141944
125	0x3d629887	0.055321243
126	0x3d4152c1	0.04719806
127	0xbc97cfe9	-0.018531756
128	0x3d07238a	0.032992877
129	0xbbeec16c	-0.0072862413
130	0xbc8ffe6a	-0.017577369
131	0x3d888c0d	0.066673376
132	0x3d4a0024	0.04931654
133	0xbd89dcf0	-0.067315936
134	0xbd3a49d6	-0.04548057
135	0xbda0d8d6	-0.07853858
136	0x3d866609	0.065624304
137	0xbd2de9af	-0.042459186
138	0xbd855275	-0.06509868
139	0x3cea4a1b	0.02859979
140	0xbd7727b8	-0.060340613
141	0xbd985b07	-0.07439237
142	0x3d80499d	0.062640406
143	0xbd975056	-0.0738837
144	0x3d700229	0.05859581
145	0x3d81d25b	0.0633895
146	0xbcb4cad0	-0.022069365
147	0xbd23f41b	-0.04002772
148	0x3d7798bf	0.060448404
149	0x3cfa2a82	0.030537847
150	0x3c77817d	0.015106556
151	0xbcd2e213	-0.025742566
152	0xbd69d3a5	-0.057086606
153	0x3c02a806	0.00797463
154	0x3ca2d2f7	0.019875987
155	0xbbd8b322	-0.006613151
156	0x3cbd6822	0.023120943
157	0xbc9954f7	-0.018717272
158	0x3d034608	0.03204921
159	0x3d843b7c	0.06456658
160	0xbca8fd10	-0.020628482
161	0x3d827d09	0.06371505
162	0x3d8b7431	0.06809271
163	0x3ce5f71d	0.028071934
164	0xbd57d0b9	-0.052689288
165	0x3cdbc14e	0.026825573
166	0x3d8b6279	0.068058915
167	0xbcc3e571	-0.023913117
168	0xbcdbca93	-0.026829993
169	0x3c06bab7	0.008223227
170	0x3d19af87	0.03752091
171	0xbd03abc5	-0.032146234
172	0xbd3355c3	-0.04378296
173	0xbc6027d6	-0.013681373
174	0x3d69fb5c	0.05712448
175	0xb9812538	-0.00024632527
176	0x3d86a6da	0.06574793
177	0xbcae10e3	-0.021248287
178	0xbc639b46	-0.013892001
179	0x3ce926f6	0.02846096
180	0xbda93e75	-0.08263866
181	0x3cb2f337	0.02184449
182	0x3d5a6396	0.05331763
183	0xbd7978c1	-0.060906176
184	0xbd8195f0	-0.063274264
185	0xbd5131e6	-0.051072977
186	0xbdab8461	-0.08374859
187	0x3c9151a8	0.017739132
188	0x3d0ed21e	0.034868352
189	0xbd6ec3fe	-0.05829238
190	0xbd5c53a4	-0.053790703
191	0x3cf45203	0.029824262
192	0xbda76390	-0.08173287
193	0x3d7e69bf	0.062112566
194	0x3cb85136	0.022499662
195	0x3acac149	0.001546898
196	0x3d8b97a9	0.06816036
197	0xbd6d8c03	-0.057994854
198	0xbccc265c	-0.024920635
199	0xbced19f6	-0.028943043
200	0xbda275b5	-0.07932607
201	0x3d5df846	0.05419185
202	0xbc21e07e	-0.009880183
203	0xbda1f2be	-0.079076275
204	0xbb02c28f	-0.0019952392
205	0xbd0a3004	-0.033737198
206	0x3ba92ba5	0.0051626735
207	0xbcd6811f	-0.026184617
208	0xbd878726	-0.066175744
209	0xbc8e711e	-0.017387923
210	0xbced8322	-0.028993193
211	0xbd63e181	-0.05563498
212	0xbccb8225	-0.024842331
213	0xbdacffaf	-0.08447205
214	0xbd4a01bb	-0.049318057
215	0x3d2e3289	0.042528663
216	0x3d891e6c	0.06695256
217	0xbcc554d6	-0.024088304
218	0x3d831154	0.063997895
219	0x3d3789d1	0.044809166
220	0xbd88a8a3	-0.0667279
221	0xbcaf8708	-0.021426693
222	0x3b2897a1	0.0025725143
223	0xbd751103	-0.059830677
224	0xbcd2fe61	-0.025756063
225	0x3cca25c5	0.024676213
226	0x3b96d4aa	0.0046029883
227	0x3b216fc3	0.0024633266
228	0x3d5a1e13	0.053251337
229	0xbcc5c6e5	-0.024142692
230	0x3d202ed4	0.03910716
231	0xbc6c552d	-0.014424604
232	0x3d519293	0.051165175
233	0x3d576385	0.052585144
234	0xbda840a8	-0.08215457
235	0x3d853694	0.065045506
236	0x3d4c2aba	0.049845435
237	0xbb8e4fd9	-0.0043430147
238	0xbbe4d82a	-0.0069837766
239	0x3cbfe106	0.02342273
240	0xbd8a634b	-0.0675722
241	0xbc827e32	-0.015929315
242	0xbd574c5d	-0.05256306
243	0x3d331247	0.043718603
244	0x3d7b531f	0.061358567
245	0x3d20263a	0.039098956
246	0xbc39c505	-0.011338477
247	0x3cd9330a	0.026513595
248	0x3d2fa225	0.042879242
249	0xbd927bc1	-0.071525104
250	0x3d6a16b9	0.057150576
251	0xbd9d89b7	-0.07692283
252	0x3d23aae4	0.039957896
253	0x3d40ffac	0.047118828
254	0xbdac1e42	-0.08404209
255	0xbd9bcb77	-0.07607167

bias f4 [84]
0	0x3d7b5993	0.06136472
1	0xbd8050f0	-0.062654376
2	0x3bb2b1e2	0.005453334
3	0x3d4ac2d7	0.04950222
4	0x3d14499c	0.036203012
5	0xbbba33cb	-0.0056824437
6	0x3c253e56	0.010085663
7	0xbd590bc7	-0.052989747
8	0x3cc10294	0.0235608
9	0x3d3cbf3c	0.046080813
10	0xbd78e72a	-0.06076733
11	0x3cb083d8	0.021547243
12	0xbd88432c	-0.06653437
13	0xbc102f61	-0.0088003585
14	0xbab539ab	-0.001382639
15	0x3da55a1b	0.08073827
16	0x3d36740d	0.04454427
17	0xbd36e19d	-0.044648755
18	0xbd4d1c5e	-0.05007588
19	0x3d5bf4ec	0.053700373
20	0x3d29c548	0.041447908
21	0x3d505aa8	0.050867707
22	0xbcb7e756	-0.022449177
23	0x3d144c30	0.03620547
24	0x3d02e7b5	0.031959254
25	0xbda84f3b	-0.08218237
26	0x3d826a60	0.06367946
27	0x3ccb268f	0.02479866
28	0xbd5a4d14	-0.053296164
29	0x3cbebe19	0.023284005
30	0xbd71f225	-0.059068818
31	0x3d114d15	0.0354739
32	0x3d082310	0.033236563
33	0xbd2b19b8	-0.041772574
34	0x3d278de2	0.040906794
35	0x3d223313	0.03959949
36	0xbd605483	-0.054768097
37	0x3d1998b1	0.037499133
38	0x3d224f5e	0.03962647
39	0xbd64e2ce	-0.05588036
40	0xbc84bd87	-0.016203655
41	0x3d091aad	0.033472706
42	0xbb4f406b	-0.003162409
43	0x3d9bb236	0.076023504
44	0xbd3ca892	-0.0460592
45	0xbd0514c7	-0.032490518
46	0x3bfaf8e4	0.0076590646
47	0xbbcd2332	-0.006260299
48	0xbd243443	-0.040088903
49	0xbdad7e22	-0.084713235
50	0x3d243b3f	0.040095564
51	0xbd96079a	-0.07325669
52	0xbc5a80ce	-0.0133363735
53	0x3c293894	0.010328431
54	0xbd84a7a0	-0.064772844
55	0x3d8094d3	0.06278386
56	0x3cf7e2d6	0.030259531
57	0xbd65f895	-0.05614527
58	0x3cd4b307	0.025964273
59	0xbd6173ba	-0.055042006
60	0xbcd9bdf7	-0.02657984
61	0xbd9fb7c6	-0.07798724
62	0xbbdefd83	-0.0068051233
63	0xbcbf226d	-0.023331845
64	0x3d9286c6	0.07154612
65	0xbc7cfd8f	-0.015441312
66	0x3cdf22d3	0.027238285
67	0xbd5dada6	-0.054120682
68	0xbd8862f2	-0.06659497
69	0xbd30c24b	-0.043154042
70	0x3b26a78c	0.0025429456
71	0x3c21fd98	0.009887122
72	0x3c9f9504	0.019480236
73	0xbccb7fd4	-0.024841227
74	0xbdacd714	-0.084394604
75	0xbce02f57	-0.027366323
76	0xbd2a336d	-0.04155295
77	0xbcc2dc43	-0.02378667
78	0x3d9405d0	0.07227671
79	0xbcbd17a4	-0.023082562
80	0xbd9b7845	-0.07591299
81	0xbcae003d	-0.021240348
82	0xbd576009	-0.05258182
83	0xbd203575	-0.03911348

weight f4 [84, 84]
0	0x3dbbf67f	0.09177875
1	0xbde9ca89	-0.11415584
2	0xbd8db806	-0.06919865
3	0x3d031842	0.032005556
4	0x3db8abd4	0.090171486
5	0xbc397632	-0.011319684
6	0x3d5b2a9e	0.05350744
7	0xbd48e338	-0.049044818
8	0x3d4de53e	0.05026745
9	0xbdafdbec	-0.08586869
10	0xbcb7f446	-0.022455346
11	0xbd94fa6a	-0.07274325
12	0x3d5e117d	0.054215897
13	0x3b62674b	0.003454643
14	0xbdbec8b0	-0.09315622
15	0xba292f01	-0.00064538425
16	0xbd8c6950	-0.06856024
17	0xbd07b609	-0.033132587
18	0xbd001ded	-0.03127854
19	0xbd7a523b	-0.061113577
20	0x3cfbfce5	0.030760238
21	0xbcb7bb2c	-0.022428118
22	0x3cdf4ee6	0.027259301
23	0x3de143a1	0.10999227
24	0x3c926f92	0.017875466
25	0x3d9517a4	0.072799
26	0x3df5beee	0.119993076
27	0xbdcc3c65	-0.09972457
28	0x3cdc7607	0.026911749
29	0x3d036b64	0.032084838
30	0x3d99ce29	0.07510025
31	0x3da97e5e	0.08276056
32	0xbdbd7e14	-0.09252563
33	0x3d2a274a	0.041541375
34	0xbd574e88	-0.052565128
35	0xbc52e8a6	-0.0128728505
36	0xbd7b1ccf	-0.06130677
37	0x3bc693e0	0.0060601085
38	0x3c4a5c4f	0.01235111
39	0x3dbe2e61	0.0928619
40	0xbd92b821	-0.07164026
41	0x3d274869	0.04084054
42	0x3b8afe93	0.0042417734
43	0x3cdd7bc2	0.027036551
44	0xbc26d842	-0.010183396
45	0x3c67bd09	0.014144191
46	0x3c4c654c	0.012475323
47	0x3d95673e	0.072950825
48	0xbc880bff	-0.016607283
49	0xbcd22bde	-0.025655683
50	0x3d240cf5	0.04005142
51	0x3d41c2cf	0.047304925
52	0x3d81596a	0.063158825
53	0x3d8183b4	0.063239485
54	0x3d02d2b9	0.031939242
55	0xbdac6d2d	-0.08419261
56	0x3ceafa7c	0.028683893
57	0x3dc458e8	0.0958727
58	0xbda03653	-0.078228615
59	0x3c6a56e5	0.014302944
60	0x3cd199e1	0.02558607
61	0x3b9d64ed	0.004803291
62	0x3c31ddd0	0.010856107
63	0x3a37499f	0.00069918664
64	0x3ca1a470	0.01973173
65	0x3d87fd7e	0.06640147
66	0x3d88ee4c	0.066860765
67	0x3d279859	0.040916774
68	0x3d96ff1c	0.07372877
69	0x3d29a93f	0.04142117
70	0xbd74a994	-0.059732035
71	0xbd1b47cb	-0.037910264
72	0x3d72b1fc	0.05925177
73	0x3cb8d74e	0.022563603
74	0x3da4dbf0	0.08049762
75	0xbd006223	-0.03134359
76	0x3d49dc56	0.049282394
77	0xbc4281a7	-0.011871732
78	0xbd7da185	-0.061921615
79	0xbcb2f5ef	-0.021845786
80	0xbd025555	-0.03181966
81	0xbc636d9f	-0.013881116
82	0xbcc55931	-0.024090381
83	0xbc3cfe32	-0.011535214
84	0x3da0259d	0.07819674
85	0xbd351a6b	-0.044214647
86	0x3d83d0ba	0.06436296
87	0xbdabe47c	-0.08393189
88	0x3b0874b4	0.0020821514
89	0x3d8fe511	0.07026113
90	0xbd829345	-0.06375746
91	0xbdbe3745	-0.092878856
92	0x3cbbecdd	0.022940094
93	0xbdb0b432	-0.086281195
94	0xbc5076cb	-0.012723635
95	0x3d99604d	0.07489071
96	0x3dd8db81	0.10588742
97	0xbd4be98f	-0.049783286
98	0xbdbd81e0	-0.09253287
99	0x3dd292a4	0.10281876
100	0xbc220a11	-0.009890095
101	0x3da6d5f0	0.08146274
102	0xbd62b2d3	-0.05534632
103	0x3dd834af	0.105569236
104	0xbda99cd2	-0.08281864
105	0xbd8c2254	-0.06842485
106	0xbda1e863	-0.079056524
107	0xbd976d7c	-0.07393929
108	0xbc5be1f2	-0.013420569
109	0xbd6e19fb	-0.058130246
110	0xbe089672	-0.1333864
111	0x3d175e79	0.03695533
112	0xbd83efeb	-0.06442245
113	0xbd84e40e	-0.064888105
114	0xbd56f2ad	-0.052477527
115	0xbb88b8f8	-0.0041724406
116	0x3d151ff7	0.036407437
117	0x3db41402	0.08792879
118	0xbd9c42d7	-0.07629936
119	0xbd615025	-0.055008072
120	0xbcec6b77	-0.028859837
121	0xbdc5e34d	-0.09662495
122	0xbd779f14	-0.060454443
123	0x3ddb3c37	0.107048444
124	0x3b9b9316	0.0047477586
125	0xbdc7b546	-0.09751372
126	0xbdaca074	-0.084290415
127	0xbd4b503f	-0.049637076
128	0xbda300eb	-0.079591595
129	0xbd8b7393	-0.068091534
130	0x3d8acee1	0.0677774
131	0xbcdfb24e	-0.027306702
132	0xbd15bece	-0.03655892
133	0xbc86a6f6	-0.016437035
134	0x3d96f796	0.07371442
135	0xbd60f191	-0.054917876
136	0xbc8bf122	-0.017082755
137	0x3d21096f	0.039315637
138	0x3d984813	0.07435622
139	0xbd40099a	-0.046884157
140	0xbd035ef8	-0.03207299
141	0x3ddd8f40	0.108183384
142	0x3dad9f29	0.08477623
143	0xbdab9ed5	-0.08379904
144	0xbcb647d0	-0.02225104
145	0xbda8b3cc	-0.082374185
146	0x3d73dc20	0.0595361
147	0x3d54c5e9	0.051946554
148	0xbdbb9dda	-0.09160967
149	0x3d6e2f78	0.05815074
150	0x3d5cf8b4	0.05394812
151	0x3c399293	0.01132645
152	0xbd9ad84a	-0.07560785
153	0x3d9214a9	0.07132847
154	0xbc1c9641	-0.009557308
155	0xbd59b7cb	-0.053153794
156	0xbddc9f58	-0.1077258
157	0x3cb64dd7	0.022253914
158	0x3cc7b2a5	0.024377177
159	0x3d22385e	0.039604537
160	0xbd01f74d	-0.031729985
161	0x3c05c1f3	0.008163917
162	0x3b9a3dbb	0.004707066
163	0xbda27f3c	-0.07934424
164	0xbd92003f	-0.07128953
165	0xbdc6f70e	-0.09715091
166	0x3c783520	0.015149385
167	0x3c6cc053	0.014450151
168	0xbd8e0553	-0.06934609
169	0x3d4c5825	0.04988875
170	0x3dc79f73	0.097472094
171	0xbdacbbed	-0.084342815
172	0x3d21dfc2	0.039520033
173	0xbd52db14	-0.05147846
174	0xbbd7f116	-0.006590019
175	0xbcf7fb45	-0.030271182
176	0xbda4f4f6	-0.08054535
177	0x3ddbd6a5	0.107342996
178	0xbd520e2b	-0.051283043
179	0x3df18b5f	0.11794161
180	0xbd835cde	-0.064141974
181	0x3dd2c925	0.102922715
182	0xbdec3696	-0.11533849
183	0x3a4d2e7e	0.0007827057
184	0xbd8f5382	-0.0699835
185	0xbdca5888	-0.09880167
186	0xbcdef32e	-0.027215566
187	0xbd0d867f	-0.034552094
188	0x3d91808f	0.07104599
189	0x3cf421b5	0.029801229
190	0xba30fb40	-0.00067513064
191	0x3c0c7ea8	0.008575119
192	0xbc4d7f99	-0.012542629
193	0x3cd48afa	0.025945175
194	0x3ce706a4	0.028201409
195	0xbd83ea5d	-0.064411856
196	0x3d6fdc21	0.05855954
197	0xbdeffc98	-0.117181
198	0x39eba595	0.0004494606
199	0xbd751f16	-0.0598441
200	0xbd99166b	-0.07474979
201	0x3a161012	0.00057244406
202	0x3c9b8b34	0.018987276
203	0xbdcb5515	-0.099283375
204	0x3d1d7d9d	0.038449872
205	0x3d3a45da	0.045476772
206	0xbe07b65a	-0.13253155
207	0x3d858930	0.06520307
208	0x3d779d07	0.060452487
209	0xbd2ec644	-0.04266955
210	0xbdea9a62	-0.114552274
211	0x3d81782e	0.063217506
212	0xbcbb283c	-0.022846334
213	0x3d527771	0.05138344
214	0xbc653e77	-0.013991944
215	0xbdc18a1c	-0.094501704
216	0x3c1bc3d2	0.009507136
217	0x3d10075b	0.035163265
218	0x3d8d07a6	0.068862244
219	0xbd886047	-0.066589884
220	0xbd237c1b	-0.039913278
221	0x3cd22e00	0.0256567
222	0xbdcfd684	-0.101483375
223	0x3dab3c62	0.083611265
224	0xbd5dd5bd	-0.054158915
225	0x3d96086b	0.07325824
226	0x3d8f099e	0.06984256
227	0x3ce0c23f	0.027436374
228	0xbdc3a060	-0.095520735
229	0xbd542a89	-0.051798377
230	0xbda3182b	-0.07963594
231	0xbd3c1b6c	-0.04592459
232	0xbb87f7ea	-0.0041494267
233	0xbcdb15f0	-0.026743859
234	0x3d9d3fbd	0.07678173
235	0xbd902d43	-0.07039883
236	0xbd8138ca	-0.0630966
237	0xbdba0f42	-0.090849414
238	0x3c959762	0.018260662
239	0xbd78648b	-0.06064276
240	0xbd97eb88	-0.07417971
241	0x3de385e9	0.11109526
242	0xbda5cd72	-0.08095826
243	0x3d0e90e9	0.034806166
244	0x3dbe965f	0.09306025
245	0x3cae84b6	0.021303516
246	0xbd56790e	-0.05236154
247	0xbd706a7e	-0.05869531
248	0xbd89e22a	-0.067325905
249	0xbd6e6162	-0.05819834
250	0xbde121e6	-0.10992794
251	0x3dc41aae	0.09575401
252	0xbc652b11	-0.013987319
253	0x3d4bbe0a	0.049741782
254	0x3d1c9cf6	0.038235627
255	0xbd0dfd16	-0.03466519

bias f4 [84]
0	0xbce24c46	-0.02762426
1	0xbcd0ff97	-0.0255125
2	0x3b15c70d	0.002285424
3	0xbdafe40a	-0.08588417
4	0x3c26fb3a	0.010191733
5	0xbd117347	-0.035510328
6	0x3dd9c32e	0.10632931
7	0xbdf8d7b1	-0.12150515
8	0x3d17d976	0.03707262
9	0x3c844dc4	0.016150363
10	0xbc3c2c88	-0.011485226
11	0xbd639e22	-0.05557073
12	0xbc836ecb	-0.016044041
13	0xbdc257e6	-0.094894215
14	0xbda3f099	-0.08004875
15	0x3dd6219a	0.10455628
16	0x3d8b628b	0.06805905
17	0xbd607e86	-0.054808162
18	0xbd514a67	-0.051096346
19	0x3d7c86ac	0.06165187
20	0x3ca6df2d	0.02037009
21	0x3d0a47c4	0.033759847
22	0xbdadbb60	-0.084830046
23	0xbac32a32	-0.0014889895
24	0xbd97f477	-0.07419675
25	0x3de9078c	0.113783926
26	0xbdc0b823	-0.09410121
27	0xbdc9bd7f	-0.09850597
28	0xbcff902d	-0.031196678
29	0x3d831eef	0.064023845
30	0x3da7ed6a	0.0819958
31	0xbd4b7f02	-0.04968167
32	0x3d0eac97	0.034832563
33	0xbd74259d	-0.059606183
34	0xbd7fc7f0	-0.062446535
35	0x3dd43276	0.10361187
36	0x3d8cab46	0.06868605
37	0x3d8fdd96	0.07024686
38	0x3c7b2ae0	0.015330046
39	0xbd5c930a	-0.053851165
40	0x3cfd4971	0.030918809
41	0x3e01f31d	0.12690397
42	0xbdc56377	-0.09638112
43	0x3c9da42e	0.019243326
44	0xbde85e81	-0.1134615
45	0x3d86a16f	0.0657376
46	0xbd223e18	-0.03961
47	0x3caca7e9	0.02107616
48	0xbcc30fd2	-0.023811255
49	0x3d47feb2	0.04882688
50	0xbdcfcc4c	-0.101463884
51	0xbdd6088c	-0.10450849
52	0xbdb757d6	-0.089523
53	0xbd90a620	-0.07062936
54	0x3c731225	0.014835869
55	0x3dac8a48	0.084248126
56	0x3d3726d4	0.044714764
57	0xbda198c9	-0.078904696
58	0x3dab3b12	0.08360876
59	0x3b9d4279	0.004799184
60	0xbd3ff893	-0.04686792
61	0x3d95aef0	0.07308757
62	0xbd5dfa1c	-0.0541936
63	0xbce5b952	-0.02804247
64	0x3d6d4cc8	0.057934552
65	0x3d103986	0.03521111
66	0x3dff9a19	0.12480564
67	0x3c8b9eaf	0.01704344
68	0xbdf3e122	-0.11908175
69	0x3c8e664f	0.017382769
70	0xbd114981	-0.03547049
71	0x3d2be5a6	0.041967057
72	0xbd89ba06	-0.06724934
73	0xbcce9ec6	-0.025222193
74	0x3d83b859	0.06431646
75	0x3d323451	0.043506924
76	0x3c3cbba5	0.011519347
77	0xbd8b9d05	-0.068170585
78	0xbdc98abe	-0.09840916
79	0xbdcc291e	-0.0996878
80	0xbdccf3b3	-0.100074194
81	0x3df077c0	0.117415905
82	0xbd6e6f6b	-0.058211725
83	0xbc9decba	-0.01927792

weight f4 [42, 84]
0	0xbda8ff56	-0.082518265
1	0xbd910044	-0.07080129
2	0xbd423c1a	-0.0474206
3	0xbd69eaab	-0.057108562
4	0x3cd784d6	0.026308458
5	0xbdb3b572	-0.08774842
6	0x3de36bf6	0.11104576
7	0xbd3ab02f	-0.045578178
8	0x3ded3982	0.11583234
9	0x3dae44a6	0.085091874
10	0xbd814541	-0.06312037
11	0xbd64924f	-0.055803593
12	0x3c0e307d	0.008678553
13	0x3dcde0dc	0.10052654
14	0x3d183b8c	0.037166163
15	0xbd880f75	-0.06643573
16	0xbd25b7f7	-0.040458646
17	0xbd8f25c1	-0.06989623
18	0xbcc844bd	-0.02444684
19	0x3d001df2	0.031278558
20	0x3d845d9b	0.06463166
21	0xbd753710	-0.059866965
22	0xbd884e99	-0.06655616
23	0xbd0f716f	-0.035020288
24	0xbc8696e3	-0.01642937
25	0xbc6240f0	-0.013809428
26	0x3d87b255	0.06625811
27	0x3dad5ada	0.08464594
28	0xbdac1052	-0.0840155
29	0xbdd6acdd	-0.1048219
30	0xbd6668cb	-0.056252282
31	0x3c91c0b8	0.01779209
32	0xbd711011	-0.058853213
33	0xbd0a78aa	-0.03380648
34	0xbbe08407	-0.0068516764
35	0xbd6bba98	-0.057550997
36	0x3c7e143c	0.015507754
37	0x3dc1e70d	0.094678976
38	0xbd1b6185	-0.0379348
39	0x3d52aff3	0.05143733
40	0x3ce12d3e	0.027487393
41	0x3db72b65	0.08943824
42	0x3da55924	0.08073643
43	0x3c3bf440	0.011471808
44	0xbc162bf3	-0.009165752
45	0x3d0a8619	0.03381929
46	0xbd60e7fb	-0.054908734
47	0xbb138418	-0.0022509154
48	0xbd9c44db	-0.07630321
49	0xbd24d375	-0.040240724
50	0x3dae6d34	0.085169226
51	0xbdbcf40a	-0.09226234
52	0xbc8e89d9	-0.017399715
53	0x3dbb1668	0.09135133
54	0x3dba775f	0.091047995
55	0xbdcd198e	-0.1001464
56	0x3d6bc321	0.057559136
57	0xbd21b598	-0.039479822
58	0x3d177c9b	0.036984067
59	0xbd5e8971	-0.054330293
60	0xbd647c95	-0.055782873
61	0xbd63099f	-0.055429097
62	0xbd6a11b2	-0.05714578
63	0x3dc66e27	0.09688979
64	0x3d0edc93	0.034878325
65	0x3d751610	0.059835494
66	0xbdd1aba8	-0.10237819
67	0x3da6458c	0.08118734
68	0x3ccbbee9	0.024871306
69	0x3da1de28	0.07903701
70	0xbd329df6	-0.043607675
71	0xbdbe35a5	-0.09287576
72	0xbd9c1aff	-0.076223366
73	0xbd8c0d31	-0.068384536
74	0x3ce7fee4	0.028319784
75	0x3d7ea1a3	0.062165868
76	0xbdd725c9	-0.10505254
77	0x3dd9d868	0.10636979
78	0x3d2b775d	0.04186188
79	0xbd0f867e	-0.03504037
80	0xbcaa131b	-0.020761063
81	0xbcd9d89a	-0.026592541
82	0x3b9ebc37	0.0048442143
83	0xbd259a14	-0.040430143
84	0x3b267afc	0.0025402894
85	0x3dbafbce	0.09130059
86	0xbc4d21eb	-0.012520294
87	0xbd89f6fd	-0.067365624
88	0xbc9dd916	-0.019268554
89	0xbcd7fd13	-0.026365792
90	0xbd838e73	-0.064236544
91	0xbdd88e27	-0.105739884
92	0x3d961406	0.07328038
93	0x3d92fcc2	0.07177116
94	0x3dcb1763	0.0991657
95	0xbd070b91	-0.032970015
96	0xbce505a6	-0.027956795
97	0x3d0c0d72	0.03419251
98	0x3d19b8bd	0.037529696
99	0xbdbacbbb	-0.0912089
100	0x3d296ee5	0.041365523
101	0xbdbd149c	-0.092324466
102	0x3d26d127	0.040726807
103	0xbd7d84a7	-0.061894085
104	0xbc43583b	-0.011922891
105	0xbd66ccb3	-0.05634756
106	0xbdb7ab30	-0.08968198
107	0xbd744a16	-0.059640966
108	0xbddc511b	-0.10757657
109	0x3dd270ef	0.102754466
110	0xbdd8deb3	-0.105893515
111	0xbbc6dda8	-0.006068904
112	0x3daec53d	0.08533714
113	0x3cb71357	0.02234809
114	0xbdb96b0a	-0.09053619
115	0x3d2ec07d	0.04266404
116	0x3c1f998e	0.0097412
117	0xbd5fe47f	-0.05466127
118	0xbd957c39	-0.07299084
119	0x3d33bf8e	0.043883853
120	0xbd803a93	-0.06261172
121	0xbdb07193	-0.086154126
122	0xbd9401c5	-0.072269
123	0xbca0953b	-0.019602409
124	0x3ce6a91c	0.02815681
125	0xbd386a27	-0.04502311
126	0x3d92a807	0.07160955
127	0x3d486cd1	0.0489319
128	0x3dacea3c	0.08443114
129	0x3df3dec7	0.11907726
130	0xbd93eaa6	-0.0722249
131	0xbbe7d32a	-0.0070747333
132	0x3d9d5ab9	0.076833196
133	0xbdbad528	-0.091226876
134	0x3d6ef70a	0.058341064
135	0xbdbafbab	-0.09130033
136	0x3b817460	0.0039506406
137	0x3c8db034	0.017295934
138	0x3d4617cf	0.04836255
139	0xbdc39222	-0.09549357
140	0xbd8d603a	-0.069031194
141	0xbdb41c06	-0.087944075
142	0x3c2346ef	0.009965642
143	0xbd38b9d0	-0.04509908
144	0x3cd81f00	0.02638197
145	0x3dc9f2c2	0.098607555
146	0xbd5b4b2b	-0.053538483
147	0x3d2549fd	0.040353764
148	0xbd50ca05	-0.05097391
149	0xbdc532b1	-0.09628809
150	0x3d123c82	0.035702236
151	0xbdab15c5	-0.083537616
152	0x3d60e26e	0.05490344
153	0xbd6f46d0	-0.05841714
154	0x3dab8b98	0.08376235
155	0xbdc9bb6d	-0.09850202
156	0xbd20887a	-0.039192654
157	0xbdc3f0ff	-0.09567451
158	0xbd3fc387	-0.04681733
159	0xbdea87f4	-0.11451712
160	0x3c128d19	0.008944773
161	0x3c3c6075	0.0114976065
162	0xbdea2a24	-0.11433819
163	0x3d9cdb32	0.07658996
164	0x3d2ecbcc	0.042674825
165	0xbd2c80c1	-0.042114977
166	0x3daf5e72	0.08562936
167	0xbcd83e6e	-0.026396956
168	0xbd42f300	-0.047595024
169	0xbcc9a060	-0.024612606
170	0x3d9e8950	0.07741034
171	0xbdc97e22	-0.09838511
172	0x3dbaa0ac	0.09112677
173	0xbd3846a0	-0.04498923
174	0x3db124f5	0.08649627
175	0xbdc27c68	-0.09496385
176	0xbd01b821	-0.03166974
177	0xbdf34cb5	-0.11879865
178	0x3b0f7e99	0.0021895526
179	0x3d3753bd	0.044757593
180	0xbdc3501f	-0.09536766
181	0x3d783006	0.060592674
182	0xbcdfbc3b	-0.027311435
183	0x3d645fbd	0.055755366
184	0x3d607684	0.054800525
185	0xbd39552f	-0.045247253
186	0x3ca17bb5	0.019712308
187	0x3de38e34	0.111111075
188	0xbdd5fc53	-0.10448518
189	0x3dcf22cc	0.10114059
190	0xbd8e0b93	-0.06935801
191	0x3cd0783b	0.025447955
192	0x3d3cbeb5	0.04608031
193	0xbcc12c39	-0.023580657
194	0xbdac2acd	-0.08406601
195	0xbd6ea39b	-0.058261495
196	0xbca68b9a	-0.02033024
197	0xbd4e40bc	-0.050354704
198	0xbdcb1089	-0.09915263
199	0x3de7d62b	0.11320146
200	0x3c8c7522	0.017145697
201	0x3d111f5d	0.0354303
202	0x3cdcc26b	0.026948174
203	0x3d95b478	0.07309812
204	0x3da3ad80	0.07992077
205	0xbdafc958	-0.08583325
206	0x3db1ba8a	0.08678158
207	0xbda9a36c	-0.082831234
208	0x3ca11a7d	0.01966595
209	0x3da4deaa	0.08050282
210	0x3d06b751	0.032889668
211	0xbd0a2b06	-0.033732437
212	0xbc767751	-0.015043096
213	0xbdb03f58	-0.08605832
214	0x3dd4400a	0.10363777
215	0x3c0563bf	0.008141457
216	0x3d8a9aac	0.067677826
217	0xbc151bc5	-0.009100859
218	0xbd1e9cf8	-0.038723916
219	0xbcfde31c	-0.030992083
220	0x3ce2c1cb	0.027680298
221	0xbd9a2609	-0.07526786
222	0x3c926d9e	0.017874535
223	0x3dd40662	0.1035278
224	0xbdec2ec8	-0.1153236
225	0xbd8ca279	-0.06866927
226	0xbdc3eae6	-0.09566288
227	0xbd9d7987	-0.07689195
228	0x3d39534d	0.045245457
229	0xbd4fca76	-0.05073019
230	0xb89c611b	-7.456747e-05
231	0x3c889326	0.016671728
232	0xbdaffc06	-0.085929915
233	0x3dea1504	0.1142979
234	0x3db19d4c	0.0867258
235	0xbd2efd9c	-0.04272233
236	0x3da0cf4e	0.0785204
237	0xbd88bf5f	-0.06677126
238	0x3c16d4b9	0.0092059905
239	0xbd70fbf4	-0.05883403
240	0x3d80d5ea	0.06290801
241	0xbdae402a	-0.08508332
242	0x3d37d457	0.044880237
243	0xbd23c6d9	-0.039984558
244	0x3d55b645	0.05217578
245	0xbde0406d	-0.10949788
246	0x3dc18b0d	0.0945035
247	0x3cedcabe	0.02902734
248	0x3d2c1676	0.042013608
249	0xbd4d5237	-0.050127234
250	0x3d894a3c	0.06703612
251	0x3d22dede	0.039763324
252	0x3d93cca4	0.072167665
253	0x3d6f12fc	0.058367714
254	0xbda8a400	-0.082344055
255	0xbd553c7a	-0.052059628

bias f4 [42]
0	0xbcbb43c9	-0.02285947
1	0xbd8c6925	-0.06855992
2	0xbdc0666c	-0.093945354
3	0x3d6616ab	0.05617396
4	0xbc26b488	-0.010174878
5	0x3ad474e8	0.0016209157
6	0xbbd09dd5	-0.0063664713
7	0x3d93195a	0.0718257
8	0x3d2bd497	0.04195079
9	0xbd3c8282	-0.0460229
10	0x3c1f247d	0.009713289
11	0x3d277766	0.04088535
12	0xbdd13703	-0.10215571
13	0xbdb02107	-0.086000495
14	0x3d31c1ea	0.04339782
15	0x3d7d63f6	0.06186291
16	0x3d0373d5	0.032092888
17	0x3dad1be4	0.08452585
18	0x3d56dc45	0.05245616
19	0xbd78063a	-0.060552813
20	0xbd815b59	-0.06316251
21	0x3d95e8a7	0.073197655
22	0xbd9f773c	-0.07786414
23	0x3d218a45	0.039438505
24	0x3d71944d	0.05897932
25	0xbd08e083	-0.033417236
26	0xbb8eb439	-0.0043549803
27	0xbc888d7c	-0.016669028
28	0x3d8e9e21	0.069637544
29	0xbdba2102	-0.09088327
30	0x3dca4c76	0.09877865
31	0x3d082774	0.03324075
32	0xbd6030a5	-0.05473389
33	0xb9a20b8e	-0.00030907657
34	0x3d87d75c	0.066328734
35	0xbcb3f8fe	-0.021969315
36	0xbba1d36b	-0.004938533
37	0xbd6f3a2a	-0.05840508
38	0x3d76b23a	0.060228564
39	0xbdc1e8b9	-0.094682164
40	0xbdaac4bd	-0.08338306
41	0x3d597cbb	0.053097468

weight f4 [1, 42]
0	0x39ef7793	0.00045674722
1	0xbd04a152	-0.03238041
2	0x3d1cbd82	0.038266666
3	0x3d86a852	0.06575073
4	0xb9538eb1	-0.00020175685
5	0xbde88d38	-0.1135506
6	0x3dcfb003	0.101409934
7	0xbdca7bc9	-0.098868914
8	0xbc7360e8	-0.014854647
9	0xbd95e67d	-0.07319353
10	0x3cf1964d	0.029490614
11	0x3de5423e	0.11194275
12	0x3d9f7277	0.07785504
13	0xb981884f	-0.00024706355
14	0xbd880914	-0.066423565
15	0x3a21f923	0.0006178787
16	0xbde20f13	-0.110380314
17	0xbca3a9a3	-0.01997835
18	0x3dc8905a	0.09793158
19	0xbdc5f179	-0.09665198
20	0xbc7157d5	-0.014730413
21	0x38abc1f4	8.190042e-05
22	0x3c2395b9	0.009984427
23	0xb9392f23	-0.00017660535
24	0x3d8c13ef	0.068397395
25	0x3dc9aa31	0.098469146
26	0xbc1dcd12	-0.009631412
27	0xbd197f59	-0.037474964
28	0xbd13cc23	-0.03608335
29	0x3dc4ae76	0.09603588
30	0xbbe56f91	-0.007001825
31	0x3a626de6	0.0008637592
32	0x3dd3ce3f	0.10342073
33	0x3d70766d	0.05870669
34	0xbdb5bec8	-0.08874279
35	0xb8b8c84b	-8.811111e-05
36	0x3e0f7867	0.14010774
37	0xbd5b59be	-0.05355238
38	0xb96d78e8	-0.00022647122
39	0x3972451c	0.00023104664
40	0xbcf0c58d	-0.029391075
41	0xbd7a892f	-0.061165985
