ModelUnpredictability/one_thousand_brains/predictor_51.model (torch_old, 109395 bytes, 7 tensors)

weight f4 [84, 168]
000000 35 5b 8e 3c 92 fb 1e 3d f1 bc 3a bd 0f a5 85 3d
       0.017377475 0.038814135 -0.045590345 0.06525623
000010 e4 e2 e4 3c bd a9 2e bb a2 a2 3a bd 6a 62 7e bd
       0.027940221 -0.0026651465 -0.045565255 -0.062105574
000020 9f 3e fe bb 56 67 88 3d 7f e4 41 bd fe 56 36 3c
       -0.00775893 0.06660335 -0.04733705 0.011129139
000030 e6 2f 29 bd 4a 72 12 3d 44 ac ab 3c 87 45 9f 3c
       -0.041305445 0.035753526 0.020956166 0.019442333
000040 29 20 3b 3d 6f fb c8 bc a5 6c 48 3d f5 f7 dc 3c
       0.045684967 -0.024533955 0.048931736 0.026973704
000050 28 01 94 3b a2 7f 85 bd 6d 4d 97 3d 8d 20 af bc
       0.0045167394 -0.06518485 0.07387815 -0.021377826
000060 4b b8 a0 bb f0 be f2 3c 61 f3 0a bd b5 0e c7 3b
       -0.004904782 0.029632062 -0.03392351 0.0060747513
000070 e1 05 8e 3d 6c 03 b7 bc 71 93 d8 bc d7 31 91 3c
       0.06934715 -0.022340499 -0.026437493 0.01772396
000080 9e 5a c6 3c 36 af 04 3a 89 4b 0f bd 2e f7 2d 3d
       0.024213132 0.0005061509 -0.034984145 0.042472057
000090 42 74 64 bc 6f 3c bc 3c 12 6b 7a bd 83 68 d9 3c
       -0.013943734 0.022978036 -0.061137266 0.026539093
0000a0 c4 b6 6f 3d 88 f8 aa 3c 67 29 56 bd 80 72 96 3c
       0.05852391 0.020870462 -0.052285578 0.018365145
0000b0 fd f0 35 bd cc 36 5e 3d b7 d5 02 bd 02 80 50 bd
       -0.044419277 0.054251477 -0.031942096 -0.050903328
0000c0 3e 07 8f 3c bd 97 6c bd 72 4f 33 3d 83 9f 75 bd
       0.017459508 -0.057761896 0.043776937 -0.059966575
0000d0 22 81 1e bd 0f 91 93 3d 13 12 9c bb 42 2b 4a 3d
       -0.03869737 0.07205402 -0.004762897 0.04935766
0000e0 20 36 13 bd 45 b2 4a 3d 57 7f c1 bc e6 10 16 3d
       -0.03594029 0.049486417 -0.02362029 0.03663721
0000f0 e3 ad 6f 3d 32 b7 2a 3d ab 76 62 3c e8 97 72 3d
       0.05851544 0.041678615 0.013822238 0.0592269
000100 ee f3 d1 bc c9 f5 9c bd c0 47 4f 3d cc de 19 3d
       -0.02562901 -0.07664067 0.050605536 0.03756599
000110 17 37 bd bc 05 dc 65 bd a4 e1 1d bd d1 d0 04 bd
       -0.023097558 -0.05611803 -0.038545266 -0.032425705
000120 54 62 7f bd bc c8 59 bd 8f 62 03 3d d2 96 e0 3c
       -0.062349632 -0.05316995 0.032076415 0.027415667
000130 70 75 97 bd 5d ef 19 bc 62 2c 29 bd e4 fe 40 bc
       -0.07395446 -0.009395448 -0.041302092 -0.011779521
000140 80 41 24 bd e1 7c 8d bc 4f 59 e3 3c fa 81 54 3d
       -0.04010153 -0.017271461 0.027752547 0.051881768
000150 97 aa 63 bd 50 aa 2b 3d d7 ab 4d bd 74 e8 10 3d
       -0.05558261 0.04191047 -0.050212707 0.035377935
000160 f8 23 ea bc 0d b6 76 3c 64 e8 40 bd 25 e1 81 bd
       -0.028581604 0.015058053 -0.047096625 -0.06341771
000170 b4 08 0a bd 45 2a 5a 3d 81 e2 ac 3c 66 78 53 bc
       -0.033699706 0.053262968 0.0211041 -0.012907123
000180 7a ea 70 bc 6e b7 cb 3c e4 55 7a bd b7 c0 f7 3c
       -0.014704341 0.02486774 -0.061117068 0.03024326
000190 8c a4 5d 3c 04 72 d2 bc 5e 1c 5d 3d 39 ad 50 3d
       0.013528001 -0.025689133 0.05398213 0.050946448
0001a0 d3 37 4a bb 51 e7 95 3d 02 c9 b3 3c 83 99 bf bc
       -0.0030856028 0.07319511 0.021946434 -0.02338863
0001b0 e0 5d c1 3c 01 fb 92 bd 9d fb a8 bc e0 cb 8e 3d
       0.023604333 -0.071767814 -0.020627791 0.0697248
0001c0 6a e8 7b bd 0d 60 27 bd 7b 93 15 3c 03 75 04 bc
       -0.061500944 -0.040863086 0.0091294 -0.008084538
0001d0 2d 97 7a 3d d5 49 91 3d 3e 8b 88 3c 14 e4 8e bd
       0.06117933 0.070941605 0.016667958 -0.06977096
0001e0 0a dd 8d 3d ae 22 d7 bb f7 28 36 3d f2 7c a6 bc
       0.069269255 -0.0065654134 0.04447266 -0.02032325
0001f0 77 d9 a8 3c 3d 4e 96 bd 32 d2 01 3d aa af 6c bb
       0.020611508 -0.073391415 0.0316946 -0.0036115446
000200 c6 17 1f 3d 9f a2 66 3c f3 7b 62 bd 2d 3c 69 3d
       0.03884103 0.014076858 -0.05529399 0.056942154
000210 0a 4f ed 3b 65 1d 82 3c 81 c8 d4 3a 0b 0d 42 3d
       0.007242088 0.015883157 0.0016234071 0.04737572
000220 da eb 6f bd c1 7a 87 bc 89 d8 43 3c aa b3 69 3c
       -0.058574535 -0.016538026 0.0119534815 0.014264027
000230 29 df 43 bd e5 cb 88 bd 5b af 43 bd e0 8e 64 bd
       -0.047820244 -0.06679515 -0.047774654 -0.05580032
000240 9c cb 25 3d 49 05 1a 3d b2 67 c2 3c 0f 11 94 bd
       0.04047738 0.037602697 0.023731086 -0.07229816
000250 77 90 1a 3d 8f 97 4c bd db 91 6e bd b7 5d 2c bd
       0.03773543 -0.049949225 -0.058244567 -0.04208156
000260 20 a5 7a bb 60 c7 49 bd 26 ec 47 3d b2 cb 63 bd
       -0.0038245395 -0.049262404 0.048809193 -0.05561418
000270 38 82 9c 3d 89 4d af bc a4 ed 22 bc 37 f9 40 3b
       0.07642025 -0.021399276 -0.009944353 0.0029445419
000280 41 42 84 3c 56 a0 c6 bc d9 e9 01 bd 14 00 28 3d
       0.016144874 -0.024246376 -0.031717155 0.0410157
000290 77 de 3b bd 0e 0c 96 3d bf 14 95 3d 8a fd 6d 3d
       -0.045866456 0.07326518 0.07279348 0.05810312
0002a0 c0 f2 af 3c 80 68 1f bd 10 90 7a 3c 07 82 15 bd
       0.021478057 -0.03891802 0.015293136 -0.036500957
0002b0 62 1d 48 3d 01 4e 14 bd ca 02 0c 3d 5e 1f 9d 3d
       0.048856147 -0.036207203 0.034182347 0.076719984
0002c0 5b 8e 41 3d e7 3e 83 bc 61 ef 74 3c e9 15 87 bd
       0.0472549 -0.016021205 0.0149496505 -0.06595976
0002d0 d5 90 73 3d ae fc a1 3d a8 4f 39 3d c9 0f 78 bd
       0.059464294 0.07909523 0.04524198 -0.06056193
0002e0 1a 11 97 3c 9b 32 dc bc 77 70 03 3d 27 78 45 3d
       0.018440772 -0.0268796 0.032089677 0.04821029
0002f0 75 ff 94 3b 43 ef 06 3c b6 4a 58 bd 68 df 8f 3d
       0.0045470544 0.008235755 -0.052805625 0.07025033
000300 e2 26 88 bd bc 64 88 bb 89 60 84 bd ea e4 24 3d
       -0.06648041 -0.004162399 -0.06463725 0.040257372
000310 fd ea d4 bc 4f 6e f4 bc 63 2d 6e 3d a0 40 15 bd
       -0.025990957 -0.029837755 0.058148753 -0.036438584
000320 ac 8e 81 3d 97 96 f3 bc 99 97 45 bd 82 7a b5 3b
       0.063260406 -0.029734893 -0.048240278 0.0055382857
000330 ba 31 70 3d 4f 47 2a 3d 58 56 56 3d 03 dd 92 bd
       0.058641173 0.04157191 0.052328438 -0.07171061
000340 8b 36 28 3d 67 1d 7f 3b 6c e9 46 3d c9 4a 16 bd
       0.04106764 0.0038927437 0.048562452 -0.036692414
000350 0a d3 ff 3c 3b 5d d6 bc 7f b3 12 bb 01 25 77 bc
       0.031228561 -0.026167503 -0.002238482 -0.015084506
000360 3d 26 9c 3d 5f 8e d7 3c a2 00 25 bd 26 99 21 bd
       0.07624481 0.026313005 -0.040283807 -0.039452694
000370 be 32 75 bd 22 02 85 bc 63 c2 79 3d df 1f 73 3d
       -0.059862845 -0.016236369 0.060976397 0.059356567
000380 64 5e 8b 3d 70 ac 91 3d 74 13 37 bd 72 7d f5 bc
       0.06805113 0.07112968 -0.044696286 -0.029967044
000390 5a 56 ec 3c c3 15 42 bc cd 8e 79 bd e9 95 9f bc
       0.02884977 -0.011846009 -0.0609272 -0.019480662
0003a0 a7 bd 47 bc 90 96 43 bd 22 71 4e 3d 28 89 c8 bc
       -0.012191213 -0.04775101 0.05040086 -0.024479464
0003b0 9e d2 14 bc db 99 4f 3c 73 ba 60 3d b5 2a 10 bd
       -0.009083418 0.012670959 0.05486531 -0.03519698
0003c0 9e a6 1b 3c e7 56 00 3d fb 3a 4e bd 29 84 c3 3c
       0.009500174 0.031332877 -0.050349217 0.02386673
0003d0 8a 42 be bc 00 09 cf bc 0e b6 2b 3d 36 62 6c bd
       -0.023225088 -0.025272846 0.041921668 -0.05771085
0003e0 7b 2d 47 bd c1 81 8d 3d f9 10 15 3d 1b 54 99 3c
       -0.048627358 0.06909514 0.03639314 0.018716862
0003f0 00 f6 0d 3c 79 65 8b 3d 1e 51 49 bd 4f 2f 5f bc
       0.008664608 0.06806464 -0.049149625 -0.013622119

bias f4 [84]
000000 5d 5c 46 3d bf 80 51 bd de 1d 9e 3d 9d 56 f7 3c
       0.04842793 -0.051148172 0.077205405 0.030192668
000010 0c 28 48 3c 8b 45 6b 3c 38 90 19 bd 69 0c 03 3d
       0.012216579 0.014359842 -0.037491053 0.031994257
000020 4d 74 20 3c 3f e0 d5 3c cd 59 31 3d 72 de 92 3b
       0.009793353 0.026107905 0.04329853 0.004482084
000030 84 a1 8d 3d 34 c2 29 bd 2d ec 86 bd 4d 58 8f bd
       0.06915572 -0.041444972 -0.06588016 -0.06999264
000040 dc c1 88 3d 5e 67 63 3c b0 3d 48 bd 25 06 71 3c
       0.06677601 0.013879625 -0.048886955 0.014710938
000050 e2 44 cd 3c 67 75 81 3c 99 7f 74 3d cb 59 1c 3d
       0.02505726 0.015803052 0.059692 0.03817157
000060 30 29 76 3d cc 51 9e 3c 51 9f 78 bd c1 c3 59 bd
       0.060097873 0.019326113 -0.06069881 -0.0531652
000070 fe 06 68 3d b9 83 fd bc 6b 29 31 3c f9 ca 15 bb
       0.056647293 -0.0309466 0.0108130975 -0.0022856577
000080 54 e1 a5 3c 2d df 2e bd 30 ca 90 bd 4b 68 8d 3d
       0.020249046 -0.042693306 -0.07069814 0.06904658
000090 2f 70 59 bc 34 19 84 bc ed 3a 88 3d a9 2d d0 bc
       -0.013271376 -0.016125299 0.06651864 -0.025412397
0000a0 ff 85 7f 3d 71 df 96 3d c4 49 40 3d b8 71 1c 3d
       0.062383648 0.07366837 0.04694535 0.03819439
0000b0 63 07 1a bd 1f 89 93 bd f5 3b 0d 3c 16 dd 12 bd
       -0.0376047 -0.07203888 0.008620252 -0.035855375
0000c0 6a 63 18 3c e7 5d c8 bc 8c 46 57 3d 59 03 d0 bc
       0.009301046 -0.024458839 0.052557513 -0.025392221
0000d0 4f ee 8c bb e9 08 92 3b 8e ae 07 3d 22 73 ff bb
       -0.0043008695 0.0044566286 0.033125453 -0.0077957073
0000e0 db 56 22 bd bc cb a9 bc 81 74 2c bd a3 25 8c bb
       -0.039633613 -0.020727031 -0.042103294 -0.0042769476
0000f0 a3 5c 89 bd 2c 31 75 3d bc e1 fc 3c e5 cb 91 3d
       -0.06707122 0.059861347 0.030869357 0.07118968
000100 96 90 2b bd 52 a0 9a 3c 4f 0a 94 bc 23 ad 6f bd
       -0.041885935 0.018875275 -0.018071322 -0.058514725
000110 73 84 69 3d 36 85 27 3d a0 dc 70 3d e5 f2 1e 3c
       0.05701108 0.040898524 0.058804154 0.009701465
000120 76 75 d1 bb d5 6b fe bc 41 c4 82 3b c2 9d 97 bd
       -0.0063921763 -0.031057278 0.0039906804 -0.07403137
000130 d2 6c 0a 3d e2 f3 ff 3b 5e cc 9c 3c e0 5a 70 3d
       0.033795185 0.0078110555 0.019140419 0.058680415
000140 b7 ca 1b bd d5 49 e0 3c 8e 55 de 3c 56 ae 63 3d
       -0.03803512 0.027378956 0.027140405 0.05558618

weight f4 [84, 84]
000000 4c 4b 6c 3d 4b 1e 80 bd cc 22 c2 39 c5 68 7c bd
       0.057688996 -0.06255778 0.0003702849 -0.061623354
000010 00 53 af bd 06 0d d2 3d 7e fb e8 3d 85 b8 d0 3c
       -0.08560753 0.1025639 0.11376093 0.02547861
000020 b9 78 fa bc f6 03 ab 3d eb 7c 59 ba 22 1a 53 bc
       -0.030575143 0.08350365 -0.00082965073 -0.0128846485
000030 a2 16 2b 3d 95 be 27 bd f9 2e 78 3d 0c 1d c1 bb
       0.04176963 -0.040953238 0.06059167 -0.0058933552
000040 f2 d4 1b bd 43 4f 79 3d b0 73 af bd 50 24 79 bd
       -0.038044877 0.060866605 -0.085669875 -0.060825646
000050 7b 56 84 bd 1b d1 05 be 08 f1 f8 3c 5d 24 22 bd
       -0.06461807 -0.13068049 0.03038837 -0.03958546
000060 0f 84 9f 3d 56 66 ec bd e4 ce 54 3d 84 90 a1 bd
       0.0778886 -0.115429565 0.05195512 -0.07888892
000070 f3 28 f8 3c c1 1b e9 bc 91 60 64 3d d7 62 d3 bd
       0.030292964 -0.028455617 0.055756155 -0.103215866
000080 9a e4 b8 bd 46 f6 8b 3d 6e 95 70 3d 4c cc 3e bd
       -0.09027977 0.06834082 0.058736257 -0.04658155
000090 9f 5b 9d bc 37 47 09 3d da 10 12 3d 83 8a 18 3d
       -0.019208727 0.03351518 0.035660602 0.03724147
0000a0 99 23 6a 3d 27 80 5b bc 39 37 a5 3c af b6 d4 bd
       0.057162855 -0.013397253 0.020167934 -0.10386407
0000b0 cd 35 5a bd 04 cb aa bd 73 5a e1 3d b2 70 a1 3c
       -0.053273965 -0.083395034 0.1100358 0.019707058
0000c0 56 25 75 bd f2 70 80 bc 71 e4 08 3d 27 8c a8 bd
       -0.05985006 -0.015678857 0.033420984 -0.08229857
0000d0 37 a0 22 3d 9a 73 3e bd 60 c7 8d bd d0 be d2 bd
       0.039703574 -0.046496965 -0.069227934 -0.10290301
0000e0 56 e4 5a bc 31 06 9a 39 d7 f0 57 3d 39 c3 bf bc
       -0.013360104 0.00029377782 0.052719917 -0.02340852
0000f0 92 05 96 3d 0e 15 28 bc b5 1b 51 bd 8c 86 50 bd
       0.07325281 -0.010258926 -0.051051814 -0.050909564
000100 d5 67 fc bb 1d 9f 8a 3d 6d a5 ac bd ca 5a c8 3d
       -0.0077028074 0.0676863 -0.0842999 0.09782942
000110 14 3a fd 3c cb 9a f7 bd 4e 63 79 3c 4d 35 99 bd
       0.030911483 -0.12090071 0.01522143 -0.074808694
000120 09 2a 38 3d 4b 1b a0 bb 9d 5c 36 3c de 8f ac bd
       0.044961963 -0.004886066 0.011130479 -0.08425878
000130 ed 48 76 bd 4d af 20 3d b8 13 9b bd cd 05 e6 3d
       -0.06012814 0.03922968 -0.075721204 0.11231575
000140 b0 39 a2 3c 6b 07 cb 3d db ad c0 bc d6 34 37 bd
       0.019802898 0.09913524 -0.0235204 -0.044728123
000150 84 58 4b bd c7 54 c1 3d 84 e8 c0 bd 92 3f 9f 3d
       -0.049644962 0.09439998 -0.09419349 0.07775797
000160 3c 2b 0e ba 9b e2 c2 bd db 61 22 3d 2c be c0 bd
       -0.00054233125 -0.09515878 0.039644103 -0.094112724
000170 19 87 ba bd 8f 90 ba bd 92 4c 42 bd a5 ab ad bd
       -0.09107799 -0.091096036 -0.047436304 -0.08480004
000180 60 ad 8c bd 06 dd 31 3d 5e 1b 20 bc 83 f3 ba bd
       -0.06869006 0.043423675 -0.00977215 -0.091284774
000190 97 78 9c 3d 32 f0 aa bd 21 00 87 3d ab 0b a0 bd
       0.07640188 -0.08346595 0.065918215 -0.078147255
0001a0 33 68 13 3d 01 6f 19 bc fb e8 69 bd 56 d8 6b 3d
       0.035988044 -0.009364844 -0.057106953 0.05757936
0001b0 f4 01 53 bd c0 0e a3 bc f1 f0 59 bd ae d3 52 3d
       -0.051515535 -0.019904494 -0.053208295 0.051471405
0001c0 62 b1 2f 3d 89 0e 8c bd a0 e1 5a bd 69 28 4a bd
       0.042893775 -0.0683871 -0.05343783 -0.049354944
0001d0 a8 c4 77 3d 0d a6 e0 3d 39 49 c2 3d 53 8a 65 bd
       0.06049028 0.10969172 0.09486622 -0.05604012
0001e0 77 1d 88 3d c7 48 98 bd f4 89 21 bd 5a 34 03 3d
       0.06646245 -0.07435756 -0.039438203 0.03203235
0001f0 a3 4f d5 bc af b3 fe 3c c5 21 38 bd ed f3 04 3e
       -0.02603895 0.03109154 -0.04495408 0.12983675
000200 15 3a 8b bd 0e a1 d1 3d 54 9f 53 3d 62 d3 59 bd
       -0.06798188 0.10235797 0.05166562 -0.053180106
000210 9f ff 06 bd a9 b7 13 3d cb 6b 14 bb a7 be c9 bc
       -0.032958623 0.036063824 -0.0022647257 -0.024627043
000220 d9 6a 6e 3b 3e 42 9f bd db 3c c8 ba cf c5 54 bd
       0.0036379604 -0.077763066 -0.0015276925 -0.051946457
000230 36 80 61 3d cb 52 8d 3c ac 20 a5 bc fb 9e 67 3d
       0.055053912 0.017251393 -0.02015718 0.0565481
000240 71 51 32 bd 57 5e d8 3d b0 c2 20 bd 9c cd d7 3c
       -0.0435347 0.10564869 -0.03924817 0.02634316
000250 f9 67 b1 3d e1 e2 1d 3d fd 29 2d 3c 2d df ec bd
       0.08662409 0.038546447 0.010569093 -0.11566005
000260 0f b3 49 3d 7d d7 ac 3c f8 67 8a bd 9f 44 a1 3d
       0.04924303 0.021098847 -0.06758112 0.078744166
000270 f8 cf bf 3d 10 53 17 3c c8 41 8b bd 97 2c 48 bb
       0.09365839 0.009236112 -0.06799656 -0.0030544156
000280 76 30 9a bd 99 86 a3 bc bf 8d 0d bd e3 a9 3d bd
       -0.075287744 -0.019961642 -0.034559008 -0.046304595
000290 2b 7e f4 bc c4 6f 4e 3d a7 8b 96 3d 9f 11 44 bd
       -0.029845318 0.050399557 0.07350855 -0.047868367
0002a0 17 6a ae bb 1f e0 fd bb 19 e4 b8 bd 34 41 b5 bd
       -0.0053227055 -0.0077476646 -0.09027881 -0.08850327
0002b0 71 cf 56 bc 7f 49 b8 3c ac 29 fe bc fb e7 af bd
       -0.013110981 0.022495983 -0.03102573 -0.08589169
0002c0 0a 6c bf 3d 2e 14 0f 3d 73 60 2c 3d c7 45 5d 3d
       0.09346779 0.034931354 0.04208417 0.054021623
0002d0 51 26 5a 3d 4e 2a cb 3d c6 90 1c 3d 2f 96 8d 3d
       0.053259198 0.09920178 0.038224004 0.06913411
0002e0 87 d9 9c bd b4 ea 95 bd ff 2c 81 bd de 76 63 3c
       -0.076586775 -0.07320157 -0.063074104 0.013883321
0002f0 40 03 06 3c ec af 72 3d 00 2a 80 3d 73 a5 8f 3d
       0.008179486 0.059249803 0.06258011 0.07013979
000300 ba ee b1 bd dc 6b b4 bc 14 5a 7d 3c df 60 17 3d
       -0.086881116 -0.022024088 0.015463371 0.036957618
000310 8b e5 f1 b9 a2 a9 25 3c 12 89 e6 3c 56 9c 51 3d
       -0.00046138125 0.010111244 0.028141532 0.051174484
000320 b9 f4 0b bd c9 8c 9b 3d 90 92 a4 3c 80 2d 73 3d
       -0.034168933 0.07595212 0.020089418 0.059369564
000330 f1 54 98 bd 84 f1 cc 3c 9a ff 02 bd bb a9 4b bd
       -0.07438076 0.025017507 -0.031982042 -0.049722414
000340 d5 97 9c bd 30 4d cc 3c 55 7f d0 bd d7 7c 94 bd
       -0.07646147 0.02493915 -0.10180537 -0.07250374
000350 81 a6 a8 bc 35 e7 6a 3b 89 8d 67 3d e9 f8 98 3b
       -0.020587208 0.0035843377 0.056531463 0.0046683443
000360 28 b0 b8 bc 43 bb 36 bd 6a 1a bd 3d 02 8e 83 3d
       -0.022544935 -0.04461218 0.09233554 0.0642357
000370 4b 34 ac bc 67 5e 19 3d f0 05 c9 3d 7b 3a b0 bd
       -0.021021029 0.037443545 0.098155856 -0.08604904
000380 d2 68 cb bd 86 17 a9 bd d4 0b 8d 3d 07 1b b7 bd
       -0.09932102 -0.0825644 0.06887022 -0.08940702
000390 ef ab 8c bd b8 46 05 3d 03 cf aa 3d 41 ae 07 3c
       -0.06868731 0.032538146 0.083402656 0.008281291
0003a0 70 ac a3 bd b2 7b ae bd 3a 4e 92 3d 80 ed 31 bd
       -0.07991874 -0.08519687 0.07143827 -0.04343939
0003b0 ca 86 c7 bd a1 f6 bb 3d 31 54 3a 3d 6e d7 a4 3d
       -0.09742506 0.091779 0.045490447 0.080489025
0003c0 85 30 b8 bd f0 4e f8 3b 0a b7 20 3d 7a 48 8d bd
       -0.08993629 0.0075777695 0.03923706 -0.068985894
0003d0 53 a1 66 3d 16 a2 c7 bd 53 ca c0 bd 12 ba 2d 3d
       0.056306195 -0.09747712 -0.0941359 0.04241378
0003e0 dd 81 8f bd ef 16 b4 bd 5d 2b 88 3c dd fd 99 bc
       -0.07007191 -0.08793437 0.01662224 -0.01879781
0003f0 af 26 b6 3c 59 d6 d1 3d ed 5f 72 bd 83 1b 00 3d
       0.022235243 0.10245962 -0.059173513 0.031276237

bias f4 [84]
000000 c1 a5 9e 3d c0 81 c5 bd ad 3f cb bc 94 6a a3 bd
       0.07746459 -0.096438885 -0.024810636 -0.079793125
000010 bc 98 05 3d b9 77 59 3c 2d a1 65 bd 6a 46 f3 bc
       0.032616362 0.013273173 -0.056061912 -0.029696662
000020 0f 44 08 bd 49 af 62 bc 49 01 c9 3d 5e fd c8 3d
       -0.03326803 -0.013835737 0.09814698 0.09813951
000030 08 92 ae 3d 22 0e b0 bd e9 74 32 bd ad 4a ab bc
       0.08523947 -0.085964456 -0.043568525 -0.020909632
000040 5f 16 ad bd 7f 59 06 3d 5d 5a 8f bc 98 61 c1 3d
       -0.084515326 0.032800194 -0.017499143 0.09442443
000050 1f 12 5f bd 21 df b7 3d f1 0b c4 3d 0b 4c 9b 3d
       -0.05446064 0.08978105 0.0957259 0.075828634
000060 27 51 35 3c a6 10 83 bd f8 a3 81 3d b1 72 51 3d
       0.0110667115 -0.0639966 0.06330103 0.05113477
000070 9f f8 be 3d ec 31 9d bd 06 3d 69 3c 61 20 9a bd
       0.093247645 -0.076755375 0.0142357405 -0.07525707
000080 be 32 6a 3d 45 d5 25 3d c5 81 9a bc a5 9d a1 bd
       0.057177298 0.040486593 -0.018860707 -0.078913964
000090 c4 a8 cf bd 7b bd 96 3d d4 55 4e bc 29 42 85 bc
       -0.10139611 0.07360359 -0.012593705 -0.0162669
0000a0 68 e5 c1 bd f2 86 8e bd 40 ed d0 3c 46 62 4a 3d
       -0.09467584 -0.069593325 0.025503755 0.049410127
0000b0 b3 c8 2e bd d3 29 ad bc 03 c0 b2 3d f9 51 b0 3c
       -0.04267187 -0.021138107 0.087280296 0.021523463
0000c0 fb f7 a5 3c 85 01 9e 3c d6 4d c5 3d 1a 59 8d bc
       0.020259848 0.019287834 0.09633987 -0.017254401
0000d0 8f 3d b1 bb 5c 9e 21 3d 0e b5 ab 3d 13 33 17 bc
       -0.0054089497 0.039457664 0.08384143 -0.009228486
0000e0 7d 88 b8 3d cf f3 78 3d 6d 5f f2 bc 53 c2 a1 3c
       0.09010408 0.06077939 -0.029586518 0.019745981
0000f0 75 0b 62 bc d9 91 92 bb df 68 3b 3d 2a 94 96 3d
       -0.013796677 -0.004472953 0.04575431 0.07352479
000100 ff 25 78 3d bb a4 c2 bc 81 27 ce 3d d8 8e 83 3d
       0.06058311 -0.02376019 0.100661285 0.0642373
000110 18 2f 5f 3d 5e ee 41 3d 8a 32 a1 3d ab ce 62 bd
       0.05448827 0.047346465 0.07870968 -0.055372875
000120 dc 65 85 bb 5b ab 23 3d 89 5b a8 bd c4 6c be 3d
       -0.0040709805 0.03995834 -0.08220584 0.09298089
000130 19 7e c0 bb a3 2e cf bd 60 61 15 3d ac ff a2 bd
       -0.005874407 -0.10116317 0.036469817 -0.07958922
000140 e5 c6 d2 3c d6 d8 00 3d b6 21 e6 bc 49 62 bf bd
       0.025729606 0.03145679 -0.028092247 -0.09344918

weight f4 [42, 84]
000000 75 18 99 3d 17 2b 3e 3d 0d a5 f1 3d 40 56 2c 3d
       0.07475368 0.046427812 0.11799059 0.042074442
000010 0f aa 3f bd 43 a0 85 3d a4 d1 63 b7 f3 08 d6 3c
       -0.04679304 0.06524708 -1.3579065e-05 0.026127314
000020 22 27 82 3d da 4b 95 bd 1b 8f f8 bd f6 a3 a4 bd
       0.0635512 -0.07289858 -0.1213667 -0.080390856
000030 fd e5 b6 bd ed 4c ea 3d c5 ec a2 3c bb 11 4a 3d
       -0.089305855 0.11440454 0.019888291 0.049333315
000040 f6 0c 49 3c 06 e5 ae bd 37 e3 2b 3b f6 b5 2c bd
       0.012271157 -0.085397765 0.002622796 -0.04216572
000050 3f 64 89 bd 16 19 cc 3c d6 2d e3 3a 7b de a0 bd
       -0.067085735 0.024914306 0.0017332386 -0.07854935
000060 69 05 f0 3b 06 db 1b 3d 83 38 08 bd 23 52 d2 bd
       0.0073248637 0.038050674 -0.03325702 -0.102695726
000070 a2 bb 6f bd 14 44 d9 3c 7a 42 71 3d 03 5d 65 3c
       -0.05852855 0.02652172 0.058901288 0.0139992265
000080 44 d0 ea bb 47 41 55 3d e1 6d 9c bd fb 14 ca bd
       -0.0071659405 0.052064206 -0.07638145 -0.09867283
000090 5c 53 a9 3d 48 9a 9b bd 19 3e d7 bd c2 f5 0b 3c
       0.08267853 -0.07597786 -0.10509891 0.00854248
0000a0 fc d2 32 bd 15 3c d4 3b 0a f8 5a bd 36 0d c1 3d
       -0.04365824 0.006476889 -0.053459205 0.09426348
0000b0 da f6 b6 3c c2 7d 98 3d 3f 58 1a 3d 17 e0 13 3d
       0.022334505 0.074458614 0.037681814 0.03610238
0000c0 75 b8 c0 3d f9 e4 d8 3d e1 60 3b 3d 0c 1e 2e bd
       0.094101824 0.10590548 0.045746688 -0.042509124
0000d0 01 b9 0b 3d 40 f3 d4 bc 92 a7 eb bd 7a 8b 8b bd
       0.03411198 -0.025994897 -0.11506571 -0.068137124
0000e0 9d f4 6a bb c3 aa 9a bb 7c b4 32 bb ac 5f d1 bd
       -0.0035851367 -0.0047200634 -0.0027268222 -0.10223326
0000f0 bd 5a 4c bc 96 47 11 bd cb 92 5b bd af e2 33 bd
       -0.012472806 -0.03546866 -0.05360679 -0.043917354
000100 86 38 44 3c 31 d3 b9 bd 82 c4 63 3c 13 05 64 3c
       0.011976367 -0.09073485 0.013901832 0.013917225
000110 77 5d fa 3c a0 c0 85 bb ca cc 89 3d 06 07 07 bd
       0.030562146 -0.0040818006 0.067285135 -0.032965682
000120 86 3f 1f bd d0 85 39 3d 13 1a b6 3c 9a 5f a2 3d
       -0.03887894 0.04529363 0.02222923 0.07928391
000130 c7 d0 89 3d f2 28 b0 bd c5 5f ed 3c a0 ea e1 bd
       0.06729274 -0.0860156 0.02897633 -0.11031079
000140 77 5b b2 bd 61 d2 ac 3d 34 36 d5 3c e7 d8 fc bc
       -0.08708852 0.08438564 0.026026823 -0.030865146
000150 93 f3 13 3d 58 90 c2 bd e7 3b eb bd f2 43 d4 3c
       0.036120962 -0.09500188 -0.11486035 0.025911305
000160 f6 ab bb 3c 21 67 d0 3d 68 ce b2 bd aa b2 c1 bd
       0.022909146 0.1017592 -0.08730775 -0.094579056
000170 a0 b4 9c 3c ea 16 68 3c c4 e4 01 bd 55 7f ae bd
       0.019129097 0.014165619 -0.03171231 -0.085203804
000180 9f 8b 9a 3d a5 97 9d 3d ee cf 96 bd 9c 70 49 3c
       0.07546162 0.076949395 -0.07363878 0.012294915
000190 22 68 6b bd d1 ac e1 bd a1 34 a9 3d 56 d9 00 3d
       -0.057472356 -0.1101929 0.08261991 0.031457268
0001a0 0d 4a cd 3a b1 74 b4 bc 43 05 79 bd eb 81 c6 3d
       0.0015662328 -0.022028299 -0.060796034 0.09692749
0001b0 d0 f1 c6 bd 5d 20 28 bd 59 7a 98 bb f7 56 a3 3c
       -0.09714091 -0.04104649 -0.004653257 0.019938929
0001c0 6f 4b b3 bb f8 63 0b 3d 00 3e de 3d 80 a5 3c 3c
       -0.005471639 0.034030885 0.10851669 0.011514068
0001d0 02 6a dd bd 14 61 ca 3d 67 fa 51 3d 65 3a d1 bd
       -0.10811235 0.098817974 0.051264193 -0.10216216
0001e0 7d 46 83 bd 6d 37 d3 3d 97 d0 df 3d 2e 2e 11 3d
       -0.06409929 0.10313306 0.10928457 0.03544443
0001f0 16 4d 0b bd 53 da 46 3d ab 6e 57 bd be 58 9f bc
       -0.03400906 0.048548054 -0.052595776 -0.019451495
000200 df 47 d9 3d 37 71 09 3c 8a 55 02 bd 06 e9 8d 3d
       0.106094114 0.008388809 -0.031819858 0.06929211
000210 c1 8f bb bd cb bf 36 3d f0 13 01 3d 66 3e c6 3b
       -0.09158278 0.0446165 0.031513155 0.006049919
000220 30 80 cc 3d f2 66 d2 bc 64 42 bb bd 17 08 3f 3b
       0.09985387 -0.025683854 -0.091435224 0.002914911
000230 1d cc a8 3d 37 ac a7 bd 9d 7e b7 3d b9 c2 c0 3d
       0.082420565 -0.08187144 0.089596964 0.094121404
000240 ec 18 93 bd 13 84 3e bd d5 6d d0 3d 87 fc 03 3d
       -0.07182488 -0.046512675 0.10177199 0.03222325
000250 4a c2 ab bd 62 39 dd 3d 37 2c a5 bc bc 65 80 3c
       -0.08386667 0.108019605 -0.020162685 0.01567351
000260 86 c7 23 bd 5b c1 83 bc 36 b5 ba 3d 1a 0c 8a 3d
       -0.039985202 -0.01608341 0.091165945 0.067405894
000270 8e 43 4f bd a8 66 d3 bd 1c 54 b5 bd cf 97 d5 bd
       -0.050601535 -0.103223145 -0.08853933 -0.10429346
000280 c9 e6 1d bd d1 cf 27 3b 60 ad a3 bd ee fa 89 bd
       -0.038550172 0.0025606046 -0.07992053 -0.06737314
000290 c5 7e 12 3d 7a 7f 8f bd e8 15 12 3d 51 4b 7e bd
       0.035765428 -0.07006736 0.035665423 -0.062083546
0002a0 5b 08 be bd dd aa a6 bd 7e 9c d7 ba 28 06 08 bc
       -0.092789374 -0.08138058 -0.0016449837 -0.008302249
0002b0 da 6e 17 bd bc 7d 02 3d 7a 88 40 3d e3 57 13 3d
       -0.03697095 0.03185819 0.047005154 0.035972487
0002c0 dd 68 a0 3d 8a fb 58 bb e2 aa 79 3d 0a 86 5b 3d
       0.07832501 -0.0033108913 0.060953982 0.053594626
0002d0 d7 39 97 3d 83 1f 4f bd 41 2b 62 3d f0 9c e9 bc
       0.07384079 -0.05056716 0.05521703 -0.028517216
0002e0 f8 3f 02 bd b1 76 6b 3d 04 f9 b3 3c 94 51 8f 3d
       -0.031799287 0.05748624 0.021969326 0.06997982
0002f0 57 d7 fa 3c 03 2a b9 3c 53 23 cf 3d 8e 57 a6 3d
       0.03062026 0.02260304 0.101141594 0.081221685
000300 52 75 d8 bd 87 68 52 3d a6 99 08 bd 54 5d 82 bd
       -0.10569252 0.051369216 -0.033349656 -0.06365457
000310 2d 4e ca bd d9 de e8 3c 67 12 74 bd 3f 0a f8 3d
       -0.09878192 0.028426575 -0.059587862 0.12111329
000320 5c a0 a4 bd 99 ad c6 3d 27 18 c0 3d 64 d4 46 3c
       -0.080383986 0.0970108 0.09379607 0.012135599
000330 9d 2c 1c 3d 74 fd 3b bd a0 4d 0b 3d 43 f7 39 3d
       0.038128484 -0.04589601 0.034009576 0.045401823
000340 36 1a 6f 3d b9 05 8a 3d aa 8d bb 3d ca fa de 3c
       0.058374606 0.06739373 0.0915788 0.027219195
000350 0b b7 ab 3d b5 88 d6 bc d0 fb ce bd a6 13 5e bd
       0.08384522 -0.026188234 -0.10106623 -0.054217957
000360 f9 79 5c 3d 27 53 59 bd b3 66 93 bd c5 00 f8 bc
       0.05382726 -0.053057816 -0.07197323 -0.030273804
000370 e1 8c 21 bd e6 66 be 3d e5 01 14 bd a4 4e 49 3d
       -0.039440993 0.0929697 -0.03613462 0.049147263
000380 4a fc 9e 3b 65 8f 0f bd 8b 7a 9f 3d 22 8c ca bd
       0.0048518525 -0.03504886 0.07787045 -0.098900095
000390 18 e1 b5 bd 72 b3 9f 3d ba dc 91 bd a4 3e 37 3d
       -0.08880824 0.07797898 -0.071221784 0.044737473
0003a0 ba 18 b4 3d 0d fe b5 bd a9 6c 99 bd f7 5e 6a bc
       0.08793779 -0.08886347 -0.074914284 -0.014304868
0003b0 ec fa e6 bd 00 d8 b5 3d 8f bb d0 bd eb 01 d5 3d
       -0.11278328 0.08879089 -0.10192024 0.104007564
0003c0 e2 70 b4 bc 77 8b e2 bd 60 8b de bd f6 39 13 3d
       -0.022026483 -0.11061757 -0.108664274 0.035943948
0003d0 b2 6e a1 bd 91 ad a3 3d 2e f6 97 3d 1a 18 f4 3c
       -0.078824416 0.079920895 0.07420002 0.029796649
0003e0 99 c2 bb bd 50 44 03 3b 49 1b 03 3d d6 b3 39 bd
       -0.09167976 0.002002973 0.032008443 -0.04533752
0003f0 03 58 4d 3d 5c 84 e7 3d 6a 3e 06 3d 01 d2 bc 3d
       0.050132763 0.113045424 0.032774366 0.092197426

bias f4 [42]
000000 b7 8c 0b bd af 75 d4 bc d8 2d 08 3c 71 f5 cc bd
       -0.034069743 -0.025935022 0.008311711 -0.10007752
000010 8b 1c 93 bd c2 d9 62 3d 87 27 af 3d 30 5a 6f bd
       -0.071831785 0.05538345 0.08552461 -0.05843562
000020 a6 05 c5 3d 86 6a 31 3d 63 5b 42 3d 41 64 af 3d
       0.09620218 0.04331448 0.047450434 0.08564044
000030 f1 c4 0d 3d 1b 37 53 3d 7b 14 dd 3d 45 38 e5 bc
       0.034611646 0.051566225 0.10794922 -0.027980933
000040 f6 77 d0 bd c8 54 00 3d fd 8f 40 3d 43 af 7a bd
       -0.10179131 0.031330854 0.047012318 -0.0612023
000050 d1 c6 ce bd 72 08 cd 3d c4 a5 bb bc 40 92 d1 bc
       -0.10096515 0.100113764 -0.022906192 -0.025582433
000060 ba b8 82 bd b7 d9 d0 bd 19 cf 65 bd aa c2 bd 3d
       -0.0638289 -0.10197776 -0.056105707 0.09265645
000070 ea 64 75 bd f4 06 44 bd d3 24 a1 bd 0a 99 66 3d
       -0.059910692 -0.047858194 -0.07868352 0.056298293
000080 c1 02 65 3d a3 9b 6d bd d6 bc 85 3d 8d bc d7 3d
       0.05591083 -0.058009755 0.06530158 0.1053401
000090 8e 82 ac 3c 18 ba c0 bd e1 fb 28 3d 4b e8 d4 3d
       0.021058347 -0.094104946 0.041255835 0.10395869
0000a0 15 90 2c 3d 58 c7 31 bd
       0.042129595 -0.043403

weight f4 [1, 42]
000000 88 54 e9 bc 92 f5 54 3c 07 4a a3 bd 6e 36 58 3d
       -0.02848269 0.012998002 -0.07973104 0.052786283
000010 c0 cf b1 bc 53 74 b3 bd 0a df 12 3e d8 28 ec bd
       -0.021705508 -0.087624215 0.14342895 -0.11531228
000020 c2 76 7f 3d c8 85 8c 3d b0 b5 30 bc 61 be 84 bd
       0.062369116 0.06861454 -0.010785505 -0.064816244
000030 34 f1 f3 3d 8d 3f 69 bd f5 7d e5 3d e4 52 37 3d
       0.1191124 -0.056945372 0.11205665 0.044756785
000040 aa 8d a0 3d 84 f5 9c bc da c2 0a be 43 0a 9f 3c
       0.0783952 -0.01916004 -0.13550892 0.019414073
000050 50 6e 11 bc d3 bb 98 bc e3 ab 8a bd 2a 21 ad bd
       -0.008876398 -0.018644249 -0.06771066 -0.08453591
000060 8b db 4a 3d 93 66 91 bc f0 41 7a 3d e0 83 0b 3e
       0.04952578 -0.017749107 0.06109804 0.13624525
000070 9e 6e 9b bd 0e 82 18 3d b0 5b e8 3d 4d 19 d4 3b
       -0.07589458 0.037233405 0.11345613 0.0064727427
000080 22 72 22 bd db db 4e bd 81 bc 80 3b 61 36 65 3d
       -0.039659627 -0.05050264 0.0039287214 0.055960063
000090 b8 05 c0 bd a7 fc c5 bd e7 ac d1 3d c3 cd 0b be
       -0.09376091 -0.0966733 0.10238057 -0.1365271
0000a0 04 6e 8c 3d b9 e2 92 3d
       0.06856921 0.0717215
