ModelUnpredictability/one_thousand_brains/predictor_143.model (torch_old, 109395 bytes, 7 tensors)

weight f4 [84, 168]
-0.0068804803 0.07004301 0.06700386 -0.02591656 -0.049612954 0.02130289 0.022264047 0.035079803
-0.03907539 0.047343023 0.012251139 -0.053909447 -0.012855396 0.06853269 0.025548782 -0.037363313
-0.0048849843 -0.034436215 0.0006572742 -0.02509616 0.021180585 -0.04427154 0.03695394 -0.010067051
-0.067190014 -0.01773937 -0.0457263 -0.06717923 0.033921886 -0.06613045 0.04953793 -0.0035351526
0.044507653 0.03584362 -0.015548065 -0.007147295 0.04828324 -0.0033407956 -0.02587577 0.023941208
-0.07859223 0.035574786 0.04178949 0.014506074 0.020087183 0.022744814 -0.06820981 0.057467304
0.005311446 0.046386246 -0.065873176 -0.0560562 -0.04980077 -0.029386578 0.05206641 -0.04313354
-0.014614203 0.050203856 -0.02651419 -0.047682855 -0.017812211 0.06983652 0.0062866234 0.022234166
0.020579485 -0.07512557 -0.0024120552 0.022207705 -0.047319252 0.041848663 -0.047094155 -0.05384342
-0.025931252 0.025583602 0.043908205 0.056585725 0.018018464 0.0077901445 0.05184674 0.0004536167
-0.012920231 0.058921095 -0.07626433 -0.06605125 -0.064912215 -0.053170685 0.009041584 -0.071360946
-0.026755292 0.035430074 0.07345311 0.036770087 0.039427646 -0.010601187 0.017707987 0.054867283
-0.04991746 0.01972598 -0.017575469 -0.028147755 -0.061975818 0.030206509 -0.016194072 0.05929992
0.038447108 -0.07457464 -0.05331592 0.024397826 0.029688492 -0.038701512 0.010284611 -0.071100086
-0.03291051 -0.06658628 -0.07307709 -0.035443425 0.063684024 0.021867014 -0.0437314 0.03595237
0.00016751597 0.020396756 0.069601 0.0067009907 0.007607763 0.014220528 -0.0509877 -0.0383039
0.00416413 0.0031517947 -0.057995364 -0.07605746 -0.03632628 0.061252005 0.024363868 0.017145187
0.050831728 0.016477771 0.010799728 0.016032495 -0.03396749 -0.002401227 0.002352869 -0.001990264
-0.06042925 0.020219017 0.0025429914 -0.024476083 -0.03876652 -0.0036968507 0.07348336 0.008512509
-0.018773457 0.018205209 -0.027054979 -0.00018828438 0.06679785 0.05062743 0.022908082 1.2479093e-05
0.022853954 0.06118815 -0.053930566 -0.0011610077 0.06550467 0.056425564 -0.065762974 0.035465233
0.017079892 0.04288794 -0.037787184 0.035569 -0.0026603017 -0.00767929 -0.015759042 0.035485536
0.034153655 -0.06354905 0.04421043 -0.058140423 -0.01890485 -0.025803596 -0.017022891 -0.0044353986
0.014248274 -0.07682177 0.048270207 0.05145372 -0.02661328 0.0030174123 -0.010095934 0.06485079
-0.030231787 -0.05648336 -0.029299892 -0.05225436 0.010140796 -0.04249576 -0.020177785 -0.06308136
0.03501875 0.06941034 0.017603975 0.005437555 -0.045561787 -0.035709035 0.05139824 -0.018034728
0.0029943404 0.03315716 -0.045852598 0.018686308 -0.014773016 0.0040906505 -0.022811832 -0.0090275165
-0.00786517 -0.028480522 0.05979545 0.047789674 -0.067115456 0.06733818 0.074520305 -0.056242995
0.04603745 0.026675204 0.06475998 0.04459961 -0.0021898756 0.057284106 0.0015826911 -0.07321594
0.046767507 0.06304157 -0.04560303 0.049702156 0.06620747 -0.04441214 0.0145878885 -0.074946284
0.021364503 0.04952455 0.024627779 0.017283611 0.0729614 0.02944073 -0.07152437 0.06230355
0.011763463 -0.017828943 -0.013787678 0.028792068 -0.030790353 0.029986188 0.0018564339 -0.04839254
00000000: a775 e1bb b672 8f3d 5239 893d f74e d4bc
00000010: f436 4bbd 6683 ae3c 1763 b63c d7af 0f3d
00000020: 840d 20bd c2ea 413d 00b9 483c 27d0 5cbd
00000030: 709f 52bc de5a 8c3d ae4b d13c 460a 19bd
00000040: 3812 a0bb fd0c 0dbd ed4c 2c3a 7696 cdbc
00000050: e882 ad3c 1356 35bd 045d 173d 46f0 24bc
00000060: eb9a 89bd 2852 91bc 804b 3bbd 4495 89bd
00000070: adf1 0a3d 676f 87bd 49e8 4a3d 05ae 67bb
00000080: a84d 363d c2d0 123d 50bd 7ebc db33 eabb
00000090: a6c4 453d 40f1 5abb 6cf9 d3bc 5a20 c43c
000000a0: f7f4 a0bd deb6 113d 752b 2b3d e2aa 6d3c
000000b0: e08d a43c 5553 ba3c 96b1 8bbd d662 6b3d
000000c0: a30b ae3b 81ff 3d3d 84e8 86bd 309b 65bd
000000d0: e4fb 4bbd 1fbc f0bc 9743 553d cbac 30bd
000000e0: 6970 6fbc 8fa2 4d3d 4934 d9bc 194f 43bd
000000f0: eaea 91bc 7306 8f3d 0500 ce3b 6d24 b63c
00000100: 4f96 a83c 6fdb 99bd 9213 1ebb efec b53c
00000110: d5d1 41bd 8169 2b3d cde5 40bd eb8a 5cbd
00000120: c76d d4bc b494 d13c 17d9 333d 6fc6 673d
00000130: 759b 933c 7844 ff3b 3f5d 543d 67d3 ed39
00000140: 60af 53bc 3f57 713d 7930 9cbd e145 87bd
00000150: b2f0 84bd 81c9 59bd 2723 143c b025 92bd
00000160: ea2d dbbc 201f 113d 966e 963d 3b9c 163d
00000170: e27e 213d 9ab0 2dbc 5710 913c 84bc 603d
00000180: 4076 4cbd 6198 a13c 6efa 8fbc 1f96 e6bc
00000190: 5bda 7dbd a473 f73c 6ea9 84bc 79e4 723d
000001a0: b77a 1d3d 97ba 98bd cb61 5abd f3dd c73c
000001b0: 4835 f33c 7a85 1ebd c980 283c ec9c 91bd
000001c0: 2ccd 06bd 635e 88bd 71a9 95bd 202d 11bd
000001d0: c56c 823d 7422 b33c b21f 33bd cb42 133d
000001e0: 3aa7 2f39 1917 a73c f88a 8e3d fc93 db3b
000001f0: 8b4a f93b 38fd 683c 7ad8 50bd 8de4 1cbd
00000200: 4173 883b 578e 4e3b 8c8c 6dbd 03c4 9bbd
00000210: deca 14bd 62e3 7a3d bc96 c73c 1074 8c3c
00000220: ee34 503d 64fc 863c 58f1 303c 9456 833c
00000230: 7f21 0bbd e75d 1dbb 9732 1a3b 176f 02bb
00000240: a984 77bd 5aa2 a53c 51a8 263b 1182 c8bc
00000250: a4c9 1ebd dd46 72bb 727e 963d 0d78 0b3c
00000260: cbca 99bc 1723 953c 67a2 ddbc 346e 45b9
00000270: 50cd 883d b55e 4f3d bba9 bb3c 4c5d 5137
00000280: 3738 bb3c 6da0 7a3d 4ce6 5cbd f42c 98ba
00000290: 5027 863d 7e1e 673d bdae 86bd fe43 113d
000002a0: 21eb 8b3c 44ab 2f3d bcc6 1abd cdb0 113d
000002b0: 7558 2ebb 8ea2 fbbb 1b19 81bc 4859 113d
000002c0: b4e4 0b3d 0126 82bd ff15 353d a724 6ebd
000002d0: 58de 9abc 1062 d3bc 9773 8bbc d256 91bb
000002e0: 9871 693c bb54 9dbd fbb6 453d 23c1 523d
000002f0: 1804 dabc c7bf 453b 6b69 25bc 7ed0 843d
00000300: a7a8 f7bc 185b 67bd 5406 f0bc ab08 56bd
00000310: 9525 263c 0910 2ebd e24b a5bc cd30 81bd
00000320: d26f 0f3d 0227 8e3d 3636 903c 842d b23b
00000330: ff9e 3abd a343 12bd f686 523d 91bd 93bc
00000340: b23c 443b cdcf 073d efcf 3bbd 0714 993c
00000350: 850a 72bc dd0a 863b e1df babc 26e8 13bc
00000360: eadc 00bc fc4f e9bc 13ec 743d 1bbf 433d
00000370: d473 89bd 9ae8 893d 1a9e 983d 0e5f 66bd
00000380: c491 3c3d f585 da3c e1a0 843d 15ae 363d
00000390: 0484 0fbb bda2 6a3d 4d72 cf3a 3df2 95bd
000003a0: 498f 3f3d f01b 813d 3eca 3abd 7d94 4b3d
000003b0: c897 873d 81e9 35bd 0a02 6f3c 707d 99bd
000003c0: 9c04 af3c 41da 4a3d 32c0 c93c 5c96 8d3c
000003d0: c96c 953d b02d f13c 5e7b 92bd 0232 7f3d
000003e0: 8abb 403c 010e 92bc b7e5 61bc 58dd eb3c
000003f0: 0d3c fcbc 98a5 f53c 9653 f33a 4237 46bd

bias f4 [84]
0.051060844 -0.06337733 0.004871806 0.0029527114 -0.026125208 -0.035751402 0.022100234 0.046878695
0.020360745 -0.032077655 0.0568307 0.034009416 -0.041405495 0.07541975 -0.047823977 0.011958423
-0.054875147 -0.057642408 -0.04955716 0.055137835 -0.048031263 0.06099968 0.015183385 0.056508284
-0.023076544 0.030348903 -0.01698738 0.0124850925 0.06886399 0.046491582 -0.011332117 -0.063246
0.03851327 0.042985864 -0.040428 0.07523479 -0.056437902 0.003791773 -0.011173777 -0.077944
-0.006956953 -0.05395117 -0.068302736 0.020282168 0.041188627 0.02657676 0.04177023 0.04693108
0.042395283 -0.058180783 -0.070353575 0.0010328245 0.019701084 0.021730196 0.02406732 0.048660602
0.06761222 0.028563594 -0.011015155 0.011265857 -0.022192227 -0.028351624 0.019613702 -0.038522415
-0.03825875 0.07218104 -0.053600144 0.0020920024 0.048479687 0.004036749 -0.049148824 -0.047037374
-0.07560071 0.026802523 0.069321856 -0.054067727 -0.017566912 -0.0689622 -0.030999977 -0.069642864
-0.017565431 -0.03641792 -0.04138868 -0.005091494
00000000: 2d25 513d f9cb 81bd aca3 9f3b 4782 413b
00000010: 8804 d6bc 1070 12bd 8d0b b53c e003 403d
00000020: 94cb a63c dc63 03bd 4fc7 683d 754d 0b3d
00000030: cf98 29bd ab75 9a3d 13e3 43bd 43ed 433c
00000040: c3c4 60bd 721a 6cbd 73fc 4abd 36d8 613d
00000050: 6ebc 44bd cdda 793d bcc3 783c 3b75 673d
00000060: 050b bdbc 439e f83c 1e29 8bbc 468e 4c3c
00000070: 9008 8d3d f56d 3e3d 58aa 39bc 1e87 81bd
00000080: 17c0 1d3d f211 303d d597 25bd b314 9a3d
00000090: 6e2b 67bd 657f 783b 3812 37bc 1ba1 9fbd
000000a0: 27f7 e3bb e7fb 5cbd 4ee2 8bbd ca26 a63c
000000b0: 68b5 283d 81b7 d93c 4317 2b3d ce3a 403d
000000c0: ada6 2d3d f94e 6ebd 8915 90bd d75f 873a
000000d0: 2b64 a13c 8603 b23c d428 c53c 5750 473d
000000e0: 4778 8a3d 33fe e93c e978 34bc 6e94 383c
000000f0: 79cc b5bc aa41 e8bc eaac a03c aec9 1dbd
00000100: 35b5 1cbd a7d3 933d d38b 5bbd fa19 093b
00000110: a392 463d b446 843b 4750 49bd 43aa 40bd
00000120: 8cd4 9abd f790 db3c 9ef8 8d3d 1f76 5dbd
00000130: 7ce8 8fbc 0e3c 8dbd aaf3 fdbc eba0 8ebd
00000140: 61e5 8fbc f52a 15bd 2d87 29bd 8cd6 a6bb

weight f4 [84, 84]
-0.009484344 -0.06581235 0.016068233 0.09513829 -0.007607488 0.026449846 -0.057262655 0.00087154686
0.03267659 0.04944814 -0.029443616 0.1095351 0.05754878 0.08689215 -0.10971392 -0.10212775
0.02010743 -0.0011915463 -0.024572093 -0.036987875 0.04371101 -0.062614225 0.005342482 -0.066288255
0.07610146 0.06910258 -0.019436544 0.017948337 0.0945332 -0.032852996 0.018399492 0.046295036
-0.037337933 -0.020555183 -0.0005968035 -0.028848762 0.070529155 -0.06524746 -0.026520103 0.051136564
-0.013484486 -0.026678758 0.024838133 -0.069809504 0.034973122 -0.0061123683 0.08787753 -0.024507431
-0.082784794 0.084497385 0.023043793 -0.063575916 0.026122564 -0.02096043 0.021901807 -0.090982534
0.04547076 -0.03952119 -0.10192609 0.1070656 -0.013917746 -0.046272907 0.048137337 -0.041481074
0.097499765 0.107786275 -0.08244206 0.016321115 0.11101838 -0.014835343 0.10409478 -0.0020109522
0.06936972 0.019835193 -0.0036518439 -0.052891605 0.049684267 -0.031224692 0.07603668 -0.06413822
0.05215933 -0.019316463 -0.057678524 -0.06671094 0.1222677 0.0627897 0.021842718 0.06983192
-0.010796674 0.009160117 -0.05422296 0.07403233 -0.06662777 0.021819435 -0.012389434 -0.070683636
-0.0039956896 -0.10562811 -0.025028406 0.08226554 0.027428476 0.026772277 -0.030950366 0.044687726
-0.080860265 0.08558322 -0.057718195 0.07609064 0.1017257 -0.05217889 -0.0006800262 0.07017351
-0.08082681 0.04649402 0.02869146 -0.05763037 0.044010136 -0.09665161 -0.040320635 0.09142383
-0.118429005 0.058283184 0.09811527 0.06474265 0.014804867 0.07990907 -0.0018240045 0.09715864
-0.0063491073 0.049618464 0.07857401 -0.003994806 -0.08012777 0.0472279 0.12207816 -0.10580839
-0.01649328 0.11169411 0.047613177 -0.03865594 0.024520814 -0.029841067 0.08669764 0.032135118
0.114874974 0.028623419 -0.016231177 0.09755255 0.0896975 0.013814617 0.01302225 -0.011153981
0.040053982 -0.055628777 -0.105588056 -0.01149495 0.11309652 -0.10232714 0.022011615 -0.027923543
-0.083263755 -0.033731394 0.0751096 0.061892148 -0.04012296 0.0031084928 -0.0797112 0.018181775
0.10544672 -0.02172167 0.03758916 -0.07433105 0.041146863 -0.064677805 -0.037608087 -0.033506587
0.09691761 -0.033015277 -0.060793143 -0.08297251 0.035097886 0.027278695 0.11215979 -0.0059706355
-0.03665132 -0.05975246 0.07133167 0.09337374 -0.09893739 0.09591419 0.024163932 -0.07828399
0.012807412 -0.059055723 -0.073137246 0.090826854 -0.07365085 0.08603105 -0.022677202 -0.019368954
0.028670331 0.049002215 -0.033808026 -0.016684903 -0.06925154 0.0029122925 -0.08385684 -0.022930654
-0.0720851 -0.006418631 0.057567243 0.09666896 -0.015153938 -0.03689151 0.032466363 -0.1004532
-0.045560624 -0.042112816 0.037298802 0.076722205 0.09875527 0.04006573 0.0642144 0.044700835
0.05686076 -0.03752125 -0.09356704 0.09989765 -0.003846059 0.035806764 0.06429148 -0.021820793
-0.10441173 0.053787895 0.038991194 0.09615413 0.08755415 -0.040557224 0.00021084228 0.0011091605
-0.038686126 0.09835844 0.0852609 0.050222356 -0.061473973 0.06680281 0.027066387 -0.112715535
-0.07637953 0.051942144 0.08421497 0.092566535 0.0008607479 0.052440315 -0.10819118 0.040997975
00000000: 3964 1bbc a0c8 86bd 87a1 833c ddd7 c23d
00000010: 3c48 f9bb 59ad d83c 3f8c 6abd 8578 643a
00000020: e3d7 053d 228a 4a3d bd33 f1bc f053 e03d
00000030: 45b8 6b3d 83f4 b13d b1b1 e0bd 5b28 d1bd
00000040: 56b8 a43c a92d 9cba 6a4b c9bc 9980 17bd
00000050: 510a 333d e33b 80bd fd0f af3b 23c2 87bd
00000060: 15db 9b3d a785 8d3d 6339 9fbc 6408 933c
00000070: 9f9a c13d dd90 06bd 88ba 963c dd9f 3d3d
00000080: a9ef 18bd 5863 a8bc ce72 1cba 3d54 ecbc
00000090: 9771 903d 76a0 85bd b040 d9bc 9374 513d
000000a0: 09ee 5cbc 698d dabc 5779 cb3c 49f8 8ebd
000000b0: fa3f 0f3d 434a c8bb 22f9 b33d cfc3 c8bc
000000c0: 138b a9bd f70c ad3d 56c6 bc3c 1734 82bd
000000d0: fdfe d53c 35b5 abbc 6b6b b33c 0d55 babd
000000e0: 8c3f 3a3d f9e0 21bd a0be d0bd 3645 db3d
000000f0: 4207 64bc a988 3dbd a82b 453d 0fe8 29bd
00000100: f5ad c73d 0dbf dc3d 62d7 a8bd dcb3 853c
00000110: 9b5d e33d f00f 73bc a52f d53d 2eca 03bb
00000120: b611 8e3d 6a7d a23c c653 6fbb dea4 58bd
00000130: bb81 4b3d edca ffbc 1eb9 9b3d e65a 83bd
00000140: 06a5 553d 8f3d 9ebc 5140 6cbd bf9f 88bd
00000150: 7d67 fa3d e397 803d 80ef b23c 0a04 8f3d
00000160: 88e4 30bc 5114 163c e518 5ebd 439e 973d
00000170: 2474 88bd acbe b23c 0dfd 4abc 95c2 90bd
00000180: 46ee 82bb 8d53 d8bd 5f08 cdbc d67a a83d
00000190: afb1 e03c 8951 db3c 9f8b fdbc 7a0a 373d
000001a0: 119a a5bd 4146 af3d ea69 6cbd 69d5 9b3d
000001b0: 9055 d03d 88b9 55bd c943 32ba 21b7 8f3d
000001c0: 8788 a5bd 8370 3e3d 5a0a eb3c d30d 6cbd
000001d0: f943 343d 48f1 c5bd 4027 25bd 6b3c bb3d
000001e0: e88a f2bd 59ba 6e3d a9f0 c83d cb97 843d
000001f0: 1d90 723c 5ea7 a33d 6f13 efba 1cfb c63d
00000200: 2c0c d0bb bb3c 4b3d 69eb a03d dde6 82bb
00000210: 071a a4bd 0b72 413d 1d04 fa3d 12b2 d8bd
00000220: ea1c 87bc e2bf e43d 0906 433d b155 1ebd
00000230: e0df c83c 4175 f4bc 888e b13d 1da0 033d
00000240: 9243 eb3d a97b ea3c 3ff7 84bc a2c9 c73d
00000250: 53b3 b73d b456 623c 465b 553c 30bf 36bc
00000260: a50f 243d 00db 63bd 8d3e d8bd 5155 3cbc
00000270: 269f e73d e490 d1bd b451 b43c eabf e4bc
00000280: 3086 aabd ee29 0abd 10d3 993d 9f82 7d3d
00000290: f957 24bd dbb7 4b3b a03f a3bd f2f1 943c
000002a0: 73f4 d73d a5f1 b1bc 17f7 193d e13a 98bd
000002b0: 9d89 283d cc75 84bd f00a 1abd 343e 09bd
000002c0: bd7c c63d 073b 07bd 3b02 79bd 7eed a9bd
000002d0: cdc2 0f3d 9277 df3c 08b4 e53d 52a5 c3bb
000002e0: b21f 16bd ffbe 74bd 5716 923d bb3a bf3d
000002f0: b09f cabd a96e c43d 70f3 c53c 5b53 a0bd
00000300: 2ed6 513c 6ae4 71bd fbc8 95bd 6e03 ba3d
00000310: 42d6 96bd 0c31 b03d 8ac5 b9bc a4ab 9ebc
00000320: 0bde ea3c 8cb6 483d 497a 0abd c7ae 88bc
00000330: c0d3 8dbd 29dc 3e3b 23bd abbd 11d9 bbbc
00000340: 5aa1 93bd 6153 d2bb a1cb 6b3d 60fa c53d
00000350: 3948 78bc 8d1b 17bd 73fb 043d 68ba cdbd
00000360: c79d 3abd 7d7e 2cbd a1c6 183d 8820 9d3d
00000370: 3440 ca3d f71b 243d d782 833d 3918 373d
00000380: d4e6 683d e2af 19bd 14a0 bfbd 2497 cc3d
00000390: 2a0e 7cbb 1daa 123d 40ab 833d 85c1 b2bc
000003a0: d1d5 d5bd b250 5c3d 3bb5 1f3d 75ec c43d
000003b0: 974f b33d 551f 26bd 8b15 5d39 4061 913a
000003c0: 5875 1ebd 2670 c93d 449d ae3d f5b5 4d3d
000003d0: 22cc 7bbd e9cf 883d 54ba dd3c 67d7 e6bd
000003e0: df6c 9cbd 49c1 543d e678 ac3d 8693 bd3d
000003f0: d0a3 613a a8cb 563d 5693 ddbd 7eed 273d

bias f4 [84]
-0.10141124 -0.0060534514 -0.033956576 -0.010802202 -0.007661318 -0.08364164 -0.017982021 -0.0044314405
-0.08310044 0.06974719 0.01560792 -0.023096438 -0.06439672 -0.043083534 0.046931062 -0.08998886
0.00075822213 0.08462818 0.09439567 0.07522425 -0.10583095 -0.017218996 0.03545846 -0.076219134
-0.083533876 0.08166733 -0.056737535 0.058762413 0.030533146 -0.042447165 -0.08861534 0.050222117
-0.049307063 0.007869392 0.077382416 0.039055534 0.082695246 0.105075955 0.09992786 -0.07799856
-0.029724823 0.089360565 0.025792265 -0.082545206 -0.049856033 -0.020695327 0.064830795 0.07978788
0.098880954 0.07681576 -0.07443677 0.047905426 -0.0098360935 -0.035048757 0.029948253 0.038531672
-0.052206114 0.068563566 -0.039245248 -0.05681257 0.08034834 0.11642336 -0.085185334 0.027175194
0.026493255 0.09321976 0.0030616922 -0.014301283 -0.053989332 -0.0044202553 -0.010772992 0.04640184
0.041257836 0.04875571 0.008274742 0.10098073 -0.07256533 0.05047213 0.059940778 -0.00811825
-0.02989327 0.04462902 0.05264049 -0.0369009
00000000: b2b0 cfbd 085c c6bb 0d16 0bbd b8fb 30bc
00000010: cb0b fbbb 4f4c abbd 084f 93bc 9e35 91bb
00000020: 9030 aabd 9dd7 8e3d 5cb8 7f3c be34 bdbc
00000030: 6de2 83bd 5c78 30bd c93a 403d 144c b8bd
00000040: 6dc3 463a 8a51 ad3d 8452 c13d 2c0f 9a3d
00000050: e6bd d8bd da0e 8dbc e43c 113d c718 9cbd
00000060: cf13 abbd 3341 a73d 9e65 68bd dbb0 703d
00000070: a620 fa3c 14dd 2dbd f67b b5bd b5b5 4d3d
00000080: 34f6 49bd 9fee 003c ac7a 9e3d b2f8 1f3d
00000090: 205c a93d 1032 d73d faa6 cc3d b6bd 9fbd
000000a0: 7981 f3bc ac02 b73d 4d4a d33c 760d a9bd
000000b0: d735 4cbd 3f89 a9bc 02c6 843d d467 a33d
000000c0: 1982 ca3d 9551 9d3d 4e72 98bd 7b38 443d
000000d0: 9127 21bc 498f 0fbd 0a56 f53c 63d3 1d3d
000000e0: 14d6 55bd 0e6b 8c3d a0bf 20bd 4cb4 68bd
000000f0: ac8d a43d 5f6f ee3d a675 aebd 839e de3c
00000100: 6208 d93c 00ea be3d aca6 483b ee4f 6abc
00000110: eb23 5dbd cad7 90bb 3481 30bc db0f 3e3d
00000120: fafd 283d 11b4 473d c992 073c fcce ce3d
00000130: 229d 94bd ddbb 4e3d 7684 753d 6902 05bc
00000140: bbe2 f4bc ebcc 363d 8e9d 573d 6625 17bd

weight f4 [42, 84]
0.099680685 0.012400019 -0.0959857 0.049111426 -0.024203561 0.027041852 0.0337287 -0.0941523
-0.06827091 0.04813478 -0.03732612 -0.06328092 -0.030183798 -0.07383308 0.009677042 0.0093356855
-0.08936024 -0.060114596 -0.042842764 -0.018217033 -0.08745642 0.020385511 0.074516684 -0.021054165
0.059266858 -0.008396034 0.041798916 0.09135898 -0.0034897104 -0.026507895 -0.051228862 0.08821307
0.019709926 -0.10403784 -0.032051623 0.08765304 -0.04909472 0.047114257 -0.06947087 -0.06726653
-0.0994102 -0.021240104 -0.11053508 0.04198757 -0.071385734 -0.10737809 0.04426679 0.07962536
-0.083667606 -0.100969195 0.08539875 0.0025939902 0.024065323 0.07936812 0.052537534 0.049291886
0.027428403 0.04501076 -0.051174134 -0.052328724 -0.11160962 0.09172074 0.010827907 -0.08856766
-0.05724378 0.088140085 0.01751201 -0.033364385 0.0548368 0.029015232 -0.032677386 -0.047636677
0.012298969 -0.0729999 -0.045602806 0.08565007 0.055761985 -0.062412594 0.08895086 0.050318114
-0.08623924 0.050223064 -0.015556179 0.035686493 0.0105831325 -0.08448332 0.09625864 0.02715589
-0.06140208 0.016674569 -0.07305354 0.00019031322 0.0535989 -0.0111968545 0.0034291525 -0.0708441
-0.06898187 -0.08165575 0.094085924 0.10770572 0.027796932 0.03219821 -0.050666314 0.0024824417
0.096147746 0.011378096 0.060184333 -0.017113173 -0.06927953 0.022593684 -0.0134408735 0.004602477
-0.08740755 -0.10246497 -0.078167774 -0.045868687 0.08001648 -0.0079295365 0.048742875 0.056904804
-0.020887893 -0.020504013 0.033961978 0.053410415 0.037536345 -0.11232221 0.07373024 -0.08407476
0.050629646 -0.1027077 -0.039078366 -0.06957064 0.066087164 0.023951923 -0.012738511 -0.00088774564
-0.001986488 0.062050145 -0.07516487 -0.039341874 -0.107305676 -0.0492684 -0.03246203 -0.112429455
0.012738873 -0.087379545 -0.0065605883 0.0038210272 0.02724785 -0.09183132 0.11672669 0.095898665
0.11013467 0.09663159 -0.017701281 -0.046864875 0.089933544 -0.026219225 -0.087168545 0.08439606
0.06173495 0.054033842 -0.11331859 -0.0037821087 -0.011254257 0.005510793 -0.051662873 0.05762792
-0.015048985 0.01735506 -0.037511125 0.087284796 -0.0014362091 0.0021868553 -0.023167426 -0.012145885
0.00063820987 -0.0014726798 -0.004677152 0.017702091 0.009775744 -0.03557211 0.050058175 0.05418171
-0.07706409 0.05379743 -0.036606785 -0.0634837 0.03010428 -0.008111904 -0.012982099 -0.10873304
0.0406665 0.07281968 0.036010645 0.06853374 0.0021175165 0.023450112 0.10916953 -0.02655725
-0.022349544 0.030697566 -0.022098308 0.08175877 -0.07830331 0.04510424 0.0862385 0.025514826
-0.077382654 0.09595446 -0.09937994 -0.07273155 -0.009584575 0.010442311 -0.10157181 0.008885832
0.09404432 -0.09076086 0.01844045 0.08835099 0.033372127 0.024315704 -0.028879616 -0.021089522
-0.048118964 -0.056437083 0.025593435 0.09440344 -0.047831208 -0.06453569 -0.072584026 -0.054057807
0.019270487 0.033436082 -0.056506515 0.045611035 0.06288975 0.06677608 0.019465657 0.018511545
0.06921131 0.0663778 0.08193656 -0.055601534 0.053477656 -0.032254625 -0.032636832 0.0946299
0.058233317 -0.03723681 -0.050853044 -0.024817253 0.0037814146 0.043822523 0.022969505 -0.035156876
00000000: 6325 cc3d 7329 4b3c 2794 c4bd 1029 493d
00000010: 8c46 c6bc e086 dd3c 1b27 0a3d ecd2 c0bd
00000020: 9ed1 8bbd fa28 453d 46e3 18bd 6d99 81bd
00000030: 0344 f7bc cc35 97bd 758c 1e3c b4f4 183c
00000040: 8002 b7bd b93a 76bd e57b 2fbd e33b 95bc
00000050: 5a1c b3bd 84ff a63c 349c 983d c979 acbc
00000060: cec1 723d 858f 09bc 5735 2b3d 6b1a bb3d
00000070: a0b3 64bb 1627 d9bc 5bd5 51bd 0ea9 b43d
00000080: b676 a13c cb11 d5bd 9048 03bd 7083 b33d
00000090: 8c17 49bd e1fa 403d be46 8ebd 09c3 89bd
000000a0: 9397 cbbd baff adbc 3760 e2bd 28fb 2b3d
000000b0: af32 92bd 0be9 dbbd 1851 353d 9f12 a33d
000000c0: ec59 abbd f0c8 cebd 8ae5 ae3d efff 293b
000000d0: a424 c53c c18b a23d 9931 573d 4ae6 493d
000000e0: 88b1 e03c 345d 383d f89b 51bd a556 56bd
000000f0: 9693 e4bd 15d8 bb3d 8967 313c f662 b5bd
00000100: 7478 6abd ca82 b43d 5975 8f3c 18a9 08bd
00000110: 8d9c 603d 5ab1 ed3c b9d8 05bd ad1e 43bd
00000120: 9d81 493c f980 95bd 02ca 3abd 4e69 af3d
00000130: ae66 643d 59a4 7fbd de2b b63d 5e1a 4e3d
00000140: 339e b0bd b3b6 4d3d 58df 7ebc 002c 123d
00000150: e064 2d3c 9705 adbd 4023 c53d 0776 de3c
00000160: bf80 7bbd 1b99 883c 189d 95bd d18e 4739
00000170: 858a 5b3d 0373 37bc a2bb 603b b616 91bd
00000180: 5e46 8dbd 213b a7bd 1fb0 c03d d194 dc3d
00000190: 64b6 e33c 45e2 033d 7b87 4fbd 76b0 223b
000001a0: 1ce9 c43d 326b 3a3c d983 763d ed30 8cbc
000001b0: 6de2 8dbd 6416 b93c 1c37 5cbc 60d0 963b
000001c0: bb02 b3bd 27d9 d1bd 6d16 a0bd cee0 3bbd
000001d0: aedf a33d e3ea 01bc 9ca6 473d 0315 693d
000001e0: 161d abbc 08f8 a7bc b71b 0b3d e1c4 5a3d
000001f0: b6bf 193d 3009 e6bd e1ff 963d 632f acbd
00000200: 0861 4f3d 6a58 d2bd a310 20bd 0d7b 8ebd
00000210: b558 873d d336 c43c 30b5 50bc 9ab7 68ba
00000220: bd2f 02bb 4b28 7e3d 0af0 99bd f224 21bd
00000230: 14c3 dbbd a9cd 49bd e8f6 04bd 6a41 e6bd
00000240: b5b6 503c 0cf4 b2bd 34fa d6bb 336a 7a3b
00000250: e236 df3c 0f12 bcbd 670e ef3d 8566 c43d
00000260: 498e e13d c8e6 c53d 4702 91bc 62f5 3fbd
00000270: 142f b83d b3c9 d6bc 6c85 b2bd d7d7 ac3d
00000280: c9dd 7c3d 9752 5d3d 9413 e8bd 41dd 77bb
00000290: c663 38bc e293 b43b 739c 53bd 410b 6c3d
000002a0: 0590 76bc 332c 8e3c 44a5 19bd 5fc2 b23d
000002b0: 2e3f bcba 5851 0f3b 9dc9 bdbc 89ff 46bc
000002c0: 8a4d 273a ef06 c1ba cb42 99bb fa03 913c
000002d0: 712a 203c 10b4 11bd cd09 4d3d a4ed 5d3d
000002e0: c7d3 9dbd b25a 5c3d fff0 15bd be03 82bd
000002f0: 409d f63c cbe7 04bc dfb2 54bc 6eaf debd
00000300: ea91 263d 7c22 953d e67f 133d 6b5b 8c3d
00000310: 08c6 0a3b 731a c03c 4694 df3d 978e d9bc
00000320: 6416 b7bc 7679 fb3c 8307 b5bc 2471 a73d
00000330: 7c5d a0bd 39bf 383d d09d b03d 7804 d13c
00000340: cc7a 9ebd c683 c43d b687 cbbd 47f4 94bd
00000350: 9f08 1dbc 3a16 2b3c e204 d0bd e195 113c
00000360: 4f9a c03d d4e0 b9bd 6d10 973c 5df1 b43d
00000370: 36b1 083d ba31 c73c f294 ecbc efc3 acbc
00000380: 6418 45bd 922a 67bd 53a9 d13c 9756 c13d
00000390: a8ea 43bd 4a2b 84bd efa6 94bd b86b 5dbd
000003a0: 24dd 9d3c 46f4 083d 6073 67bd a3d2 3a3d
000003b0: 57cc 803d e6c1 883d 7176 9f3c 86a5 973c
000003c0: a9be 8d3d 16f1 873d 5bce a73d 6fbe 63bd
000003d0: 630b 5b3d 6d1d 04bd 33ae 05bd 52cd c13d
000003e0: 0f86 6e3d a085 18bd 484b 50bd 8d4d cbbc
000003f0: 9cd1 773b 3f7f 333d 8b2a bc3c a800 10bd

bias f4 [42]
0.042529427 -0.027276207 -0.08250151 -0.04587197 0.058055323 0.077259615 0.063763574 -0.104726925
0.0030235064 -0.09351396 -0.03933741 -0.09693844 -0.07598534 -0.0077661783 -0.017338859 -0.034507994
0.062444415 -0.07118059 0.0075286278 0.07242312 0.0723106 0.09613943 0.04028398 -0.07317571
0.011567234 -0.014071829 -0.08133679 0.037990015 -0.0888454 0.015950391 0.05128919 0.09760978
0.05907294 -0.004957561 -0.021633087 -0.01173985 0.102397755 -0.007689493 -0.01275399 0.07533061
0.027710034 0.068820044
00000000: 5633 2e3d 5a72 dfbc 8df6 a8bd 3fe4 3bbd
00000010: 6bcb 6d3d 4a3a 9e3d 7a96 823d 127b d6bd
00000020: 0526 463b 3f84 bfbd 4420 21bd a987 c6bd
00000030: 349e 9bbd 6d7b febb 390a 8ebc 4158 0dbd
00000040: b7c5 7f3d 21c7 91bd b5b2 f63b 9352 943d
00000050: 9417 943d c0e4 c43d d100 253d 26dd 95bd
00000060: 7f84 3d3c 878d 66bc e793 a6bd 6b9b 1b3d
00000070: 94f4 b5bd 65aa 823c 9d14 523d a3e7 c73d
00000080: 78f6 713d 0973 a2bb df37 b1bc 8058 40bc
00000090: eab5 d13d 24f8 fbbb 1cf6 50bc ef46 9a3d
000000a0: 2700 e33c 86f1 8c3d

weight f4 [1, 42]
-0.030229786 -0.010376785 0.07619124 0.06541628 0.04080461 -0.10167779 0.0035863856 -0.04072353
-0.096645825 -0.099476375 0.12219967 -0.14054471 -0.12869763 0.11398927 0.113404214 -0.06792979
0.018397644 0.053363904 -0.076972246 0.09554758 0.04630098 -0.0990348 0.01650012 -0.14675723
0.0018283698 0.13638341 0.04098484 -0.036706794 0.035716593 0.00087307557 0.14307298 -0.0078183375
0.13340226 0.0035167066 0.02983243 -0.1288279 0.07826096 0.043839436 0.08668063 0.0797582
-0.050706606 -0.03476886
00000000: 75a4 f7bc 6403 2abc 270a 9c3d f8f8 853d
00000010: bc22 273d 723c d0bd 9109 6b3b b7cd 26bd
00000020: 3fee c5bd 45ba cbbd d243 fa3d f4ea 0fbe
00000030: 50c9 03be 3573 e93d 7840 e83d c61e 8bbd
00000040: a8b6 963c 1c94 5a3d a0a3 9dbd 73ae c33d
00000050: 19a6 3d3d c2d2 cabd 422b 873c 8747 16be
00000060: e9a5 ef3a 18a8 0b3e b8df 273d dd59 16bd
00000070: 904b 123d 1cdf 643a b981 123e 7c18 00bc
00000080: 9a9a 083e 8c78 663b 2463 f43c 76eb 03be
00000090: 4847 a03d fb90 333d 9d85 b13d 4458 a33d
000000a0: bbb1 4fbd cb69 0ebd
