ModelUnpredictability/one_thousand_brains/predictor_45.model (torch_old, 109395 bytes, 7 tensors)

weight f4 [84, 168]
00000000: 7571 98bd 1d20 c33c 84d7 afbd 06be 3bb9
00000010: 4d96 acbd 8088 72bd 9054 333d bc35 33bd
00000020: 1595 04bd 03b3 72bc d312 8a3c 88cf 90bd
00000030: f710 8dbd dc0b 62bd f24d 49bc aa05 7bbd
00000040: 7cf3 30bd c25f df3c 6a4e a6bd c0c8 0e3d
00000050: 113e 06bd 71ab da3b 6603 6d3b c25d 72bd
00000060: 17b0 afbd a423 523d 70f6 a1bd f140 63bd
00000070: 48e5 9fbb 4789 8ebb c4ab 97bc dd9a cfbc
00000080: e275 fcbb f04b 52bd 7395 27bc 539b dc3c
00000090: d832 453c b108 b6bb 2305 3ebd a6b9 01bd
000000a0: bb01 bbbd 2685 133d 0a40 6f3d 0af4 a63b
000000b0: 015b 13bd 18d3 e9bc becb 2c3b d4c6 a6bb
000000c0: 228d 473b 15ae 1cbd 97d7 afbc d7fe 80bc
000000d0: d140 99bc 07fb 9b3c 2f8b 9fbd 778f 5c3d
000000e0: 2d51 223d 6bf4 163c 1ec1 abbd cb0d 403d
000000f0: 5027 6cbd e8cd 95bd 13ba 7bbd cb6e 8ebd
00000100: 4a6b 243d b09a 543d 58bc 093d 8bef 65bd
00000110: 8fe0 54bd 987a d93c be78 1abd f4e6 a4bd
00000120: efc5 46bd 13d7 ef3c 7f75 a53c 4c35 59bd
00000130: 4a35 babd c5c5 233d 9ff7 50bd 7f6b 24bd
00000140: 7e97 c4bb 05ba 4ebd 0c0a 9cbd f5b2 cb3c
00000150: 9990 1a3d 1af0 503c caac acbd 1206 b1bd
00000160: 7d28 93bd 56db 413d 569d 59bd 258a 4e3c
00000170: b765 8fbc 19e1 33bd fae3 083d 0989 413c
00000180: c0d1 56bd b8a9 833b aa20 a4bd 91cc 66bd
00000190: 96c0 2a3d 0994 b0bc 316a b93b fc15 eabc
000001a0: ace6 ccbb a16a 103d 46e9 11bd fe1e 86bd
000001b0: a920 36bd d07e 95bd f39e 0dbd 818a a1ba
000001c0: 5691 85bd bdcc f0bc 3db0 1d3d 550e 9b3c
000001d0: b997 2abd e3b1 063d 8cdd 893c 50ce a3bd
000001e0: 94cd 39bd efe8 e1bc a31b 483c 172e c03c
000001f0: 8d67 fd3c b122 843b 571c 28bd 32a3 d1ba
00000200: 224d 6b3d 5bc4 683d 2cb5 6ab9 a6fc 803d
00000210: e427 ebbc 066c 31bd 1cd9 7abd cb33 773d
00000220: f8f2 d03b bd2c 613d e3b8 44bc 5ae0 493c
00000230: da47 463d e605 44bc 7382 dd3c 9102 c33b
00000240: 0347 09bd a072 533d 0848 343d 4525 91bd
00000250: 8a9c b43c 4726 80bd 852b b7bd a680 6c3d
00000260: 98b1 92bc dee3 17bd b092 75bc 26c6 4d3c
00000270: 2af8 7dbd 58e3 343d 7ccb ba3b 8458 a73b
00000280: 6be8 b83c dbd9 a7bd 6474 a83c ff69 763d
00000290: f4f8 51bb a77a 483d 7af5 2a3d 8002 babb
000002a0: 8af8 86bd 5afc 9c3c 0682 c63c 5df3 c2bc
000002b0: 2ab9 80bc 8141 cc3b 4bb2 32bd ad3d 91bb
000002c0: 0dec 9ebd 3179 263c 2002 b4bd d3c5 06bd
000002d0: 28d1 653d d423 9fbb 6214 89bd 0c67 023d
000002e0: 1654 563d 22ec 61bd 2ff9 603b 973c 81bb
000002f0: 48a0 8ebd b568 98bd 8614 713d 4051 c03c
00000300: 6131 203d 18ce 203d 33a3 7d3d c1d6 2d3d
00000310: 8d8a 83bd 7f13 99bd 157c 6d3d b719 8abb
00000320: 7cdc 383d dc27 0cbd 351e 1f3d c9a7 2dbc
00000330: 1466 3b39 e1d4 4f3d c6f1 8d3c 3011 88bc
00000340: 60ec 94bd 5f20 80b9 3089 573a b7fa 8fbb
00000350: 0a29 f1bb 5018 6a3d 1408 363d b96d 16bd
00000360: e777 a8bd 8ca8 213c f670 fabc 44b7 a0bd
00000370: 15b1 90bd 8a7a f6bc 9006 e53c 41a6 82bd
00000380: 4d83 79bd 5e63 353d 731b f03c 2ee3 f7bc
00000390: c31d a2bd 6e5c f9ba 8d46 8abd dcd7 593d
000003a0: a9c5 b2bd 4517 94bc 008e 853a c76c 86bd
000003b0: 78db 5bbd cf18 cdbc 20e7 e93c bb03 e4bc
000003c0: a01e 0a3d d648 0fbd 51de a4bd 5f3a 303d
000003d0: 5543 013d 7f53 803d d0d7 173d 4ac0 1bbd
000003e0: 42bd ef3c 8397 e93c ece2 48bd c480 bc3c
000003f0: c615 72bd b811 f03c 4c14 94bd 8abc 47bd
-0.07443515 0.023819024 -0.08586028 -0.00017904499 -0.08427105 -0.059212208 0.043781817 -0.043752417
-0.03236874 -0.0148131875 0.01685468 -0.070708334 -0.068880014 -0.05518709 -0.01228665 -0.0612847
-0.043200955 0.02726734 -0.08120425 0.03485942 -0.032774035 0.0066732694 0.0036165356 -0.059171446
-0.08578508 0.05130352 -0.07908332 -0.055481855 -0.0048796274 -0.004349861 -0.018514521 -0.0253424
-0.0077044824 -0.05134195 -0.010228503 0.026929533 0.012036048 -0.0055552353 -0.046391618 -0.03167119
-0.091311894 0.036015652 0.05841068 0.0050950097 -0.03597546 -0.02854304 0.0026366557 -0.00508962
0.0030449112 -0.038251955 -0.021465106 -0.015746517 -0.018707665 0.019040598 -0.07790219 0.053847756
0.039628197 0.009213547 -0.083864436 0.046888154 -0.05765468 -0.07314664 -0.06145675 -0.06954726
0.04014138 0.051905334 0.033626884 -0.05613665 -0.05197197 0.026547715 -0.037712805 -0.08051863
-0.048528608 0.02927736 0.020197628 -0.053029343 -0.09092195 0.03998353 -0.0510174 -0.04014158
-0.0059995046 -0.05047037 -0.07619104 0.024865607 0.037735555 0.012752557 -0.084313944 -0.08643736
-0.07185457 0.047328316 -0.053128563 0.012606178 -0.017504556 -0.04391584 0.03342054 0.011812457
-0.052446127 0.004018035 -0.08014043 -0.056347433 0.04168757 -0.021554964 0.005658411 -0.028574936
-0.006253084 0.03525794 -0.035622858 -0.0654888 -0.04446474 -0.07299578 -0.034575414 -0.0012324603
-0.06521861 -0.029394502 0.038498152 0.018927732 -0.0416486 0.03288449 0.016829275 -0.07998335
-0.04536207 -0.027576892 0.01221362 0.023459477 0.030933166 0.004032456 -0.041042652 -0.001599407
0.057446606 0.056827884 -0.00022383471 0.06298189 -0.028705545 -0.04331591 -0.061242208 0.060352128
0.0063766204 0.054974306 -0.012006971 0.012321556 0.048408367 -0.011964297 0.027039742 0.0059512337
-0.033514988 0.051622987 0.044014007 -0.07087187 0.0220473 -0.06257301 -0.089438476 0.057739876
-0.017906949 -0.037082545 -0.014988586 0.012559449 -0.062004246 0.044162124 0.0057005268 0.0051069874
0.022571763 -0.081958495 0.020563312 0.06015968 -0.0032039257 0.048945095 0.04173801 -0.0056765676
-0.06590374 0.0191633 0.024231922 -0.023797685 -0.015713293 0.0062333946 -0.043627065 -0.004432401
-0.07759867 0.01016073 -0.08789468 -0.032903504 0.05610767 -0.004856566 -0.06693341 0.031836554
0.052326284 -0.055156834 0.0034328212 -0.0039439905 -0.06964165 -0.07441846 0.058857463 0.023476243
0.03910959 0.039259046 0.061923217 0.042441133 -0.06422911 -0.07474422 0.057979662 -0.004214491
0.045132145 -0.0342177 0.038847167 -0.010599085 0.00017871737 0.050740127 0.0173272 -0.016609758
-0.072716475 -0.0002443818 0.00082220417 -0.004393901 -0.0073596286 0.057152092 0.044441298 -0.036725733
-0.082259946 0.009866845 -0.030571442 -0.07847455 -0.07065026 -0.030087728 0.02795723 -0.06379367
-0.060916234 0.044284217 0.029309964 -0.030259695 -0.07915833 -0.0019024739 -0.06751738 0.053184375
-0.08729107 -0.018077502 0.0010189414 -0.065637164 -0.0536761 -0.025036244 0.028552592 -0.02783381
0.033720613 -0.03498157 -0.08050216 0.043024417 0.031558353 0.062659256 0.03707105 -0.038025178
0.02926505 0.02851463 -0.049044535 0.023010619 -0.059102796 0.029305324 -0.07230434 -0.04876379

bias f4 [84]
00000000: f9e6 0c3d ac26 51bb e835 3b3d cd06 06bd
00000010: 924e 8bbd a628 513b 7e17 f53c b728 3b3d
00000020: 7a15 123d e31c 76bc 2239 60bd 7811 64bd
00000030: 492e b93b 035b 773d 8a55 9ebc af41 e33b
00000040: f79f 48bd a06f 783d 258d 5f3d 4b78 d83c
00000050: a943 7dbd b5b9 debc ea31 28bd fd82 283d
00000060: 0929 23bc 0822 9e3d cd10 203c 0f37 183d
00000070: a423 453d d12e 333d 70e2 aebd 71e5 9bbd
00000080: e299 7c3d 3933 82bd 095e 883c 5182 a63c
00000090: f5aa 26bd b081 9ebd f620 6bbd a850 0a3d
000000a0: 5c8d 2b3d 2d37 8b3d 1211 53bd d2a9 463d
000000b0: 23f8 d83c 6b73 7cbd 508f f3bc 885d 313d
000000c0: 6efa 423c e693 003d cf99 16bd 0b6d 30bd
000000d0: 74ec 66bd 259d a13d bdbc afbc db07 943c
000000e0: ba0b 6d3d e4c9 92bd 9e5d 13bc 3f03 8cbd
000000f0: bcdf ac3b 035c 6c3c e6a0 8ebc 3d2e d13c
00000100: ea83 8b3d 54db 0c3d 9e80 f7bc c181 14bd
00000110: bc33 ec3b fa14 5e3c b799 6b3d 6dad a33b
00000120: ffc4 67bb 4886 2e3d bfee 153d 1a03 203d
00000130: d0c5 99bd 11f2 22bc 6740 9d3b 59f3 1c3d
00000140: a26c 6dbd fb58 4a3c 6fc3 a1bc 65a2 68bd
0.03439996 -0.003191392 0.045705706 -0.03272133 -0.068020955 0.0031915097 0.029918429 0.045693126
0.035665013 -0.015021536 -0.054741986 -0.055680722 0.0056512696 0.06038953 -0.019327898 0.0069353203
-0.04898068 0.06065333 0.054577965 0.026424548 -0.061832104 -0.027188161 -0.041063227 0.041140545
-0.009958514 0.07721335 0.009769631 0.037161883 0.048129693 0.04374582 -0.08539283 -0.07612122
0.06167019 -0.06357426 0.016646402 0.020325812 -0.04069038 -0.0773958 -0.05740448 0.033768326
0.041882858 0.06797633 -0.05152995 0.048501797 0.026485508 -0.06163351 -0.029731423 0.04330209
0.011900527 0.031391047 -0.036767777 -0.04307274 -0.056377843 0.07891301 -0.021452302 0.018070152
0.05787251 -0.07167414 -0.008994488 -0.06836557 0.0052756947 0.014426234 -0.017410707 0.025534743
0.0681227 0.034388855 -0.030212697 -0.036256555 0.0072083157 0.013554806 0.05751964 0.004995039
-0.0035365222 0.04260853 0.03660464 0.039065458 -0.07508433 -0.009945408 0.004798937 0.038318012
-0.05796493 0.012350316 -0.01974651 -0.056795496

weight f4 [84, 84]
00000000: 46cd 903d 3c32 aebd 0a4c e9bd 5ad9 c53d
00000010: b235 b83d 8331 a23d 95c8 b0bd 1a51 b7bd
00000020: 1fc2 9abd b13e fa3c 9c18 d73c 9051 30bb
00000030: 92f9 cfbd 4b6a 37bd dec3 cdbd 1df2 b63d
00000040: 8520 8ebd cedd 9ebd b4ca 77bd 3071 1abc
00000050: 5ec0 983d 1b16 333c 4ae6 d83c 2bf3 993d
00000060: bee6 ddbd b755 b7bd febf 33bd 7908 a03c
00000070: f28e e33c fd8c cf3d 0e44 9dbd 50bf af3d
00000080: d3d6 b93b 30cd 9c3c dc69 933d 6a21 c1bd
00000090: 12a6 91bd 9339 2dbd bc71 b3bc 38d3 923d
000000a0: 6fb4 53bc 6ae9 ccbc 02e2 93bd 123d a43d
000000b0: 4842 96bd e250 a63c a186 8fbb 482a e4bd
000000c0: 72ed f6bc f154 a6bd 317e efbd fc09 ca3d
000000d0: b767 c7bd 8c23 893c fb83 80bc b0bb e53c
000000e0: 79bd c4bd 1ba3 b33d 635c 4c3d f802 743d
000000f0: 65dc 9cbd c64e 6f3c df04 ce3d 30ed 3b3d
00000100: f707 15bd d502 e73c 675b 3b3d 2168 a13d
00000110: f9f5 d03d d64f babd ec39 5f3d 1521 dc3c
00000120: 9c61 5bbd 2de4 bf3d 4623 9c3d 2f0d 65bd
00000130: 0b1b 0a3d f043 36bd 1ba5 77ba dc09 88bd
00000140: a1c0 b63d 9161 5bbd 8c6b 193d 66dc 87bd
00000150: d6c0 b63d e4dd 803d 15e0 5dbd 368c 0fbd
00000160: cefe d73a d133 e43c 62f8 bdbd 6fa3 9fbd
00000170: 0350 72bd 595a 42bd f920 8dbc 6558 ec3d
00000180: 48a5 2cbd 7609 b33d 4759 543c 8cd7 a83d
00000190: b3bb e8bd 9e8e 1cbc 20f2 5bbd 85f3 55bd
000001a0: 0b93 703c 6f03 98bc 71af b53d 7730 b33c
000001b0: f593 ca3d b6f8 8abd 5d8f abbc 7fcc 573d
000001c0: cf8a c7bc b814 0e3d a3f8 85bd 337c 8f3d
000001d0: 6395 b2bd 10be 15bd 0333 d93d 74ed d83c
000001e0: 3825 113c be8b 333d fac6 d53d 8ef1 653d
000001f0: b277 a3bd 690e d2bd 7121 58bd dac8 bd3c
00000200: cfaf c63d 6228 89bd 1ba0 73bd 60b8 a33d
00000210: b74d 53bc 8c1e d63c 328d 9dbd 732a be3d
00000220: 3313 e83d 1e6f 8d3d 3f2e 65bd 87e5 8d3d
00000230: 548d 953d f4b7 bfb9 7f44 b6bc b7a4 c13d
00000240: 199f 93bd 2f3e b5bd 676c 8a3c e4af a33d
00000250: 36af 39bd 4d09 59bc 6c1c 2ebd 45bc 31bd
00000260: 296e 323d 8ad6 f2bc 1a6d f9bc 73b7 cfbc
00000270: e84f f5bc 4656 db3b 86ec b7bd 3b43 73bd
00000280: 0f5a 0c3d 4566 bdbd 9b67 783d 2895 c2bd
00000290: 4ea5 9abd cf69 88bd 31f1 92bd 9e97 fbbd
000002a0: e9a3 96bd a60c e3bd 5acc a2bd 7678 ccbd
000002b0: f63a 2a3b ff0b 963d d7ce cc3d a465 41bd
000002c0: 822a cd3d eea9 be3c dfa1 8abd 189d 783d
000002d0: c73f 03bd 70b2 ebbc f829 bbbb e5eb b33c
000002e0: afac 0cbd 8c5d 8fbc 97e8 353d 05ec 4f3d
000002f0: 2c2c 89bd b22c 1b3d 27d7 74bd 0017 81bd
00000300: 2cc8 2fbd 68a5 ce3d af91 b83b a629 ae3d
00000310: 45ea babd 9a38 bcbd 9279 e83c 45d1 2ebd
00000320: a269 88bd 70d1 5d3d 6243 5b3d 084b e3bc
00000330: 0838 e0bb 692e 68bd 06ed 8a3d 1d0e c73d
00000340: 4c54 143d 924a 5c3d 77a4 823d c0d3 98bd
00000350: 0e4f 0f3d e024 01bd 1664 953d 2a23 6dbc
00000360: 2c92 a2bc 7456 0cbc db6e ccbd bc6c b13d
00000370: 97e2 123c a240 b1bd 1c7e 943d 6bd3 13bd
00000380: 1b61 81bd 3bcf c13d 02eb 7d3d e9c4 273c
00000390: 5777 773d 942f 8fbd e79f a5bb cb54 623d
000003a0: 5867 aa3d e342 35bd 08de 973d 3dcf d43c
000003b0: 953d b0bd 514f ae3c 58c7 16bd 19bd 9a3d
000003c0: 4749 543d 5bc7 6bbc 82cc b7bd 449c a73c
000003d0: 5fe5 003d f90c f43d 379c b93d e6c1 713d
000003e0: 9fff 71bc f2a4 873d 0820 e8bd a29f 7c3d
000003f0: ef60 603d d0f3 00bc 6823 b83d b6ef 06bc
0.07070403 -0.08505675 -0.113914564 0.09660597 0.089946166 0.079196 -0.08632008 -0.08951016
-0.07556557 0.030547472 0.026256852 -0.0026904084 -0.10155024 -0.044779103 -0.10047124 0.08932898
-0.06939796 -0.0775715 -0.060496047 -0.0094264 0.07458566 0.010930563 0.026476998 0.07517084
-0.10835026 -0.08951896 -0.04388427 0.01953529 0.027778123 0.10134313 -0.07678996 0.08581412
0.005671361 0.01914081 0.071979254 -0.09430201 -0.071117535 -0.042291235 -0.021904819 0.07169193
-0.012921437 -0.025013644 -0.07220842 0.08019461 -0.07336861 0.02030224 -0.0043800627 -0.11140877
-0.03014252 -0.0812167 -0.11693991 0.098651856 -0.09736579 0.016740583 -0.015687933 0.028043598
-0.096064515 0.08771344 0.049892794 0.059573144 -0.076592244 0.014606183 0.10059523 0.045880497
-0.03638455 0.028199593 0.045741465 0.07881189 0.102031656 -0.09097259 0.054498598 0.026871243
-0.053559884 0.09369693 0.076239154 -0.055920776 0.033717196 -0.044498384 -0.0009446905 -0.066425055
0.0892346 -0.053559843 0.03745608 -0.066338345 0.08923499 0.06292322 -0.05416878 -0.035045825
0.0016479136 0.02785674 -0.09275891 -0.07794844 -0.059158336 -0.047449443 -0.017227637 0.115402974
-0.042149812 0.08742039 0.0129607385 0.08244237 -0.11363926 -0.009555487 -0.053697705 -0.05223419
0.014683495 -0.018556325 0.088713534 0.021873696 0.09891502 -0.06785719 -0.020942384 0.052685257
-0.024358181 0.034687728 -0.06541564 0.07006111 -0.087198995 -0.03655821 0.10605433 0.026480414
0.008858971 0.04383444 0.104383424 0.056138568 -0.079818144 -0.10256655 -0.052766267 0.023167063
0.097015016 -0.066971555 -0.05947886 0.07994151 -0.012896947 0.026137613 -0.076929465 0.0928544
0.11331787 0.069059595 -0.055952307 0.069285445 0.07302347 -0.00036567415 -0.022249458 0.09455245
-0.0720808 -0.08849751 0.016897393 0.07992533 -0.04533311 -0.013246846 -0.042507574 -0.04339244
0.04356209 -0.029643316 -0.030447531 -0.02535603 -0.029945329 0.006693634 -0.0898066 -0.059390288
0.034265574 -0.09248022 0.06064568 -0.095011055 -0.075510606 -0.066608064 -0.0717491 -0.12284778
-0.07355482 -0.11086397 -0.07949133 -0.099839136 0.0025975085 0.07326507 0.10000389 -0.047216073
0.10017873 0.023274388 -0.06769156 0.06069669 -0.032043245 -0.028771609 -0.00571179 0.02196307
-0.03434437 -0.017500661 0.044411268 0.050762195 -0.06697878 0.03788442 -0.059775498 -0.06303215
-0.04291551 0.100901425 0.005632601 0.085040376 -0.091267146 -0.091904834 0.028378282 -0.042680044
-0.06660773 0.054154813 0.053531058 -0.027745739 -0.006842617 -0.056684885 0.0678349 0.09719489
0.036213204 0.053782053 0.063790254 -0.07462263 0.0349875 -0.031529307 0.072944805 -0.014473716
-0.01984509 -0.008565534 -0.099820815 0.086633176 0.008965156 -0.08654906 0.07250616 -0.036090296
-0.063173495 0.09463354 0.0619917 0.010239818 0.060416546 -0.06991497 -0.0050544622 0.055256646
0.083204925 -0.04425324 0.07415396 0.025977725 -0.08605496 0.021278055 -0.036811203 0.07555599
0.051827695 -0.014390792 -0.08974554 0.020460255 0.031468745 0.11916537 0.09062999 0.059022807
-0.0147704175 0.06623258 -0.113342345 0.061675675 0.054779943 -0.007870629 0.08991128 -0.0082358625

bias f4 [84]
00000000: 95b0 d8bd ca90 723d 32d1 5cbd 1ebb 633c
00000010: 7ed6 2dbd 2ab7 0cbd d1d2 a7bd 6405 92bd
00000020: 6222 a7bd 9c8d cdbb 73c2 2cbd 2665 093d
00000030: a462 fdbc 5b8c 88ba cbda 49bd 3705 e73c
00000040: ab1b 3e3d 064f 973d 413b 4fbd 079a 893d
00000050: cdb9 e33c b0fa d8bd a8ca 35bd 9a34 54bd
00000060: b0e1 9c3d d265 eebd e2a4 b2ba a969 603d
00000070: 67df 903d 9b7b 9fbd 9971 6d3d 021e 973d
00000080: 2f8d dabb 6f57 0c3d 29e1 84bd d885 413d
00000090: 3069 c03d 6ad9 acbd 86b1 8fbd b924 dc3c
000000a0: 6ce5 383d e061 b8bc 179e 983d 5d6b 1b3c
000000b0: 18f6 1cbd 61c3 b7bc 3160 bebd 1155 e43c
000000c0: a938 8d3d add8 5b3d a96e 51bb 5fde d7bb
000000d0: 95da 693d be9c 963d e62b 60bd 4bc0 94bd
000000e0: ce72 b9bd d35c 89bd a551 c63c 1089 efbd
000000f0: 86fd aa3c d493 da3d 0e21 d3bd 2d17 133d
00000100: 02aa 8c3c 4f80 0d3d e260 f03d 9e8d 33bd
00000110: 993b b13d 6c58 fe3c f1cb 99bd 2d30 10bd
00000120: a06d a63d 3ca4 99bd 23e1 4dbd 795d 303d
00000130: 3b5f 25bd 694c 3f3d dd45 763d 27c0 9e3d
00000140: d5a8 27bd f5a5 853d 34a4 af3c d89b bdbd
-0.10580555 0.059220113 -0.05391044 0.013899593 -0.042440884 -0.034354366 -0.08194507 -0.071299344
-0.08160855 -0.0062729847 -0.04217763 0.03354373 -0.030930825 -0.0010417806 -0.049280923 0.028200729
0.046413105 0.073881194 -0.05059362 0.067188315 0.027798558 -0.1059469 -0.04438272 -0.051807977
0.07660234 -0.116405144 -0.0013629461 0.054788265 0.070738606 -0.07787248 0.057969663 0.073787704
-0.0066696624 0.03426307 -0.064882584 0.047246784 0.09395063 -0.08439906 -0.07016282 0.02687298
0.04514067 -0.022507608 0.07452028 0.009486047 -0.03832063 -0.022432031 -0.09295691 0.027872594
0.06895573 0.053673435 -0.0031956828 -0.006587788 0.05709322 0.07354115 -0.054729365 -0.072632395
-0.090551004 -0.06707158 0.024208853 -0.116960645 0.020872843 0.10672727 -0.10309039 0.035910774
0.01717091 0.034546193 0.11737229 -0.04383623 0.086539455 0.031048022 -0.07509602 -0.035202194
0.08126378 -0.07502028 -0.050263535 0.043057892 -0.040374022 0.04670373 0.06012522 0.07751494
-0.040932495 0.065257944 0.021440603 -0.092582405

weight f4 [42, 84]
00000000: 9f7e 013d 1fe7 efbd ce3d a1bd 8520 1b3d
00000010: 3ec1 4cbd 32dd 9dbd dd57 b83d 09aa acbc
00000020: c754 803d 5dad 84bd ccfc c73d ebbe 73bd
00000030: 1d0b 96bd 6e09 8fbd 250b c33d 6286 ab3d
00000040: a441 413d 9460 b4bd e3ab 06bc 5bab c33d
00000050: 05bb 6c3d 9e29 7bbd 82cf 44bd d709 be3d
00000060: d0c5 a73b 440b adbb bebb debd d6c7 c4bb
00000070: dd83 823d 7420 3fbc 4cef d0ba 4e14 b53d
00000080: 5a9c 81bc 1d95 a2bd 17fd 43bd 8664 1d3d
00000090: 222c a53d fcc5 e43d 57fa 79bd 5fba 59bd
000000a0: 1786 3cbc 6b23 c13d 1c9c 503d 35f9 2d3c
000000b0: b299 d3ba c720 5bbb d76e 9ebd 5be4 663d
000000c0: a1f5 03bd 5c28 143d 8018 f6bd 98bf 6abd
000000d0: d0a6 b83d 0aef 953d 6dee 6cbd aed4 263d
000000e0: 5417 cfbb e971 ac3a 315a 11bd 5a92 b63d
000000f0: 8170 543d ac04 39bd b8ae 37bc 169f 543c
00000100: 6708 b4bd faaf f5bd 2286 9bbd b1da da3d
00000110: a77d f9bc aa64 8dbd 4eb7 a0bd 57e2 d1bd
00000120: 17fd 83bc 3939 323d 23dd 85bc df62 96bd
00000130: 461d 433d b5be 96bd 8dac dcbd bf55 423d
00000140: 6165 ce3d c6c3 39bd fc5f 793d 4329 d13d
00000150: f64c e2bc c9d0 7bbd a892 ad3d b713 5b3d
00000160: 0e02 45bd 2245 12bd 44b1 dd3c 8004 ef3d
00000170: 5c80 c1bd d214 983d 640f 843d 4295 da3d
00000180: 4b06 94bc ddd1 81bb be48 4fbd 806b 0ebd
00000190: 479e b5bd 0dfd cbbd cf02 1abd c8ee cdbd
000001a0: 4bf2 a13d 179a 84bd ad80 c13d f832 70bd
000001b0: 14bc 553d 5f81 77bd e1ca 8dbd e25e c03d
000001c0: 8e57 523d 0872 3b3d 3abc 3b3d 8b29 6abc
000001d0: e25a d03d eaef 6a3d dc74 ce3c 6c1f 92bd
000001e0: 7832 c2bc be33 4e3b d405 a8bd 9cdf 94bd
000001f0: bd2a 703d 0106 e7bc 2712 553d e442 253d
00000200: c443 4ebd 10c6 cdbd c254 dc3d 12f0 65bc
00000210: 10f2 c23d f4c8 48bd 7924 c9bd 7da9 5cbd
00000220: 6f25 dcbd dc5d ac3d 13f3 943d b33f e73d
00000230: 00f0 50bd fc2d d43d b1c6 b73d efe7 01bc
00000240: 7138 42bd b068 823c ce7e 5a3d 2f5e a73d
00000250: 9c9a fd3c 162a 5c3d cef3 a63d 7812 67bd
00000260: 1da1 34bd d15a bb3d 9890 863d c424 cc3d
00000270: 71c6 ae3d c789 5dbd 7391 b9bc aee8 85bc
00000280: e35c 85bd 0be5 1f3d 79f9 cfbc 92c0 373d
00000290: ec3c 04bc 11f4 b0bd 9ce1 a33d 6ad8 95bd
000002a0: 7585 31bd e703 5d3d 700e c639 6ef3 2dbd
000002b0: 7342 c0bd d207 82bd c6d1 ad3d 451c cebd
000002c0: 3260 88bc 42ba 8fbb 1b6c a53c 11b5 813d
000002d0: a6dc 2dbd 3a04 13bd 53c4 d43d 3b0a 8e3d
000002e0: 853a 47bd a633 ccbc e039 533d c544 283c
000002f0: 61c6 bfbc 2a27 80bd 227b b73d a984 9a3d
00000300: 29d3 9ebd fe61 bf3c 6020 b23d 9a09 a23c
00000310: 6704 efbc f160 4fbd 0712 3fbd 6970 82bd
00000320: d5b3 7a3d b74c ff3d 582b 7dbd e3b0 4e3d
00000330: 077d 78bd 0fd3 503d 7094 e8bc 43ec a1bd
00000340: 20a7 a03d 0680 afbd f753 2e3d 0560 59bb
00000350: 18b5 183d d806 80bd 05f4 4839 8c6a d3bd
00000360: b8c0 b6bd 8430 84bd 5faf 8abd 2358 983d
00000370: f4aa 9abb 22b3 eb3d 734b a039 842e dfbd
00000380: dd73 a03d a251 dbbd 8867 73bd cda2 8abd
00000390: 182e 4a3c 6e18 853d 9629 bfbd 2af2 513d
000003a0: 8251 c5bb 4bab 063d 034d 7e3d 60da 0ebc
000003b0: 19b3 39bd 81ec 343d e72b abbc 3274 123d
000003c0: 5569 75bd c83b e5bc 8d92 9c3d 7f2c 0bbd
000003d0: 7937 ad3d 32f6 3b3d 8fe9 89bd 3c7e 7d3d
000003e0: dbd5 3e3b 30ac c43d ad72 60bd 4f9a 9bbd
000003f0: 2eac 533d 52f6 ca3d 9c1b a5bd 1d35 353d
0.031614896 -0.11714005 -0.078731164 0.03787281 -0.049988978 -0.07708205 0.090011336 -0.021077173
0.0626617 -0.06478379 0.09765014 -0.059508245 -0.073263384 -0.069842204 0.0952361 0.08375241
0.04718174 -0.08807483 -0.008219692 0.09554168 0.057795543 -0.061318986 -0.048049457 0.092792206
0.0051200166 -0.005280884 -0.10875653 -0.0060052676 0.06372807 -0.011665452 -0.0015940457 0.088417634
-0.015821625 -0.07938597 -0.047848787 0.038425945 0.08065058 0.11170575 -0.06102976 -0.053156253
-0.011506579 0.094305836 0.050930128 0.010618498 -0.0016143827 -0.0033436285 -0.07735985 0.05637012
-0.03221667 0.036171302 -0.12016392 -0.057311624 0.09016192 0.07320984 -0.057844568 0.04073017
-0.0063199196 0.0013156506 -0.035486404 0.08914633 0.051865105 -0.04517047 -0.01121109 0.012977382
-0.08790665 -0.119964555 -0.07593943 0.10686243 -0.030455424 -0.06903966 -0.078474626 -0.10248249
-0.016111894 0.043511603 -0.016340798 -0.07343077 0.04763534 -0.07360593 -0.10775099 0.047445055
0.1007793 -0.04535272 0.060882553 0.10212948 -0.027624588 -0.06147841 0.08475238 0.0534856
-0.048097663 -0.03571046 0.027062066 0.1167078 -0.09448311 0.07425846 0.06448248 0.10673
-0.018069407 -0.003961785 -0.05060648 -0.03477049 -0.0886808 -0.09960375 -0.037600335 -0.100553095
0.07907542 -0.06474703 0.09448371 -0.058642358 0.05218132 -0.060426112 -0.06923462 0.093930975
0.05135303 0.045763046 0.045833804 -0.014292131 0.101735845 0.057357706 0.025202207 -0.071348995
-0.023705706 0.0031463946 -0.082042366 -0.072692126 0.05863451 -0.028201105 0.052019265 0.040346995
-0.050357595 -0.10047543 0.10758354 -0.014034288 0.09518826 -0.04901977 -0.0982141 -0.053872574
-0.107493274 0.0841634 0.07272925 0.112914465 -0.05101013 0.10360333 0.08973444 -0.007928832
-0.047417108 0.01591906 0.053343587 0.08172261 0.030957513 0.053751074 0.08151971 -0.056414098
-0.044098962 0.09148181 0.06570548 0.0996795 0.085339434 -0.054086473 -0.022652363 -0.016346302
-0.06511857 0.03903679 -0.025387513 0.044861384 -0.0080711655 -0.08640302 0.08002016 -0.07316668
-0.043340165 0.0539588 0.0003777626 -0.04246848 -0.09387674 -0.06349148 0.08487277 -0.10063986
-0.016647432 -0.0043862173 0.02019315 0.06333364 -0.042446755 -0.035892703 0.103890084 0.06935545
-0.048639793 -0.024926972 0.051568866 0.010270302 -0.023410024 -0.0625747 0.089590326 0.07544834
-0.07755119 0.023362156 0.08697581 0.019779969 -0.029176904 -0.05062956 -0.04664805 -0.06369097
0.061206657 0.12465804 -0.061808914 0.05046166 -0.06066611 0.05098253 -0.028391093 -0.079063915
0.078443766 -0.085693404 0.042560544 -0.0033168804 0.03728208 -0.06251305 0.0001916439 -0.103230566
-0.08923477 -0.06454566 -0.06771731 0.07438686 -0.004720086 0.11508776 0.00030573792 -0.10897544
0.07834599 -0.107089296 -0.059424907 -0.06769333 0.012340091 0.064988 -0.09334104 0.051256336
-0.0060216794 0.0328782 0.062085163 -0.008719057 -0.045336816 0.04417086 -0.020894958 0.035755344
-0.059914906 -0.027982607 0.0764514 -0.03397798 0.08457846 0.045889087 -0.06734001 0.061887965
0.0029119167 0.09603155 -0.054796863 -0.075977914 0.051677875 0.09910263 -0.08061907 0.044240106

bias f4 [42]
00000000: 3579 833d 1cc7 873d e514 07ba fe5d c23d
00000010: 6e2a b13d 0a8c b3bd 556c 403c 67cc 1dbc
00000020: 83a7 74ba 689a 503c e70c ab3d 5894 f8ba
00000030: dee0 a0bd d9ca 623d bfc8 eebc 1000 933c
00000040: f357 d73b 0d49 6dbd e8c8 a33d d877 b7bd
00000050: 2542 7dbd 44a2 85bb a4c2 14bb ac1e 33bd
00000060: 5879 a63c 38de 4abd c8bf c2bd 46e9 85bc
00000070: e30e 92bc b25d a23d b4e2 e6bd 9ea8 f4bd
00000080: a6d8 e73d 298d db39 7592 af3d ae7e 96bd
00000090: 0dc6 d43d c274 c23d 456e adbb 1b19 cd3d
000000a0: fcd2 c33d cba9 9e3d
0.06419603 0.06629774 -0.0005152955 0.09490584 0.08650671 -0.08766945 0.011744578 -0.009631253
-0.00093328225 0.012732126 0.0835207 -0.0018965108 -0.0785539 0.05536923 -0.029148458 0.017944366
0.0065717637 -0.057930995 0.07997304 -0.08958405 -0.06183066 -0.0040781815 -0.0022699023 -0.043730423
0.020321533 -0.04952833 -0.095092356 -0.016346585 -0.017829364 0.07928027 -0.11273709 -0.11946224
0.11320619 0.00041876108 0.08572856 -0.07348381 0.10389338 0.09494926 -0.005292686 0.10014554
0.095617265 0.07747229

weight f4 [1, 42]
00000000: 274f 8eb9 5385 e73c 87a8 64b8 a1ef 1bb9
00000010: dbea 563b ee08 8dbd 60b6 a0bd cf7a e63d
00000020: df94 1ebe 2a33 13be ee51 ac3d a060 533c
00000030: 38d5 983d 5532 9abc eecd acbd d6e9 c3bd
00000040: 1805 c5b9 a047 1fb9 fb2c fbbd 985e cdbd
00000050: 791b 133a 6527 82bd fbe7 6a39 0b0f 4bb9
00000060: be14 98bc d250 fe3d 136d 5bba ce6d 4fba
00000070: 7231 ac3d 8cc0 743a e7fb f13d 3d5f 103e
00000080: 05c3 79bd aed2 5b3c f731 3839 9fd2 eabd
00000090: 7c7e 18be a0be 8c3a 3d98 dabd e965 05be
000000a0: d71c 20bb 2276 ad3d
-0.00027143324 0.028261816 -5.451639e-05 -0.0001487122 0.0032793793 -0.06886469 -0.07847285 0.11253893
-0.15486477 -0.14374986 0.08414064 0.012901455 0.07462543 -0.018822828 -0.084377155 -0.09566085
-0.00037578563 -0.00015190104 -0.12264439 -0.10027808 0.0005611699 -0.0635517 0.00022402398 -0.00019365193
-0.018564578 0.12417759 -0.00083704403 -0.00079127855 0.084078684 0.0009336553 0.11815625 0.1409883
-0.060977 0.013416929 0.00017566221 -0.11465954 -0.14892 0.0010737963 -0.106735684 -0.13027157
-0.0024431252 0.08469798
