ModelUnpredictability/one_thousand_brains/predictor_1.model (torch_old, 109395 bytes, 7 tensors)

weight f4 [84, 168]
0.03086195 0.01582712 0.003452571 -0.041074913 0.04745183 -0.0056145256 -0.010606795 -0.07266369
0.05566102 -0.0423188 0.05495215 -0.023755303 0.046357535 0.056803457 0.05093526 0.02903061
-0.06642858 -0.009692049 -0.07709303 0.016606594 -0.06564855 0.01777519 -0.044842444 0.019352922
-0.00011065486 0.045249593 0.031252507 0.033201337 0.017397085 -0.0016419322 -0.011068625 -0.0670703
-0.0454083 -0.038793042 -0.077655666 0.046919916 0.02471544 0.029035442 -0.053722173 -0.060768567
-0.03547291 0.05208919 0.049684357 0.06655496 0.012765034 -0.07285098 -0.047593348 0.03376297
-0.027055146 -0.058905944 0.030437008 -0.06211361 0.037582535 0.04284676 0.06279212 -0.067067176
-0.07719353 -0.01749227 0.046163466 -0.040436387 0.043382563 0.048841517 -0.033970814 -0.011157384
-0.010493258 0.03518335 -0.050436985 -0.026548073 0.023284819 0.034841318 -0.03474404 -0.003973058
0.0071619833 -0.024584934 0.044755895 0.0011307894 -0.002443862 0.035682857 0.011430684 0.005621904
-0.06934187 -0.0052574594 -0.004906853 0.0008317994 -0.06431117 0.07111342 -0.037175126 -0.0031201185
0.036829114 -0.039096575 -0.073809765 -0.036534116 -0.061698284 -0.0069433413 0.0013595503 0.04529881
0.0055709966 -0.011451094 0.0056937938 0.050746523 0.05799667 -0.027494237 -0.022281794 -0.07647334
0.0008823924 0.02404716 0.011979431 0.038338874 -0.012985553 0.034352846 -0.0058424203 -0.01653232
0.027743306 -0.06018909 -0.049651105 0.0708798 0.03668386 -0.067834206 0.050759513 0.0035657806
-0.01485712 0.0015509746 -0.042006683 0.06752596 0.046125222 -0.0053849965 -0.06519301 -0.034264665
0.04713456 0.06636292 0.028601104 0.0019344751 -0.0025108105 0.014330986 0.009330311 0.059755553
0.047543917 0.0434501 0.054007445 0.059142143 -0.026414407 0.07082908 0.029817818 -0.045801505
0.047518414 0.011901987 -0.014527877 0.016584711 -0.038884174 -0.018248612 -0.06791143 0.020686526
0.014905291 -0.073685504 -0.02665786 0.030853145 -0.033931658 -0.074118175 -0.038109373 -0.06314046
-0.064505376 0.0032921324 -0.027833967 0.038623184 0.067327395 -0.0340422 -0.014726257 -0.030503888
-0.03078812 -0.03471544 -0.021174032 -0.05719798 -0.06117386 0.074646 0.038685575 0.02947884
0.04787717 0.009557362 -0.023048036 -0.06397239 0.055091016 -0.021071885 0.04264857 0.009954111
-0.049601443 0.076565504 0.06623105 -0.06842419 0.059305523 0.009923767 0.027989348 0.0147984065
-0.052903466 -0.06707922 0.043751583 -0.008093116 -0.019900061 -0.065705344 -0.05884082 0.015841888
0.06702619 0.00706303 -0.0058314684 0.05165662 0.01880832 -0.036898486 -0.0057674847 0.0013754591
0.04539282 -0.019478038 0.04149633 0.039791096 0.034171667 0.03907406 -0.04604872 -0.053487275
-0.06360627 0.07781436 -0.042118233 -0.025551941 0.07215143 -0.062112525 0.031891745 -0.05477264
0.053523503 -0.067154355 -0.02149159 -0.04368802 0.053904824 0.02649534 0.019937336 0.006482773
-0.04930291 -0.07199811 -0.033394527 0.021318963 -0.020095512 -0.017830577 0.034129445 0.038440082
-0.036659352 0.027615197 -0.061727185 -0.037432544 0.017772622 0.024207862 0.016862415 0.06994243
-0.04595776 0.0057004946 0.023404187 0.038292713 0.0046251 -0.023354428 -0.020885788 0.01680774
00000000: 33d2 fc3c e0a7 813c 8844 623b 2b3e 28bd
00000010: da5c 423d 0efa b7bb 1fc8 2dbc b3d0 94bd
00000020: cffc 633d 7a56 2dbd 8115 613d 7b9a c2bc
00000030: 66e1 3d3d beaa 683d 7ea1 503d 9ad1 ed3c
00000040: b50b 88bd 66cb 1ebc f3e2 9dbd 8d0a 883c
00000050: bf72 86bd 469d 913c b6ac 37bd 058a 9e3c
00000060: 600f e8b8 a357 393d a102 003d 20fe 073d
00000070: 5584 8e3c 1a36 d7ba 2e59 35bc 275c 89bd
00000080: 0efe 39bd 74e5 1ebd ef09 9fbd 192f 403d
00000090: 0978 ca3c bcdb ed3c c80b 5cbd 76e8 78bd
000000a0: 0b4c 11bd 795b 553d d381 4b3d f84d 883d
000000b0: 6f24 513c e532 95bd 3ef1 42bd 0a4b 0a3d
000000c0: c1a2 ddbc 5c47 71bd 0857 f93c d76a 7ebd
000000d0: 25f0 193d 1680 2f3d 2899 803d 845a 89bd
000000e0: a417 9ebd f34b 8fbc e715 3d3d a0a0 25bd
000000f0: eab1 313d 0b0e 483d fb24 0bbd 76cd 36bc
00000100: eaeb 2bbc 6b1c 103d 0397 4ebd 587b d9bc
00000110: cebf be3c c5b5 0e3d c44f 0ebd 6d30 82bb
00000120: 12af ea3b 5866 c9bc f551 373d ff36 943a
00000130: 3329 20bb 3028 123d c347 3b3c f337 b83b
00000140: 1c03 8ebd c446 acbb abc9 a0bb 1d0d 5a3a
00000150: 93b5 83bd eaa3 913d f244 18bd e77a 4cbb
00000160: 20da 163d bb23 20bd 9329 97bd cca4 15bd
00000170: 57b7 7cbd f884 e3bb f032 b23a 3f8b 393d
00000180: e88c b63b 5f9d 3bbc 0193 ba3b 96db 4f3d
00000190: eb8d 6d3d 983b e1bc 4f88 b6bc 0e9e 9cbd
000001a0: 5a50 673a 8dfe c43c 6045 443c 3909 1d3d
000001b0: 5bc1 54bc 92b5 0c3d c671 bfbb ca6e 87bc
000001c0: ee45 e33c d688 76bd f55e 4bbd 6e29 913d
000001d0: d141 163d a9ec 8abd 35e9 4f3d dfaf 693b
000001e0: 476b 73bc 124a cb3a 330f 2cbd 0d4b 8a3d
000001f0: cded 3c3d a074 b0bb ea83 85bd 1b59 0cbd
00000200: 2b10 413d 48e9 873d dd4c ea3c 378e fd3a
00000210: 698c 24bb 83cc 6a3c 29de 183c 3dc2 743d
00000220: 69bd 423d bbf8 313d e936 5d3d 083f 723d
00000230: 0763 d8bc d60e 913d 7f44 f43c 5c9a 3bbd
00000240: aba2 423d 8d00 433c 5506 6ebc a9dc 873c
00000250: 0345 1fbd 1d7e 95bc 2615 8bbd ca76 a93c
00000260: 5235 743c 6de8 96bd 9661 dabc bcbf fc3c
00000270: ecfb 0abd 45cb 97bd 9318 1cbd c94f 81bd
00000280: 651b 84bd d1c0 573b 0f04 e4bc 5833 1e3d
00000290: f2e2 893d d56f 0bbd 6646 71bc 4ae3 f9bc
000002a0: 5e37 fcbc c731 0ebd 2a75 adbc 6e48 6abd
000002b0: 7191 7abd 01e0 983d c474 1e3d 9c7d f13c
000002c0: da1a 443d 7b96 1c3c 3ccf bcbc f503 83bd
000002d0: 1ea7 613d f29e acbc 44b0 2e3d 9116 233c
000002e0: e22a 4bbd 60ce 9c3d 25a4 873d fb21 8cbd
000002f0: 59ea 723d 4c97 223c eb49 e53c 0475 723c
00000300: 4eb1 58bd d560 89bd dc34 333d fd98 04bc
00000310: 7405 a3bc 8690 86bd 1203 71bd d9c6 813c
00000320: 0745 893d fd70 e73b e715 bfbb e495 533d
00000330: e813 9a3c de22 17bd 2bfd bcbb c048 b43a
00000340: d2ed 393d 6890 9fbc 0ef8 293d fdfb 223d
00000350: 97f7 0b3d 1f0c 203d 959d 3cbd 7915 5bbd
00000360: 0144 82bd 235d 9f3d 2b84 2cbd 4e52 d1bc
00000370: 21c4 933d b469 7ebd eba0 023d 4759 60bd
00000380: 763b 5b3d 3988 89bd 220f b0bc 36f2 32bd
00000390: 4ecb 5c3d c10c d93c a053 a33c 716d d43b
000003a0: d9f1 49bd bf73 93bd b3c8 08bd 1ba5 ae3c
000003b0: 589f a4bc 6e11 92bc 51cb 0b3d 5973 1d3d
000003c0: 1e28 16bd 4439 e23c a5d5 7cbd de52 19bd
000003d0: e497 913c 914f c63c 0c23 8a3c fa3d 8f3d
000003e0: 343e 3cbd 37cb ba3b 23ba bf3c d2d8 1c3d
000003f0: 278e 973b c951 bfbc ac18 abbc 63b0 893c

bias f4 [84]
0.07226672 0.047914132 0.036958087 0.00946115 0.045256805 0.030221503 0.017767256 -0.060587704
-0.02009876 0.06438533 -0.02055248 0.023272473 -0.02854158 -0.056419924 0.055272426 -0.03349574
-0.069754116 0.017458968 0.05360391 -0.06784301 -0.02143677 0.043911457 0.036347024 0.022667054
0.04658141 0.037442088 -0.030580344 0.03526032 -0.06543017 0.06488879 -0.049695764 -0.015290783
0.034903016 0.019315017 0.02497378 -0.058267772 0.038236115 0.05628444 -0.013731267 -0.0020172137
0.04171542 0.044556 0.06494905 -0.06340504 0.03194792 0.016473303 -0.017788155 -0.036353454
0.06650261 0.07322562 0.054714944 0.07255963 -0.041149694 -0.0024888113 -0.015613376 0.011682958
-0.051111434 0.010299414 0.059472315 0.044168193 0.007890817 -0.040133502 0.042913266 -0.020521956
0.05001481 0.031165076 0.059790764 -0.007453595 -0.03848815 0.06661046 -0.07057305 0.019330345
-0.0061740046 -0.0680905 0.062719025 -0.05667002 -0.013666093 -0.012946173 0.023531266 0.021814935
0.051767062 0.07083922 -0.014996935 -0.02216451
00000000: 9300 943d 9c41 443d 5d61 173d f002 1b3c
00000010: 335f 393d 1693 f73c a38c 913c d02a 78bd
00000020: 28a6 a4bc 75dc 833d ad5d a8bc eaa5 be3c
00000030: 08d0 e9bc 9418 67bd 5765 623d d432 09bd
00000040: 3fdb 8ebd 1c06 8f3c c68f 5b3d 47f1 8abd
00000050: 2a9c afbc 80dc 333d 9ee0 143d 42b0 b93c
00000060: 26cc 3e3d e05c 193d a183 fabc 206d 103d
00000070: 4100 86bd 6ae4 843d c98d 4bbd 3186 7abc
00000080: 77f6 0e3d 873a 9e3c d095 cc3c 30aa 6ebd
00000090: 799d 1c3d 838a 663d 1cf9 60bc 3b33 04bb
000000a0: cadd 2a3d 5a80 363d 0204 853d 80da 81bd
000000b0: d2db 023d 05f3 863c 77b8 91bc 5ce7 14bd
000000c0: 8532 883d 50f7 953d c71c 603d 259a 943d
000000d0: 958c 28bd 531b 23bb 3fcf 7fbc e169 3f3c
000000e0: 395a 51bd e0be 283c 3e99 733d b5e9 343d
000000f0: 7c48 013c 0763 24bd d2c5 2f3d a91d a8bc
00000100: 54dc 4c3d e74d ff3c 29e7 743d 493d f4bb
00000110: c0a5 1dbd 116b 883d 9a88 90bd ac5a 9e3c
00000120: 4e4f cabb 0873 8bbd d572 803d d31e 68bd
00000130: c0e7 5fbc 2f1c 54bc a4c4 c03c 3cb5 b23c
00000140: b309 543d 2714 913d b4b5 75bc 5992 b5bc

weight f4 [84, 84]
-0.0047854856 -0.09147782 -0.01100008 0.09815921 0.04773145 -0.055980396 -0.011558542 0.09775645
-0.09287183 -0.022488836 -0.036511444 -0.079308264 0.0918357 -0.02769269 0.0219987 -0.028206484
0.040793028 0.02068068 -0.07620394 0.09101143 0.09198978 0.007772675 -0.0010487253 -0.069098495
0.106783636 -0.044143457 -0.090498805 0.0862795 0.08441725 -0.07146241 0.057522904 0.054113645
0.033659067 -0.03234647 0.08027737 0.017225174 -0.0930265 -0.039571606 -0.0853166 0.035991363
-0.079362765 -0.022807626 0.04353704 -0.08352333 -0.036860503 0.09190713 0.105509676 0.10412506
-0.06785876 0.03853869 0.0016230643 -0.030939009 0.08068915 0.087142006 0.068521604 0.05034781
0.013224134 -0.012957223 0.03441861 -0.07405535 0.006354603 -0.03252114 0.09379425 0.04369558
0.021099435 -0.08410836 -0.017256072 -0.08700591 0.02291591 -0.06681939 -0.080900215 -0.021392407
0.028229335 -0.098357275 -0.046520136 0.04953333 -0.04109965 0.041522726 -0.09816322 0.039149772
-0.095319025 -0.0071981065 -0.038640138 -0.058777507 0.051913593 -0.09522162 0.04123636 -0.03981931
-0.06361856 0.09118845 0.08942285 0.040769406 -0.09979697 -0.058447227 -0.08918555 0.014986658
-0.081025675 -0.07734863 0.028108949 -0.09010986 0.104889385 0.018289873 -0.057362285 0.011699932
0.09608948 0.077249356 -0.039065488 -0.0366586 -0.08627275 -0.0061476836 0.023764895 -0.030611983
-0.033347003 -0.006870945 0.088496074 -0.02233908 0.07043575 -0.07887172 0.058086734 0.020722747
0.05965508 0.10306411 -0.08396762 -0.01728299 0.054236416 0.038706955 -0.073330775 0.09653833
-0.006476139 -0.048976738 0.10263096 -0.08387846 -0.06989741 -0.07176229 -0.056355845 0.066114604
-0.035838228 0.043244366 -0.06882785 -0.0003334897 0.05457385 -0.014525552 0.009593049 -0.061607543
0.047507737 -0.037205234 -0.07446556 -0.078736514 0.03323295 -0.08804971 -0.0563933 -0.0053258217
-0.023419477 -0.114069894 -0.012873084 0.086795874 0.059617903 0.001412651 -0.0062647327 0.023385508
0.038090628 0.03294244 0.060869653 -0.016752385 0.04029478 -0.06424291 0.01015442 0.07652511
0.057770167 -0.04814586 -0.0011722894 -0.052167553 -0.048820306 0.041715514 -0.04029013 0.049028657
0.018275687 -0.08778153 0.02964958 0.011092372 0.06103951 -0.06709489 0.04106148 -0.04164638
0.058553297 0.07670943 0.06936068 -0.039295528 0.05381517 0.08771915 0.095685445 -0.011334014
0.0153300995 -0.037525162 -0.03957646 0.033205926 -0.0650923 0.042140927 0.013097197 0.04646635
0.04818181 0.00061446556 -0.041913785 0.09666788 0.0787417 0.071607746 0.06540305 -0.065976374
0.095942356 -0.04886089 -0.015160078 0.031775333 0.024286445 0.041745774 0.020078963 0.024159465
0.019743785 0.0059246393 0.034412317 0.059165586 0.062254213 -0.05467275 -0.040357437 0.082752384
0.015845707 2.7361966e-07 0.011139026 0.04460276 0.06372391 0.06246333 0.021853112 0.05181514
-0.04308381 0.022570856 0.055225894 -0.00520753 0.003174677 0.016022982 0.058156293 -0.08285428
-0.07991435 0.019210685 -0.02640839 -0.070561066 0.015128753 -0.081562504 0.00474845 -0.05425002
0.040411387 -0.06833998 0.046710044 -0.012639728 -0.040334154 -0.1019539 -0.048777763 0.01630394
00000000: 90cf 9cbb b958 bbbd ae39 34bc b207 c93d
00000010: 0e82 433d b34b 65bd 0a60 3dbc 8934 c83d
00000020: 9633 bebd 823a b8bc 068d 15bd 5f6c a2bd
00000030: 5b14 bc3d c8db e2bc 9e36 b43c 4911 e7bc
00000040: 9716 273d 886a a93c d010 9cbd 3364 ba3d
00000050: 2365 bc3d ecb1 fe3b 6275 89ba 8383 8dbd
00000060: 61b1 da3d c5cf 34bd 7057 b9bd 4eb3 b03d
00000070: f3e2 ac3d e25a 92bd 239d 6b3d 45a6 5d3d
00000080: 17de 093d bb7d 04bd 7668 a43d cf1b 8d3c
00000090: ad84 bebd d615 22bd 78ba aebd ae6b 133d
000000a0: f288 a2bd 0fd7 babc e553 323d 480e abbd
000000b0: 0afb 16bd ce39 bc3d 7515 d83d 853f d53d
000000c0: 89f9 8abd bfda 1d3d 00bd d43a ce73 fdbc
000000d0: 5a40 a53d 8277 b23d 0e55 8c3d 8139 4e3d
000000e0: 0aaa 583c 884a 54bc 87fa 0c3d 55aa 97bd
000000f0: 463a d03b e334 05bd 3317 c03d 23fa 323d
00000100: b9d8 ac3c 0141 acbd 9b5c 8dbc 2830 b2bd
00000110: 26ba bb3c 9bd8 88bd 03af a5bd 213f afbc
00000120: 3541 e73c 8a6f c9bd e68b 3ebd 76e3 4a3d
00000130: 1b58 28bd bc13 2a3d cc09 c9bd 835b 203d
00000140: 9f36 c3bd 18de ebbb 1f45 1ebd afc0 70bd
00000150: 59a3 543d 8d03 c3bd 75e7 283d 9319 23bd
00000160: 734a 82bd 03c1 ba3d 5423 b73d d2fd 263d
00000170: 5b62 ccbd 5c66 6fbd eaa6 b6bd 998a 753c
00000180: caf0 a5bd f568 9ebd bd44 e63c 858b b8bd
00000190: 3fd0 d63d a5d4 953c b7f4 6abd 12b1 3f3c
000001a0: 90ca c43d e934 9e3d 2203 20bd 5427 16bd
000001b0: c4af b0bd 8272 c9bb 99ae c23c fbc5 fabc
000001c0: de96 08bd aa25 e1bb 6e3d b53d 7200 b7bc
000001d0: 9e40 903d 7f87 a1bd 5bec 6d3d c0c2 a93c
000001e0: e358 743d 4713 d33d 37f7 abbd 0f95 8dbc
000001f0: 0127 5e3d 2f8b 1e3d 722e 96bd e3b5 c53d
00000200: cb35 d4bb d59b 48bd 2e30 d23d 78c8 abbd
00000210: 6026 8fbd 1cf8 92bd 63d5 66bd 1867 873d
00000220: 1bcb 12bd 0121 313d 9ef5 8cbd 3bd8 aeb9
00000230: d488 5f3d 95fc 6dbc 2a2c 1d3c 3158 7cbd
00000240: 7997 423d 8464 18bd 6681 98bd 9c40 a1bd
00000250: 461f 083d 6853 b4bd a9fc 66bd 3b84 aebb
00000260: 34da bfbc 7a9d e9bd a1e9 52bc 09c2 b13d
00000270: e731 743d b428 b93a 6348 cdbb f792 bf3c
00000280: eb04 1c3d a7ee 063d 7552 793d 4c3c 89bc
00000290: 240c 253d c991 83bd b95e 263c 32b9 9c3d
000002a0: 69a0 6c3d 9834 45bd 81a7 99ba a5ad 55bd
000002b0: cdf7 47bd e3dd 2a3d 4307 25bd 46d2 483d
000002c0: e5b6 953c cec6 b3bd ade3 f23c c8bc 353c
000002d0: 9104 7a3d 0c69 89bd 1530 283d 6595 2abd
000002e0: 95d5 6f3d d519 9d3d f90c 8e3d 59f4 20bd
000002f0: 4c6d 5c3d 19a6 b33d bbf6 c33d 4db2 39bc
00000300: 192b 7b3c fcb3 19bd ed1a 22bd f002 083d
00000310: 1d4f 85bd f79b 2c3d a095 563c 8053 3e3d
00000320: 4a5a 453d 1614 213a caad 2bbd cff9 c53d
00000330: 5443 a13d 15a7 923d 09f2 853d 9f1e 87bd
00000340: 6d7d c43d 5b22 48bd fa61 78bc da26 023d
00000350: 5ef4 c63c 9efd 2a3d a37c a43c 12ea c53c
00000360: b8bd a13c 7a23 c23b eef3 0c3d 9d57 723d
00000370: 46fe 7e3d 89f0 5fbd d74d 25bd 157a a93d
00000380: dbce 813c 00e6 9234 7680 363c 62b1 363d
00000390: ae81 823d 8cd9 7f3d 4c05 b33c 1d3c 543d
000003a0: a678 30bd 84e6 b83c 8c34 623d eea3 aabb
000003b0: 3e0e 503b a142 833c 4b35 6e3d 81af a9bd
000003c0: 22aa a3bd ba5f 9d3c 6856 d8bc 5282 90bd
000003d0: 97de 773c 3e0a a7bd e398 9b3b 4535 5ebd
000003e0: 6986 253d d5f5 8bbd 0853 3f3d dd16 4fbc
000003f0: 6d35 25bd 35cd d0bd 31cb 47bd d78f 853c

bias f4 [84]
0.09015512 0.083646215 -0.018143535 0.042431347 -0.0919837 0.017041579 0.093380146 0.07975146
-0.017298646 0.036596857 0.04935073 0.012619031 -0.049052764 0.037664805 0.0037064494 -0.07594138
-0.0680682 0.059260357 0.023542231 0.05338619 0.011418196 0.014825093 -0.03636604 0.077262595
0.07432096 0.07250209 0.10184874 0.029689047 0.066617526 0.014908636 0.07802037 -0.07832663
-0.042832606 -0.040102262 -0.09131301 -0.016548377 -0.053340446 0.037744656 -0.040847573 -0.059202902
-0.08848133 -0.07590531 0.05364074 -0.08538372 0.03026216 -0.059786346 -0.05562863 0.029701503
0.08332397 0.089151576 0.068988524 -0.03565414 0.0665841 0.058856968 -0.042060964 0.020293346
0.026731275 0.082007006 -0.021263355 0.103639476 0.08366817 0.049787983 -0.025341587 -0.041517127
-0.09841768 0.094289444 0.0537841 0.03085347 -0.06485373 -0.066614345 -0.075572655 0.0049902513
0.09430596 -0.02726728 0.020071307 -0.02419577 -0.08219646 -0.034478825 -0.050186813 0.07370784
0.069297895 -0.07168558 -0.063876405 0.08592814
00000000: 3fa3 b83d b54e ab3d c0a1 94bc 7ecc 2d3d
00000010: f361 bcbd c89a 8b3c 173e bf3d bc54 a33d
00000020: e4b5 8dbc 96e6 153d fe23 4a3d 0dc0 4e3c
00000030: 8deb 48bd 6946 1a3d e7e7 723b 2787 9bbd
00000040: 5767 8bbd fdba 723d a3db c03c 7aab 5a3d
00000050: 6313 3b3c f2e4 723c 8ff4 14bd da3b 9e3d
00000060: 9635 983d fa7b 943d 1296 d03d 7236 f33c
00000070: c56e 883d 5a43 743c 25c9 9f3d b669 a0bd
00000080: 3e71 2fbd 4542 24bd 5102 bbbd 7690 87bc
00000090: 837b 5abd 249a 1a3d c94f 27bd be7e 72bd
000000a0: b335 b5bd 3e74 9bbd 65b6 5b3d a9dd aebd
000000b0: 59e8 f73c 87e2 74bd d9da 63bd 9150 f33c
000000c0: c2a5 aa3d 1a95 b63d db49 8d3d 130a 12bd
000000d0: 3f5d 883d 0114 713d 1e48 2cbd 3b3e a63c
000000e0: 8cfb da3c 4af3 a73d 7d30 aebc ef40 d43d
000000f0: 385a ab3d 7cee 4b3d 2999 cfbc dd0d 2abd
00000100: 358f c9bd d31a c13d b74c 5c3d 6bc0 fc3c
00000110: 08d2 84bd 1a6d 88bd d6c5 9abd 4385 a33b
00000120: 7c23 c13d a15f dfbc 956c a43c 3536 c6bc
00000130: 9e56 a8bd ab39 0dbd b090 4dbd 23f4 963d
00000140: 0eec 8d3d e4cf 92bd a2d1 82bd 18fb af3d

weight f4 [42, 84]
-0.04750414 -0.075339705 -0.09751043 0.06332469 0.009303078 0.08225264 -0.011235492 -0.0626766
-0.104875684 0.055906165 -0.054929584 -0.11354633 0.06520483 -0.04423366 0.094979726 -0.093905725
-0.0782922 0.094500564 0.049335975 0.097543076 0.107487805 0.068995416 -0.058853686 0.035695747
-0.058856584 -0.019318778 -0.052366883 -0.055019427 -0.062819086 -0.009894535 -0.05543041 0.06737885
0.015509407 -0.075392745 0.058634993 -0.045038346 0.091995016 0.011220472 0.10887109 0.007495557
0.060075372 -0.06591753 -0.10748828 -0.038186423 -0.097505555 -0.08257417 -0.06728907 0.08729075
-0.053528044 0.023598662 -0.10344438 0.06780424 0.05770779 -0.040858313 0.09499382 0.04671441
-0.011869092 -0.085396916 0.057924476 0.03737034 0.0013705037 0.057442136 -0.099719726 -0.0025451672
0.026110044 0.102006525 -0.03625919 -0.013209095 0.045538224 0.014192391 -0.078015305 0.034465797
-0.0071892533 -0.043614835 -0.03893583 -0.05586249 0.018886149 -0.045790933 -0.1012553 0.004887059
0.06144353 0.008658875 -0.044789728 0.09188536 0.029167429 0.061111707 -0.08128637 0.042302214
0.05383245 -0.001646952 -0.009766175 0.06324467 0.023679173 0.061443277 0.02254557 -0.048417084
0.06610998 0.0068841744 -0.040714115 -0.06965184 0.027911138 -0.074574836 -0.011534732 0.051525623
-0.11301151 -0.086779006 0.10447092 0.095052786 0.0670016 -0.052649062 -0.059078828 -0.011890108
-0.0599872 0.09419164 -0.05645629 0.036641844 -0.010029479 -0.09085355 0.10137915 0.06766081
-0.042565353 -0.013832518 -0.10931938 -0.08699199 -0.06659051 -0.0131538315 -0.032927334 -0.014087537
-0.049448844 -0.06928271 0.0499033 0.014987624 -0.0064368187 0.101545714 0.03426216 0.05570165
0.017393572 -0.02853508 0.07535414 -0.054573737 -0.012520703 0.07155185 0.012056711 0.07006505
0.05448521 -0.022488138 0.10215278 0.09446285 -0.1088005 -0.08512465 -0.084973484 -0.049606472
0.07606711 -0.04693888 -0.008676031 -0.050085895 -0.05653681 0.03244279 -0.06651829 -0.06278032
0.07246995 -0.07426879 -0.020467129 0.04961381 -0.0039043496 -0.061598532 -0.075442865 0.009259189
0.11387387 -0.07443466 -0.080719024 -0.11247593 -0.04629783 -0.0048673386 -0.06424815 0.025805077
-0.042538825 0.061490145 0.07041932 0.04540508 0.018725876 0.07499881 -0.05318977 -0.039892484
0.04190457 -0.04513994 0.035393678 -0.006128781 -0.04849484 -0.028881364 -0.002279309 -0.09080004
0.11297679 -0.06870557 0.025504492 0.047499754 -0.0028118284 -0.021265738 -0.027784476 -0.010052524
0.00313157 0.085854396 0.08455415 -0.043970335 0.061475705 -0.06273129 0.02790846 -0.097211406
0.081136994 0.027405424 0.0981381 0.06650362 -0.09164208 0.037897922 -0.11157845 -0.013092191
-0.03028661 0.09395305 -0.10722646 0.048893612 0.06662415 0.08104108 -0.021479767 -0.0776559
-0.10190584 0.058613308 0.03841716 -0.0863678 0.029195635 -0.088152096 0.065597884 -0.058392815
0.025203444 0.019303264 0.024741534 -0.090558864 -0.054006245 -0.09787236 -0.088998646 0.019669157
-0.06606429 -0.017444536 -0.09616155 -0.008375058 -0.055139706 -0.016288923 -0.08001132 0.016811715
0.09460031 -0.09387034 -0.03855719 0.05543312 0.08092267 0.058510862 0.00474097 0.08381861
00000000: b393 42bd b44b 9abd 8cb3 c7bd 60b0 813d
00000010: f06b 183c 1274 a83d 1215 38bc 975c 80bd
00000020: 10c9 d6bd ddfd 643d d8fd 60bd fa8a e8bd
00000030: 1c8a 853d 5b2e 35bd bb84 c23d a551 c0bd
00000040: a957 a0bd 8389 c13d 8514 4a3d aac4 c73d
00000050: 9122 dc3d 784d 8d3d 9010 71bd b435 123d
00000060: 9a13 71bd 6a42 9ebc a87e 56bd 0d5c 61bd
00000070: 4ba7 80bd b01c 22bc ff0a 63bd ecfd 893d
00000080: 2b1b 7e3c 8367 9abd 3f2b 703d 217a 38bd
00000090: e267 bc3d 12d6 373c cef7 de3d 4a9d f53b
000000a0: 9811 763d c5ff 86bd d122 dcbd 5e69 1cbd
000000b0: feb0 c7bd a51c a9bd dace 89bd 7ec5 b23d
000000c0: 3940 5bbd fb51 c13c a6da d3bd f3dc 8a3d
000000d0: 015f 6c3d 0c5b 27bd 1f8c c23d 9c57 3f3d
000000e0: 9476 42bc 94e4 aebd 3742 6d3d a411 193d
000000f0: 79a2 b33a 7248 6b3d db39 ccbd d2cc 26bb
00000100: bbe4 d53c cce8 d03d 8484 14bd f66a 58bc
00000110: 4a86 3a3d 3487 683c 7dc6 9fbd 022c 0d3d
00000120: d493 ebbb 78a5 32bd 2d7b 1fbd 11d0 64bd
00000130: 20b7 9a3c 468f 3bbd f05e cfbd 9f23 a03b
00000140: 36ac 7b3d f4dd 0d3c 6f75 37bd 642e bc3d
00000150: 88f0 ee3c 4550 7a3d 7879 a6bd 1645 2d3d
00000160: 6a7f 5c3d 8ade d7ba 4f02 20bc 6c86 813d
00000170: d3fa c13c f2ab 7b3d 7db1 b83c fe50 46bd
00000180: ab64 873d a494 e13b d8c3 26bd a0a5 8ebd
00000190: e6a5 e43c b1ba 98bd 2cfc 3cbc 880c 533d
000001a0: 9472 e7bd 31b9 b1bd daf4 d53d 09ab c23d
000001b0: 2338 893d 8ba6 57bd a4fc 71bd bace 42bc
000001c0: 23b5 75bd 8ce7 c03d b63e 67bd c215 163d
000001d0: af52 24bc 6d11 babd df9f cf3d c091 8a3d
000001e0: 0259 2ebd c9a1 62bc d7e2 dfbd db28 b2bd
000001f0: 9b60 88bd 2b83 57bc d0de 06bd 6acf 66bc
00000200: df8a 4abd 18e4 8dbd 6767 4c3d a78e 753c
00000210: f3eb d2bb 33f7 cf3d 7b56 0c3d 6a27 643d
00000220: f77c 8e3c 66c2 e9bc 4553 9a3d b688 5fbd
00000230: a223 4dbc c789 923d 8389 453c 447e 8f3d
00000240: e22b 5f3d 0b39 b8bc 7a35 d13d bd75 c13d
00000250: ccd2 debd d555 aebd 9406 aebd 2830 4bbd
00000260: 13c9 9b3d fc42 40bd e925 0ebc de26 4dbd
00000270: 2493 67bd bbe2 043d be3a 88bd f892 80bd
00000280: 206b 943d 3c1a 98bd aeaa a7bc da37 4b3d
00000290: 1ee0 7fbb be4e 7cbd ca81 9abd dab3 173c
000002a0: b436 e93d 3371 98bd 0450 a5bd c859 e6bd
000002b0: cba2 3dbd 327e 9fbb 8994 83bd 2b65 d33c
000002c0: 313d 2ebd 17dd 7b3d 0138 903d adfa 393d
000002d0: 0267 993c fa98 993d 84dd 59bd 4d66 23bd
000002e0: 20a4 2b3d a8e4 38bd f6f8 103d f1d3 c8bb
000002f0: 86a2 46bd 9c98 ecbc 7660 15bb 5ff5 b9bd
00000300: 6060 e73d 82b5 8cbd ccee d03c 1a8f 423d
00000310: a746 38bb 7c35 aebc 459c e3bc 57b3 24bc
00000320: 073b 4d3b 6ed4 af3d ba2a ad3d 3d1a 34bd
00000330: f3cd 7b3d 4379 80bd 48a0 e43c c616 c7bd
00000340: 272b a63d 5781 e03c a1fc c83d 0d33 883d
00000350: d8ae bbbd da3a 1b3d 3e83 e4bd a180 56bc
00000360: a01b f8bc 756a c03d 8c99 dbbd ab44 483d
00000370: 3e72 883d def8 a53d 56f6 afbc 0e0a 9fbd
00000380: 02b4 d0bd 8214 703d 505b 1d3d 9ae1 b0bd
00000390: af2b ef3c 1689 b4bd 2f58 863d 4e2d 6fbd
000003a0: 7477 ce3c e121 9e3c c2ae ca3c ed76 b9bd
000003b0: a735 5dbd 4e71 c8bd ec44 b6bd 3621 a13c
000003c0: b74c 87bd d8e7 8ebc 59f0 c4bd 8a37 09bc
000003d0: 2cda 61bd 5970 85bc fadc a3bd b9b8 893c
000003e0: cfbd c13d 183f c0bd 25ee 1dbd d70d 633d
000003f0: c9ba a53d 16a9 6f3d 245a 9b3b 17a9 ab3d

bias f4 [42]
-0.008623079 0.037779767 0.08714474 -0.026959943 0.016310519 -0.020988462 -0.051411785 0.06812996
-0.056876246 -0.07643305 0.06037274 0.042970005 -0.08695101 -0.0003653547 -0.0181091 -0.033780493
0.049260076 -0.030711906 0.09812988 0.078531526 0.0007411445 0.0770197 -0.10025509 -0.06673348
-0.051292267 -0.015271634 -0.10541856 -0.075397104 -0.0430508 -0.002792491 0.009837966 -0.0035461048
0.0010583627 0.097186886 -0.10662264 0.006134295 -0.09298894 -0.053529266 -0.007797771 -0.045876645
0.005926384 0.061011814
00000000: d147 0dbc f5be 1a3d f178 b23d 19db dcbc
00000010: a39d 853c ffef abbc 2a95 52bd b887 8b3d
00000020: 11f7 68bd ee88 9cbd 6849 773d 5101 303d
00000030: 5f13 b2bd 148d bfb9 8959 94bc 6a5d 0abd
00000040: efc4 493d 8997 fbbc 52f8 c83d 23d5 a03d
00000050: 5e49 423a 81bc 9d3d 8a52 cdbd 90ab 88bd
00000060: d717 52bd e035 7abc b0e5 d7bd cc69 9abd
00000070: 0956 30bd 3a02 37bb 6c2f 213c c465 68bb
00000080: c2b8 8a3a eb09 c73d f85c dabd 3202 c93b
00000090: fc70 bebd 8141 5bbd 7284 ffbb 26e9 3bbd
000000a0: 1d32 c23b 86e7 793d

weight f4 [1, 42]
-0.06606972 0.05235144 -0.074910305 0.034365594 -0.10907953 -0.019859701 -0.1282284 -0.060913924
0.08327253 0.13502938 -0.018923728 -0.045861572 0.024440797 0.064829335 0.13041033 -0.029969184
-0.11426836 0.05998895 -0.090298444 0.08007634 -0.042367503 0.011628068 0.06596786 0.017550852
0.04217661 -0.03299929 0.1405691 -0.048062705 0.04280097 0.005190008 0.030074757 -0.021422122
-0.12323269 0.04012866 0.07216673 0.026069038 -0.064908974 -0.121065654 0.112947315 0.008053922
0.10723176 0.09678953
00000000: 904f 87bd 776e 563d 936a 99bd f0c2 0c3d
00000010: 1765 dfbd d0b0 a2bc 4e4e 03be e180 79bd
00000020: ca8a aa3d 2445 0a3e ef05 9bbc 58d9 3bbd
00000030: 1138 c83c 3ec5 843d 498a 053e ef81 f5bc
00000040: 8805 eabd f9b6 753d 64ee b8bd 10ff a33d
00000050: 8c89 2dbd a783 3e3c 281a 873d cec6 8f3c
00000060: 62c1 2c3d 432a 07bd 59f1 0f3e 66dd 44bd
00000070: 1250 2f3d f110 aa3b 565f f63c 727d afbc
00000080: 6c61 fcbd f35d 243d 27cc 933d bc8e d53c
00000090: ffee 84bd 45f1 f7bd ec50 e73d 99f4 033c
000000a0: 539c db3d 9739 c63d
