ModelUnpredictability/one_thousand_brains/predictor_94.model (torch_old, 109395 bytes, 7 tensors)

weight f4 [84, 168]
00000000: fa3c a73d b8be 5d3d b532 20bc cc30 673d
00000010: 3102 a03d e8e1 44bc 3651 b03d 0998 953d
00000020: 6dbd bdbb b0c5 f53c c34c 7b3c 2462 21bd
00000030: 1463 39bc 12b1 1d3c 5e76 b33c 0ca2 13bd
00000040: ecae 9d3d 0397 c83b 467f cb3c bbb3 45bb
00000050: 413e bebb 63a4 22bd 7f76 8c3d 29bf 793c
00000060: 7b8b 483d 76b7 03bd 9e05 443d f26b 0eb9
00000070: 544d 443d 9b0d 073d 11a5 0a3d a6c3 103c
00000080: 30be 413d cc50 233d 4714 283d 549e 01bd
00000090: 09ff 1fbc 9c31 66bd bf38 043c b61a 22bd
000000a0: 8320 2d3d b2d2 e8bc bbbd 46bd 0c97 97bc
000000b0: 0da6 0a3d 61e3 803d c98f d03c 2158 6b3d
000000c0: f197 253d a7e9 b83b bbc9 563d 97cc cb3c
000000d0: cf39 a13d 5e38 ab3d 3e8f 983d 2031 e03a
000000e0: 6bff 57bd db47 223d 88a3 d2bc 1961 54bc
000000f0: 7d5b bebc 2ff5 63bc 9f8b 89bd 867a 493c
00000100: ae0f 573b e18d 16bd 8e90 983c 002c 223d
00000110: 6675 453d 3398 74bd 01d2 c63c f086 793d
00000120: 2339 5fbd 8c7d 99bd 42f8 a63c 4279 3b3d
00000130: c513 3cbc a10b 133d 8494 0d3d 6a79 a5bb
00000140: b49c 5bbd ebc5 433d 5ac9 633d eb16 c8bb
00000150: 1384 8b3d 862b 80bd 5483 3fbd 3101 14bd
00000160: 0127 d2bc 8b87 663d 94a9 d3bc 8372 5dbc
00000170: cee7 35bd c584 2dbd 74a2 efbc 1ddf 2f3d
00000180: 41f9 3c3d 89b1 863d 9342 873c d3e8 193c
00000190: 9bad 53bd b60d 35bc 4307 88bd a18f 973d
000001a0: 0e07 1abb cb21 663d f2ea 90bd 6ad4 98bd
000001b0: b5ff 2c3c d13f eabc bd6b 143c 11a1 91bc
000001c0: d2bd 993d 6e46 5ebd 3018 c5bc bed8 d5ba
000001d0: 20aa d5bc 95a0 67bd fe70 9a3d 04d6 0c3b
000001e0: 0160 773c d062 a73d 938b f5bb bc1b 3c3c
000001f0: 4c0d 93bd 8909 1f3c 7e94 39bc 39ca 9aba
00000200: 8ac7 61bd ea0b 33bd 30c6 583d 4b4d 1f3d
00000210: 41ec 4fbd fa8f 1bbd 37d0 6b3d 9c59 193d
00000220: d470 a0bc 4be2 823d 18e6 6d3c 7321 a23d
00000230: a6bc 443d 1566 bf3c 98d8 6d3d 829a c33c
00000240: 1799 60bd 0127 103d 4198 f23c f88b 81bd
00000250: 3797 83bd 4305 4ebd 0b89 4e3d 5ca8 de3c
00000260: a91c 533d 2fe2 903c 4cc4 e63b c4b7 83bd
00000270: 7b41 39bd 676b 61bd b7f5 2e3d 13ba 3cbd
00000280: b6a6 0d3d c79f b63a 43cf 9a3d 47c4 8cbd
00000290: 1754 cfbc 03f2 8bbc f8ce 63bd b78e 513d
000002a0: 814f c8bc 3aa0 a13c 940f 483d 1f0d 813d
000002b0: 2f96 ab3d badf 6e3c 1138 933d b75f f4bc
000002c0: af0d 953d eea9 253b 0aa0 303d 8464 8dbc
000002d0: 0942 08bd e7c6 583d e313 4fbd a5ce 083c
000002e0: 5268 b6bc 2c0f 563d 7940 9f3d d639 8ebc
000002f0: a1b2 743d 82e4 2cbd 7ea5 17bd 7880 0dbd
00000300: 07fd 8abc 255f 6c3d 82c1 3f3d b9f2 41bd
00000310: ae0f 913b e086 b43d 68fc aa3d 1163 57bd
00000320: fa30 8d3d 3cf6 d73c 1f9b 783d 8c91 44bd
00000330: aca6 6d3d 74c4 0abd 489a b63d 999f 6b3d
00000340: e4a3 c23c 4fbc a33c 4827 423d f659 243d
00000350: 196a 6dbd 0a8c 723d ceda 773d 8464 8b3d
00000360: ccfd b53c 6e00 6f3d 934c 19bd 9aa5 30bc
00000370: a32c 893d 08e9 633c 1c93 b9bc e3fb d13c
00000380: e830 84bb cb25 1c3d cad5 273c e282 953c
00000390: a046 b63c d83c 04bd 640d 3d3d f7ed 13bd
000003a0: 67fe 94bc 54ef 673d 7155 9e3d a928 d43c
000003b0: 1cf8 86bd 35a6 90bc d38d a13d a174 9a3d
000003c0: 6581 883d 4a14 103d bc01 1e3d f799 3e3d
000003d0: 706b 04bc ae56 1cbd d929 a03d 994b b33c
000003e0: 0213 b53a 59c5 23bd a7d2 4fbd 37d1 303c
000003f0: f01c 03bd e7e1 123d 33c1 153c b7d6 3a3c
0.08165927 0.05413696 -0.0097777145 0.05644302 0.07812918 -0.012016751 0.0860924 0.07304389
-0.0057904036 0.030001491 0.015338126 -0.039400235 -0.011315126 0.009624736 0.021907028 -0.03604321
0.07699379 0.0061215176 0.024840962 -0.0030166942 -0.005805761 -0.039707553 0.06858539 0.01524333
0.048961144 -0.032157384 0.04785692 -0.00013582388 0.04792531 0.03297196 0.033848826 0.008835709
0.047300518 0.039871976 0.041034963 -0.031645134 -0.009765395 -0.056199655 0.00807017 -0.039576255
0.042267334 -0.02842078 -0.048520785 -0.018504642 0.033849765 0.06293369 0.025459187 0.057457093
0.040428106 0.005643088 0.05243848 0.02487783 0.07872354 0.083603606 0.07449196 0.0017104484
-0.05273382 0.039619308 -0.025712743 -0.012962603 -0.023236984 -0.013913437 -0.06716084 0.012297278
0.0032815742 -0.0367564 0.018623617 0.039592743 0.048207663 -0.05971546 0.02427006 0.060919702
-0.05449785 -0.07494649 0.02038205 0.045769937 -0.011479323 0.035899762 0.034565464 -0.005049874
-0.05361624 0.04779617 0.055611946 -0.0061062477 0.068123005 -0.062583014 -0.046756104 -0.03613395
-0.025653364 0.056281608 -0.025837697 -0.013516071 -0.04441052 -0.042362947 -0.029252268 0.042937387
0.046136145 0.06576831 0.016511237 0.0093938885 -0.051679235 -0.011050632 -0.0664201 0.07400442
-0.002350274 0.05618457 -0.07076062 -0.0746239 0.010559012 -0.028594883 0.00905889 -0.017776998
0.075069085 -0.054266386 -0.024059385 -0.0016315205 -0.026082098 -0.056549627 0.07541083 0.0021489868
0.015098573 0.08173144 -0.007493445 0.011481222 -0.071802706 0.009706863 -0.011326907 -0.0011809535
-0.055121936 -0.043712534 0.05292338 0.03889207 -0.05076242 -0.037979104 0.057571616 0.037438974
-0.01958505 0.06390818 0.014520191 0.07916536 0.04803147 0.023364106 0.058067888 0.023877386
-0.054833498 0.035193447 0.029613616 -0.06325525 -0.06425326 -0.050297987 0.050423663 0.02717989
0.051541004 0.017685978 0.0070424434 -0.06431535 -0.045228463 -0.055034067 0.0427148 -0.04607589
0.034582816 0.0013933115 0.07559063 -0.068733744 -0.025308652 -0.017083174 -0.055617303 0.051161494
-0.024451973 0.019729722 0.04884298 0.06301331 0.083782546 0.014579708 0.07188428 -0.029830797
0.072780006 0.0025278288 0.043121375 -0.017259844 -0.0332661 0.052924063 -0.050556075 0.008350049
-0.02226654 0.052260563 0.07775969 -0.017361563 0.059740666 -0.04221011 -0.03702306 -0.034546345
-0.016966356 0.057707924 0.046815403 -0.04735062 0.004426918 0.08814788 0.08348924 -0.05258471
0.06894107 0.02636253 0.06069481 -0.047990367 0.05802028 -0.03387876 0.089161456 0.05752525
0.02375979 0.019987253 0.047400743 0.040124856 -0.05796251 0.059215583 0.060511403 0.06806281
0.022215746 0.05835002 -0.037426542 -0.01078167 0.06697967 0.013910539 -0.022653155 0.025632804
-0.0040341504 0.03812198 0.010243842 0.018250886 0.022250473 -0.032284588 0.04615535 -0.036115613
-0.018187715 0.056624725 0.077311404 0.025898295 -0.06590292 -0.017657379 0.07888379 0.075417764
0.06665305 0.0351756 0.038575873 0.04653355 -0.008082256 -0.0381686 0.07820482 0.021886634
0.0013814869 -0.039983127 -0.050738003 0.010792068 -0.03201002 0.03585997 0.009140301 0.011403731

bias f4 [84]
00000000: a6a3 953d 86d7 2bbc e7ee cf39 e52f 993b
00000010: dc99 463d 56a3 57bd af9c 223d 72f1 31bd
00000020: 855f 7f3d 5bf8 23bd d745 1fbc 3a30 00bd
00000030: dc64 00bd 0336 08bc 0b48 23bd 050e 09bd
00000040: b990 2e3c 5dc4 8d3d 54a4 903d c0ba f9bc
00000050: 0217 08bd ae34 1c3d 8e23 563b fdbb f13c
00000060: 1749 113d 0c7e e13c 946a f93c 370e 83bd
00000070: 2a4b 9b3d 14cd 30bc 980d 1ebd 31dc 5b3d
00000080: 5db1 ebbb 5653 49bd d457 83bc 12b7 953c
00000090: 6873 58bd 9ee9 0c3d 775a 7dbd 605d b5bd
000000a0: e6f9 87bc 1daf 8ebd f287 233d b35a 50bd
000000b0: 065b 71bd f2e9 483d 8346 f1bb c8ee 2bbd
000000c0: 74b9 a13d d0d5 d53a 6427 7ebd 225a 303d
000000d0: b95b 03bd bca2 143d a6b6 5d3d ba84 2abd
000000e0: e7b6 95bb ad43 3b3d 545b a5bd 3e00 aebc
000000f0: a97d 4e3d b31e 663c a71f 2bbc 762b 04bd
00000100: 76cc d63c cf9a a2bc f845 9ebd 84b1 cf3b
00000110: 8b95 043d 4f2a 47bd 40d2 04bd c9dc 773d
00000120: f873 babd f5c1 8f3d 1d02 8a3d d479 c63c
00000130: 2cbd 3fbd f56c db3c cfc9 37bd f602 13bd
00000140: 7cd0 043c 6c8d 36bb a220 80bd 0ebe 7abd
0.07306604 -0.0104883965 0.00039660113 0.004674899 0.048486575 -0.052646004 0.039700206 -0.04344315
0.062346954 -0.040031772 -0.009721241 -0.031295992 -0.031346187 -0.008313659 -0.039863627 -0.033460636
0.010654622 0.06922219 0.07062593 -0.030484557 -0.033225067 0.038136177 0.0032675 0.029508585
0.035470095 0.027525924 0.030446328 -0.06399196 0.07582696 -0.010791082 -0.038587183 0.053676788
-0.007192774 -0.04915174 -0.01603309 0.018275771 -0.052844435 0.034402482 -0.061853852 -0.088557005
-0.016598653 -0.06966994 0.03992457 -0.050867748 -0.058924697 0.049051233 -0.007363142 -0.041975766
0.078967005 0.0016314331 -0.062049285 0.043054707 -0.032069895 0.036288008 0.054129265 -0.041630484
-0.004568923 0.045718838 -0.0807406 -0.02124035 0.050412808 0.014045405 -0.010444558 -0.03226801
0.026220541 -0.01984921 -0.07728189 0.0063383 0.032369178 -0.048624333 -0.032427073 0.06051329
-0.091041505 0.07019416 0.06738684 0.024228014 -0.046811268 0.026785353 -0.044870194 -0.035891496
0.008106347 -0.002785529 -0.06256224 -0.061216407

weight f4 [84, 84]
00000000: ed08 c13c 5181 ca3d d624 1b3d 0a33 d6bc
00000010: 4a14 ab3d 7c30 febc 599c c7bd 0e85 993d
00000020: 44e7 c4bd 35a1 a63d d7a3 55bd f2a2 6b3d
00000030: 13f4 0f39 14c8 793d dfcf 7ebd ff42 c7bd
00000040: 7c4f 75bc 5c68 50bd 6c2e 913c 7344 4bbd
00000050: 9014 aa3d 96c4 f6bd 3674 c43d 23ae bd3d
00000060: f4a2 893d a838 a73d c61f 5e3d a69e 68bd
00000070: c735 783d d34b c83d 6128 513d cf63 5f3c
00000080: 609c c03d 484c 80bd db03 b03b eb2c 9bbd
00000090: e93d 8d3d 8fee 2dbd 092a 15bd 2f34 d33d
000000a0: 1f35 053b 1827 b6bd 9178 be3d 9fca 22bc
000000b0: 071c ba3d 7b2c 5ebd a3ae 0cbd 7cc7 b9bd
000000c0: 3ba1 37bd f866 82bb d097 4abd 917c d2bd
000000d0: 63f0 b13d 0231 a83d 2831 7d3d 407c 35bd
000000e0: 5928 39bb b871 c43c 53c0 953d 3138 c3bd
000000f0: e3b1 fb3c a03a 1abd d799 30bd b719 333d
00000100: 8574 3d3d 8de3 25bd 51f4 f43c a737 143c
00000110: 6aac dbbd eda1 79bd 4cab 36bc 5d1e f5bb
00000120: 83d3 a53d 0d9d acbd 11d3 54bd c446 8a3d
00000130: 9100 0fbc 9047 93bd a29c 013d 9eba c5bd
00000140: 9024 de3d 1c4f a83d 31ae 42bd 339d 1f3d
00000150: 6bd6 fb3c 4bd2 263d 7aaf dbbc a957 d3bd
00000160: 7896 d9bb 8959 18bc 6270 ed3d 40ed 233c
00000170: fb53 3c3d 1782 cdbc d93b 46bd 61ca a5bc
00000180: 3754 b83d 59c2 70bc 011a b03c ea2c 4b3d
00000190: 8353 bdbd cd24 a3bd a881 3dbd ab8a 5abd
000001a0: b1ca c8bd fa12 a8bc 4f79 3bbc 9430 bb3d
000001b0: eb12 a1bd fc63 de3d d724 cdbc c9ef 943d
000001c0: 0d66 8d3d de9b 373d 6ad2 f1bd 11b6 d2bd
000001d0: 7dd4 b6bd d007 c13d 95ad 9d3d 9b48 98bd
000001e0: edc6 853d d07d 4c3c 99a6 063d e9e8 913d
000001f0: a613 20bd 4f40 923c 97e3 b9bd acc1 a6bc
00000200: 971a d6bd dfe2 10bd 8f21 f1bc b1dd 863d
00000210: e431 f0bd e2c6 85bd a5a1 68bd 6357 c2bd
00000220: f591 9b3d edb8 af3d e170 27bd fe8e a03d
00000230: 1cd0 ba3d 0e62 bcbd 5fde 23bd 0be0 ab3d
00000240: 519a 90bd 2fd1 3bbd c0e3 913d d40e c4bd
00000250: a284 b9bc 2864 19bd 41df ac3d e7cd 8e3d
00000260: 1002 813d a465 1abb 9352 923c 01a2 2b3d
00000270: 473d 7abd eab6 c8bd ecab 02bd 4a6e d9bc
00000280: 869a 70bc 434f a1bb 15e4 25bd e488 443c
00000290: 92a4 3b3c c5aa 8fbd c2cf 92bd 9df8 81bb
000002a0: 0fbd 65bd 540d c73d a04a 803d 06e4 023d
000002b0: cc57 03bd 34c9 55bd ab70 85bd e5c4 b1bd
000002c0: 2fee 04bd f28f 9d3d dcf2 243d 911b 9c3d
000002d0: 311b 733c 8978 61bd af52 7e3d fa27 04bc
000002e0: 362d 533c faa9 fe3b 579c 103d 29b6 54bd
000002f0: 0e76 d63b 7f15 c33b 941c c6bd 3adc 913d
00000300: 9e5b a03d b256 2f3d 06db 163d b755 8f3d
00000310: 13ea ec3b bde3 973c 8968 853d 9563 913d
00000320: 8061 893d 098a b6bd 82a5 66bc 1151 91bc
00000330: 74e5 413d f31c aa3d 1d20 b33d 986e 4b3d
00000340: 4ac8 35bd 28d5 b6bc 1e0e f0bc be15 8dbd
00000350: f8bf 13bd c445 8c3b cd85 afbd 1ca8 863d
00000360: cc4a 653d dd58 9f3c 1ff4 1dbd 55f9 f23c
00000370: ce31 a8bc dc1d 843d abc1 063d 60b6 85bb
00000380: c1a9 84bc 9214 463d 0f0b 35bd 0fd7 f03b
00000390: 7639 d8bd 1b54 03bd 0184 d13d 036e 82bc
000003a0: 3bd4 983d f1ac 97bd 28b9 55bd 6a20 973d
000003b0: ad49 c93d 31a8 dabd d497 783c cea9 af3c
000003c0: f96a 5b3c 2e48 01bd 9f83 a2bd f362 b8bc
000003d0: 97e5 afbd 7966 c8bd 4cfa 023d 3dcb a0bd
000003e0: 22cf e1bd 2579 1a3d ef32 21bd a80d 363c
000003f0: cbef 83bd 8401 a43d 3e88 b1bd bb2d e3bc
0.023563826 0.098879464 0.037876926 -0.026147384 0.08353479 -0.031028979 -0.09746618 0.07496081
-0.09614423 0.081362166 -0.052158203 0.057528444 0.00013728467 0.060981825 -0.06220996 -0.09729575
-0.014972564 -0.050880775 0.017722331 -0.049625825 0.08304703 -0.120492145 0.09592478 0.092617296
0.06720534 0.08165103 0.05422952 -0.056791924 0.06059816 0.09780087 0.0510639 0.013634636
0.09404826 -0.062645495 0.0053715534 -0.07576927 0.06896574 -0.042463835 -0.03641704 0.103126876
0.0020325852 -0.08894175 0.0930034 -0.009936004 0.09087377 -0.05424164 -0.034346234 -0.09071252
-0.044831496 -0.00397956 -0.049461186 -0.102776654 0.08688428 0.082124725 0.061814457 -0.044307947
-0.002825281 0.023980007 0.073120736 -0.09532202 0.030724471 -0.037653565 -0.043115463 0.043725695
0.0462537 -0.040500212 0.029901655 0.009046472 -0.10726245 -0.06094544 -0.011149239 -0.007480426
0.08096983 -0.084283926 -0.0519591 0.06751779 -0.008728162 -0.07191384 0.031643517 -0.09654735
0.108468175 0.08218214 -0.047529403 0.038968276 0.03074189 0.040727895 -0.026817072 -0.10319454
-0.0066402517 -0.009298691 0.11593701 0.010005295 0.045978528 -0.025086446 -0.04839692 -0.020238103
0.09000438 -0.014694774 0.021496775 0.04960338 -0.09244444 -0.079660036 -0.046266228 -0.0533549
-0.09804285 -0.020516861 -0.011442496 0.09140125 -0.078649364 0.10858914 -0.02504198 0.07272298
0.0690423 0.04482638 -0.118077114 -0.10288633 -0.08927248 0.09425318 0.07699124 -0.074357234
0.06532083 0.012481168 0.032873724 0.07124502 -0.03908124 0.01785293 -0.090766124 -0.020356022
-0.1045429 -0.03537261 -0.029434947 0.06585253 -0.11728266 -0.065320745 -0.05679478 -0.09489324
0.075961985 0.08580194 -0.040879134 0.078397736 0.09121725 -0.0919839 -0.04000699 0.08392342
-0.070606835 -0.04585379 0.07123518 -0.09573141 -0.022646252 -0.037449032 0.0844102 0.069728665
0.062992215 -0.0023559118 0.01786164 0.041902546 -0.061093595 -0.09800513 -0.03190224 -0.026541848
-0.014685279 -0.004922779 -0.04050072 0.011995528 0.011452811 -0.070149936 -0.07168533 -0.0039664046
-0.056088503 0.09719339 0.062642336 0.03195574 -0.03206615 -0.052193835 -0.0651563 -0.08680133
-0.032453712 0.07693471 0.04027067 0.076224454 0.014838026 -0.055046592 0.062090572 -0.008066172
0.012889197 0.0077717276 0.035305347 -0.051931534 0.006544835 0.0059534903 -0.096734196 0.07122083
0.078299746 0.04280729 0.03682997 0.06998771 0.0072300523 0.018541211 0.06514079 0.07099072
0.0670805 -0.08913047 -0.014077546 -0.01773885 0.047337964 0.08306303 0.087463595 0.049666017
-0.044380464 -0.022318438 -0.029303607 -0.068889126 -0.036071748 0.0042807776 -0.08570442 0.06575033
0.055979535 0.019451553 -0.03856289 0.029659906 -0.020531561 0.06451008 0.03289954 -0.0040805787
-0.016194226 0.04835946 -0.0442 0.0073498557 -0.10557835 -0.03206263 0.10230256 -0.015921598
0.07462355 -0.07406033 -0.052178532 0.07379229 0.09828506 -0.10676611 0.015172917 0.021443274
0.0133922035 -0.031562977 -0.07935261 -0.02250812 -0.08588713 -0.0978517 0.031976983 -0.078512646
-0.110258356 0.03771319 -0.039355215 0.011111654 -0.06442221 0.080081016 -0.08668564 -0.027731767

bias f4 [84]
00000000: f69f b73d 53b8 50bc d42b 12bd d09b 433d
00000010: 13b0 993c 9cf9 de3d 9693 4e3c 36b6 a33c
00000020: 685e 74bd 5396 6fbd a932 023d c142 4bbd
00000030: 106a edbd 0e1f 66bb af92 e33a 0693 b53d
00000040: 2f4f 65bc d234 fc3d f00d a3bd 2d3a 19bd
00000050: d567 593d 46e4 6e3d 806b d3bd c13b 9a3c
00000060: 280b eabd 4082 073d f353 fa3d 729b b83d
00000070: 1630 d6bc 91f9 a5bd 7197 bb3d 7901 a6bb
00000080: 5124 c43b 54c4 2a3d 69a9 3dbb fd8b 543c
00000090: 7d91 08bd 5d85 c8bc 6ea7 a0bd 26b4 13bc
000000a0: 3914 a53d 70c5 7fbd 07eb eabc db66 d8bd
000000b0: 523b cfbd 717b b9bc 47ef c83d eeea 6b3d
000000c0: 7079 74bd 5338 ddbc c01f 633d 4dad 8dbc
000000d0: ec6e 903d f1aa c33d 62f2 083c e821 fabb
000000e0: 92a9 59bd d7df 7ebd 20d3 46bd 3a1f 6d3d
000000f0: 45ef 813d cd81 0f3d 5e75 8a3d d1a1 b7bd
00000100: 505c f1bc 6423 863d 827f cd3d a69d 493c
00000110: 9ba0 593c 8e2f c13d 623e d33d 7c0d ee3d
00000120: b0a8 883d 2333 20b9 29b8 123d 655b c6bd
00000130: ff5a 693d b3c2 953d 166d 46bb d761 a5bb
00000140: dceb 83bd 7421 b8bd 0cc1 b93c a5b0 f1bd
0.08966057 -0.012739259 -0.03568633 0.047756016 0.018760717 0.10887453 0.012608429 0.019984346
-0.059660345 -0.05849297 0.031786595 -0.04962421 -0.115924954 -0.0035113725 0.0017362441 0.08865933
-0.01399593 0.12314762 -0.07961643 -0.037408996 0.053077538 0.058323167 -0.103232384 0.018827321
-0.11427909 0.0330832 0.12223043 0.09014024 -0.026145976 -0.08104242 0.091597445 -0.0050660935
0.0059857746 0.04169114 -0.0028940088 0.012972829 -0.033341873 -0.024477655 -0.07844435 -0.009015119
0.08060498 -0.06244415 -0.028676523 -0.10566493 -0.10118736 -0.02264187 0.098112635 0.057597093
-0.059686124 -0.027004397 0.0554502 -0.01729455 0.07052407 0.09554089 0.00835857 -0.0076334365
-0.05314023 -0.06222519 -0.04854119 0.057891108 0.06344465 0.035035897 0.06760667 -0.08966411
-0.029462963 0.06549719 0.10034086 0.012305653 0.01328292 0.094328985 0.10314633 0.11623666
0.066727996 -0.00015277839 0.03582016 -0.09685401 0.056971546 0.073125266 -0.0030277423 -0.005047064
-0.06441471 -0.08990756 0.02267506 -0.118012704

weight f4 [42, 84]
00000000: 6c8b e63c 6d9d 6a3d f66e 8dbd b3c2 b83c
00000010: 23e6 f73d 0bb7 ba3d 2830 9fbc 8a4b 69bd
00000020: b175 98bd 00c7 cc3c f477 b83d ed9c 2a3c
00000030: 87fe dcbd 752f 8b3d 4e67 42bd 6a12 cebd
00000040: 51a1 1abd 49e9 aebd 3165 743d 4513 3d3d
00000050: b77f 7bbd 649e 68bc 9151 03bd f4ac 59bd
00000060: ab04 d4bd 3bc7 5dbd 78b6 f1bd e03c a5bd
00000070: e4cf 1dbd bdbd f03d d771 193d 2ebf 3dbd
00000080: a13a be3d ab99 c0bd a0f2 b83d 4262 b5bc
00000090: 4ad1 cd3d 6953 253d 0ccc bb3d 57cd 44bd
000000a0: 6d40 7a3c 5c6c 8b3d d378 37bc 73db c3bb
000000b0: c181 55bc b3e8 f3bc b717 733d 609b a43d
000000c0: c2fb ac3d a196 3b3d d52d 1b3d 3fce c83d
000000d0: efba 8a3c 16ea 82bd 2670 983c 1a38 89bd
000000e0: e5d8 c83d ab03 8abd c341 063d 916b a7bd
000000f0: dc94 9d3d 4252 5fbc fb20 2b3c 4f4a 943c
00000100: 8854 edbc 6216 0ebd 1e88 37bd 3190 7abd
00000110: 3f13 a03d 10d0 bb3d ef26 dcbd 67a1 d43d
00000120: ace6 04bd 48e3 36bd a9c7 d93d 48d9 333d
00000130: 81fe c03d a91c 64bd 20fa 513c a79a af3d
00000140: 1e4d 753d 2e35 dbbd 3052 81bc 0b7f 7b3d
00000150: 6d5e 0f3d fbe7 99bd ca3e 17bd 9665 b8bd
00000160: dcd5 a2bd 9ec7 42bd 1185 eebc bc5f 803d
00000170: 3c7d 053c 625a 643d 65d6 b73d 44bb 90bc
00000180: 5062 2b3d 6f9e 6abc ec00 013d a938 5e3d
00000190: bb4c abbc 03a2 cfbd 763c 853d b501 c2bd
000001a0: f716 e63d a03a 493d 9d67 c33d 3536 953b
000001b0: 9650 6fbc af8b 9ebd 6287 c43c 9e3d ce3d
000001c0: d556 983d 2aec 8fbd 39f5 40bb 673d 7d3b
000001d0: 8276 f33c 3fac 75bd da19 9bbd 8e5d 9bbc
000001e0: 8492 c5bc bd17 613d 3442 833d c276 303c
000001f0: 47a9 a53d bc7c aa3d 0640 af3d 521c 17bc
00000200: ccba b83d abd9 933d 5f14 66bd bac5 543d
00000210: 0cb6 df3d ff3a 613c 79b6 e13d 7b21 713d
00000220: f443 8abd 94a1 9d3c 41c1 a63c 7a83 183b
00000230: a6e4 c3bd 1b00 bbbd 5c0a 80bc 8ee6 af3d
00000240: 5ee1 883d d19e 303d ba33 efbd 7da2 19bc
00000250: 8657 903d 550a 073d 18af b43c 4374 07bd
00000260: 10d6 3c3d ced5 8c3d 101f 92bd bb00 97bd
00000270: f01f 19bd a83d 723d 51d0 d3bc 4165 813d
00000280: 86c2 1bbd 7379 cd3c 6548 a53c e029 823d
00000290: e7f2 7c3c f40c 8b3d d53a dcbd 7968 5dbc
000002a0: 7bfc 833d 2ea0 1e3d c660 8bbc 78b5 63bc
000002b0: 8a8d 473d efec 723c 92f3 c93d d2fa b93a
000002c0: d1b0 a03d e75a bdbd b667 51bd 7158 08bd
000002d0: 2335 fa3d d1ce 4abd 14e3 7e3d 8a3b 0ebc
000002e0: 2f5c b73d ae55 c7bd 10aa b8bd 9d74 acbd
000002f0: a7ba c23d df6b 983d 2dc6 a73c 01c9 e53d
00000300: a882 99bb 9205 ecbc 6603 7ebd 64f2 a83d
00000310: f9ff 933c e696 50bd 41c9 4abd 63c0 073e
00000320: 014c f9bc 3ad0 72bd 42fe c3bc c16b 83bd
00000330: d82f 003d ff6b 9ebd 3364 aabc bd4e 10bc
00000340: 93df a73c 37a1 f8bc 4b0c 24bd 584d 043e
00000350: d9f8 9bbd a595 363b 8f12 8abc 0356 51bd
00000360: abe9 873d 1212 d5bd 1835 c6bd e3e9 36bd
00000370: 211d 77bb a030 953d 6c28 543d 38a9 b7bd
00000380: 8c76 d53d e096 68bd 0842 85bd a0f8 bfbd
00000390: 4d57 0cbd 52c5 65bd 82ea 66bd cf79 783d
000003a0: e2ae 42bd 85d5 eebd 460b ccbd b512 b8bc
000003b0: 52fb e73d af63 6bbc 01f4 c2bd 6cc8 08be
000003c0: f80f aebd 301d bdbd 7409 afbd 3708 b43d
000003d0: 2b01 33bd b897 e4bc 11b9 a53d b8eb d0bd
000003e0: fb88 db3d 7be7 92bc 977d b93d 3569 043e
000003f0: 505a 623d 2eac 2d3d 314f b23d 462d 913c
0.028142653 0.05727904 -0.0690593 0.022553777 0.12104442 0.09116944 -0.019432142 -0.056956805
-0.07444323 0.024997234 0.09007254 0.010413391 -0.10790735 0.06796161 -0.0474618 -0.10062106
-0.0377515 -0.08540589 0.059666816 0.046160955 -0.061401095 -0.0141979195 -0.03206021 -0.053143457
-0.10352453 -0.05414508 -0.11802381 -0.080682516 -0.038528338 0.1175494 0.03746208 -0.0463249
0.09288526 -0.0940431 0.09030652 -0.02214158 0.10049684 0.04036275 0.09169778 -0.04804739
0.015274149 0.06807777 -0.01119824 -0.005977088 -0.013031424 -0.029774046 0.059348788 0.08037448
0.084464565 0.045797948 0.037885506 0.09804963 0.01693484 -0.063923046 0.018608164 -0.06700154
0.09806994 -0.06738981 0.03277756 -0.081748135 0.07694408 -0.013630452 0.010444875 0.01810184
-0.028970972 -0.034689315 -0.044807546 -0.061172668 0.07816171 0.09170544 -0.107496135 0.103823476
-0.03244655 -0.044650346 0.10633785 0.043908387 0.09423543 -0.055691395 0.012815982 0.085744195
0.059887998 -0.107035026 -0.01578626 0.061400454 0.03500216 -0.0751495 -0.036925115 -0.09003751
-0.07950947 -0.04755365 -0.029116185 0.0626826 0.008147534 0.05575026 0.089764394 -0.01766742
0.041841805 -0.01432 0.03149502 0.054253254 -0.020910611 -0.10138323 0.06505673 -0.09472982
0.11234849 0.049128175 0.09541247 0.004553581 -0.0146066155 -0.07741486 0.023990337 0.10070346
0.07438437 -0.070274666 -0.002944304 0.0038641335 0.029719595 -0.05997872 -0.0757329 -0.018965509
-0.024117716 0.05495428 0.064091116 0.010770502 0.08088928 0.083245724 0.085571334 -0.009223061
0.09020004 0.07219251 -0.05617177 0.05194638 0.109233946 0.013746976 0.11021132 0.05886982
-0.06751242 0.019242086 0.020355823 0.0023271726 -0.095650956 -0.091308795 -0.01562994 0.08588897
0.066836104 0.04312021 -0.11679788 -0.009377119 0.07047944 0.032968838 0.022056147 -0.03306986
0.046102583 0.068767175 -0.07134831 -0.07373186 -0.037383974 0.05914083 -0.025856169 0.06318141
-0.03802731 0.025082326 0.020176122 0.06355643 0.015438772 0.0678958 -0.10753409 -0.013513678
0.06444641 0.038726978 -0.017013919 -0.013898246 0.048718967 0.014826997 0.098609105 0.001418913
0.07846225 -0.09245854 -0.051124297 -0.03328747 0.12217166 -0.04951364 0.062228277 -0.008681187
0.089531295 -0.09733139 -0.09016812 -0.0842068 0.09508257 0.0744245 0.02048024 0.11219979
-0.004684765 -0.02881125 -0.06201496 0.08249357 0.018066393 -0.050925158 -0.049508337 0.13256983
-0.03043175 -0.05928061 -0.02392495 -0.06417037 0.031295627 -0.07735442 -0.020799732 -0.008807835
0.02049235 -0.03035031 -0.040050786 0.1292013 -0.07615823 0.0027860191 -0.016854553 -0.051107418
0.066363655 -0.10403837 -0.096780956 -0.044656646 -0.0037706571 0.07284665 0.05179636 -0.08967823
0.10423002 -0.05678451 -0.06506735 -0.09373593 -0.034262944 -0.056096382 -0.056375988 0.06066304
-0.047530062 -0.11661819 -0.09963088 -0.022469858 0.113272324 -0.014367028 -0.09519196 -0.13357705
-0.084991395 -0.09234083 -0.08546725 0.08790629 -0.043702286 -0.027904376 0.08091939 -0.1020121
0.10719486 -0.017932644 0.090571575 0.12930758 0.05526191 0.04240053 0.08706511 0.017721783

bias f4 [42]
00000000: 7968 73bd 0d06 ddbd 2b07 963d a723 b5bd
00000010: c1ae 74bd 1f67 f2bb 237d 56bd 5b22 16bd
00000020: eda8 af3d 2d17 79bd 89f2 183d 0450 3bbd
00000030: 4238 d33d 6108 7fbd b5eb f4bc 05de b4bc
00000040: 9a57 3c3d 2980 c23d 022e c63d 5d33 a33d
00000050: 2408 d9bd 49a2 b8bd ee88 753d ab61 b13d
00000060: 7322 7dbd 9c04 99bd fac1 ad3d 9ff5 3d3c
00000070: 6d0b 563d eaeb d4bd edc7 95bd 133c 23bd
00000080: 6749 df3d ace5 71bd e7e9 fe3c 96b4 d7bc
00000090: 028d 003e 2e2b 4f3c d11a cb3d 8819 3a3c
000000a0: 2639 753b 0a92 b53d
-0.059425805 -0.1079217 0.07325586 -0.08844691 -0.05973697 -0.007397547 -0.052365433 -0.036653858
0.08577142 -0.060813118 0.037340675 -0.045730606 0.10313465 -0.06226385 -0.02989755 -0.022078523
0.04598198 0.09497101 0.09676744 0.07968781 -0.10597256 -0.090153284 0.05994504 0.08661207
-0.06180043 -0.07471582 0.08484264 0.011594205 0.05225699 -0.103965595 -0.073135234 -0.039852213
0.10902672 -0.059056923 0.031117393 -0.026331227 0.1255379 0.012644572 0.09917224 0.011358626
0.0037418096 0.08865745

weight f4 [1, 42]
00000000: 0285 8ebd 5619 833a 904e fe3d 5849 843d
00000010: 3de8 37bd 2685 773b 9d99 12bc 911b a7bb
00000020: 7b8e fabd d9ce d73c 985c d03c 5127 1bbb
00000030: 8823 dcbc 861f 05bd 8d8d 8a3d 30fd 77bc
00000040: 3ae8 ca3b f990 10bd 61d6 2abc 4607 f8bd
00000050: 7933 273e c1ed 313a bec0 853d c7cb 0dbe
00000060: b459 633d 1bfd 1eba 1cfa 9abd 2522 8cbd
00000070: 3f28 05bd 35be f2b9 b581 b6bb 79d6 d739
00000080: 2537 dfbd 6e59 9bba 0d2e 3b3c 6cc5 52ba
00000090: 97d3 04be 7556 2e3d 7dba f0bd 08be 853c
000000a0: 61a8 01be 46f6 7dbd
-0.06958963 0.0010002058 0.12417328 0.06459302 -0.044899214 0.0037768572 -0.008947757 -0.0050997217
-0.12234207 0.02634375 0.025434777 -0.0023674557 -0.026872411 -0.032500766 0.0676528 -0.015136048
0.0061922343 -0.035294507 -0.0104270885 -0.12110762 0.16328229 0.0006787442 0.06530903 -0.13847266
0.05550547 -0.00060649373 -0.07567236 -0.0684245 -0.032509085 -0.00046299552 -0.0055696615 0.0004116779
-0.1089919 -0.0011852214 0.011424554 -0.00080402824 -0.1297134 0.04256292 -0.1175432 0.016325966
-0.12661888 -0.062002443
