ModelUnpredictability/one_thousand_brains/predictor_0.model (torch_old, 109395 bytes, 7 tensors)

weight f4 [84, 168]
-0.03758626 -0.027594984 0.05605315 0.07178043 -0.014545375 0.041668244 -0.039701752 -0.07462885
0.062652394 -0.032631308 -0.061658118 0.05531571 0.0374764 -0.05517813 0.042155415 -0.015316677
-0.025517674 0.037418734 0.056909822 -0.029766522 -0.055498373 0.05087341 0.051367447 -0.011585526
0.013815623 0.00441204 -0.07230318 -0.016361415 0.061864473 0.033945575 -0.033729315 -0.008393552
-0.0049222005 -0.064690575 0.028368386 -0.052254353 -0.07184086 0.010397138 0.044780575 -0.03844559
-0.018274797 0.010054451 -0.043702412 0.06078222 0.031146487 -0.044430908 0.06552496 0.040858604
0.018678704 -0.0027038744 -0.025742786 0.06643106 0.01656579 -0.06638263 0.0077191996 0.030190581
-0.039833955 0.053465776 0.016123498 0.040535957 -0.039132696 0.061950136 -0.034430675 0.035590854
-0.062248256 -0.052093785 -0.0131280245 0.0069464114 -0.06706086 -0.025107427 -0.01993063 -0.031226985
-0.052057125 -0.030856164 0.06673124 0.065666944 0.00086906535 -0.05318776 0.06503101 0.022781592
0.023824178 -0.054121718 0.00036596568 -0.03454493 0.04829772 -0.06713793 0.039396826 -0.062408134
-0.019991074 -0.0044203103 -0.03888023 -0.05504254 0.0478691 0.048553877 0.04980982 -0.039739337
-0.05447552 -0.028762793 0.020678118 -0.0021166347 0.03301621 0.056953862 -0.07602474 0.03932489
0.010730971 -0.037984416 -0.06413869 -0.050307304 0.035202503 0.037271187 -0.050173346 -0.030192127
0.013627889 0.05474722 -0.06430541 0.07153026 0.06683228 0.044883817 0.0048711067 -0.0606054
-0.060837153 -0.06111629 0.059295032 0.07390386 -0.062351696 -0.024309961 -0.025251657 0.07175443
-0.040358923 0.05921958 0.01030631 -0.014289787 0.049791444 -0.015713975 -0.002623567 -0.052447893
-0.056063052 -0.073445715 -0.051333718 -0.052214637 -0.065332755 0.008785673 -0.011477594 -0.06465115
-0.0019156423 0.026401836 -0.04220224 0.065410554 -0.03659193 -0.00620847 -0.022761213 0.0038905218
0.06063219 0.026273498 0.003839579 0.06828707 0.06357883 -0.05132603 -0.0016370185 0.044470746
-0.07096796 -0.023499513 0.045699894 -0.057552364 0.008426478 -0.040865663 0.060542878 0.061651584
-0.041090023 0.0652558 -0.025055908 -0.055609826 -0.0618937 -0.04549028 -0.011227034 -0.028310683
0.011672018 0.035002626 -0.027855588 0.017579323 0.049901612 0.03749267 0.047509514 -0.045275826
-0.033410557 -0.019426405 -0.03448794 0.0012776363 0.020674827 -0.05251111 0.011354137 -0.050195843
0.027289946 0.042862713 -0.016457431 0.05467504 -0.07716912 0.0040260465 0.00425296 -0.07407516
-0.061322242 0.019852411 0.036158122 0.004462398 0.012511465 0.051673632 0.03937106 -0.08089147
0.040378243 0.017716201 -0.065950215 -0.019458527 -0.057759296 0.060459092 0.025388684 0.0034994336
0.019490343 0.0005208957 -0.022953644 0.054205578 -0.07323716 -0.017552031 -0.019260418 -0.033850785
-0.060504287 -0.008129834 -0.07501557 0.056497674 0.06136293 -0.020007329 0.034809895 -0.06606884
-0.008178251 0.019134687 -0.011273319 -0.0013329017 -0.0040378347 0.048555806 0.030664902 -0.06268748
-0.023447227 -0.036144625 -0.041770898 -0.0012667432 0.0289575 -0.022174103 -0.019285144 0.0044415314
0.04510991 0.025587557 -0.041336183 0.049940977 0.007994517 0.07020219 -0.023161495 -0.007956996
00000000: 0df4 19bd e00e e2bc fd97 653d 9e01 933d
00000010: b94f 6ebc 52ac 2a3d 4e9e 22bd 03d7 98bd
00000020: e64f 803d 68a8 05bd 398d 7cbd ba92 623d
00000030: db80 193d 7602 62bd 28ab 2c3d cdf2 7abc
00000040: 710a d1bc 6344 193d 461a 693d ecd8 f3bc
00000050: 4352 63bd a360 503d ac66 523d 38d1 3dbc
00000060: ec5a 623c e092 903b b113 94bd 6008 86bc
00000070: 9a65 7d3d 840a 0b3d c027 0abd 1c85 09bc
00000080: 694a a1bb 7e7c 84bd d164 e83c a908 56bd
00000090: 4d21 93bd c258 2a3c d66b 373d 1f79 1dbd
000000a0: 07b5 95bc 6dbb 243c 4d01 33bd c7f6 783d
000000b0: eb26 ff3c 2ffd 35bd f331 863d 5a5b 273d
000000c0: 1504 993c 7c33 31bb 89e2 d2bc 020d 883d
000000d0: fbb4 873c 9ef3 87bd 57f1 fc3b 3d52 f73c
000000e0: ee28 23bd eefe 5a3d 6d15 843c 0809 263d
000000f0: 9b49 20bd 6dbf 7d3d 2e07 0dbd b7c7 113d
00000100: 07f8 7ebd 4b60 55bd ed16 57bc b99e e33b
00000110: 3457 89bd 17ae cdbc 9045 a3bc bccf ffbc
00000120: da39 55bd 11c6 fcbc 63aa 883d 647c 863d
00000130: fdd1 633a 69db 59bd fa2e 853d 76a0 ba3c
00000140: ec2a c33c bcae 5dbd 15df bf39 fc7e 0dbd
00000150: d4d3 453d 9c7f 89bd 915e 213d ac9f 7fbd
00000160: 52c4 a3bc 40d8 90bb e040 1fbd 4974 61bd
00000170: 6412 443d 6ee0 463d 6205 4c3d b7c5 22bd
00000180: b921 5fbd f39f ebbc 2865 a93c 3db7 0abb
00000190: 013c 073d 7448 693d dcb2 9bbd 2313 213d
000001a0: f4d0 2f3c 8c95 1bbd 255b 83bd 080f 4ebd
000001b0: 8030 103d aca9 183d 9182 4dbd 7b55 f7bc
000001c0: 8247 5f3c 9f3e 603d 8eb2 83bd 757e 923d
000001d0: 5ddf 883d 18d8 373d ce9d 9f3b 5e3d 78bd
000001e0: 6130 79bd 1355 7abd 59df 723d e85a 973d
000001f0: 7e64 7fbd af25 c7bc 90dc cebc fdf3 923d
00000200: 664f 25bd 3b90 723d ccdb 283c b61f 6abc
00000210: 1df2 4b3d 98ba 80bc 26f0 2bbb 9ad3 56bd
00000220: 5fa2 65bd b56a 96bd 4e43 52bd 04df 55bd
00000230: 2ecd 85bd c9f1 0f3c 850c 3cbc d267 84bd
00000240: 4a16 fbba aa48 d83c 42dc 2cbd f8f5 853d
00000250: 6be1 15bd 6c70 cbbb b975 babc 20f8 7e3b
00000260: 7659 783d 853b d73c 72a1 7b3b 17da 8b3d
00000270: 9e35 823d 3e3b 52bd 3a91 d6ba f526 363d
00000280: a657 91bd 0d82 c0bc d02f 3b3d 07bc 6bbd
00000290: 360f 0a3c c162 27bd cffb 773d 5f86 7c3d
000002a0: 034e 28bd d5a4 853d 0c42 cdbc 21c7 63bd
000002b0: 4084 7dbd 0454 3abd 98f1 37bc ceeb e7bc
000002c0: fe3b 3f3c ea5e 0f3d 6731 e4bc 8302 903c
000002d0: a265 4c3d ea91 193d 5699 423d 2573 39bd
000002e0: 82d9 08bd 2024 9fbc 3a43 0dbd 5c76 a73a
000002f0: 415e a93c e415 57bd b406 3a3c 289a 4dbd
00000300: 2a8f df3c d090 2f3d bcd1 86bc eff2 5f3d
00000310: d80a 9ebd edec 833b 6a5c 8b3b b8b4 97bd
00000320: 082d 7bbd 86a1 a23c 8a1a 143d 4f39 923b
00000330: e3fc 4c3c bba7 533d 8c43 213d 6daa a5bd
00000340: a863 253d 9121 913c e810 87bd 7d67 9fbc
00000350: 0395 6cbd f4a3 773d eefb cf3c c156 653b
00000360: 36aa 9f3c b88c 083a 4809 bcbc ab06 5e3d
00000370: 5dfd 95bd 47c9 8fbc 06c8 9dbc 1fa7 0abd
00000380: 58d3 77bd ff32 05bc c3a1 99bd 1b6a 673d
00000390: b257 7b3d 69e6 a3bc d294 0e3d 1a4f 87bd
000003a0: 12fe 05bc 59c0 9c3c bab3 38bc c2b4 aeba
000003b0: d04f 84bb 74e2 463d f634 fb3c 4b62 80bd
000003c0: 6614 c0bc 630c 14bd f617 2bbd d908 a6ba
000003d0: 4738 ed3c 77a6 b5bc e1fb 9dbc 448a 913b
000003e0: 2bc5 383d ff9c d13c 2150 29bd e98e 4c3d
000003f0: 6ffb 023c 2ac6 8f3d 2dbd bdbc 0f5e 02bc

bias f4 [84]
-0.030091286 0.0022713044 0.026493093 -0.014534674 0.05985298 0.045771215 -0.07184811 -0.026165085
-0.015672881 0.027635947 0.015969722 -0.01038379 -0.0050081476 -0.07346947 0.034574606 0.05616993
-0.044780355 -0.019421743 -0.031243268 0.041606855 -0.039338127 0.041484337 0.06624925 0.029682621
0.029535584 0.06654739 0.049856007 -0.0043108705 -0.07143206 0.03114702 -0.055068202 -0.038686585
0.007216329 0.0122425435 0.01794782 0.021334298 -0.045114156 -0.07423056 -0.0690878 0.057795607
0.06080483 0.014432827 -0.03047111 0.031929355 -0.06406259 -0.041835222 0.014141305 -0.05328466
-0.016465217 -0.011372929 0.07129494 0.06154281 0.04169815 -0.023212677 -0.006432939 -0.063110374
0.04963383 -0.054279994 -0.03600756 -0.03385359 -0.03376204 0.007200925 -0.008016829 -0.064759314
0.03406758 -0.0739356 0.05643846 0.062042788 0.06263527 -0.0711336 -0.04200652 -0.0069561703
-0.022536106 -0.028356543 -0.0444418 -0.06620723 0.041783825 0.0033934915 0.035452034 -0.03573305
0.056697223 -0.061314523 -0.053085733 0.0764433
00000000: 0082 f6bc 2ada 143b 0b08 d93c d722 6ebc
00000010: 6628 753d 997a 3b3d 1a25 93bd 2958 d6bc
00000020: 6a64 80bc c864 e23c efd2 823c c620 2abc
00000030: 631b a4bb 2977 96bd 1a9e 0d3d 7112 663d
00000040: 9b6b 37bd 591a 9fbc e2f1 ffbc f36b 2a3d
00000050: 0421 21bd 7beb 293d b0ad 873d f828 f33c
00000060: 9cf4 f13c ff49 883d d035 4c3d 3442 8dbb
00000070: f94a 92bd 0928 ff3c 328f 61bd d375 1ebd
00000080: f576 ec3b f394 483c 4e07 933c 44c5 ae3c
00000090: 9fc9 38bd 3106 98bd e87d 8dbd 16bb 6c3d
000000a0: 7c0e 793d aa77 6c3c 8d9e f9bc 5bc8 023d
000000b0: 3f33 83bd 695b 2bbd efb0 673c 0441 5abd
000000c0: 10e2 86bc 8655 3abc 1503 923d 5014 7c3d
000000d0: aecb 2a3d 8328 bebc 67cb d2bb 0340 81bd
000000e0: d84c 4b3d b354 5ebd aa7c 13bd 10aa 0abd
000000f0: 114a 0abd bdf5 eb3b 0559 03bc 88a0 84bd
00000100: 728a 0b3d 8c6b 97bd 042c 673d 9420 7e3d
00000110: ec46 803d 7eae 91bd 070f 2cbd 96f0 e3bb
00000120: a49d b8bc fb4b e8bc 9b08 36bd a897 87bd
00000130: 8425 2b3d 5765 5e3b 2736 113d d25c 12bd
00000140: 593b 683d f024 7bbd 6d70 59bd 4e8e 9c3d

weight f4 [84, 84]
-0.023409612 -0.0670176 0.012974542 -0.05662369 0.0054601165 0.026588155 -0.029519763 -0.090625666
-0.04582707 -0.02250505 0.019726757 0.10896214 -0.084642395 0.04538218 -0.10160614 -0.010139608
0.016018514 -0.091765836 -0.022164643 -0.08759873 0.014163815 -0.0611397 0.055603243 -0.08265711
0.07728485 -0.028745202 -0.0015738945 0.09193386 -0.07295433 0.027942192 0.039609887 -0.085878484
-0.07687685 -0.04120019 0.03515491 -0.076863155 -0.080512196 0.08561432 0.06955399 0.073976785
0.083313376 -0.07797808 -0.008299899 0.081548 0.03438181 0.0009775745 -0.0069210576 0.038949728
-0.052581165 0.033969797 0.056299802 -0.024582986 -0.059681468 -0.102094404 -0.08061142 -0.047027156
0.03673207 -0.09235937 0.03885126 -0.013164205 -0.030086698 -0.039431266 -0.047063228 -0.031283624
-0.07783504 0.08652654 -0.072296426 -0.053078417 0.016503543 0.057083435 0.09386677 -0.0060246363
0.10231738 0.09645296 -0.055676043 -0.055646896 -0.023125801 -0.00040888312 -0.0581261 0.066928916
0.013346414 -0.009289515 0.059827637 -0.05428641 -0.025670508 -0.02038877 0.063717544 -0.00980255
0.045363 0.057722807 0.08659792 -0.055614546 -0.08306565 -0.054465324 0.05330486 0.09865684
0.045456875 -0.09459179 0.05349249 -0.086856216 -0.018113747 0.01437328 0.082767256 -0.09492259
0.013756466 0.028788207 0.065646976 0.048321564 0.042863786 0.10193541 0.027039345 -0.09508311
0.08443962 0.060312066 0.010990844 0.00059604214 0.055591047 -0.091424026 0.037932597 0.0077376994
0.06959787 -0.02005324 -0.015117517 0.006436778 0.08559603 -0.012361476 -0.03298386 -0.014580548
-0.104124874 -0.021808868 0.027929546 0.086061694 -0.110259384 0.06431948 -0.071092285 -0.06178212
-0.02893261 -0.10402856 0.0035709708 -0.0017987483 -0.014091732 -0.02108981 -0.005204722 0.08126585
-0.030792767 -0.100472644 0.09924004 -0.033077717 0.06248732 -0.06550035 0.021256924 -0.08181432
-0.06545521 0.061701685 -0.10749864 -0.046346057 0.013669253 0.096827395 -0.02612829 0.046580516
0.09818298 0.007196721 0.04808018 0.027382832 0.028992407 0.015310154 -0.090257116 -0.04492173
-0.058423046 -0.0030711235 -0.05509596 -0.044165228 -0.022589045 -0.025170324 0.039647542 0.03170337
-0.037711468 0.029186351 -0.036451392 -0.0072807497 0.038568225 0.0019046508 0.07628239 -0.015276613
0.033245213 -0.06256373 -0.031213587 0.0924169 0.072515324 -0.027227204 -0.096891195 0.001519144
0.07713854 -0.04847888 0.011731271 -0.011529898 -0.018580517 -0.014834984 -0.03492415 0.0828605
-0.09523097 -0.00029998287 0.09965568 0.099848315 -0.007073508 0.017682362 -0.042304084 0.10588305
-0.064094335 0.01386607 0.018488953 0.0028041156 -0.046058055 0.017388634 0.033118807 0.029530851
0.09029217 -0.10919129 0.077562466 -0.10555317 -0.034437925 -0.052361898 -0.015390226 0.0674785
-0.028724052 -0.08083156 0.091263935 0.057378 0.02664205 0.09183594 -0.048532087 -0.00045837075
-0.007699471 -0.04637361 -0.06257795 0.060226552 0.06558217 0.01810798 0.00048866356 -0.022698866
-0.026802648 -0.0010811843 0.00071878574 -0.06397454 -0.012016763 -0.04136295 -0.006804963 -0.040892854
-0.068014316 -0.0012176024 -0.022855446 0.041380696 -0.02764484 0.09155491 -0.029328585 -0.05753554
00000000: 84c5 bfbc 8640 89bd 2c93 543c 3eee 67bd
00000010: c7ea b23b 67cf d93c 6ed3 f1bc f399 b9bd
00000020: 2ab5 3bbd 835c b8bc 029a a13c 8b27 df3d
00000030: fe58 adbd aae2 393d e116 d0bd 9920 26bc
00000040: 4239 833c baef bbbd a092 b5bc f766 b3bd
00000050: 590f 683c 9f6d 7abd 3ac0 633d 2248 a9bd
00000060: 8547 9e3d 0f7b ebbc 234b ceba d247 bc3d
00000070: 1469 95bd 06e7 e43c fa3d 223d 0fe1 afbd
00000080: 9c71 9dbd 88c1 28bd 98fe 0f3d 6e6a 9dbd
00000090: 94e3 a4bd 9056 af3d 5372 8e3d 2481 973d
000000a0: 34a0 aa3d f9b2 9fbd 4dfc 07bc a302 a73d
000000b0: f1d3 0c3d f521 803a 0aca e2bb c089 1f3d
000000c0: 595f 57bd ea23 0b3d 9f9a 663d 4262 c9bc
000000d0: 8e74 74bd df16 d1bd 9a17 a5bd 8c9f 40bd
000000e0: 5e74 163d e926 bdbd 8022 1f3d adae 57bc
000000f0: 6178 f6bc ae82 21bd 5fc5 40bd 4223 00bd
00000100: fa67 9fbd d434 b13d 2610 94bd c168 59bd
00000110: 7032 873c 52d0 693d 393d c03d 506a c5bb
00000120: c68b d13d 2189 c53d 900c 64bd 00ee 63bd
00000130: 5272 bdbc 5d5f d6b9 a215 6ebd 0712 893d
00000140: ebaa 5a3c 0d33 18bc d30d 753d 6d5b 5ebd
00000150: f54a d2bc 5a06 a7bc 587e 823d e09a 20bc
00000160: 8ece 393d c06e 6c3d 405a b13d 14cc 63bd
00000170: 531e aabd 0817 5fbd 3256 5a3d 990c ca3d
00000180: fd30 3a3d 57b9 c1bd f11a 5b3d ace1 b1bd
00000190: 4863 94bc e87d 6b3c e181 a93d c666 c2bd
000001a0: cd62 613c 3fd5 eb3c ec71 863d d5ec 453d
000001b0: f091 2f3d 83c3 d03d 9e81 dd3c efba c2bd
000001c0: aeee ac3d c909 773d f112 343c b63f 1c3a
000001d0: 70b3 633d 853c bbbd 365f 1b3d 878c fd3b
000001e0: 5489 8e3d b146 a4bc 76af 77bc 9ceb d23b
000001f0: f94c af3d ca87 4abc 151a 07bd 40e3 6ebc
00000200: 6c3f d5bd 83a8 b2bc 81cc e43c 1d41 b03d
00000210: accf e1bd eeb9 833d d598 91bd 400f 7dbd
00000220: 1504 edbc ed0c d5bd f306 6a3b fac3 ebba
00000230: 02e1 66bc 8ac4 acbc 5f8c aabb b66e a63d
00000240: 1d41 fcbc 9ac4 cdbd 5d3e cb3d 807c 07bd
00000250: b4f2 7f3d 0c25 86bd 0023 ae3c 448e a7bd
00000260: 620d 86bd e8ba 7c3d 3f28 dcbd 5dd5 3dbd
00000270: 01f5 5f3c 714d c63d ff0a d6bc 36cb 3e3d
00000280: 2914 c93d 79d2 eb3b b9ef 443d f651 e03c
00000290: 7c81 ed3c 71d7 7a3c b9d8 b8bd d9ff 37bd
000002a0: 014d 6fbd e744 49bb 4dac 61bd 99e6 34bd
000002b0: a90c b9bc ff31 cebc 7665 223d 65db 013d
000002c0: 5777 1abd 3718 ef3c 0e4e 15bd 5b93 eebb
000002d0: b7f9 1d3d 7aa5 f93a f139 9c3d c24a 7abc
000002e0: 222c 083d 6a21 80bd a3b3 ffbc 1245 bd3d
000002f0: ea82 943d 960b dfbc e46e c6bd 041e c73a
00000300: d0fa 9d3d ca91 46bd 8434 403c e6e7 3cbc
00000310: 2b36 98bc 6f0e 73bc a00c 0fbd c4b2 a93d
00000320: 7408 c3bd 0547 9db9 4718 cc3d 467d cc3d
00000330: e3c8 e7bb 9ada 903c 0c47 2dbd 36d9 d83d
00000340: e443 83bd 832e 633c 2576 973c 41c5 373b
00000350: 5fa7 3cbd 9c72 8e3c 96a7 073d afea f13c
00000360: 1aeb b83d af9f dfbd 12d9 9e3d 432c d8bd
00000370: c80e 0dbd 6e79 56bd 4927 7cbc 2b32 8a3d
00000380: b44e ebbc 048b a5bd 96e8 ba3d 3205 6b3d
00000390: 6e40 da3c 7b14 bc3d 95c9 46bd 7b51 f0b9
000003a0: d84b fcbb 41f2 3dbd de28 80bd 1eb0 763d
000003b0: f24f 863d 3057 943c a819 003a f9f2 b9bc
000003c0: 3a91 dbbc 86b6 8dba e56c 3c3a 1505 83bd
000003d0: f5e1 44bc 326c 29bd 2bfc debb 447f 27bd
000003e0: 174b 8bbd f597 9fba 583b bbbc ce7e 293d
000003f0: 6e77 e2bc 2481 bb3d 8042 f0bc 63aa 6bbd

bias f4 [84]
-0.006610734 -0.034904435 -0.040015284 -0.09865152 0.04225271 -0.035121504 -0.013089862 -0.05580729
0.009215493 -0.05540824 -0.02727889 -0.030607982 0.073590904 0.05022872 -0.04565005 -0.068692915
-0.040340446 -0.011753411 0.053897776 0.0101723615 -0.025126897 -0.04996169 -0.05894551 0.043985493
0.04079887 -0.0048126276 -0.07384532 0.079788566 0.05905896 0.063984685 -0.017845158 -0.058969162
-0.029258328 0.073081784 0.049349707 0.09778255 0.054794773 -0.053737465 -0.032732546 0.04713547
-0.006660913 -0.0031377822 0.032774255 0.092108294 -0.07003548 -0.05188523 0.07584531 -0.08416174
0.019361334 -0.057896797 -0.072952084 0.042920403 0.057362463 0.040517468 0.014365077 0.053397737
0.026179107 0.014612141 -0.084582485 -0.050285574 0.037369087 -0.0742858 0.083829254 0.08900531
-0.07873412 0.05375973 0.051337924 0.06858617 0.049080282 -0.041895885 -0.060605094 0.0063212733
-0.08992796 -0.086552255 -0.06072081 0.023977974 0.0475651 0.056316495 -0.024460249 -0.07017967
-0.011249753 0.016992945 -0.0013813372 -0.0090303905
00000000: db9e d8bb f4f7 0ebd 11e7 23bd cf09 cabd
00000010: 2d11 2d3d 91db 0fbd dc76 56bc 2f96 64bd
00000020: 94fc 163c c0f3 62bd fb77 dfbc 97bd fabc
00000030: d4b6 963d a1bc 4d3d 8cfb 3abd dfae 8cbd
00000040: 063c 25bd 6191 40bc eac3 5c3d faa9 263c
00000050: ecd6 cdbc a1a4 4cbd d970 71bd 222a 343d
00000060: b71c 273d 3fb3 9dbb 373c 97bd 3068 a33d
00000070: cfe7 713d 670a 833d 0230 92bc a689 71bd
00000080: 29af efbc e7ab 953d eb22 4a3d 3842 c83d
00000090: 7c70 603d d11b 5cbd 9012 06bd 1f11 413d
000000a0: ca43 dabb 40a3 4dbb 4c3e 063d 46a3 bc3d
000000b0: c36e 8fbd 9b85 54bd c954 9b3d fe5c acbd
000000c0: a99b 9e3c 3125 6dbd e767 95bd 4ecd 2f3d
000000d0: e7f4 6a3d a5f5 253d 805b 6b3c 96b7 5a3d
000000e0: 9175 d63c c367 6f3c 9539 adbd 3ff8 4dbd
000000f0: 5410 193d 2723 98bd acae ab3d 6a48 b63d
00000100: 5b3f a1bd 2a33 5c3d b747 523d e876 8c3d
00000110: 6808 493d 059b 2bbd 0c3d 78bd af22 cf3b
00000120: 262c b8bd 4f42 b1bd 62b6 78bd 756d c43c
00000130: 9fd3 423d 20ac 663d dc60 c8bc 5cba 8fbd
00000140: e250 38bc ca34 8b3c fc0d b5ba 34f4 13bc

weight f4 [42, 84]
-0.008789028 -0.008843111 -0.054793168 0.07424218 0.042711318 -0.04019707 -0.039514564 -0.066498965
0.015444317 0.00028478875 -0.023974175 0.019503571 0.021138892 0.011581096 0.03226677 0.115550876
0.0053727697 -0.09179381 0.012362593 0.08473033 -0.07250038 -0.039258666 0.07086905 0.024023145
-0.033128917 0.036941558 0.09240779 0.08364132 0.012784682 0.0050252667 0.06767396 -0.033139408
-0.0060048527 -0.041817382 -0.025881456 -0.103839055 0.0393399 -0.046339404 0.005315357 0.0009850032
-0.048124503 -0.017766263 0.00399585 -0.10240479 -0.043203253 -0.080599554 0.044753846 0.0642657
0.029879155 -0.080863066 -0.09251921 -0.07236006 0.10382476 0.05990003 0.06540992 0.08943822
0.0348825 0.072788335 0.010785955 0.027545335 0.10759022 -0.054480053 -0.044728227 0.07006446
-0.019982472 -0.09145766 -0.040973302 0.06664949 0.02603148 -0.11884869 -0.055756398 0.05668527
0.07549791 -0.08180598 0.059623696 -0.045488812 0.081748776 -0.108165234 0.0473122 -0.08502231
-0.049622077 -0.016875515 -0.020030173 -0.09707855 0.030039668 0.0027565325 0.0911269 0.074708775
0.043555997 0.059862 -0.0053942045 -0.04240062 -0.1048484 0.07892994 0.05309901 0.026766097
-0.09355793 -0.06776078 0.049897693 -0.08731311 0.0036828201 -0.07046218 -0.049013983 0.08240416
-0.022446418 -0.09540735 0.123751216 0.049457483 0.019727241 -0.07014457 0.021006845 -0.0057036197
-0.061861627 -0.023821352 -0.030549403 -0.002540968 0.09782614 0.06897887 -0.023951529 0.042633586
0.05690603 -0.09937547 0.04302881 -0.061860316 -0.022328189 0.07507869 0.074527636 0.08822705
0.09136004 -0.012847895 0.076070175 -0.03181385 0.09173451 -0.04492389 0.072472975 -0.0360176
-0.07062911 -0.07510259 -0.09920216 -0.054546073 0.02915697 0.044139013 -0.06754863 0.018008044
0.010967975 0.020652499 0.028712383 0.05061725 0.088967696 0.054940183 -0.10945846 -0.012115907
0.040297415 -0.07593345 -0.09203924 0.11647428 0.025479006 0.08623205 -0.057468083 -0.092275545
0.01620072 0.016725812 0.052009583 -0.09207552 0.009183295 0.056171544 0.03368367 0.08733261
-0.09417909 -0.05653454 -0.043337196 0.05244716 0.11535768 0.07740126 -0.041429076 0.033834834
0.059735395 -0.10589457 -0.08040358 -0.01290802 -0.07869723 -0.094161265 -0.09500827 -0.017236726
0.002987194 -0.07230056 -0.08970069 -0.07418685 0.09855609 -0.09025138 -0.096355766 0.062475473
-0.016118776 -0.10088751 -0.042587943 0.025874753 -0.04347302 0.037370726 0.018463694 -0.104795836
-0.06326489 0.0282189 -0.03031562 -0.100073606 -0.089963734 0.037526473 -0.024988635 0.081460215
0.008530172 0.03645715 0.070428014 0.06997236 -0.029437631 -0.0408286 -0.005468851 -0.09916111
0.011615484 -0.113649555 -0.0006796085 -0.104969546 0.05626803 -0.093338855 0.07189216 -0.07198252
0.00672296 -0.0016059452 -0.07566782 -0.07306702 0.07564175 0.08367602 -0.047195785 0.04559697
-0.07382721 0.03524008 0.0013100078 0.041320365 -0.025157873 0.008346086 -0.06849577 0.045697663
0.075911045 -0.008370703 -0.0572869 0.07500736 0.038050313 -0.046357516 0.07468573 -0.10215317
0.09472431 -0.053729262 0.070423156 -0.09665551 0.06449135 -0.0086904215 -0.059943147 -0.05453373
00000000: dbff 0fbc b2e2 10bc cd6e 60bd 490c 983d
00000010: 10f2 2e3d afa5 24bd 06da 21bd 9c30 88bd
00000020: 290a 7d3c b34f 9539 7d65 c4bc f4c5 9f3c
00000030: 782b ad3c a3be 3d3c 292a 043d f0a5 ec3d
00000040: 0f0e b03b 65fe bbbd 798c 4a3c 1887 ad3d
00000050: 147b 94bd b2cd 20bd cb23 913d 30cc c43c
00000060: 30b2 07bd 0850 173d 4c40 bd3d 244c ab3d
00000070: d876 513c feaa a43b a598 8a3d 30bd 07bd
00000080: 5bc4 c4bb b448 2bbd 5905 d4bc 92a9 d4bd
00000090: e022 213d 63ce 3dbd 722c ae3b 391b 813a
000000a0: 331e 45bd 8e8a 91bc 9fef 823b 9ab9 d1bd
000000b0: e5f5 30bd 6111 a5bd cf4f 373d bc9d 833d
000000c0: 21c5 f43c 899b a5bd b67a bdbd 8331 94bd
000000d0: 13a2 d43d bc59 753d a3f5 853d 632b b73d
000000e0: f4e0 0e3d 0d12 953d 93b7 303c c1a6 e13c
000000f0: 4358 dc3d 7a26 5fbd f234 37bd f57d 8f3d
00000100: 48b2 a3bc 274e bbbd 9fd3 27bd 877f 883d
00000110: f83f d53c f166 f3bd d260 64bd d02e 683d
00000120: a69e 9a3d e589 a7bd fa37 743d 7a52 3abd
00000130: e76b a73d bc85 ddbd 70ca 413d 2d20 aebd
00000140: 8540 4bbd 853e 8abc 5116 a4bc 1ed1 c6bd
00000150: c015 f63c f1a6 343b bda0 ba3d ea00 993d
00000160: c667 323d db31 753d dec1 b0bb 46ac 2dbd
00000170: c2ba d6bd 05a6 a13d 597e 593d 9344 db3c
00000180: 4d9b bfbd 2ac6 8abd 8661 4c3d 37d1 b2bd
00000190: 785b 713b 7a4e 90bd e3c2 48bd 83c3 a83d
000001a0: 8de1 b7bc ee64 c3bd 4771 fd3d ee93 4a3d
000001b0: 069b a13c f5a7 8fbd 8c16 ac3c 6ee5 babb
000001c0: 9e62 7dbd ff24 c3bc be42 fabc 5e86 26bb
000001d0: 1259 c83d cb44 8d3d ff35 c4bc 8ea0 2e3d
000001e0: 4c16 693d 5e85 cbbd fa3e 303d 3e61 7dbd
000001f0: 9be9 b6bc dbc2 993d f2a1 983d 62b0 b43d
00000200: f91a bb3d fa7f 52bc aeca 9b3d 3d4f 02bd
00000210: 4edf bb3d 1d02 38bd b66c 943d 3187 13bd
00000220: ffa5 90bd 63cf 99bd 812a cbbd b46b 5fbd
00000230: 99da ee3c 1ccb 343d f056 8abd 9b85 933c
00000240: 05b3 333c 6e2f a93c 3b36 eb3c 0954 4f3d
00000250: b234 b63d f508 613d c22b e0bd cc81 46bc
00000260: e70e 253d ff82 9bbd 127f bcbd 118a ee3d
00000270: 59b9 d03c 6e9a b03d a763 6bbd f6fa bcbd
00000280: 5fb7 843c 9204 893c 0008 553d 1792 bcbd
00000290: 8875 163c 2214 663d e3f7 093d 70db b23d
000002a0: f7e0 c0bd c390 67bd 5882 31bd d5d2 563d
000002b0: a640 ec3d 8d84 9e3d 89b1 29bd 6596 0a3d
000002c0: 1aad 743d 41df d8bd a2aa a4bd 297c 53bc
000002d0: 032c a1bd 9fd7 c0bd b293 c2bd 0934 8dbc
000002e0: cdc4 433b 5112 94bd ffb4 b7bd 46ef 97bd
000002f0: c6d7 c93d b7d5 b8bd 2c56 c5bd 48e6 7f3d
00000300: 860b 84bc 1c9e cebd b270 2ebd 4af7 d33c
00000310: c410 32bd 0c12 193d 2c41 973c 339f d6bd
00000320: 0691 81bd 532b e73c 7758 f8bc 64f3 ccbd
00000330: e83e b8bd 5cb5 193d f7b4 ccbc 9dd4 a63d
00000340: 22c2 0b3c 1854 153d 903c 903d ab4d 8f3d
00000350: 3027 f1bc e43b 27bd 0c34 b3bb fb14 cbbd
00000360: df4e 3e3c 19c1 e8bd c127 32ba 46fa d6bd
00000370: 4e79 663d 7128 bfbd 323c 933d 926b 93bd
00000380: 474c dc3b 947e d2ba bbf7 9abd 29a4 95bd
00000390: 10ea 9a3d 555e ab3d 5e50 41bd e3c3 3a3d
000003a0: b832 97bd e757 103d 91b4 ab3a 8b3f 293d
000003b0: e217 cebc 06be 083c 8347 8cbd 792d 3b3d
000003c0: 4077 9b3d 4625 09bc aba5 6abd 759d 993d
000003d0: a5da 1b3d 61e1 3dbd d5f4 983d ae35 d1bd
000003e0: d2fe c13d 3713 5cbd 043a 903d 53f3 c5bd
000003f0: 0a14 843d 4562 0ebc f286 75bd c35e 5fbd

bias f4 [42]
0.09082723 0.019852452 0.013560424 -0.054350883 0.016721288 0.055068396 -0.006098937 -0.042946186
-0.06414435 -0.005665573 -0.0726128 0.007841153 -0.010414114 0.095619865 0.00648185 -0.091670185
-0.003511189 0.05554232 0.05264849 0.03223749 -0.08141008 -0.08705898 -0.064789325 0.0574725
0.0042027375 0.0320779 -0.08692972 0.046728224 -0.016206602 -0.0010115434 0.09824282 -0.017680954
-0.004469356 0.072712235 0.042157736 -0.0074922913 -0.09056028 -0.06837023 0.012616016 -0.04632853
-0.04317656 0.024738226
00000000: a003 ba3d 9ca1 a23c 8a2c 5e3c 089f 5ebd
00000010: 15fb 883c 668f 613d 97d9 c7bb 57e8 2fbd
00000020: 1d5e 83bd 45a6 b9bb 05b6 94bd 2e78 003c
00000030: f69f 2abc 59d4 c33d b365 d43b 94bd bbbd
00000040: fa1b 66bb 5880 633d f1a5 573d 750b 043d
00000050: 54ba a6bd fa4b b2bd 44b0 84bd 4968 6b3d
00000060: 1eb7 893b 1e64 033d 3608 b2bd 1866 3f3d
00000070: b5c3 84bc c495 84ba 8833 c93d a6d7 90bc
00000080: ad73 92bb 27ea 943d 97ad 2c3d e581 f5bb
00000090: ab77 b9bd b105 8cbd 68b3 4e3c fcc2 3dbd
000000a0: e8d9 30bd d2a7 ca3c

weight f4 [1, 42]
-0.029751265 -0.028913984 0.053799316 -0.13208744 -0.074545115 -0.10446159 0.07406494 0.07448419
0.0069564213 0.038647987 0.080341995 0.043095656 0.019763589 -0.13285984 -0.06902666 0.024654523
0.09659846 -0.07484538 0.037987657 -0.00075115234 -0.003932934 -0.088969305 -0.06481459 0.0037832484
0.10929291 -0.055237144 0.0055237687 -0.10120814 0.05023539 0.09549427 -0.03672955 -0.116829835
0.08345159 -0.03273342 -0.06923005 -0.09912484 0.09368209 -0.020616813 0.10370216 0.026035113
-0.1179176 -0.00385916
00000000: edb8 f3bc 05dd ecbc ac5c 5c3d ee41 07be
00000010: 1cab 98bd f5ef d5bd 5caf 973d 2b8b 983d
00000020: b1f2 e33b 5a4d 1e3d 588a a43d 1285 303d
00000030: 40e7 a13c 690c 08be d95d 8dbd 48f8 c93c
00000040: 6ad5 c53d 8948 99bd f298 1b3d fbe8 44ba
00000050: d7df 80bb 8a35 b6bd 83bd 84bd 60f0 773b
00000060: f6d4 df3d 5840 62bd bb00 b53b 3746 cfbd
00000070: a0c3 4d3d 8092 c33d ba71 16bd 7b44 efbd
00000080: abe8 aa3d 7b13 06bd 7cc8 8dbd f701 cbbd
00000090: 65dc bf3d 97e4 a8bc cc61 d43d 9747 d53c
000000a0: c87e f1bd f6e9 7cbb
