ModelUnpredictability/one_thousand_brains/predictor_114.model (torch_old, 109395 bytes, 7 tensors)

weight f4 [84, 168]
000000 65 a8 59 3d e6 fb a4 bd 7e 3b 38 3d ec ff 6d 3d
       0.05313911 -0.08055858 0.04497861 0.058105394
000010 1f 2f 3d bd 82 dd 1b bd be 1e 39 3d 0d af 0b 3c
       -0.046187516 -0.038053043 0.045195334 0.008525622
000020 90 06 26 3d 0f 4e 42 bd 10 07 3b bb 69 1b 8e bc
       0.040533602 -0.047437724 -0.0028538145 -0.017347055
000030 87 4c 13 bd b4 b2 48 bd 5b a4 0c bd 50 5f a5 bd
       -0.035961654 -0.04899855 -0.03433643 -0.0807482
000040 8b 4a 91 3d 47 66 15 3d c1 f9 85 bd d6 47 19 3d
       0.07094296 0.036474492 -0.065417774 0.037422024
000050 e3 87 67 bd 18 5a 43 bd 53 f9 70 bd a6 b8 d6 3c
       -0.056526076 -0.047693342 -0.058831524 0.026211094
000060 2b 54 a6 bc 16 0c 2a bd 4b 6c 0d bd 20 9f d8 ba
       -0.020303806 -0.041515432 -0.034527104 -0.0016526915
000070 cb dc 57 bd 2a 82 5f 3d 46 6a ba 3b bb 11 03 bc
       -0.0527008 0.054567493 0.0056889383 -0.007999833
000080 1f 4f c4 3c d8 e0 76 bd 9f 79 e5 3c 48 fb 40 3d
       0.02396351 -0.06027302 0.028012095 0.04711464
000090 cc b7 80 3c 8f 22 8e 3d 1c 95 68 bb 73 f5 44 bd
       0.015712641 0.06940185 -0.0035489267 -0.04808564
0000a0 64 53 95 bd 4c 51 7b 3d 02 64 82 bc b0 bc 48 bd
       -0.07291296 0.061356828 -0.015916828 -0.04900807
0000b0 af 44 93 3c 51 19 51 3d 13 82 4d 3d 9b dc 06 3d
       0.017977087 0.051049534 0.050172877 0.03292523
0000c0 3d 3f 44 3d ce a9 d7 3c bd c5 0c 3c 5d 4e ec bc
       0.04791187 0.026326086 0.008592066 -0.02884596
0000d0 fb 93 08 bb a0 f1 8d 3b da ff e9 3c ac b5 3d 3d
       -0.0020840156 0.0043317825 0.028564382 0.046315834
0000e0 73 ab 15 3d f4 23 13 3d 8c fd 2b 3d ca 45 8f 3d
       0.03654046 0.03592296 0.041989848 0.06995733
0000f0 1e d6 6a bc 29 0d fd 3c c0 d6 4f 3d e9 41 0b 3d
       -0.014333276 0.030890064 0.05074191 0.033998404
000100 71 38 ee bc de ea 68 bd 2c 6c 5f 3c a6 8d 14 bd
       -0.029079648 -0.05686461 0.01363663 -0.0362679
000110 0f 70 39 bc 3f 6d 6e 3d c0 d6 f7 bc 30 c4 ae 3c
       -0.011318221 0.058209654 -0.030253768 0.021333784
000120 79 95 0a bc dd 59 8a 3c fb 00 1c 3b a4 13 86 3b
       -0.008458489 0.016888553 0.0023804295 0.004091697
000130 eb fc bc b9 de c7 30 3d 7e f9 85 bd 4a ce 81 bd
       -0.00036046593 0.04315936 -0.065417275 -0.06338175
000140 f8 6f 30 bc 1d 9f eb 3b c8 60 0c 3c ea dc 87 bd
       -0.010768883 0.0071905986 0.008567996 -0.06633933
000150 5a 8a 93 bd cf 46 3f 3d b9 d3 34 3d 56 f4 7b bd
       -0.07204123 0.046698388 0.044147227 -0.061512314
000160 c1 92 0a bb 49 a9 04 3d ea 48 d3 bc 8e 42 66 bd
       -0.00211446 0.032388005 -0.025791604 -0.056215815
000170 b3 fa 04 3d 7b 1e f3 3c c1 87 65 bd 3f 72 c6 3c
       0.032465648 0.02967762 -0.05603767 0.024224399
000180 92 89 76 3b c6 8a 48 3d a9 61 cd bb 03 1f 60 3d
       0.003761862 0.04896047 -0.0062677455 0.054717075
000190 14 fc 7c 3d 0c fd 55 bd aa 86 d5 3c 0f d6 8f 3a
       0.061763838 -0.052243277 0.02606519 0.0010973829
0001a0 53 16 39 bd 06 7a 1b 3d 9a 63 6b b8 76 66 53 3b
       -0.045187306 0.037958167 -5.6121127e-05 0.0032257116
0001b0 16 e0 38 3d d8 47 16 bd ac 13 9b 3d aa db b1 3c
       0.04513558 -0.03668961 0.075721115 0.02171119
0001c0 10 eb 71 3d aa 2b 08 3b 56 d4 62 3b ff ca e4 3c
       0.059062064 0.002077798 0.0034611425 0.027928827
0001d0 ac 42 09 3d 11 4a 9c 3c 06 a5 80 3d 45 45 52 3d
       0.03351085 0.019078286 0.06281476 0.05133559
0001e0 10 96 e9 3c 1e 41 a4 bc 66 b7 55 bd 38 98 99 3d
       0.028513938 -0.020050582 -0.052176856 0.074997365
0001f0 4c 14 e5 3c 3d a8 1c 3b db 95 21 3d 68 6c 15 3d
       0.02796378 0.0023903989 0.039449554 0.036480337
000200 18 56 8d bd bd d6 b4 3c 24 65 98 3d b2 1b 62 bd
       -0.06901187 0.022075051 0.07441166 -0.055202194
000210 2a 70 26 3d ac 47 87 bc 69 25 9b bd 55 9a a4 ba
       0.04063431 -0.016513668 -0.07575495 -0.0012558202
000220 9e c5 75 3d 31 7e 91 3c 2f 40 37 3d e0 c2 d9 3c
       0.060002916 0.017760368 0.044738945 0.026582181
000230 50 9f 9a bd 77 5a b2 bb 59 6a 0e 3c 8d da 90 bd
       -0.07549918 -0.005442913 0.008692347 -0.07072935
000240 56 aa da bb 2b 84 16 3d 1d 04 e3 bc e3 93 93 bd
       -0.0066731377 0.03674714 -0.027711922 -0.072059415
000250 45 7c 2b 3d 96 e3 72 bb 8e b9 90 3d a9 29 01 bd
       0.04186656 -0.0037061921 0.07066642 -0.03153387
000260 1b dc 61 3d 08 9b 62 bd 11 43 8d 3d 84 ef 8a 3c
       0.05514155 -0.05532363 0.068975575 0.016959913
000270 ab e8 71 3d 65 ff 23 bd 07 43 68 bd 02 03 72 3b
       0.05905978 -0.040038485 -0.056704547 0.0036928062
000280 ce 86 86 bc f0 e0 77 3c a5 7f 70 3d 24 f1 aa 3c
       -0.016421702 0.015129313 0.05871548 0.020866938
000290 4f c6 4f bd c3 6f 8e bd eb 38 0c bd dd 15 a5 bd
       -0.05072623 -0.069549106 -0.03423397 -0.08060811
0002a0 ac 53 a4 3c 28 fc 13 3c aa 09 88 bd 9c dd 18 3c
       0.02005943 0.009032287 -0.06642468 0.00933018
0002b0 6d d3 07 bd 04 5b 92 bd 1e d0 15 bd bf 66 86 3d
       -0.033160616 -0.07146266 -0.03657543 0.06562566
0002c0 5c 21 58 3d c7 ab 35 3d a7 7b 81 bd 84 46 e2 bb
       0.05276619 0.044353273 -0.06322413 -0.006905379
0002d0 48 4f 1d bd a5 4e 16 3c c9 ed 8d 3d 22 34 b5 3c
       -0.038405687 0.009174024 0.069301195 0.022119585
0002e0 b8 9c 3d bd 9d 51 24 3b 65 79 6d bd 6d 18 11 bd
       -0.046292037 0.002507306 -0.0579771 -0.035423685
0002f0 d6 5b 9d bc 77 49 98 bd 81 87 96 bd 09 6c 39 bd
       -0.01920883 -0.07435887 -0.07350064 -0.045269046
000300 61 09 8a 3a b0 f3 07 bd 52 fb 66 3c 4a 6d 49 3d
       0.001053136 -0.033191383 0.014098005 0.04917649
000310 db 5a 0d 3d ea e9 1c 3c c4 ea 86 bd 4d df 81 3b
       0.034510475 0.009577254 -0.06587747 0.003963387
000320 84 c4 24 bd 56 4a 59 bd 1c 82 13 bd c2 32 87 3d
       -0.040226474 -0.053049408 -0.036012754 0.06601478
000330 5f 81 50 3c 6d 25 94 3d c3 18 94 bc 14 cd 88 bd
       0.012726157 0.07233701 -0.018078214 -0.066797405
000340 bf 69 3c bd e7 7a e8 bb dd 65 6e bd fe db 70 3d
       -0.045999285 -0.007094729 -0.058202613 0.05880355
000350 ac ef 95 bd fd 10 be bc ff e5 a6 3c c1 7f 31 bd
       -0.073211044 -0.02320146 0.020373343 -0.043334726
000360 5d fc 30 3d b1 57 d4 bc a3 b5 53 bd cb 2a 92 bd
       0.043209422 -0.02592072 -0.051686894 -0.07137068
000370 1a ce 98 bc 76 d1 8c bd 1b 39 11 bd ac bd da 38
       -0.018652964 -0.06875889 -0.03545485 0.00010430379
000380 52 95 22 bd ee 55 be 3c b2 c7 0e bd 7f f5 d0 bc
       -0.039693184 0.023234334 -0.034858413 -0.025507687
000390 24 75 02 bd c5 e7 52 bd 94 0b 1e 3d 38 b9 8f 3d
       -0.031849995 -0.051490564 0.03858526 0.070177495
0003a0 52 3c ba 3c cf 13 6e bd 2c 0d 9c ba b1 bb 4d 3d
       0.022733841 -0.05812436 -0.0011905781 0.050227825
0003b0 8a 32 0e bd db b7 8b bc 4e dc a3 bd c4 ff ad bb
       -0.034716167 -0.017055443 -0.08001004 -0.0053100307
0003c0 e2 f7 ba 3c f0 67 7b bc e7 b3 98 3d 93 c9 6e bd
       0.022823278 -0.015344605 0.07456189 -0.058297705
0003d0 62 76 60 3d 35 a3 43 3d 1d 83 d3 3c 8c 8e f8 bc
       0.0548004 0.04776307 0.025819356 -0.03034141
0003e0 b4 73 49 3d 6a c2 96 3d 48 5f 85 bd f9 a8 78 bd
       0.04918261 0.073613 -0.06512314 -0.06070802
0003f0 77 84 0a 3d 14 fa 68 bc 32 02 f6 bc f8 e9 85 3d
       0.033817735 -0.0142197795 -0.030030344 0.065387666

bias f4 [84]
000000 08 e5 fd 39 10 c2 95 3d db 6e a0 bd c8 e0 af 3b
       0.00048426562 0.07312405 -0.07833644 0.005367372
000010 f1 7e 1e 3d d6 e5 85 3c d9 4a f2 3c 60 90 60 bd
       0.03869528 0.016344946 0.029576706 -0.054825187
000020 3e de 8e bd 39 a8 52 3d cf 12 0d 3d f5 d9 16 bc
       -0.06975983 0.05142996 0.034441765 -0.009207238
000030 86 02 14 bd 52 55 65 3d 0d c2 94 bd 5e 0e 77 3d
       -0.03613522 0.05598957 -0.07263575 0.060316436
000040 8a 4c 4f bd 44 2f 59 3d a1 2f 80 bc d1 66 07 3d
       -0.050610103 0.05302359 -0.015647711 0.033057038
000050 b4 51 3c 3d 91 0a fb bc b6 ef a8 bb c4 62 95 3d
       0.045976356 -0.030644687 -0.005155529 0.07294229
000060 b5 c7 9c 3d 47 92 f9 b9 d7 02 40 3d fd b6 8a 3d
       0.076552786 -0.00047601966 0.04687771 0.067731835
000070 9b b8 5e bc 86 e5 87 3d 66 65 d8 bc 83 72 51 bd
       -0.013593818 0.06635575 -0.026415538 -0.051134598
000080 d6 90 20 3d 50 6f 82 3c 40 6e 15 ba 75 a5 88 bd
       0.039200626 0.015922219 -0.00057003275 -0.066721834
000090 64 87 95 bd 20 8c 2a 3c dc 4f 04 3d bf 1a 3b 3d
       -0.07301214 0.010409385 0.032302722 0.045679804
0000a0 ff 6c 89 bd ad de 1d 3c 1c 63 03 3d cd b2 55 3d
       -0.067102425 0.00963561 0.03207694 0.05217247
0000b0 22 95 3c bd 0a e2 92 3d f1 b7 04 3d cf e3 87 3d
       -0.04604066 0.0717202 0.032401983 0.06635248
0000c0 52 1f 9b 3b 33 63 83 3d 22 c2 4c 3c f1 92 c1 39
       0.0047339583 0.06415405 0.012497457 0.00036921308
0000d0 f6 8e 96 3b 52 6f 77 3c f3 ee 00 3d c8 4f 81 3d
       0.004594679 0.015102224 0.03147788 0.06314045
0000e0 da 5c 80 3d 07 6c 4c bd 7b 7a 9c 3d 4e 99 82 3d
       0.0626771 -0.04990771 0.07640549 0.06376897
0000f0 e1 3e 90 3d cc 9e fb bc 0b a0 82 3d fe f3 fa bb
       0.07043243 -0.030715369 0.06378182 -0.0076584807
000100 92 12 91 bd 05 32 3c 3d e5 b9 74 3d c1 14 52 bd
       -0.0708362 0.04594614 0.059747595 -0.051289324
000110 07 0d 8d bd 0e 4c d7 3c 84 2e 89 3b fa 18 e8 bc
       -0.068872504 0.026281383 0.0041864533 -0.028332222
000120 16 34 7a bb da 19 38 3d 1c 26 3c 3c 93 db fc 3c
       -0.0038178018 0.04494653 0.011483695 0.03086642
000130 a9 8d a4 bd db 9b 86 bd 54 90 9c bc b9 c7 27 3d
       -0.08034832 -0.06572696 -0.01911179 0.040961955
000140 82 96 db bc bc 99 45 bd 7f 47 49 3d e2 ff 8d bd
       -0.026805166 -0.048242316 0.04914045 -0.069335714

weight f4 [84, 84]
000000 a6 9f 88 bd 90 53 38 bc 57 aa 80 bd 3e ec b7 bd
       -0.066710755 -0.011250392 -0.0628249 -0.089806065
000010 a3 b8 cc bc 46 30 a3 3d f7 67 da 3d f8 7f c2 bd
       -0.024990385 0.07968192 0.10664361 -0.09497064
000020 f9 6b ba bd 74 af 15 3d ef be e5 bb 64 c0 1a bd
       -0.091026254 0.03654428 -0.0070112864 -0.037781134
000030 95 43 57 3c 6c 1c c5 bd 95 5a e5 bd d4 78 4d 3d
       0.013138671 -0.09624562 -0.11198918 0.05016406
000040 a7 38 91 3d 99 16 22 bc c5 98 8d bd eb e7 b3 3d
       0.07090884 -0.009893083 -0.06913904 0.08784469
000050 56 34 b7 3d b7 cd 1b 3d a2 5f 4a bd 8d 5d c5 3c
       0.08945529 0.03803798 -0.04940761 0.02409246
000060 0f 14 7d bd 57 54 f9 bd 18 43 2b 3d b3 ad 35 bd
       -0.061786707 -0.1217429 0.041812032 -0.044355106
000070 84 15 c0 3d dc e9 9b bd fb 30 a1 bc 0f ec 8a 3d
       0.09379104 -0.076129645 -0.019676676 0.06783306
000080 60 8f c4 bc d6 6c 99 bc 67 0e a2 bd 95 b2 74 bd
       -0.023994148 -0.018728655 -0.07912903 -0.05974062
000090 5c 49 d1 bd 8e 4c 21 bc ba 26 12 3d 72 d0 d1 bd
       -0.1021907 -0.009844912 0.035681464 -0.10244836
0000a0 c4 5f 5f 3d fd 75 56 bd d0 9a 22 3d cf 84 27 bc
       0.05453469 -0.052358616 0.039698422 -0.010224535
0000b0 8d 28 af bd 6b f7 7c bd b5 1e e0 bc 0f 89 e0 3c
       -0.08552656 -0.061759394 -0.027358392 0.027409105
0000c0 f4 82 26 bd ea 25 c5 3c c9 a1 63 3d a8 b2 31 bd
       -0.04065223 0.02406593 0.055574212 -0.04338327
0000d0 4d ac ac 3d 5d a2 40 3d c2 c4 73 bd c1 ae 87 3d
       0.08431301 0.04702984 -0.059513815 0.066251285
0000e0 36 02 bc bd 48 8c 58 3d 20 99 4f 3c b4 44 0d 3d
       -0.09180109 0.052868158 0.012670785 0.03448935
0000f0 ab da 88 3d 6b 73 9b 3c 46 ef eb bd 14 4e a7 bd
       0.066823326 0.018975934 -0.11520247 -0.08169189
000100 e1 4a e7 bc d8 47 35 3c ca c1 9b bd e2 1f 75 bd
       -0.028233947 0.011064492 -0.07605322 -0.05984486
000110 3a 11 b4 bd 9a a0 98 bd b6 7d 79 3d 55 c7 a4 bc
       -0.08792348 -0.07452507 0.060910903 -0.02011458
000120 f6 2f a6 3b 0d 27 6e bd 1d 6c 6f bd 00 9a a0 3c
       0.0050716354 -0.05814271 -0.058452714 0.019604683
000130 21 ae f2 3c b8 c6 51 3d 6e df c8 bd fd 70 8d 3d
       0.029624047 0.051214904 -0.09808241 0.069063164
000140 2a 99 9a 3d 58 c2 ca bc 5c 6c ff bc d7 ed 54 3d
       0.07548745 -0.024750873 -0.0311796 0.051984634
000150 34 a4 eb bc 5f 84 9b 3d c2 99 b0 3d cb ac 8f 3d
       -0.028764822 0.07593607 0.08623077 0.070153795
000160 d6 06 c5 3d 78 bc 8e 3d 66 65 e4 bb d5 7d b5 bd
       0.096204445 0.06969541 -0.0069700954 -0.08861891
000170 b2 77 98 3d ce 57 7a 3d aa 3b ea 3d 2e 27 ed bb
       0.07444705 0.061118893 0.11437161 -0.0072373366
000180 c8 2d 64 bc 7c 0c 52 bd 04 a8 c5 bd 0a ca c0 bd
       -0.013926931 -0.051281437 -0.09651187 -0.09413536
000190 7c eb b2 bd 66 a6 10 bd bf b2 29 bc f9 c1 a0 bd
       -0.08736321 -0.03531494 -0.010357558 -0.07849497
0001a0 59 6b 09 bd 51 cb ab 3d b6 00 05 bd 18 fc cb 3d
       -0.03354964 0.08388389 -0.03247138 0.099601924
0001b0 45 cf ce bc a0 08 a3 3d 98 8a 7e bd 82 91 2a 3d
       -0.025245318 0.079606295 -0.062143892 0.041642673
0001c0 00 27 bb 3d 2d 2c 8d bd b3 a7 10 bc 86 89 a8 3d
       0.09138298 -0.068931915 -0.008829045 0.082293555
0001d0 6b 50 4b 3c 01 d2 73 bd c3 ad 80 bd 3e 2f ab 3d
       0.01240931 -0.059526447 -0.062831424 0.0835862
0001e0 aa 99 d2 bd 50 aa 83 bb 6e 41 9f bc 9b 03 88 bd
       -0.10283215 -0.0040181056 -0.019440379 -0.06641313
0001f0 17 50 71 bd 96 3d 26 bc 63 fb 80 bd 5d d1 8e bd
       -0.05891427 -0.010146519 -0.06297948 -0.069735266
000200 1f 73 db bd 55 fa 33 3d d5 77 88 3d de ef ef bc
       -0.10715317 0.043939907 0.06663481 -0.029289182
000210 0b 25 c2 bd 73 50 86 bd 1b 56 17 3d a9 84 aa 3d
       -0.09479722 -0.06558313 0.03694735 0.08326084
000220 9f a7 c1 3d 05 73 24 3d 05 25 04 bd 42 ad cd bd
       0.09455799 0.040148754 -0.032261867 -0.10042812
000230 a9 20 94 bd 08 81 81 3d ea 4b fe bc 43 58 63 ba
       -0.07232792 0.06323439 -0.031042058 -0.0008672515
000240 b2 03 87 3d d6 73 b2 bd 70 09 96 3d cd e5 c8 3d
       0.06592502 -0.087135 0.07326019 0.09809456
000250 c4 72 95 3c d8 5b 78 bd c5 23 2f 3c bd c2 83 3d
       0.018243201 -0.060634464 0.01068968 0.06433628
000260 93 58 ac bd fd eb bf bc 7b 9c ac 3d 1a 06 c3 3d
       -0.08415332 -0.023427958 0.08428284 0.09522648
000270 f5 92 f8 bc 7a d7 f1 3c 98 de 9c 3d 0d 7d 04 3d
       -0.030343512 0.029521693 0.07659644 0.03234582
000280 d8 6b 8c 3d d8 16 85 3c ff da 17 3d 8d e5 91 3d
       0.06856507 0.016246244 0.037074085 0.071238615
000290 8e 65 30 3d 7d 57 81 bd da 9a bc bc 5d 7f bd bb
       0.0430656 -0.06315515 -0.023023058 -0.005783005
0002a0 3a 02 b7 bd 8e 1c a2 3d db e9 d5 3d b3 79 87 3d
       -0.089359716 0.079156026 0.10444995 0.06615009
0002b0 bd 77 6e 3d fb 1c fe bc 9b b6 5a bd 57 d9 d6 3d
       0.05821966 -0.031019678 -0.053396802 0.10490673
0002c0 b3 aa 32 bc bb ad ce 3d 21 f3 be 3d cd 95 38 bd
       -0.010904956 0.1009173 0.09323717 -0.045064736
0002d0 e7 cb 96 3d 49 e4 b4 3d 29 f0 3c bd 7c 61 71 bc
       0.0736311 0.088326044 -0.046127472 -0.014732715
0002e0 c9 7a 99 bd 80 45 44 bc 33 6f 80 bd c8 3a 14 3d
       -0.074941225 -0.011979461 -0.062712096 0.03618887
0002f0 8a ec 14 3c 6f 8f fc bc 96 61 20 bd f7 95 98 bb
       0.009089598 -0.030830113 -0.039155565 -0.004656549
000300 39 89 a8 bd d2 f1 a9 3c dc d6 94 3c dd 87 38 bd
       -0.08229298 0.020745192 0.01816886 -0.045051444
000310 8b b2 89 bd 7e a0 ac 3d 29 77 c6 bd eb b9 69 3c
       -0.067235075 0.08429049 -0.09690697 0.014265518
000320 4c 64 a7 bd 56 d5 20 bd 5f d3 84 3c 49 c8 b2 3c
       -0.08173427 -0.039265953 0.01621407 0.021824019
000330 9b 56 5b 3d 7b 3d b8 3d 5e 05 8d bd 0f af 9f bd
       0.05354939 0.089961015 -0.06885789 -0.07797062
000340 0b 3f 04 bd 32 24 12 3d 8f 52 8d 3d 58 e1 63 3c
       -0.032286685 0.03567905 0.069005124 0.013908707
000350 fa dd 1a 3d e1 96 57 bc 56 cb 3a bd 08 e1 d0 3c
       0.03780935 -0.013158531 -0.045604073 0.025497928
000360 45 87 87 bd ca ca 12 bc ae bf a1 bd 65 a9 6e bd
       -0.066175975 -0.0089594815 -0.07897888 -0.058267016
000370 bc 94 54 3d 2c 2f 04 bd 45 cd 79 3d 03 2e 3e 3b
       0.051899657 -0.03227155 0.060986776 0.0029019124
000380 49 3c b3 bd ad d7 c0 3d c2 f8 d9 bd 7d 6f c4 bc
       -0.08751733 0.09416137 -0.1064315 -0.023978943
000390 b4 63 cd 3d d1 fe 87 bc 86 93 d3 bc de 6a 7a bd
       0.100287825 -0.016600998 -0.02582718 -0.061137073
0003a0 41 14 7d 3d 56 e3 e1 3c 93 da 67 bc 9d 37 d8 3d
       0.061786894 0.027574223 -0.014151233 0.105574824
0003b0 4f 6f ce 3d f5 b6 8e bd 0d b2 a6 bc 98 13 af bd
       0.10079824 -0.0696849 -0.020348573 -0.08548659
0003c0 2f ae cb bc 23 a2 3c 3d 5d b9 ef 3a 4d 65 a5 3d
       -0.02486333 0.046053063 0.0018289495 0.08075962
0003d0 c6 8a e0 3d c3 05 7d 3d f7 ee 35 3d 12 2a 33 3d
       0.10963969 0.061773073 0.044417348 0.043741293
0003e0 c7 8f 91 bd 27 a2 32 3d d0 78 3a 3d cc b4 e6 3d
       -0.071075015 0.04361167 0.045525372 0.11264953
0003f0 c9 55 1a 3d 9f aa 53 bd b2 48 67 bd 81 23 bc 3d
       0.037679467 -0.05167639 -0.056465812 0.09186459

bias f4 [84]
000000 72 22 d0 bd f0 26 8e 3c 4f c8 99 3d 7b 16 20 bd
       -0.1016282 0.017352551 0.07508909 -0.03908394
000010 ad cf a4 3d b1 bd bd 3d 0f d5 05 3d a4 8d 36 bd
       0.080474235 0.092646964 0.03267389 -0.044568673
000020 8d a4 12 3d 67 63 a2 bc fb ff c4 3d c1 8a 4f 3d
       0.03580146 -0.01982279 0.09619137 0.050669435
000030 95 fb ab bd 4b 0d 96 3d 27 7b f3 3b 6f 91 9b 3a
       -0.08397595 0.07326754 0.0074304524 0.0011868904
000040 13 53 be bd 7e 6c 5a 3d ff d8 8a bc a9 86 1f 3c
       -0.09293189 0.053326122 -0.016949175 0.009736695
000050 61 c8 7a 3c 06 b6 06 bd 66 9d c5 bd 28 0f aa 3c
       0.015306563 -0.032888435 -0.09649162 0.02075918
000060 72 5d 84 bc 20 47 61 bd 43 ab ee 3c a5 c9 c7 bd
       -0.01615784 -0.05499947 0.029134398 -0.097552575
000070 5c 4f a8 3c 89 0f 91 3d 66 cd 31 3d 3f 44 c4 bd
       0.020545654 0.07083041 0.043408774 -0.095833294
000080 ee 37 c6 3d d7 90 9c bd 94 fc 99 bc f0 24 93 bd
       0.096786365 -0.076448135 -0.018797196 -0.0718478
000090 0b f8 73 bd d3 83 1d bd 5a 8a f8 ba 48 97 45 bd
       -0.059562724 -0.038455795 -0.001896213 -0.048239976
0000a0 ec 41 03 3b 7f 9a 78 3d 88 36 f8 bc c9 e3 dc 3d
       0.0020028306 0.060694214 -0.03029944 0.10785634
0000b0 88 9f 8e 3d b6 8b ab 3d 9a ab 73 bd 78 4d 12 3b
       0.06964022 0.08376257 -0.059489824 0.0022324007
0000c0 9d 77 9f 3d bb 2b 86 bb 9d 23 2d 3d 33 8b e4 3c
       0.07786486 -0.0040945685 0.04227029 0.027898407
0000d0 ce 6b 68 bd 93 1a 90 bd 4c a1 f8 3d a8 4d 2e bc
       -0.056743436 -0.07036319 0.1214014 -0.010638632
0000e0 c0 d3 12 3d e0 76 d6 3b 9f 20 9a 3d 4d 6b 34 3d
       0.03584647 0.0065449327 0.07525753 0.044047642
0000f0 37 df de bd 69 b8 48 bc 18 87 f8 3c cb 3e 5e 3d
       -0.108824186 -0.012250998 0.030337855 0.054259103
000100 e7 ab c1 3d dd 2b a3 bd 6f 4d 7b 3d b1 c5 c6 bd
       0.09456616 -0.07967351 0.061353143 -0.097056754
000110 5e 50 99 bd 5b da 1f bd 9c 87 7f 3c 90 4f 58 bd
       -0.07486032 -0.0390266 0.015596297 -0.05281025
000120 98 94 b1 3d ac 90 6b bd d1 fd ae 3d 86 44 89 bd
       0.0867092 -0.057511017 0.085445054 -0.06702523
000130 82 6f a5 bb 34 75 15 3a 26 a7 56 3d 85 57 14 3c
       -0.005048693 0.00057013636 0.0524055 0.009054069
000140 1e 70 43 3c 2f 25 ca 3a 8c 1e cd bb 13 31 a1 bd
       0.011928586 0.0015422459 -0.006259745 -0.07870688

weight f4 [42, 84]
000000 fa fc 14 3d 4d d9 d6 bd 29 b8 a8 bd 01 cb e9 bd
       0.03637407 -0.104906656 -0.08238251 -0.11415673
000010 b7 9b b1 3b db 72 bb 3d d6 56 8d 3d 1a 2a c8 3d
       0.005420174 0.09152766 0.06901328 0.09773655
000020 63 0b 7f bd b3 3e 53 3d 54 9a 18 3d 7e 0f 86 bd
       -0.06226672 0.051573467 0.037256554 -0.06545924
000030 ce 8a 5c bd b7 e1 a2 bd 97 ee cb 3d 35 82 ac 3d
       -0.053843312 -0.07953208 0.09957617 0.084232725
000040 9e f5 40 3c b2 77 ad bd fa 48 d4 3c 70 80 2b 3d
       0.01177731 -0.08470096 0.025913704 0.041870534
000050 cc 08 d4 bc 4a 5a b5 3d 3c 0e 06 3d 25 9c ce 3b
       -0.0258831 0.08855112 0.03272842 0.006305235
000060 5d 4f 91 bd 06 00 0b bb 4e 6d dc bd ed 34 66 3d
       -0.070952155 -0.002120973 -0.10763036 0.056202818
000070 21 c7 54 bd 35 f4 89 3d 4b 79 f5 3d 30 4b a0 bd
       -0.051947717 0.06736032 0.119860254 -0.07826841
000080 34 87 8f 3d af bc b1 3d 7c ee c4 3d e5 ab 91 3d
       0.0700821 0.08678567 0.096158 0.071128644
000090 48 43 73 bc 56 d4 70 bc b1 9e ad bc 8c a4 11 bd
       -0.014847584 -0.014699062 -0.021193834 -0.035557315
0000a0 07 90 53 bc 1f f6 65 bd 2e 9e 54 bd 01 a2 da 3c
       -0.012912757 -0.056142922 -0.051908664 0.026688578
0000b0 0c 9d b3 3d 61 ab b8 3a cc 3a b5 bd 22 1a ca 3c
       0.08770189 0.0014089161 -0.08849105 0.024670664
0000c0 be 2f 9a 3d 06 ad 7a bd 5b 57 77 3d 3f 11 2f bd
       0.07528637 -0.061200164 0.060386043 -0.042741057
0000d0 34 92 d0 bc 65 81 e1 bb 39 c7 bd 3d 95 d1 ba 3d
       -0.02546034 -0.00688188 0.09266514 0.09122006
0000e0 65 d0 a6 3c 6b fc 9d 3d fa 92 ff bc 2a a9 91 3d
       0.020363042 0.077141605 -0.031198014 0.071123436
0000f0 01 a7 30 bd 97 30 cf bd 81 54 ab 3d 73 9b 97 3d
       -0.043128017 -0.1011669 0.08365727 0.074026965
000100 4a 7d e1 bd b0 f2 27 3d e0 51 b0 bd d7 96 57 bd
       -0.11010225 0.04100293 -0.086093664 -0.052634086
000110 ac 64 d5 ba c2 38 ad bd 8f 6f 2e bd fd a9 04 bd
       -0.0016280613 -0.08458091 -0.04258686 -0.032388676
000120 ee 52 74 3b 6b cf 46 bc 1a 63 b1 3c 7a 3e 9e bd
       0.0037280875 -0.012134413 0.0216537 -0.0772676
000130 ca 3e 98 3c 66 8b 5f bd 04 6f ae bc 05 a1 b0 bd
       0.018584628 -0.0545763 -0.02129317 -0.08624462
000140 d0 d8 c8 3d 9c 29 26 bc 7d 79 b2 bd 0d bb d6 bc
       0.09806979 -0.010141756 -0.08714578 -0.02621224
000150 03 33 7c bd 7a 05 e1 3c ab fd b5 bc 91 ae 02 3c
       -0.061572086 0.027468432 -0.022215685 0.00797619
000160 42 39 9b 3d 38 f3 82 bd 79 d4 0f 3d bd 4b 30 bd
       0.075792804 -0.063940465 0.03511474 -0.04304098
000170 6f 6c d3 3d 9d ef 3a 3d f6 be 00 bd 10 40 bf bd
       0.103234164 0.04563867 -0.031432115 -0.09338391
000180 69 6b b6 bd 80 13 3e bd d3 65 ba bd b9 50 a6 3c
       -0.089072056 -0.046405315 -0.09101453 0.020302163
000190 a8 88 25 3d a2 06 38 3b ff 6f f2 3c 81 e2 97 3d
       0.04041353 0.0028080125 0.02959442 0.07416249
0001a0 2b 4d 6c 3d 59 28 d1 3d 82 33 8a 3d d1 63 21 bd
       0.05769078 0.10212774 0.067481056 -0.039401833
0001b0 24 bb d8 bd bf be d8 bd 1a a4 6e 3c 21 9c 45 bc
       -0.10582569 -0.10583257 0.014565492 -0.01206115
0001c0 b6 13 2b bc 66 6c 1d 3d 48 20 8c 3d 75 2b 9e 3d
       -0.010441711 0.038433455 0.06842095 0.077231325
0001d0 63 85 d4 bd 2c d1 1e bd 15 3a 86 bd 16 4b 13 bc
       -0.10377004 -0.0387737 -0.06554047 -0.00899007
0001e0 48 e4 83 bd 0f 32 7f 3c 8c e0 c3 bb d4 3f b6 bd
       -0.064400256 0.0155759 -0.005977696 -0.08898893
0001f0 fb 94 bb 3c 57 ac 75 bd a0 2c ae 3c 19 91 07 bb
       0.022898188 -0.05997881 0.021261513 -0.002068585
000200 aa 89 c1 bc 4b db 21 bd 48 e6 a3 bc 99 a4 b1 3d
       -0.023625214 -0.039515775 -0.020007268 0.08673973
000210 82 5b a6 3d a1 14 b8 3d 4d fc ee 3d f7 42 b8 3b
       0.081229225 0.0898831 0.11669216 0.005623217
000220 0e 6f 5a 3c f4 5e ab 3d b3 95 23 3c 34 17 3e 3d
       0.013332142 0.0836772 0.009984422 0.046408847
000230 34 30 6a bc 2c a5 24 3d 88 2d b6 bd bf 79 cb bb
       -0.014293719 0.040196583 -0.08895403 -0.0062095816
000240 31 d9 96 3d 99 b8 10 3d cf f9 d6 bb 0d 99 c9 3d
       0.07365645 0.035332296 -0.006560541 0.09843645
000250 bb 33 bf bc ca e0 ae bd b7 83 d6 bd ca ca 11 bd
       -0.023340097 -0.08538969 -0.10474341 -0.035593785
000260 3c 77 e8 3d 5a 89 25 3d d5 81 9a 3d af 9e c6 3d
       0.11350867 0.04041419 0.07544295 0.09698235
000270 60 d5 82 bc f7 f1 fe bc 30 b5 3a 3c 38 62 3a bd
       -0.015970886 -0.031121237 0.0113957375 -0.045503825
000280 a2 c7 af bd 35 fe 4c bc 7f 43 ad 3d 09 7c 43 bd
       -0.08582999 -0.01251178 0.084601395 -0.04772571
000290 00 41 5d 3d 26 d0 2f bd 5f 09 8c bd 6c ca d5 bd
       0.054017067 -0.042923115 -0.06837725 -0.104389995
0002a0 37 c2 aa 3d 43 87 55 bd 02 9d 57 3c 6d ed 90 3d
       0.08337825 -0.05213095 0.013159992 0.070765354
0002b0 0d fa 25 3d 76 66 9b 3d 41 d6 61 3d 94 9b e5 3c
       0.04052167 0.07587902 0.05513597 0.028028287
0002c0 42 66 0d 3d 34 38 1f bd e6 f1 0a 3e 84 f8 07 bc
       0.03452135 -0.03887196 0.1356884 -0.008298997
0002d0 c7 d5 55 3d 49 04 89 3d 14 0d c0 3d 53 97 16 3b
       0.052205827 0.066902705 0.093774945 0.002297838
0002e0 9b f6 a5 bd 04 05 41 3d 64 a8 e2 bc ed d2 53 bd
       -0.08103677 0.047123924 -0.027668186 -0.051714826
0002f0 b7 f9 a7 3d 7d c4 53 3d 9f 75 d7 bd 3a a0 01 bd
       0.08201926 0.051701058 -0.10520481 -0.031646945
000300 01 81 e1 3d 9c 94 df ba 5b 8d a5 bd 1c 1b 9e 3d
       0.11010934 -0.0017057839 -0.08083602 0.077200145
000310 79 dd 38 bd 8e c8 79 3d e9 ee c0 bd d2 e8 9a 3b
       -0.045133088 0.06098228 -0.094205685 0.0047274614
000320 43 b0 78 bc 10 58 28 bd 9d 37 c5 3c 93 cb 63 3c
       -0.015178743 -0.041099608 0.02407437 0.013903516
000330 4b ec e4 3d 81 9c 20 3d 56 c3 51 3d c2 8f 9c bc
       0.11177882 0.039211754 0.051211677 -0.019111518
000340 df 3d 8e bd bb 4c ec 3c ee d4 bc bd 92 de a8 3d
       -0.06945395 0.028845182 -0.092203006 0.08245577
000350 7e 56 85 bd ef c6 a6 3d 15 e2 8a bc 89 69 50 3d
       -0.06510638 0.08143412 -0.016953507 0.050881896
000360 51 bf a0 3d 97 2c 40 ba 25 77 7e 3c 23 f7 09 3d
       0.07848991 -0.0007330863 0.015531336 0.033682954
000370 8e 54 c8 bc c7 2d 04 3d 70 e8 b3 3d c2 26 35 3d
       -0.024454381 0.03227022 0.08784568 0.044226415
000380 47 16 80 bd 90 73 be 3c 9a 61 a2 bd 36 8c dc 3d
       -0.06254249 0.023248464 -0.07928772 0.107689306
000390 1a 90 a0 3d 56 35 e0 bd 6c 0d b3 3c 13 14 83 3d
       0.07839985 -0.10947673 0.021856986 0.06400313
0003a0 f8 1c 2b 3d 60 c1 b3 bd ed 67 c7 ba 78 9a 1d 3d
       0.041775674 -0.08777118 -0.0015213467 0.03847739
0003b0 4a 4b 3f bd 9d 12 b4 3d d3 6a 14 3c 22 c7 89 3d
       -0.04670266 0.08792613 0.009058672 0.06727435
0003c0 47 0b 4b bd a5 20 dd bd 2d 26 c0 3d 63 d6 b6 3d
       -0.0495713 -0.10797242 0.093822815 0.0892761
0003d0 3f 25 00 bd b9 c7 8e 3d 43 bf 66 bd 8d 30 4c 3d
       -0.03128552 0.06971688 -0.056334745 0.04985099
0003e0 ab d7 29 3d 50 2c b6 3d d4 33 ce 3a b5 ae d1 bc
       0.041465443 0.08895171 0.0015731999 -0.025596002
0003f0 f4 af 8a 3d c6 2a 50 bd d9 f8 ce bd e1 5c 9d bd
       0.06771842 -0.050822042 -0.10106058 -0.07683731

bias f4 [42]
000000 96 06 99 bd dd de d4 bd 7d 4f 1f bd 39 9c 84 3c
       -0.07471959 -0.1039407 -0.038894165 0.016187774
000010 fc 42 ab bc f8 ea ea bd da 8c 71 bd 98 71 f4 3c
       -0.020905964 -0.11470598 -0.058972217 0.029839322
000020 d1 95 92 3d 6f 5b 12 3d 37 a2 8a bd ac 11 94 3d
       0.071574815 0.03573173 -0.06769221 0.07229933
000030 67 bb 96 3d b5 89 3e 3d 85 42 91 bd 09 0b 44 bd
       0.07359963 0.046518046 -0.07092766 -0.047862086
000040 5a d7 b8 bd f3 fd 91 3d 25 2a d4 bd 91 04 f4 bb
       -0.0902545 0.07128515 -0.10359601 -0.0074468334
000050 38 0d a7 3d 90 a8 bc 3d a1 20 8d 3d 1d b4 2e 3c
       0.08156818 0.09211838 0.06890989 0.01066306
000060 bf 52 87 3d 84 85 6e 3d 16 67 80 3d 59 a7 a9 bd
       0.066075794 0.0582328 0.06269662 -0.08283872
000070 c6 6b 3b 3d 05 67 92 bd 20 b4 59 3d f1 ac e0 3d
       0.045757078 -0.07148556 0.053150296 0.10970486
000080 55 e4 f4 bd d8 97 aa bd 5f 29 69 3d e5 aa 37 3d
       -0.119576134 -0.08329743 0.05692422 0.044840712
000090 96 63 66 ba 69 71 0e bd 1b 9d 92 3d b7 e1 9c 3d
       -0.0008788643 -0.034776125 0.07158872 0.07660239
0000a0 71 de d5 bd 68 6d 89 bc
       -0.10442818 -0.016775802

weight f4 [1, 42]
000000 57 91 17 bc 39 a0 34 bd ba b7 4d bd a5 b9 e8 3c
       -0.00925096 -0.044098113 -0.050224043 0.028408835
000010 44 fd 16 3e 81 a8 c9 bd 4a c3 32 bb d8 e5 3d bc
       0.1474505 -0.09846593 -0.0027277046 -0.011590444
000020 72 54 41 3d 67 23 8d bc c2 cf c4 bd be 8a e3 bc
       0.047199674 -0.017228795 -0.09609939 -0.027776118
000030 1c 90 29 bd 7d b1 5f bc 83 6b 05 bd 2d 00 5c 3c
       -0.0413972 -0.013653156 -0.032573234 0.013427776
000040 ff 6d bc ba 4e d4 13 bd 35 3a 26 be 01 e4 c7 3d
       -0.0014376043 -0.03609114 -0.16233142 0.09760285
000050 38 87 0e 3e f3 7e 0d bd db 4c 4b bd 31 e9 0d 3e
       0.1391877 -0.034544896 -0.049633842 0.13858487
000060 0d d6 02 bd a7 24 0b 3b 79 74 94 bd 94 1e b3 bc
       -0.031942416 0.0021231563 -0.07248778 -0.021865167
000070 08 25 f3 3c e7 98 dd ba 1b 5e 15 3e 2a 4b bf 3d
       0.029680744 -0.001690653 0.1458668 0.09340508
000080 c7 8e 41 bd dd cb 8d 3d c7 f2 98 3d 19 9d c9 3d
       -0.047255304 0.069236495 0.07468181 0.09844417
000090 c8 62 63 3a 51 3e 8d 3d 8b bf b1 bd 8d e1 e3 bd
       0.00086740823 0.068966515 -0.08679112 -0.11127005
0000a0 e4 6c 0d be 85 9c 5d 3c
       -0.1381107 0.013526087
