ModelUnpredictability/one_thousand_brains/predictor_33.model (torch_old, 109395 bytes, 7 tensors)

weight f4 [84, 168]
00000000: d362 60bd 1daf aa3d acfd 67bd 2ba3 483c
00000010: 35d7 8b3d 5561 8b3d 7bf0 5a3c 32ac cebb
00000020: 8b11 8a3d 92af 6dbc bdd2 853d c169 9d3d
00000030: 1c14 b63c 7f05 84b9 4a7d 07bd eff4 0b3d
00000040: 3727 12bd 995c 40bd 54c1 2b3c 5fd6 ad3c
00000050: 2299 2f3d a648 093d e0eb af3d 9ffb c03d
00000060: 7dea b8bc 11f7 e93c 10f2 3bbd cff5 9c3c
00000070: 7ea2 62bc 1854 1e3d c7b5 123d f1c1 c43b
00000080: dc00 c03c 63a9 4d3d 9b60 57bd 395f 4abd
00000090: ae9e f43c 05df 673c 68a8 9b3d 6b7d 4c3d
000000a0: 9c99 c73c 7c79 2d3d b1e1 0d3d c976 3b3d
000000b0: 0591 0fbd 84ed b0bd 4273 66bd 6d41 6939
000000c0: eb96 33bd 2b28 563d 2140 be3c 2897 1c3d
000000d0: d7ab 0d3c f1c2 733d 138b 1abc f5da 4bbd
000000e0: 36d6 193d b9db 903c 6bd3 5f3c eb38 9fbc
000000f0: afb1 d1ba 384f b03d 2af9 503d 7b06 683c
00000100: 6c7b 873d 23ab 5b3d e32e 243d 43e9 58bd
00000110: 27ac e3bc 750d 323c 93f2 963d 23d1 b73b
00000120: a369 383d f055 0a3d 5742 10bd 0b50 843c
00000130: 3dba 2b3d 9fcf 39bd 5db2 24bd b062 2e3d
00000140: d67e cb3b 8957 8b3d d62c 9e3b 6afe 5f3d
00000150: 8174 8b3d 16cf a73d f884 17bd 2c3b cd39
00000160: 497a 48bc b953 62bc f5ba 643d a213 473d
00000170: aada 06bc 67cd f43c 2367 273d 2b5c 483d
00000180: 4e3c a2bc dcbe 7f3c 3ee7 853d 7116 9e3c
00000190: 3de0 c03d ee32 973d 2549 8a3d b86a 0a3d
000001a0: c9ad 5dbd 202e 18bd 9e4a 523d 4c65 cebc
000001b0: 6912 6abd f62a 853d 5e05 833c 2eb6 0d3b
000001c0: 5a96 883b 0245 a1ba da51 47bd 37f6 50bd
000001d0: f09d 9dbc cc03 753d fb7c febb 8706 3dbd
000001e0: bded 083d a6d8 e53c 575c ec3b 7111 3cbd
000001f0: 38b7 943d 5eb9 8a3c cdac 953c b0a0 9b3b
00000200: 1fce 3f3b a962 313d 26d5 4cbd 01a7 9e3d
00000210: 3f40 13bd db4b c73c 84ad 1cbb e577 153d
00000220: 83e9 72ba 85b2 dbbc 7f70 f9bc 32e3 b43d
00000230: bbce f33b 2dde c43d 7e1e 323d 1413 1dbd
00000240: d59e df3c 3aa9 f23c bd53 15bc f896 713d
00000250: 0e83 7fbd 988f f63c d591 603c 6327 853d
00000260: ca2e 753d ab3c 753c 94ab 6d3d 503b 28bc
00000270: 0f6f 703d 9be9 e7bc d630 563c 5aca ef3c
00000280: 2536 bd3d 848e 2dbd 5a73 203d 4e14 ab3d
00000290: 7c28 eabb eab0 2ebd 661f 5cbd 8b18 273d
000002a0: 3a20 9b3c 96d0 803c 2c83 2b3d f1be 3abd
000002b0: 51d6 32bc 43d4 a8ba a2a7 39bc c272 99bc
000002c0: b773 43bd 9e12 bfbc 840f 873d 3101 65bd
000002d0: 62eb 863b d1f9 663d 3fcd 7c3d 2ce0 1d3d
000002e0: db1e b4bc a916 44bb 9e33 64bd 5550 8c3d
000002f0: b346 46bd dac4 4e3c c7c0 57bd c7c3 ec3b
00000300: 4dc3 92bd cfaf 1dbd e488 69bd 4d2c 86bd
00000310: 10a6 1d3d 8777 873d 8653 34bd e2e2 123d
00000320: 0bce 0abd 3136 a73d 7bf2 483d 4f49 f53c
00000330: 45b3 4c3d 4cee 0d3b 35ee 213d 1cdd 34bd
00000340: 0800 8f3a 5c97 0cbd c5d4 b9bc 9d98 44bd
00000350: bc68 84bd dacd 1bbd 8c72 78bd fd7f 973c
00000360: 17a2 2bbd 5f57 a8bc 750e e8bc ae15 6abd
00000370: 9298 a73d 80c9 a43d 236e 3d3d 4eb9 ef3b
00000380: f4be 46bd bb5c 673c f339 71bd 1c34 df3c
00000390: 5f93 ebbc 61d6 973d afaa 5dbd 46a3 84bc
000003a0: b47c ccbc 77b3 2db9 309f 33bd 7019 843d
000003b0: 9a61 913c 2fe2 2fbd 6783 c4bb 9944 92bd
000003c0: 19b3 40bc e812 9a3d 68d3 063a db3b 35bd
000003d0: ba8e f03b a224 24bc 68db afbc e95d 64bd
000003e0: f144 8cbc 98c4 7ebc beb6 e63b fd04 923d
000003f0: a694 9a3d bc84 a83c 6a8a 273d 2002 603d
-0.054781746 0.083341815 -0.056638405 0.0122459335 0.06828157 0.06805674 0.013362999 -0.0063071484
0.06741627 -0.014507191 0.06534336 0.076861866 0.022226386 -0.00025181097 -0.03307847 0.034169134
-0.03568193 -0.046963308 0.010483105 0.021220384 0.04287065 0.03351655 0.085899115 0.09422993
-0.02257275 0.028560193 -0.045885146 0.01916018 -0.0138326865 0.038654417 0.035817888 0.006004565
0.02343791 0.050210368 -0.052582365 -0.049407218 0.02986082 0.014152293 0.0760048 0.049924295
0.024365239 0.042352185 0.034639064 0.04576758 -0.03505041 -0.086390525 -0.056262262 0.00022244985
-0.0438451 0.0522844 0.023223938 0.03823009 0.008646927 0.059512082 -0.009432572 -0.04976936
0.037557803 0.017682897 0.013661246 -0.01943632 -0.0015998388 0.0860886 0.05101887 0.014161701
0.06615338 0.053630006 0.040083777 -0.05295683 -0.02779205 0.010867466 0.07370486 0.005609648
0.045022618 0.033773363 -0.035219517 0.016151449 0.041925658 -0.04536402 -0.040209163 0.042574584
0.0062101884 0.068038054 0.004827122 0.054685988 0.06809331 0.081937954 -0.036992043 0.00039144733
-0.012236186 -0.013813906 0.05584236 0.048602708 -0.0082308445 0.0298831 0.040869843 0.048916023
-0.019804146 0.015609469 0.065382466 0.01929781 0.0941777 0.07382761 0.067522325 0.03379318
-0.054120813 -0.037153363 0.05134069 -0.025194786 -0.057146464 0.06502335 0.01599377 0.002162348
0.004168314 -0.0012303891 -0.048662044 -0.05101606 -0.01924035 0.059818074 -0.0077663637 -0.046148803
0.03342985 0.028057408 0.007213156 -0.04591507 0.07261509 0.016934093 0.018270874 0.00474938
0.0029267145 0.04330698 -0.05000796 0.07746697 -0.03594994 0.024328163 -0.0023907134 0.036491293
-0.00092663633 -0.026818523 -0.03044915 0.088323966 0.0074404157 0.09612689 0.04348611 -0.038348272
0.027297417 0.02962171 -0.009114203 0.058981866 -0.062380843 0.030097768 0.013706644 0.06501653
0.059859075 0.014968078 0.058024958 -0.010268047 0.058699664 -0.028309634 0.013073167 0.029271293
0.09238843 -0.04237224 0.039172508 0.08353482 -0.0071459394 -0.042649187 -0.05374088 0.04079489
0.018936265 0.015724462 0.041873142 -0.045592252 -0.010915355 -0.0012880642 -0.011331471 -0.018731479
-0.047717776 -0.023324307 0.06594756 -0.05590934 0.0041174153 0.056390587 0.061719175 0.038543865
-0.02198737 -0.0029920733 -0.05571329 0.068512596 -0.048407268 0.012620175 -0.05267408 0.007225487
-0.07166157 -0.038497742 -0.057015315 -0.065514185 0.038488448 0.06614595 -0.044024967 0.035860904
-0.033887904 0.08164633 0.049059372 0.029942183 0.049975652 0.0021656929 0.039533813 -0.04415618
0.0010910043 -0.034324035 -0.022684464 -0.047997106 -0.06465289 -0.038038112 -0.060656115 0.018493647
-0.041902628 -0.020549474 -0.028327206 -0.05714958 0.08183397 0.080462456 0.046247613 0.007315791
-0.04852195 0.01412123 -0.058893155 0.027246527 -0.028756795 0.074139364 -0.054117855 -0.016191136
-0.024961807 -0.00016565422 -0.043852985 0.06450164 0.017746735 -0.042940315 -0.0059971097 -0.0714199
-0.01176145 0.07523137 0.00051431963 -0.044246536 0.007341233 -0.0100185 -0.021466926 -0.055753622
-0.017122718 -0.015549801 0.0070408275 0.07129858 0.07547884 0.020571105 0.040903486 0.054689527

bias f4 [84]
00000000: 2a71 793d 757e 4a3c 67be a3bd e412 6fbb
00000010: c9e4 93bd aace 58bd 2834 713b 903e 923c
00000020: 8a61 e4bc a267 dfbc cffe b0bc 38fa 78bc
00000030: 5ab8 983d 70d4 9c3c 6ae4 683d b635 9dbb
00000040: 6ef4 88bd 3061 783d c578 7539 cf78 81bb
00000050: f860 813d d671 2f39 d9f0 eb3b c3e0 47bd
00000060: 1771 f33c fa3e 78bc 5d58 95bc 34f5 8d3b
00000070: 52a5 a03c 7e3a b9bd 72bb 8f3d 5e26 62bc
00000080: 6496 203c 7003 94bd bd6b 1fbc 713c 8a3c
00000090: da7e b63c a90f 903c ac0d dcbc 443d 043d
000000a0: b223 813c 2380 a9bd a82d 99bd c1e8 a6bd
000000b0: 2301 f03b 2b69 db3c 4d0f 79bd 41ba 883d
000000c0: 18bb 5abd 8856 53bb b9a1 6f3d 641d 0fbd
000000d0: b4b6 38bc d667 73bd b922 4a3d 4173 64bd
000000e0: 8843 98bb b574 0abc b891 823d e38e e73c
000000f0: e28f 933c b7cf 0ebd 602d 983d 61b0 9bbd
00000100: 7325 c0bc c721 5b3d ae09 0b3d 697e fd3c
00000110: 884d 813c c824 903d e7cd 1e3d 1a11 89bd
00000120: 8c1f 8fbd 1187 38bd 3789 a03c ec35 3b3d
00000130: aee7 cabb 24c4 7c3c 5214 ac3c 59c1 03bd
00000140: 7ed6 eb3c ca8c 6c3d 5fae 09bd f571 8fbd
0.060898937 0.012359251 -0.07995301 -0.0036479766 -0.07221372 -0.052931465 0.003680477 0.017852098
-0.027878541 -0.027271096 -0.021605877 -0.015196376 0.07457037 0.019144267 0.056858458 -0.0047976626
-0.06687246 0.06063956 0.00023410011 -0.003951169 0.063173234 0.00016731708 0.007200342 -0.048798334
0.029717011 -0.0151517335 -0.018230611 0.004332209 0.01961008 -0.090443596 0.07018174 -0.013803093
0.009801481 -0.07227218 -0.009730277 0.016874524 0.022277284 0.017585592 -0.026861988 0.03228499
0.015764091 -0.08276393 -0.07479411 -0.08149863 0.0073243543 0.026783546 -0.060805608 0.0667615
-0.053401083 -0.0032247622 0.05850384 -0.03494014 -0.011274029 -0.059425198 0.04934952 -0.055773977
-0.004646722 -0.008450677 0.0637545 0.028266376 0.018012945 -0.03486606 0.074305296 -0.07602001
-0.023455357 0.05349901 0.03394478 0.030944066 0.01578404 0.070382655 0.038770583 -0.06692715
-0.06988439 -0.045050684 0.01959668 0.04570572 -0.006192169 0.015427623 0.021005783 -0.032166813
0.028788801 0.057751454 -0.03361356 -0.070041575

weight f4 [84, 84]
00000000: cccd 513c c608 89bd c7c9 72bc da7a 183c
00000010: 433c 61bc 2329 333d e847 15bd 6ce5 86bd
00000020: 6abe 9abd 4fbd b7bd b670 b43a 122f 2d3d
00000030: cc49 eebd aa23 9c3d c3cc a5bd b575 abbd
00000040: e076 883d 1a2c 7239 9264 bb3c 670f 8c3d
00000050: 3a7a 31bd 781e 4c3d 37e3 0d3c 76cc 453d
00000060: ea88 c7bb 4d84 ba3d e858 b93d 46c1 d03c
00000070: b222 9abd 1c13 403d cc75 103e ecc8 053c
00000080: df80 d63c 9a23 00bd 3530 08bd 9bfb 7f3d
00000090: 3c31 ba3a a725 8e3d 78b1 66bd 7c0c 853d
000000a0: ec5b 863b 6556 553d 2429 31bd a12a 293d
000000b0: 89c0 87bc 097d a83d 008f ebbc de39 b7bd
000000c0: 5f31 083d 7872 a73c e184 24bc dd20 79bd
000000d0: b9e9 983c 913b c73c 248a 86bd 6851 6ebd
000000e0: eee2 99bb eab9 0d3d ddef 153d fcd0 86bd
000000f0: baab a13c 82b1 933b db55 153c 9f70 86bc
00000100: 6311 1c3d cce2 8b3c a9fe a53d 7e24 d1bc
00000110: 8ef2 193d 44f4 4dbd acf0 7fbc 51c0 d3bc
00000120: abb0 9c3b 9434 d6bd ba9e 0b3d cdbe 033c
00000130: 95f5 60bd 5519 a6bd 4b66 f03a 6c99 3f3d
00000140: 7321 803d d5ba b9bd dcf0 56bd 7b46 21bd
00000150: 3c9b b4bc fc7b 45bd 43d1 c03b e166 ce3d
00000160: afbb 90bd 7d58 f23c e72b 933c 3157 adbd
00000170: 99be 6ebd 00c9 4d3c b12c 813d 22aa 47bd
00000180: 510d 85bd a0b1 95bd 2095 c6bd e06e 633d
00000190: 6350 c43c de93 6a3d 7d29 1d3d 6d74 d93d
000001a0: ae53 273b 5820 9d3c 8b28 a73d 3b24 bebd
000001b0: 55ee f03d 434a 7a3d 73af 2f3d 5378 99bd
000001c0: 9051 553c 514b 22bc f9c8 833d e97a 4e3d
000001d0: a25d 323d b2c0 c7bd c7a5 16bc a344 1e3d
000001e0: ed2c 00bd 2948 7a3d ff32 c33c 438e b23d
000001f0: c6c8 54bd d45c d03d 2edc 0b3d 5575 d0bb
00000200: c98c 01bd 31b3 afbc f789 cbbd da46 b6bc
00000210: e936 8ebd 71a3 8c3d 1695 01bb cf9e bf3d
00000220: df8c 443d affd bebd 278c bcbd 4cc2 c43d
00000230: 9a58 443d 64af d6ba 2bad 5a3c 06b0 26bd
00000240: c7ed 65bd 4355 96bd a6cc 76bd 84f1 823c
00000250: 030a a63d 9647 49bd 73e6 08bd cb64 f3bb
00000260: 43f3 f8bd 0acc 3d3d b50c d93c 1a24 ac3c
00000270: 880b b2bd 2443 b5bd 6a8f b13c feae 973d
00000280: b649 83bc 5772 a03b ffc3 f2bc c632 3a3d
00000290: 1b28 63bd e413 a9bc 2d7c 67bc 9d3b f13c
000002a0: b05b 16bd 0272 2f3d 2806 883d e660 573d
000002b0: 7631 5e3d 7d83 863d 3828 19bd 2437 a6bd
000002c0: 2e20 e3bd dbb2 bebc 64ae df3c 36a4 20bd
000002d0: 1eb1 c53b 1803 afbc 8aa1 11bc 83ce 3b3c
000002e0: 3360 71bd dc27 dcbc 2380 8cbc efad 97bd
000002f0: ab67 99bd ccd8 a4bd 9ce1 693b 7787 f73d
00000300: a897 0c3e f473 b33d cd77 e03d 64f6 b3bc
00000310: 6065 babd 363d 6bbd 3a00 ab3c 78d0 a1bb
00000320: 20ec a23d c72e dbbc 0952 8dbd b953 30bb
00000330: 2584 c7bd a35d 71bb 1f8f ce3c 54f2 44bd
00000340: 2b42 6e3b 252f b4bd fe1e 38bd bd60 6abd
00000350: 70b7 09bc 4192 9cbd 64d9 8f3d 5425 1cbd
00000360: 69f7 b5bd 93f0 88bb c80d aa3b b77e efbc
00000370: eda2 883d 4812 05bd fdd2 28bd fe97 2c3d
00000380: 63dc 0dbd 5010 493d 30dd 053c e7bb 123d
00000390: 5246 d4bd 3eb1 1e3d 16c8 7f3d 8b70 52bd
000003a0: a473 8d3c 7234 1fbd 9e7d 853d afec 8ebc
000003b0: f040 82bd 9936 35ba eac3 edb9 c9ac c73d
000003c0: eb9c b5bd 315b f13c f20f 1abd dc67 e43d
000003d0: 834b ad3d 791b 8e3d fa4f 363d 5096 c53d
000003e0: 66e8 bcba 1294 613d 76e8 913c 6cd7 953d
000003f0: 1654 0abd ad9a 39bd bcdf 593c b339 11bd
0.012805413 -0.066911265 -0.014818615 0.009306634 -0.013747278 0.043740403 -0.03644553 -0.065867275
-0.0755585 -0.089716546 0.0013766501 0.042281218 -0.116351694 0.0762399 -0.08095696 -0.0837206
0.066632986 0.00023095348 0.022875104 0.06838875 -0.043329455 0.049833745 0.008660129 0.048290692
-0.0060893195 0.091072656 0.09050161 0.025482785 -0.07526149 0.046893224 0.14107436 0.008165579
0.026184497 -0.031283952 -0.0332491 0.06249581 0.0014205347 0.06940775 -0.05632159 0.06496522
0.0041003134 0.052084345 -0.043252125 0.04130042 -0.0165713 0.082269736 -0.028754711 -0.08946584
0.03325021 0.020440325 -0.010041446 -0.060822356 0.018666135 0.024320396 -0.06569317 -0.058183104
-0.0046962416 0.03460113 0.036605705 -0.06582829 0.019735206 0.0045072446 0.009114708 -0.016411124
0.03810252 0.017075919 0.08105213 -0.025530096 0.037584834 -0.050281778 -0.0156213455 -0.02584854
0.0047818027 -0.10459247 0.03408692 0.008041096 -0.054921705 -0.081103005 0.0018341033 0.046777174
0.0625638 -0.090688385 -0.052475795 -0.039373856 -0.022046678 -0.048213944 0.005884321 0.10078216
-0.07067048 0.02958321 0.01796527 -0.08463896 -0.058287237 0.012560129 0.06307352 -0.048746236
-0.064966805 -0.0730927 -0.09696412 0.05552566 0.023964113 0.057269923 0.038369644 0.106179096
0.0025532055 0.019180462 0.0816203 -0.09284254 0.11764208 0.061105978 0.04289193 -0.07493653
0.013019934 -0.009905652 0.06434817 0.050410185 0.043546326 -0.097535506 -0.009194798 0.038639676
-0.031292845 0.061103974 0.023828028 0.087185405 -0.051949285 0.101739556 0.034145527 -0.0063616433
-0.031628404 -0.02144775 -0.09938424 -0.022250582 -0.06944067 0.068671115 -0.00197727 0.09356462
0.047985908 -0.0932573 -0.092064194 0.09607372 0.04793606 -0.0016379175 0.0133469505 -0.040695213
-0.056134965 -0.07340481 -0.06025376 0.015984304 0.08107378 -0.049140535 -0.0334229 -0.007427787
-0.121557735 0.046337165 0.026495317 0.021013308 -0.08693606 -0.08850697 0.02167483 0.07406424
-0.016026359 0.004896443 -0.029634474 0.045458578 -0.05545817 -0.020639367 -0.014128727 0.029447371
-0.036708534 0.042833336 0.06641799 0.052582644 0.05424639 0.06568048 -0.03739187 -0.08115986
-0.11090122 -0.023278644 0.027304836 -0.039219104 0.006033077 -0.02136378 -0.008888612 0.01146281
-0.058929633 -0.026874475 -0.017150944 -0.07406222 -0.07490476 -0.08049163 0.0035687452 0.12086385
0.13729727 0.08762351 0.1096035 -0.021968074 -0.09101367 -0.057431422 0.020874131 -0.0049381815
0.079551935 -0.026755704 -0.069004126 -0.0026905371 -0.097420014 -0.0036829493 0.02521473 -0.048082665
0.0036355357 -0.087980546 -0.04495143 -0.057221163 -0.008405551 -0.07645083 0.07023886 -0.038121536
-0.0888508 -0.0041790693 0.005189631 -0.029235227 0.066717006 -0.032488137 -0.04121684 0.04213714
-0.034634005 0.049087822 0.008170411 0.03582373 -0.10364975 0.03874325 0.062446676 -0.05137686
0.017267056 -0.038868375 0.065181 -0.017446844 -0.06360042 -0.0006912738 -0.0004535013 0.09749753
-0.0886782 0.029462429 -0.037612863 0.11152622 0.08461668 0.06938834 0.044509865 0.096478105
-0.0014412522 0.05507285 0.017811041 0.07316479 -0.033771597 -0.045313526 0.013297971 -0.035455417

bias f4 [84]
00000000: a25b 293d d6ed c63d adcd 673d 9dfc ce3c
00000010: 690e f93b 92cd 75bc 0aae 943d a647 e73b
00000020: a2ed 4bbc bd2b afbd 32a1 023c 165e 4a3d
00000030: 2e31 2f3d 16d0 aebd 5a9b 903d c6bb 553b
00000040: e943 cf3d 456e 0d3d 4be1 cd3d 3cd2 0e3d
00000050: f9d1 0c3d af2d e13c 20c6 46bd 1b87 e13d
00000060: 1c8a ca3d b1ce 153d 59d9 1d3d ad74 7e3d
00000070: 6fdb 02bd 3c6f 7d3d c58a b13d 0291 9e3d
00000080: bee3 48ba 10ee d93d 7446 c0bb f4d7 2c3b
00000090: b5e7 bebd f3a1 c9bd 6979 8b3d 7e66 633d
000000a0: 7bdc 41bd 2198 b63d fc78 9e3d deef 163b
000000b0: e5db 793d 312b ba3c 6af7 97bd ba62 1e3b
000000c0: d938 a7bb 6a9f b43a b048 a5bd b284 aabd
000000d0: 8a94 7fbc d366 48bd 45d5 d63d 5825 18bd
000000e0: 5d7b b9bd 1a72 723b 1fb8 723c 72a2 e8bd
000000f0: 6ea2 943d 9f1e 96bc b019 cdbc aeb2 3fbd
00000100: 46ef 2f3d c8fd c73b 8b08 dcbc 418f 23bd
00000110: 9a70 333d 3f71 993d a7f9 81bc 011b bc3d
00000120: b2c8 883d 65e0 fabc 4abb a03d 62ec 013d
00000130: 8922 dbbd a5e8 b3bb 95c2 9bbb b285 ce3d
00000140: 583e d03d cbbd 5cbc 2207 923d 2191 cd3d
0.041347153 0.09713332 0.056592632 0.02526694 0.007600595 -0.015002625 0.07259758 0.0070581017
-0.012446793 -0.08553264 0.007973002 0.049406134 0.04277151 -0.08535783 0.07060881 0.0032613142
0.10120375 0.03452899 0.10052737 0.034868464 0.034379933 0.027487604 -0.04852879 0.110120974
0.098896235 0.03657407 0.038537357 0.06212299 -0.03194755 0.06187366 0.08669046 0.07742502
-0.0007663331 0.1064111 -0.0058677737 0.0026373835 -0.09321538 -0.098453425 0.068102665 0.055517666
-0.047329407 0.08915735 0.0773792 0.0023031156 0.061000723 0.022725673 -0.07420237 0.0024167732
-0.0051032123 0.0013780419 -0.08070505 -0.08326091 -0.015599379 -0.048926186 0.10489897 -0.03714499
-0.09056733 0.003699428 0.014814406 -0.11359109 0.072575435 -0.018325148 -0.025036663 -0.04680126
0.0429528 0.006103251 -0.026859542 -0.03993154 0.043808557 0.07492303 -0.015866114 0.09184838
0.066789046 -0.030624578 0.078482226 0.031719573 -0.106999464 -0.00549038 -0.0047534206 0.10084094
0.10168141 -0.013472985 0.07130267 0.10037447

weight f4 [42, 84]
00000000: 5b83 a43d 092f 31bc f8a3 51bd 2644 9fbc
00000010: d4de e0bd f4b1 5fbd 3570 95bd e020 8dbd
00000020: f723 c6bd d36a 903d 4234 323c e944 9d3d
00000030: 156c b23d 6cd6 dabc 3325 993d de90 25bd
00000040: 7996 82bd 7c62 913d 8a44 c6bc fe97 da3d
00000050: b329 14bd 851a 543d e3c4 413d 4018 6fbd
00000060: 2b5d a33d eb74 8a3d 8f64 bebb 4027 9dbd
00000070: 8601 2abd 637e 603c ea4a 15bd 1f3e acbd
00000080: e1ed 8c3d 5257 de3d d535 a73d d48a 48bd
00000090: 7a7f d63d fc5a ee3d 2982 e93d c76d 853d
000000a0: c3ef 8abd 5d35 2fbd 4b20 17bc c20d e43d
000000b0: f388 693b 30f2 3e3b f5f8 a7bd a23d 5bbd
000000c0: a528 8b3d 0cdc 263c 1619 ab3b 0b44 423d
000000d0: 5b0e 21bd 03a7 abbc 09b4 e43c d6a4 4ebd
000000e0: fdcd 95bd f53e f0bb 91bf 053b a920 183d
000000f0: 38ba ba3d 210e 92bd c23c fa3c 1024 43b9
00000100: 0802 97bd f796 20bc 6602 b63d 016e 6ebd
00000110: b186 d23d cf3d 88bd ee59 16bd 37c7 0bbd
00000120: b935 a9bb fe4b 6dbd 47e9 3c3d 7ddb 663d
00000130: 314d 88bd f1bb 0a3d ce1e 113d 01dd 653c
00000140: 3de2 8d3d 8f65 463d 6e43 d93d c9c5 723d
00000150: 8577 883d 279b 1fbd d185 4dbd d7a0 773d
00000160: 7519 5d3d 980b e3bd 44bf b0bd 8a40 98bd
00000170: cd15 953c 6c13 e239 d7df b63c b20d a03c
00000180: c656 4a3d 47c6 ac3d 3b85 ab3c 1f35 a73d
00000190: a0a5 0a3d 0d94 07bd 348f 1ebd eb40 97b9
000001a0: 2056 0bbd 9e8f a0bd 704c c43c 4441 32bd
000001b0: a089 25bd d7b2 a03d 5b33 00be f2f2 b6bd
000001c0: 5919 cebd e85d 013e 9948 86bc a779 efbd
000001d0: af09 59bc dc60 3abd bae7 9bbd 61bb 37bd
000001e0: 24f3 3d3d cb1a 32bd d82d cabd 3a3e a73d
000001f0: 36b7 b6bd d4b2 ec3d 25fc 8f3d d3b0 3dbd
00000200: a514 9d3d 016c 933d 0994 ddbd 2565 70bc
00000210: aa60 ccbd 230a cabd 6b90 f7bc 34c7 99bb
00000220: 9739 ba3c 33d5 c23c 2193 983c 12ee eb3c
00000230: ab54 953d fdc6 7cbc 6d03 b73d 429f 74bd
00000240: 1705 be3d 4154 813d c8ff a2bd bc89 5bbd
00000250: a04c e53d 68db 7e3d 5d0e 5abd 5f4d 303d
00000260: 9b9e 063c 6bc5 0bbd a5d5 90bd a497 643b
00000270: 7497 7538 36eb 95bd c319 62bd 9e13 ad3d
00000280: 2724 b53d babf df3d 51d3 80bc 6c39 06bd
00000290: c23d 9ebc 92b5 9d3b 6cd9 103a 8c63 823c
000002a0: 0354 82bd ff12 ff3c 294a 9c3c a185 b13d
000002b0: aa4a c5ba 48d6 ce3c e2c5 26bd 5272 cbbd
000002c0: df4b b6bd 34e5 a4bd 5c5c c0bc 1fff 023c
000002d0: 9a82 d8bb 9a2e de3b 1f27 d23d 39b7 72bd
000002e0: 17a4 a9bd 5a4c e13d 748b 9d3c 5f50 8e3d
000002f0: 52a0 7f3d cabc a13d 7fea 103d a3e4 afba
00000300: a127 37bd da0a e3bd 906c 293b fab7 aa3d
00000310: 704b d2bc 5abb 3bbd 3696 e13d b528 c9bd
00000320: f135 ac3c 34c5 d3bd aa16 81bb 3ff7 c2bd
00000330: 0286 0bbd 6e3d 9dbd 6927 3d3d 464b 76bc
00000340: 0b8b 88bd 6536 fe3d eecf d13d a1b1 2f3d
00000350: 8c07 873d 2446 9abc 2792 523d 2213 c3bd
00000360: fbc1 b13d 8508 95bd 2926 5dbd 659c acbb
00000370: f8f3 f33c 8635 893d c323 05be e909 f8bd
00000380: 985b 2d3d 2e17 afbd 1313 94bc bdb5 123c
00000390: 454b 07bd 4995 50bd 1b81 96bc d9d7 ad3d
000003a0: 5a4b d73b 9b6c e53d e92f 46bd 2021 d6bd
000003b0: 0b99 02bd e523 96bd 90c9 e23d 3711 bebd
000003c0: 1f3f e63c a4e9 df3d 10f8 763d 2a4d a1bc
000003d0: 2d55 44bd dda3 b43d f5dd edbd 3577 883d
000003e0: 59f9 5fbc 15ab d13d 1ac4 bcbd 1162 14bd
000003f0: 4b20 ea3c 78bb 663c d783 433d 8f27 273d
0.080328666 -0.010814437 -0.051181763 -0.019441675 -0.10980001 -0.05461307 -0.072967924 -0.06891036
-0.096748285 0.07051625 0.010876717 0.07679159 0.08712021 -0.026713572 0.07477798 -0.04042136
-0.06376357 0.070988625 -0.024202604 0.106735215 -0.03617258 0.051783103 0.047306906 -0.058372736
0.07976755 0.067605816 -0.0058103274 -0.07673502 -0.04150536 0.013702008 -0.036448397 -0.08410286
0.06881309 0.10856499 0.081645645 -0.04896052 0.10473533 0.11638448 0.11401779 0.06515079
-0.06784012 -0.0427755 -0.009224008 0.111354366 0.0035634607 0.0029136054 -0.08201782 -0.053525575
0.06794862 0.010184299 0.0052214963 0.047428172 -0.03932033 -0.02095366 0.027917879 -0.05045017
-0.0731468 -0.007331724 0.0020408372 0.037140522 0.0911755 -0.07131601 0.03054655 -0.00018610083
-0.07373434 -0.009801618 0.08887176 -0.058210377 0.102795966 -0.06652414 -0.036706857 -0.034125533
-0.005163875 -0.0579338 0.046120908 0.056361664 -0.06655348 0.03387064 0.03542977 0.014029742
0.06927917 0.048436698 0.10608564 0.059270654 0.066634215 -0.038966324 -0.050176445 0.060456123
0.053979356 -0.11086196 -0.08630231 -0.07434185 0.018198872 0.0004312055 0.022323532 0.01953778
0.04939916 0.08436256 0.020937553 0.08164429 0.03384936 -0.033100177 -0.038710788 -0.00028849332
-0.034017682 -0.07839893 0.02396223 -0.043519273 -0.040414453 0.07846611 -0.1251959 -0.08933057
-0.100634284 0.12633479 -0.01639204 -0.11693125 -0.013246938 -0.04550253 -0.07612558 -0.044856433
0.046374455 -0.043482583 -0.09872025 0.08166166 -0.089216635 0.11557546 0.07030515 -0.04631121
0.07669953 0.071983345 -0.10819251 -0.014672552 -0.09979375 -0.09865215 -0.030220231 -0.0046929363
0.02273254 0.023783302 0.018624844 0.028800044 0.0729154 -0.015428302 0.089362 -0.059722193
0.092783146 0.06314898 -0.07958943 -0.05359815 0.11196256 0.06222096 -0.053236354 0.043042537
0.008216525 -0.03412382 -0.070719995 0.0034880424 5.8553604e-05 -0.073202536 -0.05520035 0.08451007
0.08844786 0.10925241 -0.015725764 -0.032769606 -0.019316558 0.0048129046 0.00055255624 0.015916608
-0.0636368 0.031136988 0.019078331 0.08668066 -0.0015052159 0.025248662 -0.04071606 -0.09933914
-0.0890119 -0.080515295 -0.02348154 0.007995396 -0.006607366 0.0067804577 0.10261368 -0.059256766
-0.08283251 0.11000891 0.019231535 0.06948923 0.062408753 0.07897337 0.035379883 -0.001341958
-0.044715527 -0.11086054 0.0025852062 0.08335872 -0.025670737 -0.04583297 0.110149786 -0.098222174
0.021021815 -0.10340348 -0.0039394693 -0.09519815 -0.034063347 -0.076777324 0.046180163 -0.015032595
-0.06667145 0.12412719 0.102447376 0.04289401 0.06593236 -0.018832274 0.051408913 -0.09525134
0.08679577 -0.072770156 -0.05399147 -0.005267667 0.02977942 0.06699662 -0.13001923 -0.12111265
0.04232368 -0.08549343 -0.018075502 0.008954463 -0.033030767 -0.05092362 -0.01837211 0.08488435
0.006570262 0.112023555 -0.048385534 -0.10455537 -0.031884234 -0.07331065 0.11073601 -0.09280627
0.02810627 0.10933235 0.060295165 -0.019690115 -0.047932792 0.08820317 -0.116146006 0.06663362
-0.013670289 0.102377094 -0.09217091 -0.036226336 0.028579852 0.014082782 0.047733154 0.04080921

bias f4 [42]
00000000: 47ed e83d b7dd c6bd da63 cfbd 3d04 36bd
00000010: 2df4 983d e29f dbbb 9c24 f5bd 0dc9 d73b
00000020: 0a1d ba3d 45e8 b4bc c47b 39bb dda4 cebd
00000030: 964f b1bd c2e4 80bd a5bb 513d 3c46 3a3d
00000040: ed0c 433d de69 9cbd 0e7e 98bd e48e 8b39
00000050: 3f9d 283d 7fa7 883d dbd2 82bd 0b3d 8dbd
00000060: 882c 8f3c 6d15 c93c 11a3 e53d c859 a43d
00000070: b32b 54bc b8ee b43d aa5b d6bc 507d 69bd
00000080: c9f4 68bd 710a d13d c19b ea3c eb85 b13d
00000090: c26f 6abd 6dc3 643d b632 7ebd 619a 713d
000000a0: 30be c5bd 4950 f9bc
0.11373382 -0.097102575 -0.10126467 -0.044437636 0.07468448 -0.006702409 -0.11969873 0.0065852464
0.0908757 -0.022083411 -0.002830253 -0.10090039 -0.08657758 -0.06293632 0.051204342 0.045477137
0.04761975 -0.0763738 -0.07445918 0.00026618608 0.041165587 0.06672572 -0.06387874 -0.06896409
0.017477289 0.02454635 0.11212743 0.08024937 -0.012949872 0.088345945 -0.026166756 -0.057004273
-0.05687407 0.1020707 0.028638722 0.08668121 -0.057235487 0.055850435 -0.06206008 0.058985118
-0.09655416 -0.03043379

weight f4 [1, 42]
00000000: 1386 4dbd af5d 473c bdc6 953d 7b30 5ebd
00000010: dc73 bfbd ad36 b7bd 202d 663c 3852 8cbb
00000020: 0e41 e1bd be4e 34bd e275 3f3d 4962 9a3d
00000030: 035b d53b e8ff 18ba 85e0 91bd 43c3 a0bb
00000040: c904 983b 71d3 a6ba 0346 f23b bbcd c2bd
00000050: 53e7 8c3d c9f8 97bb 0bf8 d3bd 6d1a 173e
00000060: ef2a 583d 8a3d ab3b 5f51 a7bd 9cbb c7bd
00000070: 19b9 913b fc31 8abd fbac 9dbd c871 b43c
00000080: 4b0d b63c 4b0a a9bb 3f64 ffbc c96d 42bb
00000090: 8de3 a73a bc5f 13be a467 8a3d a0be b93d
000000a0: 8552 053e c1b9 85bc
-0.05017669 0.012168332 0.07313297 -0.054245453 -0.0934827 -0.089459755 0.014048845 -0.004282262
-0.10998736 -0.044020407 0.04674328 0.07538278 0.0065110936 -0.0005836473 -0.07122902 -0.0049060895
0.0046392423 -0.0012727809 0.0073936 -0.09511896 0.06880059 -0.004637812 -0.10350045 0.14756174
0.05277532 0.005225842 -0.08169817 -0.097525805 0.004447114 -0.06747815 -0.07699009 0.022026911
0.022223135 -0.0051586977 -0.03117573 -0.0029667488 0.0012808904 -0.14391989 0.06758049 0.09069562
0.1301976 -0.016323926
