ModelUnpredictability/one_thousand_brains/predictor_141.model (torch_old, 109395 bytes, 7 tensors)

weight f4 [84, 168]
00000000: edac 473d 346a 4bbd d22c 3abd 5ee2 3fbd
00000010: eb59 383d e913 6b3d be97 5b3c 6dfb 813d
00000020: c2d3 2abb 1924 92bd 22ed 183d fcfd 9d3c
00000030: 110c 273d 75f5 8abb dcdc 16bd df5c 2fbd
00000040: 4852 28bb b231 523d 146b 8c3d 1206 87bd
00000050: bba5 adbc 29f9 27bc 3600 953d cebf 973d
00000060: bbda 61bd 6738 073d 4aaa 823c c667 393d
00000070: a31c 14bd 1b1b 66bd d4a2 85bd 6354 2d3d
00000080: b0d1 37bc 1dca af3c d8a2 8d3b 6d7a 88bc
00000090: 3a83 883d dbe3 7cbd 4a29 d03c 7422 833d
000000a0: 0356 373c d174 263d 61e9 70bd 6fed 823c
000000b0: ad68 f33c 473d 2abc c6e2 82bc 600a 753c
000000c0: 15b5 4ebd e449 d7bc 2e76 57bd 7925 8cbd
000000d0: e5d5 4fbd 0a64 c3bc cd85 edbc faa6 cfbc
000000e0: a89b 80bd 182b 443d 0b32 a1bc 9ad8 843d
000000f0: 1349 40bd d79e 7cbd 7c82 30bd 7e3d b8bc
00000100: 120e b13c 66af 85bd 573f 383a 91cb 8cbd
00000110: 8a93 803d 8893 513c 6a1d d23b a98c 15ba
00000120: b914 0cbd f019 1b3d 8694 51bd efff 6fbd
00000130: 5112 58bd 59b1 1a3c 2a12 19bc d859 1a3d
00000140: fb9c d93c a1d5 463d bea8 593d cf09 22bd
00000150: 7f09 293d 44be fd3b 2dee a13c 07c5 823d
00000160: 2ac1 50bc dc4e d73c cad3 993d babd 133d
00000170: bb04 17bd c8da 823d e6a7 4abd 12f5 89bd
00000180: d73e 353c fe99 173d c753 1f3d 6074 3639
00000190: de1e 0c3c b1ad 3c3d ccab 1c3d cd7f 953d
000001a0: e4d0 883b d17b 8f3d bb79 5d3d 8c87 55bd
000001b0: 9e68 d03b 1e02 2e3d 1c9f 7fbd d341 823d
000001c0: ea98 daba 4b91 673d 5f64 1cbd 38ae abba
000001d0: 33bc 943d 7638 d43c 18ff c8bc eae7 5c3c
000001e0: 490c 363d b625 63bd 410e 0fbd e44f 45bd
000001f0: 77b8 72bd f6e8 193d b3ea 3ebd 2888 083d
00000200: 3356 9a3c 6c54 54bd 3e5d a0bc acf6 823c
00000210: c8a8 93bd d024 29bd 98f5 41bd 944b 4c3d
00000220: c588 463d d18a 03bb ccb2 0f3d cd83 be3c
00000230: 3e9c 91bd d7a6 863c dfcb 35bd d3a5 493d
00000240: 5911 183d c881 73bd 10ab 62bd d915 37bd
00000250: e534 5fbd 2049 9fbc 53dc a3bc 8968 57bd
00000260: 5822 e9bb f4e0 b53c c401 c23c 20e1 2ebd
00000270: fd4f 17bd e256 273d c07d a23d 2a9a bcbc
00000280: 6bb1 ffbc 0fad 44bd d84a 173d cdf1 68bd
00000290: 7f0c 4dbd b299 9c3b 1282 2fbd f85e a03d
000002a0: ba75 0dbc 7c85 48bc 6ac8 94bd 41bf 15bc
000002b0: d7bc 88bc 5b93 4b3b 44f4 063d 1ad8 893d
000002c0: 2bf5 87bd bf8f 0abc c059 26bc 9242 60bd
000002d0: f7d7 5cbd 7310 6bbd fe7b 913c 235d b6bc
000002e0: 028d c73c 5f6f efbc 4ec8 07bd 0373 86bc
000002f0: 7d67 83bc 82ac 813d 4617 483d 066e 70bd
00000300: 2794 7cbd 4cdf 903d 9169 91bd 8dcf 1e3d
00000310: 2425 5f3d 5e72 2bbd aa49 933d 8e90 89bd
00000320: 29cd 413c 9ad8 a93b 5438 91bc b182 833d
00000330: 5cc8 883d 7801 973d 7d85 113d da03 4b3d
00000340: 878f d7bc c5b6 8ebd 3d85 94bd a33f 213d
00000350: d27c e0bc e6cf 08bd 6cb9 b93c b4ed 523c
00000360: 0723 39bd d75d 783d bdac 69bd 0d93 9e3d
00000370: 7d5c 5f3b 156c b63a 967b f63b df94 c5bc
00000380: 7872 763d c2b9 603d 44e1 d53c 80a0 bebb
00000390: b543 583d db6b 073d 900a 18bd 07ef 3dbd
000003a0: 2164 773d 032e 883b aff8 4a3d af59 61bd
000003b0: d6b6 92bd e30e 89bd 1f69 85bd 03c6 283d
000003c0: 9427 373d e785 563c 4ae2 6d3d f91a 473d
000003d0: ba71 9abc 7ae3 81bb 3f73 e9bc 294e ed3c
000003e0: 7df4 e83b 4874 71bd b022 ecbc efad a43c
000003f0: 4b9b d43c 4ac9 b73c a697 b1bc e4c1 6d3c
0.0487489 -0.04966183 -0.0454529 -0.04684674 0.045007627 0.057392035 0.013402877 0.06346784
-0.002606616 -0.07135791 0.037335522 0.019286148 0.04078299 -0.0042406865 -0.03683172 -0.04281318
-0.002568381 0.051316924 0.06856361 -0.06592955 -0.02119719 -0.0102522755 0.07275431 0.07409631
-0.05514024 0.033012774 0.01595034 0.04526498 -0.036160123 -0.056178194 -0.065251976 0.042316806
-0.011219427 0.02145868 0.004322391 -0.01665994 0.066656545 -0.061740737 0.025410313 0.06403056
0.01118994 0.04063875 -0.058816317 0.015982358 0.029713 -0.010390586 -0.015977275 0.014956087
-0.050465662 -0.026280351 -0.05260294 -0.06843085 -0.050741095 -0.023851413 -0.028994465 -0.025348175
-0.06279689 0.04789266 -0.019677183 0.06486626 -0.04694469 -0.06167492 -0.04309319 -0.02249026
0.021613155 -0.06527595 0.00070284813 -0.06874765 0.06278141 0.012791522 0.006412198 -0.0005704859
-0.03419945 0.037866533 -0.051167034 -0.058593687 -0.052751843 0.009441697 -0.00934271 0.037683338
0.026564112 0.048543576 0.05313944 -0.039560135 0.04126882 0.0077436287 0.019766891 0.06385236
-0.012741366 0.02628272 0.07511099 0.03606961 -0.036869746 0.063893855 -0.049476527 -0.067361966
0.0110623455 0.037012093 0.038898256 0.00017400226 0.008552281 0.046064083 0.038249776 0.07299767
0.0041752923 0.07006038 0.05407117 -0.05213122 0.0063601276 0.042482488 -0.062407598 0.06360211
-0.0016677652 0.056535047 -0.03818166 -0.0013098186 0.07262459 0.025905829 -0.0245357 0.013483027
0.04444531 -0.055455886 -0.034925703 -0.048171893 -0.05925795 0.037575684 -0.046610545 0.033332974
0.018839931 -0.051838323 -0.019575711 0.015986763 -0.07209927 -0.041294873 -0.047353357 0.049876764
0.048470277 -0.0020071755 0.035082623 0.023256207 -0.07109879 0.016436977 -0.04438388 0.049230408
0.03712592 -0.05944994 -0.05533892 -0.04469857 -0.054493804 -0.019444048 -0.02000252 -0.052589927
-0.00711469 0.022201993 0.023682483 -0.042695165 -0.036941517 0.040854342 0.07934141 -0.02302273
-0.03121253 -0.048016604 0.03693661 -0.056871224 -0.050060745 0.004779064 -0.042848654 0.07830614
-0.008634025 -0.012238856 -0.072647884 -0.009139837 -0.016691608 0.0031063173 0.032947794 0.06730671
-0.06638559 -0.008457123 -0.010153234 -0.054750986 -0.053916898 -0.057388734 0.01775932 -0.022261208
0.02435923 -0.02922791 -0.03315001 -0.016412264 -0.016040558 0.063317314 0.04885032 -0.058698677
-0.061664727 0.070738405 -0.07100213 0.038772155 0.05447878 -0.041857116 0.07191785 -0.06717025
0.011828699 0.0051832916 -0.017727055 0.06421412 0.066788405 0.07373327 0.035527695 0.04956422
-0.026313556 -0.06968454 -0.07251976 0.03936733 -0.027403269 -0.033401392 0.022671424 0.012874056
-0.04519942 0.060636368 -0.0570495 0.077428915 0.0034082227 0.0013917709 0.007522057 -0.024118839
0.06016776 0.054864652 0.026108392 -0.005817473 0.052798945 0.033061843 -0.03711945 -0.046370532
0.060398225 0.0041558756 0.04955357 -0.05501717 -0.071637794 -0.066922925 -0.06514191 0.041204464
0.04471548 0.013093448 0.058077134 0.048609708 -0.018853057 -0.003963885 -0.028497336 0.028967934
0.0071092234 -0.058948785 -0.028825134 0.02010247 0.025952956 0.02243485 -0.021678757 0.014511559

bias f4 [84]
00000000: cabc 903d 1b3b 953c a0f7 663d 1c3b ed3c
00000010: f085 373d 91ae a2bd f363 c83c 939f 5dbd
00000020: 6b7a 893c 8791 25bd 37f9 7bbc 8e24 83bd
00000030: 6fd4 cf3b 3d69 0a3d 7e06 433d 5e9d 883d
00000040: 5973 e7bc 9db4 5abd a8a8 553d afc8 253d
00000050: 3f22 0d3c b613 77bd c2e3 7dbc 6625 973c
00000060: 01aa 99bb b488 30bc c313 b13c e490 a43d
00000070: e957 4d3b 12e4 dc3c 36cc 26bc 3c16 19bd
00000080: a731 c83c 65e8 aebb 7729 96bd 8a5d b0bc
00000090: 90d6 643d 5488 b2bc d231 89bd 7ce7 893d
000000a0: f1d7 633d e610 0a3d 4a59 d73c 9122 f6bb
000000b0: 5286 0abd 9a53 a2bd 3f56 733c 1f56 e63c
000000c0: 6e9f 583d 2e2c a4bd 8993 01bb c67e 23ba
000000d0: d0ed e1bc da2c 483d 1285 323d 370b 70bc
000000e0: 9da5 09bc 18f1 91bc d3d3 033b 9e49 84bd
000000f0: 45b4 433c 5c23 8ebd e21d a23c fecb fbbc
00000100: 213c df3c a229 79bc ae37 81bd bd1d 44bd
00000110: 15ce 6d3c fb8d bf3c 7ff4 90bd 566b 81bd
00000120: 9750 10bd 2c2f ec3c 079b 5abd d642 48bd
00000130: a50d 7abd b882 023d b94b 8a3d 0741 81bd
00000140: 5d97 ee3b f788 d2ba 7ac2 3a3c ad2e 36bd
0.07067259 0.01821666 0.056388497 0.02895885 0.044805467 -0.07943452 0.024461722 -0.05410726
0.016782006 -0.04042199 -0.015379242 -0.06403457 0.0063424627 0.03379177 0.047613613 0.066706404
-0.028253244 -0.053394902 0.052162796 0.04047459 0.008614122 -0.060321532 -0.015496196 0.01845045
-0.0046894555 -0.01077478 0.021615868 0.08035448 0.0031332916 0.026964221 -0.010180524 -0.03737472
0.024437739 -0.005337762 -0.073321275 -0.021528978 0.055868685 -0.021793522 -0.066989556 0.06733605
0.05562586 0.03370752 0.026287694 -0.007511445 -0.033819504 -0.07926102 0.014852106 0.028117238
0.05288642 -0.08016239 -0.0019771776 -0.0006236847 -0.027579218 0.0488709 0.043583937 -0.014651111
-0.008401302 -0.017815158 0.002011527 -0.06459354 0.011944835 -0.06940338 0.01978964 -0.03073692
0.027250351 -0.01520768 -0.06309448 -0.047879923 0.014514466 0.023383131 -0.07077884 -0.06319301
-0.035233106 0.028831087 -0.0533705 -0.048891865 -0.06104817 0.031862944 0.06752724 -0.06311231
0.0072812275 -0.0016062547 0.011398906 -0.044478107

weight f4 [84, 84]
00000000: 3d0e 00bd 35d6 883d 1145 833d 3041 0e3d
00000010: 3997 963d a20c 97bd 8a82 67bd 00df 0cbd
00000020: 82d1 8dbd 4874 e6bc 05ee bebd 9dfb d3bd
00000030: bf6f ccbd d11e 9bbd fd58 01bd 5c26 c33d
00000040: fc99 703d 37ad b93d 39f4 d13d e7d8 b9bd
00000050: 097b 093d 78cc 133d aa5d a03d 74b6 3abc
00000060: 8ce4 87bd 548d 67bc b558 0abd 6c73 6cbd
00000070: 65eb ddbc 32b5 173d 0aa2 d73d f339 653c
00000080: fb3e 2a3d 11ad b03d 2bea a23d 350b b0bc
00000090: 3610 63bc 265a 3c3d 764d 00ba 2533 b63d
000000a0: 1d05 5f3d c166 12bd a21e a8bd b630 44bb
000000b0: d5dd aabd c3cf a03d c88d 84bc 630b 6fbd
000000c0: 9e9a fbbc 578b 77bd f788 ae3d ba4f d33c
000000d0: 0c5f 78bd 0ead a03c 26c7 d0bd 66c6 5ebd
000000e0: 258c 483d c8f9 bcbc 94ea a13d 54f0 86bd
000000f0: 57de 94bd b64f 9abd 9d57 d0bc 5007 bf3d
00000100: d2e6 9ebd de22 c3bd 88a0 21bd 8269 b3bd
00000110: dee2 e13d f08a 4cbd 91ba 293c a3cb a1bd
00000120: faa0 d8bd 9255 7d3d 6911 863d a10f 8b3d
00000130: 2a87 843c 44bb d5bd ba8c 873d 65fa 363d
00000140: 1b3a cd3d 1c90 93bd 3a51 6e3d 9f67 593d
00000150: 215d 8e3c bd70 a2bd f0fd f0bc c21c 963d
00000160: 5e55 61bc 7aa1 09bc 31c7 b2bd 51b3 3a3d
00000170: 9155 1d3d a73f 903d b073 ad3c 101f d53d
00000180: 7ec3 92bd 90ba 523d 3b59 023d 43a2 c23d
00000190: 9f21 583c 3a7c 36bd 082b 643c cff5 c13d
000001a0: 4c4e 7ebb 3dee 8c3d d249 82bd 28c3 abbd
000001b0: e60f 96bc a081 833d 1de8 b4bd 8a68 aabd
000001c0: 412e d2bd 672d ba3d ab0d 383d 17ac c1bd
000001d0: 09e0 cc3d 61d6 b0ba 8e3d 9bbd a115 883d
000001e0: ece6 a53d a119 9c3d 3404 c83d b487 50bd
000001f0: 35e3 f03b 6739 823d e82c 7cbc af11 623d
00000200: aedc f5bd 514f 0f3c b034 72bc e73e 90bd
00000210: b517 733b e93f ab3d 58f0 62bd 5cc6 b43d
00000220: f999 e5bd 51b7 c23d 2f4b 033d bb30 0839
00000230: 5701 633d cd3d e8bc 6747 b53b 1398 debd
00000240: 253a c13d d03b 85bd 719a 94bd 87a9 a9bc
00000250: 4911 29bc ff9f b53c 5010 f9bc 802e 74bc
00000260: 72f3 85bd 78a1 99bd c92d 8bbd 1e18 c93d
00000270: 5d73 a53d f240 d53c 5afb b939 c39c 573d
00000280: e472 a53d 7af3 c6bd 9a36 d3bb 6bf4 0fbd
00000290: 743a 933c 17bc 8c3d bf9c 88bd 24bb ab3d
000002a0: aeaa 88bd 317b 2e3d 5aaa 27bd 70e5 f93c
000002b0: 2041 683d 8102 98bc 4179 f13c 8165 8e3d
000002c0: db51 be3c c29c 31bd 05b3 213d dd35 babd
000002d0: 4b04 bfbd 2eed ad3d 1065 dd3d 3a2d 003d
000002e0: 7fe4 ccbd 41b8 a4bd bf0d 59bc fa5a de3d
000002f0: 72c0 313d f54b d1bc 2ea5 d1bd 765c 44bd
00000300: d46a cdbd 2998 cb3d ace9 733d da34 e63c
00000310: a2b7 86bc 4e0f 85bc d082 f5ba 465a 853c
00000320: 86a4 8e3d 267c d4bc 538c 26bd b55c 97bd
00000330: a920 763d 2df8 a63d 7967 ec3d 2fb1 a6bc
00000340: 6c67 b6bd f770 ffbc a749 90bc 5001 a2bd
00000350: c165 12bd 25fa be3c ea78 a63c 3283 debb
00000360: 0982 b3bd 413b c8bd 0e66 8a3d 51e1 93bd
00000370: 996c b83d 1c51 523d f283 65bd 4e8d 9b3d
00000380: 7b23 85bd 27a1 8e3d 4f7f 763d 6146 cfbd
00000390: 33c7 d33d 7234 b13c c57c 2f3d cd78 04bd
000003a0: bd3a 923c 0d75 8fbd 4b35 95bd e43c aa3d
000003b0: b544 e73d 0a91 ec3d f853 b5bd 5c28 9bbb
000003c0: 5eeb 80bd 2dcb d53b 74ef 7e3c 456f a73d
000003d0: 8b61 be3d ac04 80bd b498 80bd 2e9d 0cbd
000003e0: 4e14 613d f763 adbc 9b80 cbbd aca5 72bd
000003f0: 613d 26bd 3ee9 76bd a47f cc3c f053 0b3c
-0.03126358 0.06681482 0.06409658 0.034730136 0.07353062 -0.073754564 -0.056520976 -0.034392357
-0.06924726 -0.02813162 -0.093227424 -0.10350726 -0.099822514 -0.07574237 -0.031579006 0.09528801
0.0587406 0.09066241 0.1025166 -0.09074574 0.0335646 0.03608367 0.07830365 -0.011396039
-0.06635389 -0.014132816 -0.033776004 -0.057727262 -0.027089784 0.037038036 0.105289534 0.013990867
0.04156397 0.0862676 0.0795482 -0.021489719 -0.013858845 0.04598441 -0.0004894355 0.08896474
0.054448236 -0.035742525 -0.08208968 -0.002993626 -0.08343092 0.078521274 -0.016180888 -0.05836047
-0.030713376 -0.06043562 0.08522218 0.025794853 -0.06063752 0.019613769 -0.101942345 -0.054388426
0.048961777 -0.023068324 0.0790607 -0.06588808 -0.072689705 -0.07534735 -0.025432402 0.093275666
-0.07758869 -0.09528135 -0.039459735 -0.087603584 0.110295996 -0.04993719 0.010359422 -0.07900169
-0.10577579 0.061849184 0.065462895 0.0679009 0.016177732 -0.10436109 0.06618638 0.04467239
0.10020848 -0.07205221 0.058182932 0.053077336 0.017378392 -0.07931659 -0.029417962 0.07329704
-0.013753263 -0.008400315 -0.08729399 0.045581166 0.03841168 0.07043391 0.021173328 0.10406315
-0.071661934 0.05144745 0.031823378 0.09503605 0.01319161 -0.044552065 0.013926275 0.094707124
-0.0038803993 0.06881378 -0.06361736 -0.083868325 -0.018318128 0.064212084 -0.088333346 -0.083207205
-0.102627285 0.09090691 0.04493491 -0.09456652 0.10003669 -0.0013491624 -0.075801 0.066447504
0.081006855 0.07622076 0.09766427 -0.050910667 0.007351304 0.06358605 -0.015391566 0.055192646
-0.12004982 0.008746938 -0.0147830695 -0.07043248 0.0037092988 0.08361799 -0.05540499 0.088268965
-0.112110086 0.09507621 0.032054123 0.00012988124 0.0554212 -0.028349781 0.0055321935 -0.108688496
0.09434918 -0.06505549 -0.0725602 -0.02071072 -0.0103190625 0.022171019 -0.030403286 -0.014903665
-0.06540574 -0.07501501 -0.06795842 0.09819053 0.080786444 0.026031945 0.0003547322 0.052639734
0.08078554 -0.09714408 -0.006445718 -0.035145205 0.017972209 0.06871813 -0.06670522 0.083853036
-0.066731796 0.042597953 -0.040933944 0.030504912 0.056702733 -0.018555881 0.029476764 0.06952954
0.023232391 -0.043362387 0.039477367 -0.09092305 -0.09326991 0.08492504 0.10810292 0.03129313
-0.1000452 -0.08042956 -0.013247906 0.10857196 0.04339642 -0.025548914 -0.10236584 -0.04793974
-0.100301415 0.099411316 0.05954902 0.028101373 -0.016444985 -0.01624265 -0.0018731002 0.016278397
0.06964974 -0.025938105 -0.040661167 -0.07390729 0.06008974 0.081528045 0.11543173 -0.02034816
-0.08906445 -0.031181796 -0.017613245 -0.079104066 -0.03574157 0.023312638 0.020321328 -0.006790542
-0.087650366 -0.09776927 0.06757747 -0.0722071 0.09005088 0.051346883 -0.056034036 0.07595311
-0.06500908 0.06964331 0.060180005 -0.101208456 0.103407286 0.021631453 0.0428436 -0.032341767
0.017850274 -0.070047475 -0.072855555 0.08312395 0.11292402 0.115511015 -0.088539064 -0.004735036
-0.06294893 0.0065244646 0.01556002 0.0817552 0.092959486 -0.06250891 -0.06279126 -0.034329586
0.054951005 -0.021165831 -0.09936639 -0.05924003 -0.04058588 -0.06028103 0.024963208 0.008503899

bias f4 [84]
00000000: 9507 953c bbbe c0bd c8b8 63bd 8e1d 9e3b
00000010: 9656 47bc decf f8bc 731c dcbd a3c6 29bd
00000020: bf9d 173d 43e0 89bd f2ad c0bd 8bfa 79bd
00000030: 3794 f83c eb9d b33d 3ed6 12bd 88e5 c63d
00000040: 5f57 f0bc 4e4f 94bd c0d5 433d 90f3 a5bb
00000050: 633e 253d 7729 1cbd 34fb 23bd c75f 443b
00000060: 3a0f cdbb 7506 c63d f09e c83d f647 2d3c
00000070: 6137 01bc 94d2 d23c fded b83d a01e cb3c
00000080: 6220 b2bc 7564 e03b d29c 8ebd ccd7 7ebb
00000090: 713c 453d 91fb c8bc 3d75 603d 7a8d aabd
000000a0: 0059 8bbd 24b5 3a3d 578b 1f39 d7a2 1cbd
000000b0: 7234 97bd 598a 8ebd 7f12 49bd 4263 9ebd
000000c0: 37ca fc3c 530a 153d d6bb c33d 2217 d4bc
000000d0: 14db 063d 6a05 e33c 0009 d13c 01ac c83d
000000e0: c1b9 e5bb e836 04bc f2df b83d 11aa a63c
000000f0: 5b88 473d 818c 5e3d fe19 9cbb 7f8a a0bd
00000100: d061 97bd efb4 883c 53a2 b2bd c026 df3d
00000110: 908e d8bc d8c2 4dbd 8301 603d 3824 c7bc
00000120: bbe1 3f3d 0631 a83c b193 873d c7b9 78bd
00000130: 6769 69bd ba54 643d 927a 213d 2f86 cdbd
00000140: 9f40 adbd 9af9 a23d e7e7 2d3d 3f2b d33d
0.018192092 -0.09411379 -0.055596143 0.0048253005 -0.01216664 -0.030372556 -0.10747614 -0.0414492
0.037015673 -0.06732228 -0.094081774 -0.061029952 0.030344112 0.08770355 -0.03584885 0.09711748
-0.029338537 -0.07241689 0.04781127 -0.0050644353 0.0403427 -0.03812548 -0.040034488 0.0029964314
-0.0062579187 0.096692 0.0979594 0.010576239 -0.0078867385 0.025735177 0.09029768 0.024794877
-0.021743957 0.006847913 -0.06963505 -0.003888595 0.048153345 -0.024534019 0.054799307 -0.08327766
-0.06804085 0.045582905 0.0001521533 -0.038241234 -0.0738305 -0.069599815 -0.049089905 -0.07733776
0.030858142 0.0363868 0.09557311 -0.025889937 0.032923773 0.027712543 0.025516987 0.09798432
-0.007010669 -0.008069731 0.09027089 0.020344766 0.048714023 0.054333214 -0.0047638407 -0.07838916
-0.07391703 0.016687838 -0.08722367 0.10896063 -0.026435167 -0.050234646 0.05468894 -0.024309263
0.046846133 0.020531189 0.06619967 -0.060724046 -0.056985285 0.055744864 0.039423533 -0.10035359
-0.08459591 0.07957764 0.042457487 0.10310983

weight f4 [42, 84]
00000000: 5d65 ed3c e78b c2bd 98b3 8a3d dc30 a93d
00000010: d192 003d 5021 cabd 68ee 303d f73a 583d
00000020: dec9 863d f638 753d 498d b43c 7e58 ba3c
00000030: 43f9 1ebd 10d5 b6bd 981c 83bd 75bf 73bd
00000040: eb69 463c 7b05 453d e76e 80bc 0abf 023d
00000050: 0275 933d e3b4 7abd 4a91 1e3d fa1c b1bc
00000060: aa70 35bd 00b1 8a3d 248f b9bd 8c4b c5bd
00000070: 833a 5b3d 2fa6 ba3d 564c a5bd f1d5 ad3d
00000080: 1650 c8bd 45e2 d43c bff8 e63d e7b5 fe3d
00000090: 8f4c b73d 77f0 a0bd bfbc b8bd 947a 00bd
000000a0: ced8 693d 3bdd 6c3d 60b0 9dbb 09db 8fbd
000000b0: 092d 57bd cfe9 af3d 708b be3d 3a12 e5bb
000000c0: 9e91 db3d 6e5a a2bd e89d 113d 646e 533c
000000d0: bf11 083d 74ab 673d 5ed1 1fbd 55e5 babd
000000e0: 6cbe 843c b690 aebd e9bc b53d add3 bebc
000000f0: cef5 ab3d d18e 853d 04fb dfbd 7323 d2bd
00000100: 7e3e 05bd 50ac 92bd 7050 2cbd 8a2d 3e3b
00000110: 7c28 52bd eb8d fabb cad4 d23d ead1 2bbd
00000120: 0e5d 313c 51ec 1cbd 4f1f 373d 525a ab3c
00000130: 9f63 dbbd 5868 1c3c ff33 06bd 707e b0bd
00000140: 7ec4 f8ba b9d9 64bc 81ce b83c a02f b43d
00000150: 9668 abbd 4416 ae3d 2765 89bd 707c b13d
00000160: 8437 23bc 2480 2f3d 26b1 a13d 2dbf a7bd
00000170: ef44 babc 0f7f 9dbd e2b1 38bd 8db1 083d
00000180: 909b 73bd b438 b63d 2c91 683d e6ef 8d3d
00000190: ac06 a03d d8ca 1c3b e7fa 9dbd 9f7c aa3d
000001a0: 2c2d 1a3d 416b 873d edce 813d 18f0 24bd
000001b0: 8524 ebbc 49c0 853d 58b7 5b3d 9714 6abd
000001c0: 5d3f 693d a4a1 4f3b b9b9 cabd 7a8f 403d
000001d0: ec0c 6c3b 2765 57bd 22f2 a1bc 9ca5 17bd
000001e0: b55a cdbd 0f17 79bd c4a2 40bd a670 d23d
000001f0: 042c e63c aebe ccbc 75e5 d9ba 801a 7b3d
00000200: 707a 35bd 6710 8f3d 1789 b63d 7c22 853d
00000210: 7b4e c3bd 3deb cebd 28e1 bdbd e677 9f3c
00000220: 5687 973d 3bf3 38bd f370 0e3d 1035 5c3d
00000230: 9a70 73bd b1e5 ba3c 342b 903d f04b df3b
00000240: 320b 46bd fc28 ef3d 8f6b cc3d bf52 cd3c
00000250: 7cb8 353d 8f08 89bd 3f86 64bc 801e 06bc
00000260: 6274 24bd f948 fb3c 7c43 da3d 0108 f7bb
00000270: bc85 cbbc 638d d13d f8e7 cbbd c15e 42bd
00000280: 7581 84bc 269d a23d 53cc 813d 77e1 08bd
00000290: 0831 ba3d 6978 d93d 7678 dabd 501d 3d3d
000002a0: 5c2f 04bd 66ec c53d 0c87 b8bd 5547 e5bd
000002b0: 1c60 7a3d efb9 873d 2794 b33d 3359 5b3d
000002c0: 1e72 a43d 590a 2b3d e8dc 9b3d 9555 71bd
000002d0: 4c38 393d fabd 50bc 7c2f cd3d 7bf7 01be
000002e0: 6eee 30bd ab0f a7bd 0df7 523d d002 c6bd
000002f0: e52c 853d 7e25 00bd 6d46 ec3c 5435 463c
00000300: 0d3d 96bd fa13 b03c 8c5f 323c 3ce7 12bd
00000310: 98e7 b23d 487a 7dbd 3339 4f3d 79bb 4dbc
00000320: 5152 fabb d72c cf3d f4c7 25bc b389 653d
00000330: 9098 09bc 6dc8 b73c 75ce f83b 7eab 9b3d
00000340: 6bd8 65bd 4430 d13c 0852 863a c62d ed3c
00000350: 4aaa c03c 7f6b 543d 08b4 af3d ac93 2a3d
00000360: 5909 dabd 00bc 48bd ef97 4c3b 7666 a93d
00000370: fa1c a5bc 7200 bb3d 2d1d 3c3d 7ec9 99bc
00000380: 9450 99bd 94b0 b0bd 055a b73d f2e2 813d
00000390: b9cd 89bd f9ed 8cbb 5f15 b3bd f5b6 f13c
000003a0: c74e 553d 245d 5c3d d4c9 1abd aa11 df3c
000003b0: a4eb a13c 976c 4f3c ca8d 89bc 1c8a babc
000003c0: 9662 033d 43fc 6abd de16 babc 441b 73bc
000003d0: 8410 aebd 93ea 5a3c 1b08 b5bd d171 cabd
000003e0: a3c4 0d3c 4c8c 983d 500a 2b3d fbeb 073d
000003f0: d99e b3bd 826b 773b 939f 86bd 38fc b53c
0.028978998 -0.094993405 0.06772536 0.08261272 0.031390015 -0.09869635 0.043196112 0.05279061
0.06581472 0.059868775 0.022040026 0.022747274 -0.038811933 -0.08927357 -0.06401938 -0.05950876
0.012110214 0.04810093 -0.015677882 0.03192047 0.07200052 -0.061207663 0.038712777 -0.021620262
-0.044296898 0.06772041 -0.09060505 -0.0963355 0.053522598 0.09113728 -0.080712005 0.08488072
-0.097809 0.0259868 0.11277913 0.12437039 0.08950149 -0.07858365 -0.090203755 -0.0313669
0.057091527 0.05782817 -0.0048122853 -0.070241995 -0.052533183 0.08589517 0.09303939 -0.006990698
0.10721134 -0.07927404 0.03555098 0.012904737 0.03322005 0.056559995 -0.039018027 -0.09125773
0.016204081 -0.08523695 0.088739224 -0.023294294 0.08396493 0.06521381 -0.10936549 -0.10260668
-0.0325303 -0.07161772 -0.0420689 0.0029018843 -0.05130814 -0.0076463125 0.102944925 -0.041948237
0.010825409 -0.038311306 0.044707593 0.020917092 -0.107123606 0.009546362 -0.03276443 -0.08617866
-0.0018979458 -0.013967925 0.022559406 0.08798146 -0.083695576 0.085003406 -0.067087464 0.08666313
-0.009961966 0.042846814 0.078951165 -0.08190761 -0.022737948 -0.0769025 -0.045091517 0.03337245
-0.059474528 0.08897534 0.05677907 0.069305226 0.078137726 0.0023924615 -0.077138714 0.08324551
0.037640736 0.06612254 0.06338296 -0.040268034 -0.028703937 0.06530816 0.053641647 -0.057148542
0.056945194 0.0031682039 -0.09898705 0.04701183 0.0036018444 -0.0525867 -0.019768778 -0.03702317
-0.100270666 -0.060813006 -0.047030225 0.10275392 0.02809716 -0.024993267 -0.001662417 0.06130457
-0.04430622 0.069855504 0.089128666 0.06500718 -0.09536453 -0.10103462 -0.09271461 0.019466352
0.0739886 -0.045153838 0.034775686 0.05376154 -0.059433557 0.022814604 0.0703949 0.0068144724
-0.04835052 0.11677739 0.09981453 0.02506387 0.04436539 -0.066910855 -0.013948022 -0.008185983
-0.040150054 0.030674445 0.10657403 -0.007538796 -0.024844043 0.102320455 -0.09956354 -0.047453646
-0.016175011 0.0794013 0.063378 -0.033418145 0.09091383 0.106186695 -0.10667507 0.046170533
-0.032271728 0.0966423 -0.09010133 -0.11195246 0.061126813 0.06627261 0.08768492 0.053551864
0.080295786 0.041757915 0.07610494 -0.058919508 0.045219705 -0.012740606 0.100188226 -0.12692063
-0.043196134 -0.08157285 0.051505137 -0.09668505 0.065027036 -0.031285755 0.028842175 0.012097675
-0.07335863 0.0214939 0.010887038 -0.035865054 0.08735579 -0.061884195 0.05059166 -0.012556904
-0.0076392074 0.101159744 -0.010118473 0.056039523 -0.00839819 0.022434438 0.007592971 0.07601069
-0.056114595 0.02553571 0.0010247836 0.02895249 0.0235187 0.05186033 0.0857926 0.041644737
-0.10646314 -0.049007416 0.003121849 0.08271496 -0.020155419 0.09130944 0.04592626 -0.018772837
-0.07486072 -0.086274296 0.08952717 0.063421145 -0.067286916 -0.0043008295 -0.087443106 0.029506186
0.05207708 0.053799763 -0.037790135 0.027230103 0.019765683 0.012660167 -0.016791243 -0.022770934
0.03207644 -0.05736948 -0.022715982 -0.014838044 -0.08499244 0.013361591 -0.088394366 -0.0988499
0.008652839 0.074486345 0.04175788 0.033184033 -0.08770532 0.0037753289 -0.06573405 0.022214994

bias f4 [42]
00000000: 1013 61ba f57c 8cbb 1b29 fbbb cb6d 7ebd
00000010: e282 323c 891d ca3c d51d a7bd 3aae df3c
00000020: 4dc2 863d d05a 4cbd 77b6 adbd 484a 343d
00000030: 9b34 2bbd 41be 57bd 8b90 1c3d f3d6 4abd
00000040: 045a b33d 5b8a 903d 698e 8cbd 97c7 933c
00000050: a582 0ebd 3acb abbc 8525 79bc f2d2 2e3d
00000060: 6f75 a93d a4d5 a33b a063 8a3d be50 be3d
00000070: 902b 82bd 39c6 2b3d dbb5 183d 625b 343d
00000080: 7593 ad3d a1a3 3e3d 21a8 77bd bea9 71bc
00000090: 764c ce3d 5a8c 9f3d a05b a0bd 9ab2 463d
000000a0: 8b62 c8bc 19c6 e13d
-0.00085859094 -0.004287357 -0.0076648123 -0.062116425 0.010895463 0.024672287 -0.08159987 0.027304757
0.06580029 -0.049891293 -0.08482068 0.044016153 -0.041798215 -0.052671675 0.038223784 -0.049521398
0.087574035 0.07057639 -0.068631 0.018039508 -0.03479256 -0.02097093 -0.015206699 0.042681642
0.08274352 0.004999833 0.06757283 0.09292744 -0.06355965 0.041937087 0.037282806 0.044032462
0.08475391 0.046542767 -0.060463075 -0.014749942 0.100731775 0.07790442 -0.07829976 0.04851017
-0.024461051 0.11024112

weight f4 [1, 42]
00000000: 6e75 a73d d902 0cbb 69fe debd 9cc9 33bd
00000010: 6fcc f03d 629f 803d 7919 b5bd 251b 47bd
00000020: 7571 0b3e 221d 9d3d 9882 e83c 3f0e d53d
00000030: af35 f8bc 3d1a 0d3d 0a31 303d 9c03 ecbc
00000040: 2630 a2bb 4847 9bbd 5da3 38bd a5fd 8a3c
00000050: 3063 dabd 6cce c23d 5d7f 4cbc b7ed dcbc
00000060: d953 c0bd 5776 a13c 6146 173e df15 5abd
00000070: 2898 88bd ffc9 4a3d bcce c9ba 6424 cfbd
00000080: e954 9c3c eede b7bd 8228 cc3d 29da feba
00000090: 5efd ca3c 29bc b1bd 3667 9f3d 4215 843d
000000a0: 8a88 af3d 44c0 c33d
0.08176695 -0.0021364002 -0.10888369 -0.04389344 0.117577426 0.062804 -0.08842749 -0.04860987
0.13617499 0.07671572 0.028382584 0.10403108 -0.030299036 0.03444885 0.043015517 -0.028810315
-0.0049495874 -0.07581955 -0.04507767 0.01696665 -0.1066345 0.09512028 -0.012481538 -0.02696882
-0.09390993 0.01970975 0.14772941 -0.053243514 -0.066696465 0.049509045 -0.0015396695 -0.10114363
0.019083457 -0.08978067 0.09968664 -0.0019443679 0.024779018 -0.08678467 0.07783358 0.06449367
0.08570965 0.09558156
