ModelUnpredictability/one_thousand_brains/predictor_87.model (torch_old, 109395 bytes, 7 tensors)

weight f4 [84, 168]
0	0x3cc8c9e3	0.02451033
1	0xbc5bfd03	-0.013427022
2	0xbb36bb2a	-0.0027882555
3	0xbc2df28f	-0.0106169125
4	0x3cfd59da	0.030926634
5	0x3d8e3204	0.069431335
6	0xbd98d0cd	-0.074617006
7	0x3d97d71f	0.07414078
8	0xbcba240b	-0.022722265
9	0xbd9cc93a	-0.076555684
10	0xbd2b3ea5	-0.04180779
11	0x3d08f701	0.033438686
12	0x3d7f7783	0.062369835
13	0xbd3b8a93	-0.04578645
14	0x3d8a91c7	0.06766086
15	0xbd07ce23	-0.03315557
16	0xbc054c9c	-0.008135941
17	0xbd2053c3	-0.03914238
18	0x3cefba04	0.029263504
19	0xbd9c839a	-0.076422885
20	0xbc905b17	-0.01762156
21	0xbd1454fd	-0.036213864
22	0x3d2723f1	0.04080576
23	0xbd40818a	-0.046998538
24	0xbd9754d2	-0.07389225
25	0x3d48d4d8	0.04903111
26	0xbd4a198b	-0.049340766
27	0x3c9d3c19	0.019193696
28	0x3d3d8511	0.04626948
29	0xbcc0fa0a	-0.023556728
30	0xbd808b2b	-0.06276544
31	0xbcaf532c	-0.021401964
32	0xbc034a51	-0.008013324
33	0xbb44f6c6	-0.0030054315
34	0x3d543280	0.051805973
35	0x3b980aee	0.004639975
36	0xbd88dd7f	-0.06682872
37	0x3c4400cf	0.011963083
38	0xbd31a93e	-0.043374293
39	0xbad1166a	-0.0015952114
40	0xbd8c48ec	-0.06849846
41	0xbd878711	-0.06617559
42	0xbd236f23	-0.03990091
43	0xbd7a54a9	-0.061115894
44	0x3d3ce5fe	0.046117775
45	0xbb544fba	-0.0032396154
46	0xbd9db2ea	-0.07700141
47	0xbcf06753	-0.029346144
48	0x3d79eede	0.061018817
49	0x3d9c0f52	0.076201096
50	0xbc1249bd	-0.008928713
51	0xbcedbc69	-0.029020505
52	0xbab31c62	-0.0013665075
53	0x3ce15501	0.027506353
54	0xbd501147	-0.050797727
55	0xbd1d2eb2	-0.03837461
56	0x3d5bcbe1	0.05366123
57	0x3d48a23b	0.04898284
58	0xbd621596	-0.055196367
59	0xbc84ac28	-0.016195372
60	0x3c007eb6	0.00784271
61	0x3c2ac309	0.010422477
62	0xbcd53ceb	-0.026030025
63	0xbd6e2b92	-0.05814702
64	0x3d015c82	0.031582363
65	0x3d50b082	0.05094958
66	0xbc9da487	-0.019243492
67	0xbca2025f	-0.019776521
68	0x3d18f757	0.037345257
69	0x3cae3b59	0.021268534
70	0xbd7716d7	-0.060324516
71	0x3ad5fed7	0.0016326559
72	0xbd723f6a	-0.059142508
73	0xbd44d285	-0.04805233
74	0x3d93d3df	0.072181456
75	0x3cf45de8	0.029829934
76	0x3d0f92b3	0.035052013
77	0x3d937b94	0.07201305
78	0xbbb452f8	-0.0055030547
79	0xbd51e06c	-0.051239416
80	0x3ae4b3da	0.001744862
81	0xbce08814	-0.027408637
82	0x3abba159	0.0014315053
83	0xbbc88bfe	-0.006120204
84	0x3d4b521a	0.049638845
85	0x3d5c043a	0.05371497
86	0xbd29bdac	-0.04144065
87	0x3d9dcc29	0.07704956
88	0xbd1f18f4	-0.038842157
89	0xbcb09d6d	-0.021559441
90	0x3d0aeebc	0.03391908
91	0x3b43d39b	0.0029880765
92	0xbce595ab	-0.028025469
93	0xbd9940a1	-0.0748303
94	0x3cb984c8	0.022646323
95	0xbd3d381f	-0.0461961
96	0xbc31141a	-0.010808015
97	0xbc2819b9	-0.010260039
98	0x3d655e0f	0.055997904
99	0x3d40577e	0.04695844
100	0x3c2c0708	0.010499723
101	0x3d11d0fb	0.03559969
102	0x3d62d1b7	0.05537578
103	0x3d0bfdac	0.034177467
104	0x3d8fa064	0.07013014
105	0xbd82cf2d	-0.06387172
106	0x3c9f6e87	0.019461883
107	0xbd4f3b11	-0.05059344
108	0x3d8b811e	0.068117365
109	0x3bd3b9c8	0.006461356
110	0x3da2bccf	0.07946169
111	0xbcc91836	-0.024547677
112	0x3d81bfbb	0.06335398
113	0x3d22a434	0.039707378
114	0x3ce291ef	0.027657477
115	0x3d4386ce	0.04773598
116	0x3d80252f	0.06257092
117	0x3cea9b4e	0.028638508
118	0x3d918337	0.07105105
119	0xbd315115	-0.043290216
120	0x3d8173ac	0.06320891
121	0x3bb85b13	0.0056260913
122	0x3d828a20	0.063740015
123	0x3d5069cb	0.050882142
124	0xbc61a964	-0.013773296
125	0x3d0143ba	0.03155873
126	0xbc0ea004	-0.008705143
127	0xbc84fd0a	-0.01623394
128	0xbcdf1b58	-0.027234718
129	0x3ceeeab1	0.029164644
130	0x3d10a8a9	0.035317097
131	0xbd9889bd	-0.074481465
132	0xbd8df274	-0.0693101
133	0x3c908193	0.01763991
134	0x3d2893af	0.041156467
135	0x3c3608db	0.01111051
136	0x3d98bac6	0.07457499
137	0xbd4128a2	-0.04715789
138	0x3c981d48	0.01856865
139	0xbcc496f0	-0.023997754
140	0x3c73ec77	0.014887921
141	0xbcabb7a4	-0.02096159
142	0xbc191b5c	-0.009344902
143	0xbd4e9e99	-0.05044422
144	0xbd6739bd	-0.056451548
145	0xbd075267	-0.03303757
146	0x3c094eaf	0.008380576
147	0x3cf9a7d7	0.03047554
148	0xbbb642f9	-0.005562183
149	0x3d243661	0.040090922
150	0x3d9cabff	0.07649993
151	0xbcdb11d2	-0.026741896
152	0xbc59409d	-0.013260034
153	0xbd332256	-0.043733917
154	0xbd569654	-0.052389458
155	0xbd9b591b	-0.07585355
156	0x3bb80bee	0.0056166565
157	0xbcc7e006	-0.024398815
158	0xbcb9fd82	-0.02270389
159	0x3d8fa1ca	0.07013281
160	0xbd984ac1	-0.07436133
161	0xbbf1dfd3	-0.0073814183
162	0x3d5abce8	0.05340281
163	0x3bb30f08	0.0054644383
164	0xbd581934	-0.05275841
165	0x3d4642dc	0.048403606
166	0xbc2dfb07	-0.010618932
167	0x3d824d37	0.06362384
168	0xbd12f7bb	-0.035880785
169	0x3c45f8ac	0.012083214
170	0xbc9477c2	-0.018123511
171	0x3c91b94c	0.017788552
172	0xbd753fe4	-0.059875384
173	0x3c2ba956	0.010477385
174	0x3bcda6a4	0.0062759686
175	0x3d016c08	0.031597167
176	0x3d92a893	0.07161059
177	0xbc9227e3	-0.017841285
178	0xbc60fe7c	-0.013732549
179	0x3d815ad2	0.06316151
180	0xbd19f2c3	-0.03758503
181	0x3d6f871f	0.05847847
182	0x3d75de3d	0.060026396
183	0xbd949a42	-0.07255985
184	0x3c1c416e	0.009537084
185	0x3d8093d1	0.06278194
186	0x3d5699f5	0.05239292
187	0xbd9d5549	-0.076822825
188	0x3d407655	0.04698785
189	0xbcc332e3	-0.023827976
190	0xbd099f97	-0.033599462
191	0x3d1d20d7	0.038361397
192	0xbd5d697a	-0.05405567
193	0x3d8c1843	0.06840565
194	0xbc0bc2aa	-0.008530298
195	0xbc65b8ef	-0.014021142
196	0xbd71b914	-0.059014395
197	0xbc862a9b	-0.016377738
198	0xbd5fae92	-0.054609843
199	0xbd8b622d	-0.06805835
200	0x3d906619	0.070507236
201	0x3cc565c8	0.024096385
202	0x3c0ae9db	0.008478607
203	0x3d4982c5	0.049196977
204	0x3be65a3f	0.007029801
205	0x3d325302	0.043536194
206	0x3d8b730b	0.06809052
207	0x3aa2f7de	0.0012433489
208	0xbd5b8668	-0.053594977
209	0xbbb37244	-0.005476268
210	0x3d82f5e9	0.0639456
211	0xbcedc170	-0.029022902
212	0x3c8214e2	0.015879098
213	0xbd65471e	-0.055976026
214	0xbd685bc7	-0.05672815
215	0x3d032127	0.03201404
216	0xbd29e2cb	-0.041476052
217	0x3c625594	0.013814349
218	0x3b72e828	0.0037064645
219	0xbd9c40d7	-0.07629555
220	0x3c38a15c	0.01126894
221	0xbd69f70c	-0.057120368
222	0x3d028bfa	0.031871773
223	0xbd55704d	-0.05210905
224	0x3dae99f3	0.08525457
225	0xbd862728	-0.06550437
226	0x3d45e4b6	0.04831382
227	0x3d0d0c4f	0.034435567
228	0x3c0e7378	0.008694522
229	0x3d3b71b3	0.04576273
230	0xbd58464f	-0.052801427
231	0xbd5de945	-0.05417754
232	0xbd71d044	-0.05903651
233	0xbd302287	-0.043001678
234	0x3d3437ab	0.0439984
235	0x3cf90fc6	0.03040303
236	0x3da98a65	0.0827835
237	0xbd43d23f	-0.04780793
238	0x3d39b9af	0.045343097
239	0x3d3ffa1c	0.046869382
240	0xbd2153d6	-0.039386593
241	0xbd496485	-0.04916813
242	0x3bdbecb1	0.0067115654
243	0x3d8c91c5	0.06863741
244	0x3bcc6670	0.0062377974
245	0xbcce4742	-0.025180463
246	0xbd690e56	-0.056898437
247	0x3d731f9f	0.059356328
248	0x3d187e80	0.037230015
249	0x3c836e22	0.016043726
250	0xbd289c3b	-0.041164618
251	0x3d54f0cc	0.051987454
252	0xbce5706c	-0.028007708
253	0x3d278d93	0.0409065
254	0xbd320978	-0.04346606
255	0xbd83ff33	-0.0644516

bias f4 [84]
0	0xbc9fdfb0	-0.019515842
1	0x3c1726b2	0.009225534
2	0xbcc2ce5c	-0.02378004
3	0x3d73d37d	0.059527863
4	0xbd868f0b	-0.06570252
5	0xbd2844e1	-0.041081313
6	0x3d6a0259	0.057131145
7	0x3d1e0fba	0.038589217
8	0xbd5d5a62	-0.054041274
9	0xbd04e9b3	-0.032449435
10	0x3c7f8eea	0.015598038
11	0x3d901ea9	0.07037098
12	0x3d49230d	0.049105693
13	0xbd1f284b	-0.038856786
14	0xbd1a9c28	-0.03774658
15	0xbd9196aa	-0.07108815
16	0xbd99e4c6	-0.07514338
17	0x3d876098	0.06610221
18	0x3c4022dd	0.011727062
19	0x3c8dbb4b	0.017301222
20	0xbc56fd7d	-0.01312196
21	0x3d566da0	0.05235064
22	0x3cfcd239	0.03086196
23	0x3d63f5f4	0.05565448
24	0xbd95e1c8	-0.07318455
25	0x3c85aecd	0.016318703
26	0x3d47226f	0.048616823
27	0xbd8f1e34	-0.06988183
28	0xbd523e1e	-0.05132877
29	0xbd8cba98	-0.068715274
30	0xbd8691c4	-0.06570771
31	0xbd5e5e81	-0.054289345
32	0x3c8d7ef4	0.01727245
33	0x3c784815	0.015153904
34	0xbd1e1e55	-0.038603146
35	0xb87ef9fc	-6.0791135e-05
36	0x3d52824a	0.051393785
37	0xbd85af2b	-0.06527551
38	0xbd7ae39f	-0.061252233
39	0x3d3064ea	0.04306499
40	0xbd4a9dc5	-0.049466867
41	0x3d7a40d6	0.06109699
42	0xbd57e6b6	-0.052710257
43	0x3c9448d5	0.018101135
44	0x3bcca311	0.006245025
45	0x3c7aa053	0.015297013
46	0xbd909fca	-0.07061727
47	0x3d394b99	0.04523811
48	0xbd5be369	-0.053683672
49	0x3d813704	0.063093215
50	0xbcb19f19	-0.021682309
51	0x3d3a6851	0.04550964
52	0x3d6521ab	0.05594031
53	0xbd056829	-0.032570038
54	0x3d5c3b8f	0.053767737
55	0xbb0aeb47	-0.0021197365
56	0xbd8a42f8	-0.067510545
57	0xbd51fb54	-0.051265076
58	0xbd009070	-0.031387746
59	0x3c739b8d	0.014868629
60	0xbc8848e8	-0.016636327
61	0xbd96737b	-0.07346245
62	0xbd99e08c	-0.07513532
63	0xbc65cfcc	-0.014026593
64	0x3cd5455a	0.026034046
65	0x3c9c8518	0.019106433
66	0xbd6a5e11	-0.057218615
67	0xbd50b227	-0.05095115
68	0x3ceef4c8	0.029169455
69	0x3d94d554	0.072672516
70	0x3cc3f373	0.023919797
71	0x3d91ed37	0.07125323
72	0xbd388d38	-0.04505655
73	0x3ce0327c	0.027367823
74	0x3d0eebdb	0.034892898
75	0x3d95a65a	0.0730712
76	0x3b1a6566	0.0023558973
77	0xbd49ef06	-0.049300216
78	0xbc940655	-0.018069426
79	0xbc647c69	-0.013945677
80	0xbd2f188b	-0.042748015
81	0x3d2f2517	0.04275998
82	0x3d2df94b	0.042474072
83	0xbc2910b4	-0.010318924

weight f4 [84, 84]
0	0x3d2fcfd6	0.042922817
1	0x3d92f65b	0.07175895
2	0x3d8a6798	0.0675804
3	0xbd53fce5	-0.05175485
4	0x3d8e0bf1	0.069358714
5	0xbdcd40cd	-0.100221254
6	0xbda45af7	-0.08025163
7	0xbd674262	-0.056459792
8	0x3dcbda29	0.0995372
9	0xbbcaa691	-0.006184407
10	0x3d88fab3	0.06688442
11	0x3cd6631d	0.026170308
12	0x3d8748df	0.06605696
13	0x3d766c6f	0.060162004
14	0xbce5f8c2	-0.028072719
15	0xbd271b21	-0.040797357
16	0xbda9ec21	-0.08296991
17	0xbbbe9a9a	-0.00581677
18	0xbd68134d	-0.05665903
19	0x3d91ae04	0.07113269
20	0x3c1cbb3c	0.0095661245
21	0xbc26753c	-0.010159787
22	0xbda7fb3b	-0.08202215
23	0x3dc311ae	0.095248565
24	0xbd282994	-0.041055277
25	0xbcd5253e	-0.026018735
26	0x3d9c8f8b	0.07644566
27	0x3dc5ba44	0.09654668
28	0x3d663593	0.056203436
29	0x3db621b1	0.08893145
30	0xbc36fdf8	-0.011168949
31	0xbccd348b	-0.025049469
32	0x3d165602	0.036703117
33	0x3ce057b9	0.02738558
34	0xbd9ed0b2	-0.07754649
35	0x3d8b4f3f	0.06802224
36	0xbd0996fb	-0.03359125
37	0xbda534a8	-0.08066684
38	0x3d53f3ac	0.051746055
39	0xbcf00314	-0.029298343
40	0xbcc4bf0e	-0.024016883
41	0xbdc3f5bf	-0.09568357
42	0xbcb8672b	-0.022510132
43	0x3d997c8d	0.07494459
44	0xbb2c4b11	-0.002628986
45	0xbdca5950	-0.09880316
46	0xbd540d08	-0.05177024
47	0xbd8d6aac	-0.06905112
48	0x3cb45554	0.022013344
49	0x3dc8ce71	0.098050006
50	0x3de7fa9a	0.11327095
51	0xbbd06a62	-0.006360338
52	0x3c9cbc47	0.019132746
53	0x3d076919	0.033059213
54	0x3dfd3bb6	0.123649046
55	0xbc6cc904	-0.014452223
56	0x3bf00fbd	0.007326095
57	0xbd930a4b	-0.071796976
58	0xbdbe2b2f	-0.0928558
59	0xbd35b299	-0.044359777
60	0xbd0b80d6	-0.034058414
61	0x3d270600	0.040777206
62	0x3d39ca28	0.045358807
63	0xbca17f82	-0.01971412
64	0xbdc3741c	-0.095436305
65	0x3d0cf7da	0.034416057
66	0x3b54dd9f	0.003248073
67	0xbd6f7176	-0.058457814
68	0x3daed074	0.08535853
69	0xbda6beca	-0.08141859
70	0xbdab5418	-0.08365649
71	0x3d6f619d	0.0584427
72	0x3dc4cc33	0.096092604
73	0x3c732e4d	0.014842582
74	0x3d92b8f2	0.07164182
75	0x3d99797e	0.07493876
76	0x3c67d004	0.014148716
77	0xbc2288a2	-0.009920271
78	0x3d68e738	0.056861132
79	0x3dcd5b15	0.10027138
80	0x3d765e8a	0.060148753
81	0xbdc8a6a8	-0.09797412
82	0x3dad673b	0.08466955
83	0x3d7c3319	0.061572168
84	0xbda22c16	-0.07918565
85	0x3d85f1c3	0.06540253
86	0xbd13af6a	-0.03605596
87	0xbd40fc04	-0.04711534
88	0x3d5bcca0	0.053661942
89	0x3cc9ea49	0.024647849
90	0x3d0bf5d5	0.03416999
91	0xbd952bc4	-0.07283738
92	0xbd30d8be	-0.04317545
93	0x3cabab22	0.020955626
94	0xbd1ce7dd	-0.03830706
95	0x3d24e39c	0.040256128
96	0xbd214ceb	-0.039379995
97	0x3d634a54	0.055490807
98	0x39aed014	0.00033342896
99	0x3d38497f	0.044991966
100	0x3cbaa221	0.022782387
101	0xbbe83a69	-0.007087041
102	0x3d0b73e0	0.034046054
103	0x3d5460bd	0.05185007
104	0xbd8f50bd	-0.069978215
105	0xbcc058dd	-0.023479873
106	0xbcada5d5	-0.021197239
107	0xbdb506ac	-0.08839163
108	0x3dab2844	0.083572894
109	0x3dc09bcf	0.09404718
110	0xbd1aa68f	-0.0377565
111	0xba7cbf6c	-0.0009641561
112	0xbcb4ab3f	-0.022054313
113	0x3cd0ec0a	0.025503177
114	0x3d686c56	0.056743942
115	0x3ced8645	0.028994689
116	0xbd3ed80d	-0.04659276
117	0x3d1ecf50	0.038771927
118	0x3bc92611	0.006138571
119	0xbdca2339	-0.098699994
120	0x3d16c77e	0.036811344
121	0x3cf1678c	0.02946832
122	0x3c983307	0.01857902
123	0xbcfe20f6	-0.031021576
124	0xbca6da26	-0.020367693
125	0xbbd7ade8	-0.0065820105
126	0x3b9d1ed2	0.004794934
127	0x3d2b357a	0.041799046
128	0xbc9cc60e	-0.019137409
129	0xbd8cc06b	-0.06872638
130	0x3db187a2	0.08668448
131	0xbd3aec9e	-0.045635812
132	0x3ce2e7be	0.027698394
133	0x3d437b3f	0.04772496
134	0xbd134b5f	-0.03596055
135	0xbc7e21a1	-0.015510947
136	0x3da6a05c	0.08136055
137	0x3d824628	0.063610375
138	0x3d1445b3	0.036199283
139	0xbc8aa7e3	-0.016925758
140	0x3b8c0b7b	0.0042738295
141	0xbcef50ad	-0.029213274
142	0x3d4c05d7	0.049810257
143	0xbd1985c5	-0.03748109
144	0xbd5e07be	-0.054206602
145	0x3c95ca3f	0.018284915
146	0xbbb2dc9e	-0.0054584285
147	0xbd74682a	-0.05966965
148	0x3bf2a714	0.007405171
149	0xbcb743a5	-0.022371123
150	0xbdc1d399	-0.09464187
151	0x3d5fe900	0.054665565
152	0x3cbfcb5b	0.023412397
153	0x3d163244	0.03666903
154	0xbd05190a	-0.032494582
155	0x3d9786db	0.073987685
156	0x3d13fb21	0.036128167
157	0xbd319bac	-0.04336135
158	0xbdc3a7f4	-0.09553519
159	0x3d929a8d	0.071583845
160	0xbc17135e	-0.009220926
161	0x3d07d020	0.033157468
162	0x3b2cc491	0.002636228
163	0x3d6be366	0.05758991
164	0xbd2a557e	-0.041585438
165	0xbd35bd6a	-0.044370092
166	0xbd643c1f	-0.0557214
167	0xbd41041f	-0.04712307
168	0xbcd729ef	-0.026265113
169	0xbd51660f	-0.05112272
170	0x3ba40ea7	0.0050066295
171	0xbdc0891a	-0.0940115
172	0xbd20ac44	-0.039226785
173	0xbcf94c26	-0.030431818
174	0x3d2fddeb	0.042936247
175	0xbc2da9d9	-0.010599577
176	0x3d21be53	0.039488148
177	0x3c688ba8	0.014193453
178	0xbda9de72	-0.08294381
179	0xbd3edf64	-0.04659976
180	0x3d4dc172	0.050233312
181	0xbd7c009c	-0.06152402
182	0xbcb62346	-0.022233617
183	0x3ca7bc98	0.02047567
184	0xbb6344d8	-0.0034678485
185	0xbc87d3ec	-0.016580544
186	0x3dd616b6	0.104535505
187	0x3d4de566	0.0502676
188	0x3d4f0987	0.050546195
189	0x3d83e6dd	0.06440518
190	0xbdbd96f5	-0.092573084
191	0xbd9a452d	-0.075327255
192	0x3d73a9ec	0.059488222
193	0x3d818628	0.063244164
194	0xbd859534	-0.06522599
195	0x3d5e6229	0.05429283
196	0xbd0e8de8	-0.0348033
197	0x3d87e303	0.06635096
198	0xbdbb85b7	-0.091563635
199	0xbd395e7f	-0.045256134
200	0xbcc331b5	-0.023827413
201	0xbc3836cb	-0.011243532
202	0xbd4e9e5f	-0.050444003
203	0x3df54877	0.11976712
204	0xbd48ceca	-0.049025334
205	0x3d8e7c0f	0.06957256
206	0xbdc0442a	-0.09388001
207	0xbd09f820	-0.033683896
208	0x3bf8bf9e	0.007591202
209	0x3db248d6	0.087052986
210	0xbcf23f40	-0.029571176
211	0xbd9ba44a	-0.07599695
212	0x3da1e32d	0.079046585
213	0x3d8f6436	0.070015356
214	0x3cd15f54	0.025558151
215	0xbd5e0059	-0.05419955
216	0x3d24caed	0.040232588
217	0x3da656c6	0.081220195
218	0xbd13f7ca	-0.036124982
219	0x3d79eee1	0.06101883
220	0x3b6e2a3a	0.0036341087
221	0x3c094ceb	0.008380155
222	0x3c4366ab	0.011926333
223	0x3d76388a	0.060112514
224	0x3d16fdd8	0.036863178
225	0x3c9b2550	0.01893869
226	0xbd844c65	-0.064598836
227	0x3b0ca87a	0.0021462725
228	0xbcab1b36	-0.020886999
229	0xbda45416	-0.080238506
230	0xbdd8c9b1	-0.105853446
231	0x3a744a05	0.0009318891
232	0xbdd883a1	-0.10571981
233	0xbc41ae2d	-0.011821312
234	0xbd0c3e8a	-0.03423933
235	0xbc553dd9	-0.013015234
236	0x3cfdb8aa	0.030971844
237	0xbc52001c	-0.012817409
238	0xbd938832	-0.072037116
239	0x3d7eb203	0.062181484
240	0xbda9366a	-0.08262332
241	0x3d3c0600	0.04590416
242	0xbddea283	-0.108708404
243	0xbd218a88	-0.039438754
244	0x3d1944c4	0.037419096
245	0xbd9d5daa	-0.076838806
246	0xbb17ab71	-0.0023142959
247	0x3b5feacf	0.0034167056
248	0x3d91fae9	0.071279354
249	0x3dc702f5	0.09717361
250	0xbc7188ca	-0.014742086
251	0x3dbfc377	0.09363454
252	0x3cb13330	0.021630853
253	0xbde6fbef	-0.11278521
254	0x3c2a9061	0.010410399
255	0x3d0ad8e3	0.033898246

bias f4 [84]
0	0x3cbb8b81	0.02289367
1	0x3daee406	0.08539586
2	0xbda36214	-0.07977691
3	0xbd690268	-0.05688706
4	0x3d6c132e	0.05763548
5	0x3da4689a	0.08027764
6	0xbd4057cd	-0.046958733
7	0x3c3e864b	0.011628698
8	0xbda3236c	-0.079657406
9	0x3cf0783a	0.029354203
10	0x3cf38a59	0.029729055
11	0xbd91f147	-0.07126098
12	0x3dc714ca	0.09720762
13	0x3d3c838a	0.046023883
14	0x3cc94cee	0.024572816
15	0x3d26c21b	0.040712457
16	0x3d58d5f4	0.052938417
17	0x3d10bfa0	0.035338998
18	0xbdd08f8d	-0.1018363
19	0xbc9d43e9	-0.019197421
20	0xbd09a4d3	-0.033604454
21	0x3cf4b8c0	0.029873252
22	0xbd5e2a8a	-0.054239787
23	0xbd912b5c	-0.07088348
24	0xbc9149a9	-0.01773532
25	0xbd5261b2	-0.0513627
26	0xbd8b5df8	-0.068050325
27	0xbdbb2ada	-0.09139033
28	0x3c328577	0.010896078
29	0x3d05c341	0.03265691
30	0x3de1626f	0.11005103
31	0x3d654a40	0.055979013
32	0xbd22952e	-0.03969305
33	0xbd9aed0f	-0.075647466
34	0xbc0254d8	-0.007954799
35	0xbd46c2df	-0.048525687
36	0x3d354d0d	0.044262934
37	0x3d92f7d7	0.07176178
38	0xbbac887b	-0.005265293
39	0x3da38ad8	0.07985467
40	0x3ddf0333	0.10889282
41	0xbdc068e0	-0.09395003
42	0x3d0a38ed	0.033745695
43	0xbcdc4d50	-0.026892334
44	0x3da546c8	0.08070141
45	0x3da9e95f	0.08296465
46	0x3d3f4419	0.046695802
47	0x3da22620	0.07917428
48	0xbda02476	-0.07819454
49	0xbd357be9	-0.044307623
50	0xbc860986	-0.016361963
51	0xbdabb218	-0.08383578
52	0xbdaff9eb	-0.0859259
53	0x3cd6952d	0.02619418
54	0xbd9ee9c2	-0.077594295
55	0xbca264fe	-0.019823547
56	0x3d85be7e	0.06530474
57	0x3cd859d1	0.026410015
58	0x39a4c1c9	0.000314249
59	0x3d1b5d27	0.037930634
60	0xbd49722d	-0.049181152
61	0x3c817f83	0.015807873
62	0x3d8a0e75	0.06741039
63	0x3d7b6e5a	0.061384536
64	0x3d5c5b1a	0.05379782
65	0xbdcb0f39	-0.09915013
66	0x3d59506b	0.05305521
67	0xbdc2450c	-0.09485826
68	0xba474b1f	-0.00076024415
69	0xbc912fd2	-0.017722998
70	0x3d7e9850	0.062156975
71	0x3da85ea1	0.08221174
72	0xbdba59c6	-0.09099154
73	0x3dab8f65	0.0837696
74	0x3dac2ee3	0.084073804
75	0xbcefc9a1	-0.029270949
76	0xbda7386e	-0.0816506
77	0x3ce25de7	0.027632667
78	0x3b7c27e1	0.0038475918
79	0xbd77a7e9	-0.060462866
80	0x3cecfa1d	0.028927857
81	0x3d2f5198	0.042802423
82	0xbc16b679	-0.009198778
83	0xbd5f1aa4	-0.054468766

weight f4 [42, 84]
0	0x3d590133	0.05297966
1	0xbcd24221	-0.025666298
2	0xbc84ac86	-0.016195547
3	0x3cea12e1	0.028573455
4	0xbdbbcb5f	-0.09169649
5	0xbd70d830	-0.058799922
6	0x3cfdac61	0.030965986
7	0xbce2892d	-0.027653301
8	0x3ce8c44d	0.028413916
9	0xbd801d8a	-0.06255634
10	0xbdd96b93	-0.10616221
11	0xbda67257	-0.08127277
12	0xbd833989	-0.06407458
13	0x3d9bbc3e	0.07604264
14	0xbd94c2bb	-0.072637044
15	0xbddb3b4d	-0.1070467
16	0x3cc11d51	0.02357355
17	0x3bf30437	0.007416274
18	0x3dcb1632	0.09916343
19	0x3dd22a21	0.10261942
20	0x3db8bf1f	0.090208285
21	0x3d8c3d18	0.0684759
22	0x3def79f5	0.11693183
23	0x3dac7a50	0.08421767
24	0x3db91112	0.09036459
25	0xbbdfbbac	-0.006827792
26	0x3dda08f2	0.106462374
27	0x3ca57602	0.020197872
28	0x3da2846a	0.07935412
29	0x3d29cbbe	0.04145407
30	0x3d9c194f	0.07622015
31	0x3da8ab68	0.08235818
32	0xbdd75afa	-0.10515399
33	0x3d48d041	0.04902673
34	0x3deb7093	0.11496081
35	0x3d4ae9e6	0.04953947
36	0x3db4c2fe	0.08826254
37	0xbcb64c4e	-0.022253182
38	0x3d610504	0.054936424
39	0xbdd63a91	-0.104603894
40	0x3c168284	0.009186391
41	0x3c9ac215	0.018891374
42	0x3cd87643	0.02642358
43	0xbc5fac77	-0.013651959
44	0x3dcded54	0.10055032
45	0x3d6e9cbd	0.058254946
46	0xbdd32b50	-0.103109956
47	0xbd36fb27	-0.04467311
48	0xbdc20856	-0.09474246
49	0xbd0c849a	-0.034306146
50	0xbdc34992	-0.09535517
51	0xbaed0719	-0.001808378
52	0xbd0ce145	-0.03439452
53	0x3d940909	0.07228286
54	0xbbeeda4e	-0.0072892075
55	0x3d92ed64	0.07174185
56	0xbcc34abb	-0.023839345
57	0xbd96f742	-0.073713794
58	0xbcc39c03	-0.023878103
59	0x3d91a4f3	0.0711154
60	0x3cbeb5c8	0.02328004
61	0x3de101bb	0.10986658
62	0xbdc060f7	-0.093934946
63	0x3d8fa413	0.070137165
64	0x3dcbc191	0.09949029
65	0x3dc21615	0.09476868
66	0x3daa735c	0.08322784
67	0xbd2a195c	-0.04152809
68	0x3ca5c742	0.020236615
69	0xbd06a85f	-0.032875415
70	0x3d67859e	0.05652391
71	0x3cb32f79	0.021873223
72	0x3d1946ba	0.037420966
73	0xbdac3512	-0.0840856
74	0x3ce3b152	0.027794514
75	0xbb758db3	-0.0037468493
76	0x3d2f0147	0.042725828
77	0xbc32d907	-0.010916001
78	0x3c85f566	0.016352367
79	0xbd7c89ab	-0.061654728
80	0x3d0001cb	0.03125171
81	0x3dbc984c	0.09208736
82	0x3d9ba701	0.07600213
83	0xbd60563f	-0.05476975
84	0x3cc6001c	0.024169974
85	0xbd6f7cd9	-0.058468673
86	0x3dd2aa9e	0.10286449
87	0x3cac4314	0.02102808
88	0x3d94a33f	0.07257699
89	0xbd6de1f3	-0.05807681
90	0x3d36ac1b	0.044597726
91	0xbdc04452	-0.09388031
92	0x39809c98	0.00024530734
93	0xbd39f3af	-0.04539841
94	0x3dd4df37	0.10394137
95	0xbd347a07	-0.044061687
96	0x3bab3b23	0.0052255555
97	0xbd92781f	-0.071518175
98	0x3c116950	0.008875206
99	0xbdb1c62b	-0.08680376
100	0x3dabd03f	0.08389329
101	0xbd7c4482	-0.06158877
102	0xbdafc37a	-0.08582206
103	0x3de22d9c	0.110438555
104	0x3dd3c4c2	0.10340263
105	0xbdb4d706	-0.08830075
106	0xbd454101	-0.048157696
107	0xbd7661af	-0.060151752
108	0xbd44a78d	-0.04801135
109	0x3d959158	0.07303113
110	0x3da13227	0.07870894
111	0xbdbb25ca	-0.09138067
112	0xbdc45d8d	-0.09588156
113	0x3db974bd	0.09055469
114	0x3db739e3	0.08946588
115	0x3cf820e8	0.030289128
116	0xbda3ccd2	-0.07998051
117	0x3daa4237	0.08313411
118	0x3d9b3e56	0.07580249
119	0xbc71ff28	-0.014770307
120	0x388d32fa	6.732899e-05
121	0x3a2c72b1	0.00065783696
122	0xbdc24cd7	-0.09487312
123	0x3d96ad69	0.07357294
124	0xbd62ac6e	-0.055340223
125	0xbd7200a0	-0.059082627
126	0x3dcbcdc0	0.09951353
127	0xbdaf8b81	-0.0857153
128	0x3d8f8ad6	0.07008903
129	0xbdaf8cf2	-0.08571805
130	0x3d214c46	0.03937938
131	0xbd388cec	-0.04505627
132	0xbd994738	-0.07484287
133	0x3daa6a6c	0.083210796
134	0xbd9c1e4a	-0.07622965
135	0xbdc4ffe5	-0.096191205
136	0xbd28fb5f	-0.04125535
137	0x3d8b96f1	0.06815899
138	0xbc06c8f8	-0.008226626
139	0xbd4f15bc	-0.050557837
140	0xbd40b54c	-0.0470479
141	0xbcc6fa79	-0.024289357
142	0x3c9b1546	0.018931042
143	0xbd6ebde1	-0.05828655
144	0x3d9f40f6	0.07776062
145	0x3d01e630	0.031713665
146	0xbd156e12	-0.036481924
147	0x3d2598a8	0.040428787
148	0xbd8b9160	-0.068148375
149	0xbddfabd8	-0.109214485
150	0x3d171f74	0.03689523
151	0xbd258770	-0.040412366
152	0xbd71a9aa	-0.058999695
153	0x3c3972db	0.011318888
154	0xbccb21fb	-0.024796477
155	0x3da3948f	0.0798732
156	0x3d6fab04	0.058512703
157	0x3d9baebf	0.076016895
158	0x3de5db52	0.11223473
159	0xbcb654a0	-0.02225715
160	0x3cd8dbb2	0.026471946
161	0x3d9f1e25	0.077694215
162	0x3d987368	0.07443887
163	0x3d9fadb8	0.07796806
164	0x3d192975	0.037393052
165	0xbd9297cc	-0.07157859
166	0xbc287883	-0.0102826385
167	0xbd81b7d5	-0.06333891
168	0x3daac68f	0.08338653
169	0xbc6a6fd3	-0.0143088875
170	0x3ce17dce	0.027525809
171	0x3c99cd45	0.018774638
172	0xbd86c607	-0.065807395
173	0xbdbdbd41	-0.09264613
174	0xbdbf0726	-0.09327535
175	0x3dcac405	0.09900669
176	0xbbbce3a6	-0.0057644425
177	0xbd9eb55b	-0.077494346
178	0xbda9f114	-0.08297935
179	0xbda8afae	-0.08236633
180	0x3dc2e303	0.09515955
181	0xbd706567	-0.058690455
182	0x3c2c4d2c	0.010516446
183	0xbd937149	-0.07199342
184	0x3b681999	0.0035415648
185	0x3da783e7	0.08179455
186	0x3c25a289	0.010109552
187	0x3aae7420	0.0013309754
188	0xbc998953	-0.01874224
189	0x3d8b606a	0.06805499
190	0x3d98f1b0	0.07467973
191	0x3d8ce318	0.06879252
192	0xbda0626e	-0.07831274
193	0x3dea0b55	0.11427943
194	0xbc4c55bc	-0.012471613
195	0xbc271532	-0.010197924
196	0xbda5204b	-0.080628
197	0xbdaa3a9e	-0.083119616
198	0xbc84180e	-0.016124751
199	0xbce96f6f	-0.028495518
200	0x3da7021f	0.081547014
201	0x3d797a2f	0.06090754
202	0x3d8cc992	0.06874384
203	0xbaf708b1	-0.0018847195
204	0x3de66790	0.11250222
205	0xbcea7afa	-0.028623093
206	0x3d9cd984	0.07658675
207	0x3de7148d	0.112832166
208	0x3dd8cd14	0.105859905
209	0xbd289316	-0.041155897
210	0xbca48feb	-0.020088157
211	0xbdd73b65	-0.105093755
212	0x3dd3f875	0.10350124
213	0x3ddce584	0.10785964
214	0x3db42ba5	0.08797387
215	0xbde3a42e	-0.11115299
216	0xbd307b8d	-0.043086577
217	0x3ce40fd1	0.027839573
218	0x3bf1e5e8	0.0073821433
219	0x3d054eee	0.032545976
220	0x3dd15d62	0.102228895
221	0xbcb78b9b	-0.022405436
222	0xbb10ccac	-0.002209465
223	0x3d2da491	0.04239327
224	0xbd6c8341	-0.05774236
225	0xbd336722	-0.043799527
226	0xbd253e30	-0.04034251
227	0xbdb0ecb2	-0.08638896
228	0xbdcf9af9	-0.101369806
229	0x3da91f23	0.08257892
230	0xbc290ecc	-0.010318469
231	0x3c16dca8	0.009207882
232	0x3dd914bf	0.1059966
233	0xbd9d95c0	-0.07694578
234	0x3db4cd83	0.08828261
235	0x3d02b103	0.031907093
236	0xbdc5fde0	-0.096675634
237	0x3d7aae57	0.06120142
238	0x3d8963d1	0.067084916
239	0x3bcae172	0.006191426
240	0x3ce758a0	0.028240502
241	0xbc962d06	-0.018332016
242	0x3ca85a89	0.020550983
243	0xbba5c202	-0.005058528
244	0x3d64cdca	0.05586032
245	0xbca5eb10	-0.020253688
246	0x3ab1c0fd	0.0013561543
247	0x3d6f2e74	0.05839391
248	0xbcbc37d8	-0.022975847
249	0x39df51e0	0.00042594876
250	0xbd5cc7bd	-0.053901423
251	0x3da531ef	0.08066165
252	0x3dc27902	0.09495737
253	0xbd724261	-0.059145335
254	0xbc6ef7ab	-0.014585416
255	0xbd538a9c	-0.05164586

bias f4 [42]
0	0x3d8bd401	0.06827546
1	0xbd723af1	-0.059138242
2	0x3d3856da	0.045004703
3	0x3d6fce79	0.058546517
4	0xbc44f626	-0.012021577
5	0x3dedd2e7	0.11612492
6	0xbd030a30	-0.031992137
7	0xbd96126f	-0.07327735
8	0x3d2d9441	0.042377714
9	0xbc537405	-0.012906079
10	0x3cde49f2	0.02713487
11	0x3d6d2925	0.057900567
12	0x3d95acab	0.073083244
13	0xbcdaa3e7	-0.026689483
14	0x3be26b74	0.006909782
15	0x3c32bf09	0.010909804
16	0x3d9bdc36	0.07610361
17	0x3d972855	0.073807396
18	0x3d1d4894	0.038399294
19	0x3d923d40	0.07140589
20	0x3dd83a42	0.10557987
21	0xbdab5d02	-0.08367349
22	0x3db7e226	0.08978681
23	0xbd5e4d55	-0.05427297
24	0xbd377a93	-0.04479463
25	0xbd7c11e4	-0.0615405
26	0x3d06b4ff	0.032887455
27	0xbcf55ae0	-0.02995056
28	0xbd5a8f0e	-0.053359084
29	0x3d86173f	0.065474026
30	0xbade3d9f	-0.001695562
31	0x3d853425	0.065040864
32	0x3c9fc9e5	0.01950545
33	0x3d170f73	0.036879968
34	0x3d85d927	0.06535559
35	0x3c0f0ff2	0.008731829
36	0x3c1b8831	0.00949292
37	0xbda0146a	-0.07816394
38	0x3de07a28	0.109607995
39	0x3db24a6f	0.08705603
40	0x3d7c8e93	0.061659407
41	0x3dd4fcbb	0.10399767

weight f4 [1, 42]
0	0x3c07b289	0.008282312
1	0x3ce4b4b6	0.027918201
2	0xbcdc7339	-0.026910411
3	0xbd6f504b	-0.058426183
4	0x3b03839e	0.0020067464
5	0x3d06ec80	0.032940388
6	0xbdde180b	-0.108444296
7	0xbd7d8b1a	-0.061900236
8	0xbd9935c1	-0.07480956
9	0xbc068216	-0.008209726
10	0x3c9d8f43	0.019233352
11	0xbd021489	-0.031757865
12	0xb7ae6ab8	-2.0792111e-05
13	0xbc931492	-0.017954145
14	0xbdd501e2	-0.1040075
15	0xbbf1fa03	-0.00738454
16	0x3d9f7bee	0.077873096
17	0xbccfa7f4	-0.025348641
18	0xbd98bafd	-0.0745754
19	0xbd8c05a5	-0.06837014
20	0x3e064226	0.13111171
21	0x3d3a2a63	0.04545058
22	0x3ce2e95b	0.027699163
23	0xbcb78fb4	-0.02240739
24	0xbd3cb1b4	-0.04606791
25	0xb9883b2f	-0.00025984037
26	0x3d948700	0.07252312
27	0xbd21c5f9	-0.039495442
28	0xbbcc76d3	-0.006239751
29	0x3d817c2b	0.06322511
30	0xbde687b7	-0.11256354
31	0xbd7f9f9d	-0.06240808
32	0xbc6da0dd	-0.014503685
33	0x3da66773	0.081252
34	0x3b9b3609	0.004736666
35	0xbdddac96	-0.10823934
36	0xbbb3eb16	-0.005490671
37	0xbd165b2a	-0.036708035
38	0x3c6e6351	0.014550046
39	0xbdb802de	-0.08984922
40	0x3da85bea	0.08220656
41	0x3df88708	0.1213513
