ModelUnpredictability/one_thousand_brains/predictor_75.model (torch_old, 109395 bytes, 7 tensors)

weight f4 [84, 168]
00000000: 7164 493d 8e49 7d3d 97c5 75bd 456f c8bc
00000010: ca55 333d 19d1 a139 91fd 8b3d 1f84 d63b
00000020: a195 6c3d f977 03bb d22a 823d 15ac c13c
00000030: 8a12 99bb 8929 7c3c f761 3dbb 1244 c03c
00000040: ad48 28bd 5e31 a0bc 9715 69bd 875b e83c
00000050: 1ac7 353d da26 22bd 6d49 3fbd 1778 28bd
00000060: a19e 0e3d ee5d 57bd 9b9c aebc 48b0 123d
00000070: d4ab 6bbd 0ef1 c23c bce3 3fbd a218 6c3d
00000080: 1010 cb3b 97f3 89bd d4b0 023d 47cc 8c3d
00000090: c1ec 823d 9e64 6b3d 86ad 463d cbb9 efbc
000000a0: 63ee 3d3d 02c1 8ebb d7b1 8fbd 098f 44bd
000000b0: 9096 8abc 150c 493d d703 28bd b6be 873b
000000c0: 9be5 a03c 75dd 5cbc 6355 833d 1ab7 a23c
000000d0: 0bfb 393d b484 123d a69d 6ebd 160b d6bb
000000e0: 429d 903d f2bf 86bd 8695 373d db04 7fbd
000000f0: 6fd7 673d bd53 6bbc 7d0a 85bd 149b 8d3c
00000100: 3816 e4bc 8cc9 9abd c9ed d13c d65c 823c
00000110: 4d15 f2bc 4289 1cbd 82e8 133d c7cc ab3c
00000120: ba67 26bd a48f a0bd 1930 5a3d f860 2dbd
00000130: 92cc 9d3c 6221 233d e9f0 883d 01b4 9dbd
00000140: d885 b2bc 30f2 913b 5ef4 8dbd 9293 6cbd
00000150: 1f94 9abd 74ec 073c 7a83 30bd c55c f2bc
00000160: d58f 843d 390f 67bc 1ffb 2abd 144a f9bc
00000170: cc2c 5bbd 56e5 213d 1b41 483d 240b 1bbd
00000180: 8b4d 9d3c 7fc5 533d baf6 19bd 42cb 4e3b
00000190: d2ce 7b3d 66a5 56bd 7831 18bc 6ff5 f83c
000001a0: 61ef 083d 62ee 55bd aec0 5ebc e194 60bd
000001b0: 8a79 27bd 7a80 79bd eb8b 76bd 890d 41bd
000001c0: 6ed9 4e3d cbff 8dbc 7416 843d c4de 553d
000001d0: 6dc4 583d ffb4 023d f8fb f93b 4f7b 7dbd
000001e0: 3664 163d 6644 9ebd edda 84bd fd26 e03c
000001f0: 4cd9 9dbd dd35 223d eb5c 60bd ea14 2cbc
00000200: b95d 64bd eeb0 80bd 5613 96bc 5701 fd3b
00000210: 5cc4 e43b b353 883c bb56 723c 5342 93bd
00000220: ed58 413d edd9 ed3c 93e3 4cbd 579d 813d
00000230: c57b 143c b1d9 90bd 8d61 163b a84f 98bb
00000240: 8907 8abd a543 91bd b0f6 40bd f777 273c
00000250: 7575 833d 7e0d a7bc 959a 98bd c45f cdbc
00000260: e300 c43c 951d c7bb 2b95 9bbb cf25 7e3c
00000270: 5311 a2bc 9c9f cc3b 6247 853d 7516 9b3c
00000280: 9a05 25bd ff0d 053d 30b5 443d 18f7 c53c
00000290: 21e3 2b3c 5193 74bd 9576 97bc b0ae 8abd
000002a0: 3959 ef3c f155 a0bc dbe8 dc3b 1713 043d
000002b0: b56b 213c a7f1 eebc feaa f5bc 6da4 353c
000002c0: 57ec 0dbd b779 a73b 0750 723d e3ea 4bbd
000002d0: 1544 2b3d eb26 27bd 0bbc 883d 2dfc 32bc
000002e0: 538e a53b 1db8 cc3b b6d2 8abc f167 8fbd
000002f0: 31c8 dabc 788a 7a3d 4727 09bd d2cd e7bb
00000300: b75c 93bd 67b7 2cbd 3e06 85bc b427 07bc
00000310: c5e7 c2bc 854a 21bc 2907 943d 1b2a 2d3c
00000320: 1eed 4c3d fb89 12bc 7327 2fbd 3710 853d
00000330: e1e8 153d 6283 a73d c76b bdbc 6cd9 e8bc
00000340: 9d5f 453d e76f ca3b ef58 4e3b 54c3 023d
00000350: 2109 cb3c f558 123d 59f2 883d ed6b 71bd
00000360: 634c 8b3d a4fc bdbc 16a3 3ebd e54c 4dbd
00000370: 75c1 9c3d 2721 57bc 6048 033c 7e81 ea39
00000380: c9a2 843c c35c c73c 5d8f 4e3d 264e f1bc
00000390: 2904 023b 5917 613c c651 b0bc 9cb7 8b3c
000003a0: 28dd f73c 53ba 8b3c 3a1b a03d 6f72 f43c
000003b0: 15e7 b8bb 6648 57bd 0088 dabc 9ba9 cfbc
000003c0: c86c 51bd 3c97 04bd 6259 01bd 8965 d63b
000003d0: 5fc1 013d a331 efbc f333 963d 8312 5d3d
000003e0: 5a50 623c 8e49 973b 9813 fb3c 092f 1bbd
000003f0: 13df 483c 9d11 a13d 77fe 83bd 831d d3bc
0.049168054 0.061837725 -0.06000289 -0.02446712 0.043782987 0.00030864103 0.06835473 0.006546512
0.057759885 -0.0020060523 0.063558236 0.023641625 -0.0046713995 0.015390762 -0.0028897503 0.023469958
-0.041084934 -0.01955479 -0.056905355 0.028363956 0.04437933 -0.039587833 -0.046700884 -0.04113015
0.03481925 -0.052579813 -0.02131491 0.035812646 -0.057536915 0.023796584 -0.046848044 0.05764068
0.006196983 -0.06735914 0.031906918 0.068749 0.063928135 0.057469003 0.04850533 -0.029263398
0.04636992 -0.0043565044 -0.07016342 -0.04798797 -0.016917497 0.049083788 -0.041019287 0.0041426076
0.019640734 -0.013480534 0.064127706 0.0198627 0.04540543 0.035771087 -0.058255814 -0.0065320833
0.070612445 -0.065795794 0.04482033 -0.06226049 0.056601938 -0.0143632265 -0.06496141 0.017285861
-0.027842626 -0.07557973 0.02562608 0.015913408 -0.029551173 -0.038216837 0.03611041 0.020971669
-0.040626265 -0.07839897 0.053268526 -0.042328805 0.019262586 0.03982676 0.06686575 -0.07700349
-0.021792337 0.00445392 -0.06931375 -0.05775792 -0.07547783 0.008296121 -0.043094136 -0.029585252
0.06472746 -0.01410275 -0.041743394 -0.030430831 -0.05350952 0.039525352 0.048890214 -0.03785242
0.019202014 0.05170202 -0.037588812 0.0031554257 0.061476536 -0.05240383 -0.009289138 0.03039047
0.033431415 -0.052229293 -0.013595743 -0.054829482 -0.040887393 -0.06091354 -0.06019203 -0.04713205
0.050500326 -0.017333886 0.06449595 0.0522144 0.0529217 0.031910893 0.007628914 -0.061885174
0.036716662 -0.0772789 -0.06487069 0.027362341 -0.07707462 0.03960215 -0.054776113 -0.010503033
-0.055753443 -0.06283747 -0.018319767 0.007721107 0.0069814157 0.016641473 0.014791186 -0.07190385
0.047203947 0.02903458 -0.05002172 0.06328838 0.009062712 -0.07072771 0.0022946328 -0.0046481676
-0.067397185 -0.0709298 -0.04711026 0.010221473 0.064188875 -0.020392176 -0.07451359 -0.025070079
0.023926204 -0.0060765245 -0.004748007 0.015511944 -0.019783651 0.006244613 0.06507756 0.018931607
-0.040288545 0.03248405 0.048024356 0.024165675 0.0104911635 -0.059710804 -0.018489162 -0.067716
0.02921735 -0.01957223 0.0067416257 0.032244768 0.0098523395 -0.029167963 -0.029988762 0.011086565
-0.03464922 0.005110945 0.05915835 -0.049784552 0.041812975 -0.0408086 0.06676491 -0.010924381
0.0050523668 0.006247534 -0.016946178 -0.07002247 -0.026706787 0.06116721 -0.033484723 -0.0070740962
-0.07195418 -0.042167094 -0.016238328 -0.008249212 -0.023792157 -0.009844427 0.07227928 0.010569121
0.05003082 -0.00894403 -0.04276223 0.06497233 0.036599044 0.08179356 -0.023122681 -0.028423987
0.048186887 0.0061778906 0.0031486114 0.03192456 0.024784626 0.035729367 0.06686849 -0.058940817
0.06801679 -0.023191758 -0.04654225 -0.05012216 0.076540865 -0.013130463 0.008012861 0.00044728437
0.016190903 0.024336224 0.05042969 -0.02945621 0.0019838905 0.013738477 -0.021523368 0.017055325
0.030256823 0.01705662 0.07817693 0.029839722 -0.0056427815 -0.05255928 -0.026676178 -0.025349429
-0.051129133 -0.03237079 -0.031579383 0.0065428657 0.031678554 -0.029198473 0.07334127 0.053972732
0.013813103 0.0046169227 0.030648991 -0.037886653 0.012260216 0.078646876 -0.0644502 -0.025770908

bias f4 [84]
00000000: 0be2 263d 4768 ebbc 58f6 7ebc b142 2dbd
00000010: e524 263c 63df a53c fc03 78bd 7b01 873d
00000020: 0ed0 693b 4b23 0b3d 02ff 96bd 6662 84bc
00000030: 93c2 afbc 32f0 60bd 8592 96bd eff2 16bd
00000040: e66e 233d 60fb 97bd f7fa 08bd 794a 1fbd
00000050: 148d 863a d6b0 2ebd baad a4bc beba 3bbd
00000060: 9603 a1bc cca7 9bbd ff46 22bd da78 4dbd
00000070: fd79 9cbd d6cc e23b fa11 2f3d 33cc 8bbc
00000080: 466e dc3c 1c79 1d3b 1c6b 563d b03e 383d
00000090: 421f b1bc d043 0e3d 0a72 3cbd 0c80 edbc
000000a0: 5a25 0d3c 4113 943d 7bae 883d ca3d f23c
000000b0: f01c 02bd 1199 17bd 46f2 123d dd7a fe3b
000000c0: 7ae2 d3bc f773 b3bb a7ca 863d 2be0 30bd
000000d0: 5029 943d 6e6e 253d b407 38bd b270 913d
000000e0: 1a90 993d 8223 5dbd 89e8 9abc f61e 733d
000000f0: 06ef a13d cab7 0cbd 0e38 05bd 2178 bebb
00000100: 5a1e 08bc 06a5 35bd f320 e83b e40f e9bc
00000110: 63ba 31bd a249 d53c e2e2 52ba 846a cdbc
00000120: 8f88 dfbc 24c8 8ebc 2b72 79bd 9ec0 e8bb
00000130: a675 39bc b555 32bc ed5d 5fbc 23d2 243d
00000140: 6fe6 61bc 8253 b23c 020e 9a3d 2994 863d
0.040742915 -0.028736247 -0.015561663 -0.04229993 0.010140632 0.02024812 -0.060550675 0.06592079
0.0035676989 0.033969205 -0.07372858 -0.016160201 -0.021455085 -0.054916568 -0.07352165 -0.036852773
0.039900683 -0.07420993 -0.033442464 -0.038889382 0.0010265433 -0.042649113 -0.02010237 -0.045832388
-0.01965503 -0.07600364 -0.03961849 -0.05016408 -0.07640455 0.006921391 0.042741753 -0.017065143
0.026908051 0.0024028486 0.05234824 0.04498166 -0.02162135 0.03473264 -0.046007194 -0.028991722
0.008614862 0.07230235 0.066739045 0.029570479 -0.03176588 -0.03701121 0.03587558 0.0077661113
-0.025864828 -0.0054764706 0.065816216 -0.043182533 0.07234442 0.040388517 -0.04492922 0.07101573
0.07498188 -0.05398894 -0.01890971 0.0593557 0.07906918 -0.034354962 -0.03252416 -0.0058126603
-0.008308018 -0.04434683 0.007084006 -0.02844996 -0.043390643 0.026036087 -0.00080446724 -0.025075205
-0.027286796 -0.017429419 -0.060899895 -0.00710304 -0.0113195535 -0.010884692 -0.0136332335 0.040239464
-0.01378785 0.021768335 0.07522203 0.06571228

weight f4 [84, 84]
00000000: 88d0 473d 6766 36bd de8d 89bd cde3 033d
00000010: 090f 45bc 14a1 94bc 1762 20bd 147b 753c
00000020: cfae 1a3d 799a a63c 4d4d 93bd cb59 4abb
00000030: 76a3 9a3d ba23 10bd b516 89bd ebff 33bc
00000040: 2fa8 123d 5297 d23d 13ec d3bd 019f 4bbd
00000050: dc79 813c 46da 883b 8e40 b63d 46b4 7fbd
00000060: ebc8 873d e763 57bd bb69 b5bd eb81 853d
00000070: c1ea 043d 8660 b93d c7d4 8cbd 7395 433d
00000080: 6f81 a93d 3ec6 d03b 61db c6bc 48ff b33c
00000090: 653f 233c 7029 56bd bf29 743d 9189 92bd
000000a0: d5f5 b2bd 96bd 2e3d 8435 a23c 8359 81bd
000000b0: 249a c13d fcfb 9fbc e098 cd3b 2790 b1bd
000000c0: d0d8 653d e596 353d ad7c c73c e8fd 163d
000000d0: 2d96 16bd f4c7 443d 3d50 3a3d 87d4 53bc
000000e0: 6723 be3d 56d3 0abd 55f3 2d3d 32e8 0cbd
000000f0: 6080 c2bd 60d8 cb3c 2c41 8bbd bb29 8e3d
00000100: 70be b33b 6ef8 9a3d f485 a13d e129 a2bd
00000110: 0a5e 573d c423 853d 8184 83bd c7da 83bc
00000120: 6762 ecbd ece9 9cbd 064d 12bd d3e4 463d
00000130: 4817 23bd 721b 0e3d b271 c13d 832e c7bb
00000140: bbe4 fd3c a4cc a83d b796 bc3d 624e 68bd
00000150: 343e c1bd 89eb 4a3d 01c3 823d b64c a53d
00000160: a957 c33c a0cb 8e3d c115 883d b4cb b63c
00000170: 7146 cf3b 7c1d 65bc 18ca a7bd d8be ad3d
00000180: bea1 66ba 8686 4fbd 94c2 c3bc e357 abbd
00000190: 75e8 4e3d 1651 293c d5a1 353d 27b3 7f3d
000001a0: 362f 87bd 67fc cb3c f729 24bd f131 8bbd
000001b0: a890 29bd 08cb b5bc 4f2e 963d 1614 cb3d
000001c0: 8bfa 1fbd dfc3 c23d 2aa7 0abd e429 a1bd
000001d0: d0e1 94bc 6306 883d b0a5 6b3d 81a9 383d
000001e0: a1bb c63c c135 813c c472 c43d 6f97 4c3d
000001f0: 6ca1 0d3d a133 8fb9 5aaa dd3c b3db ea3d
00000200: a372 663d 9e6f e3bd 100c 2abd bfd9 d63d
00000210: a979 0e3d 61a6 4a3c fcc4 113d 48b2 cbbd
00000220: 1d4b cb3d 4c06 b43d e1bb cabb 270b babc
00000230: 052b 373c f58d e8bc d0f1 513d 3097 603d
00000240: ed5a 44bd 3ec8 b53d 7439 e5bc f00f 53bd
00000250: 5e64 a13d 2505 0bbd 5b02 8b3d bb4a a13d
00000260: 9336 3dbd 4843 e63d ead0 9e3d 7406 c53c
00000270: 4793 5739 65ba 613d 5d76 c83d fc84 3c3c
00000280: b65a c53d 66eb cebc 9c65 9abc 9f13 ab3d
00000290: aa08 093c 8691 38bd a833 cb3c 6bb6 803d
000002a0: 2aac aebc 7387 00bd fd88 4f3d 2913 f3bc
000002b0: 8f16 b03d a7bf d33d 1a79 863d 7979 92bd
000002c0: d5f3 503d 6f25 063c bcb8 253d 97b0 99bd
000002d0: 69fa b13c 7d7c bfbd b867 79bc b008 6e3b
000002e0: 040f b0bd b671 eb3c df2a 823d 7e3c 15bd
000002f0: 6db4 433d 75bc b03c 1558 57bd 493a b53d
00000300: 7858 8dbd 255f 1ebd db20 603d 07ec e8bc
00000310: 3d7e 34bd a742 e4bc ab1f 783d 2235 82bd
00000320: 6ad6 8a3d 8910 a6bb 4bc9 c7bb bb5b f9bd
00000330: 22c4 923d 8efe 84bd b93f 63bd 3c91 583d
00000340: d996 803a 9bbc 6bbd 398e de3d 1877 2fbb
00000350: 19e2 b03d feae afbd 46e6 b6bd af6a d7bc
00000360: bd60 353c ef74 d1bb 7ee6 8bbd a504 c5bd
00000370: d5e2 bbbd ec2f 07bd ce89 d33d 262b 0b3d
00000380: 3784 bf3d 2567 a13d fcfd e8bc 812f ddbd
00000390: 3054 bd3d 464f ac3d d20a 783d a36b 063d
000003a0: ba89 0fbd 544c f03c c7ea 9ebd 3c0b 8c3d
000003b0: 2bf3 433c 9f2f 493d 7534 a3bd 5e68 17bd
000003c0: 2ddd eebc 6910 77bd 4b07 a7bd cae7 e63c
000003d0: ea7d af3d 4a11 c43d 3c23 2c3c 1875 be3d
000003e0: cec5 a33d cdcf b63d d205 c2bc 9a0d 31bd
000003f0: bbeb 6abd a90b ec3c c769 cdbc 3d27 2bbd
0.048782855 -0.044531252 -0.06716512 0.03219967 -0.01202751 -0.018143214 -0.039156046 0.014982957
0.037764367 0.02033733 -0.07192478 -0.0030876275 0.07550709 -0.03519032 -0.06693784 -0.010986309
0.035804924 0.10282768 -0.10347762 -0.049712185 0.015805177 0.004176411 0.088990316 -0.06242778
0.06630119 -0.05258551 -0.08858057 0.065189205 0.03245044 0.090516135 -0.068765216 0.047749948
0.082766406 0.0063712886 -0.02427453 0.021972314 0.009963845 -0.05228561 0.059610125 -0.07155145
-0.08738295 0.042661272 0.019800909 -0.06315901 0.09453228 -0.019529335 0.0062743276 -0.08670073
0.05611497 0.044333357 0.024351442 0.036863238 -0.036764313 0.048042253 0.045486677 -0.012929088
0.09284096 -0.033892952 0.042468388 -0.034401126 -0.09497142 0.02488345 -0.0679954 0.06941553
0.0054853484 0.075669155 0.07886878 -0.07918144 0.052579917 0.065009624 -0.064217575 -0.016095532
-0.11542206 -0.076618046 -0.035717987 0.048558068 -0.039817125 0.034694143 0.09445514 -0.0060785427
0.030992856 0.08242157 0.09208434 -0.056715377 -0.094356924 0.04954103 0.0638485 0.08071272
0.02384551 0.06972432 0.06644774 0.02231393 0.006325536 -0.01398408 -0.08192843 0.08483666
-0.0008797905 -0.0506654 -0.023896493 -0.083663724 0.050514657 0.010334274 0.04434379 0.062426712
-0.06600802 0.024900628 -0.040079083 -0.06796635 -0.04139772 -0.02219154 0.073330514 0.099159405
-0.039057296 0.09510016 -0.033850826 -0.07869318 -0.018174082 0.06641843 0.05753106 0.045083527
0.02425939 0.015772702 0.09592202 0.049949106 0.034577772 -0.00027313552 0.027058769 0.114676856
0.05626167 -0.11105274 -0.04151541 0.104907505 0.034783993 0.012368769 0.03558825 -0.09946114
0.09926436 0.087902635 -0.0061869477 -0.022710396 0.01117969 -0.028388003 0.051256 0.054831684
-0.047938276 0.08876084 -0.027981497 -0.05152887 0.07880472 -0.033940453 0.06787559 0.07875582
-0.046194624 0.11243302 0.07754691 0.024050929 0.00020558863 0.0551094 0.09788201 0.011506315
0.09636442 -0.025258731 -0.01884728 0.08353352 0.008363882 -0.045060657 0.024804905 0.062847935
-0.021322329 -0.031379174 0.05066775 -0.029672222 0.08598053 0.10339289 0.06566067 -0.07152075
0.051013786 0.008187636 0.04045938 -0.07504385 0.02172585 -0.09349916 -0.015222482 0.0036321096
-0.08596614 0.028740745 0.06355833 -0.036434643 0.04777949 0.021574238 -0.052574236 0.08849008
-0.0690164 -0.038664956 0.054718833 -0.02843286 -0.044065703 -0.027863814 0.060577076 -0.063577905
0.067791775 -0.005067889 -0.006096994 -0.12175699 0.071663156 -0.06493865 -0.055480693 0.05287288
0.0009810581 -0.057552915 0.108669706 -0.0026773866 0.08636875 -0.08578299 -0.0893064 -0.026295988
0.0110704275 -0.0063921134 -0.06831072 -0.096200265 -0.09174124 -0.033004686 0.103290185 0.033976696
0.0935139 0.078810014 -0.028441422 -0.10800076 0.09244573 0.08413558 0.060557194 0.032817494
-0.035043456 0.029333271 -0.07759624 0.0683808 0.011959831 0.04911768 -0.0796899 -0.036964767
-0.0291582 -0.060318384 -0.08155688 0.028186698 0.08568938 0.0957361 0.010506447 0.092996776
0.079967126 0.089263536 -0.023684416 -0.043225862 -0.057353716 0.028814154 -0.025074853 -0.041785467

bias f4 [84]
00000000: 0dff 17bd a2c0 40bd fad6 b83d 18fd e7bc
00000010: 00b6 183d 8afa 083d ddad d4bc c20f e2bb
00000020: 8b30 74bd dcd1 78bc aa02 aa3d 254c af3a
00000030: 5bbf 33bd fc95 9dbc 3359 eabc ac2f b0bd
00000040: 648e 5a3d 8771 b93d 881b 3bbd e858 1e3d
00000050: 7508 043d 93b2 12bd 3ea1 85bd 55bf c43c
00000060: ce22 5aba e810 78bd 15e4 13bd 9f7c 9b3d
00000070: 0b3e b1bb 9de1 b83d 3c72 853d 1291 cdbc
00000080: 9233 a43d 837d bd3d 6601 b7bd d0a2 d2bd
00000090: f6ef 9a3c 0f15 bbbd 04d1 233d 0b0b 10bc
000000a0: b59c 953d dbff c53d 8714 833d 6923 9ebd
000000b0: 2141 b33d 3fcd 9fbd 4a4a 5b3d 1a78 6cbd
000000c0: 18f3 01bd 4846 83bd 443c f3bc 0177 d0bc
000000d0: 14d5 063d 0811 4fbd 835f 1b3d 50e1 633d
000000e0: a804 2fbd 94b2 16bd f38d c1bc 5405 653c
000000f0: 11d9 503d b53c 303d 19d7 87bc 49e0 883d
00000100: 489f 8cbd 1c07 a3bd 0c8b 893d 3175 9e3d
00000110: 88d8 f8bc 04b1 d7bd dad6 013d be67 ca3d
00000120: b6eb 73bb 28da cbbd ff3c 34bd 2866 13bd
00000130: c3d2 cbbc f744 d4bb fa34 973c b35b b43c
00000140: 6551 c33c 1baf acbd c772 9a3d 2ad7 c53d
-0.03710847 -0.04705871 0.090253785 -0.028318927 0.037282944 0.033442058 -0.02596181 -0.006898851
-0.059616607 -0.015186753 0.083012894 0.0013374133 -0.043883663 -0.019236557 -0.028606987 -0.08602843
0.05335845 0.09054857 -0.045680553 0.038659006 0.032234628 -0.035814833 -0.06524895 0.024017015
-0.00083212263 -0.060562998 -0.036106188 0.07592129 -0.0054090074 0.09027407 0.06515929 -0.025093589
0.08017649 0.09252455 -0.089358136 -0.1028496 0.01891325 -0.09134876 0.039994255 -0.008791695
0.0730528 0.09667941 0.064004 -0.07721598 0.08752657 -0.078028195 0.053537644 -0.057731725
-0.031725973 -0.064098895 -0.029691823 -0.02544737 0.03291805 -0.05055335 0.037932884 0.055634797
-0.04272905 -0.0367914 -0.023627257 0.013978321 0.05098826 0.043026645 -0.016582059 0.06683404
-0.06866318 -0.079603404 0.06715974 0.07737196 -0.030376688 -0.1053181 0.03169904 0.098830685
-0.0037219352 -0.099537194 -0.044003483 -0.035986096 -0.024880772 -0.006477948 0.018457878 0.022016382
0.023842523 -0.08431836 0.07541423 0.0966018

weight f4 [42, 84]
00000000: 7e4e 12bd 78aa 3dbd e608 a03d 45a8 c53d
00000010: bc9d 253d 57ed 553d a113 0dbd bdf5 cb3d
00000020: 8e58 e0bd 20bb 603d 3980 b23d 0747 eebd
00000030: 3001 3a3d 879d 47bc 1b6c 7ebd 1f7d cd3c
00000040: 3a11 c5bc 1914 643d ece8 91bd 5efe 9fbd
00000050: 9557 b8bc 5f12 37bd 3788 3abd e451 a03c
00000060: e5b1 203d 541c dc3d c54c af3d 6896 0bbd
00000070: 2b2e 9c3d c2d2 453c e6a6 a6bd 50b0 953d
00000080: 1c24 a33d 13cb 0d3d 6bcc e23c 7b76 01bc
00000090: 9ba5 883d 5394 843d a62d 95bd 8000 b43d
000000a0: a12e 703c 2c97 05bd c8ca dfbd 450f 3b3d
000000b0: 9b6a 08bd f036 b3bc f48d d7bc f8fd ed3c
000000c0: f9e1 813d b2bd d4bb e6ed 81bd d520 c93d
000000d0: 4075 93bc 887f c4bd 5224 c03a 2177 f93c
000000e0: a917 75bd 8590 74bc 853f 4b3d 97ea 8c3d
000000f0: c0fa a7bc 081d cf3d 2783 a93d e6f9 d63b
00000100: e6a4 a8bb 940b f4bc 7b4f 65bd 6102 693d
00000110: 15a7 d0bd 2843 ae3d d3c9 91bd 9f6f 0c3d
00000120: fe13 bfbd f620 c7bd d11b 65bd b829 a3bd
00000130: ef93 c23d ea75 cebc ab15 be3d 3fc3 0c3d
00000140: 2fdd c83d e916 683d 03a4 cd3d d994 cabd
00000150: 0059 18bc b220 6b3c cb1c c23d 6794 64bc
00000160: b421 84bd 0126 8d3d 8b50 27bb e064 8a3d
00000170: 6578 723c d07c ad3d a6e1 dcbd 611e 98bd
00000180: 6e0e 9fbd 4c76 92bd 9f86 9bbc 6775 ab3c
00000190: b15a 2a3c 7b3e b13d 963d ba3d 81aa 1a3d
000001a0: 543b a63d 08d3 8e3a 9040 89bd dd84 adbd
000001b0: 3fda 97bc 1571 c23d a737 e23d a16b 88bd
000001c0: d1db af3d 1b86 353d f44a 4dbd 04af fc3c
000001d0: 32f0 da3c ed54 0ebd 1814 013c d1d3 783d
000001e0: 8035 90bd ecf5 4abd 3c95 673d 8b76 dcbc
000001f0: 480c 1c3d da52 63bd 8669 a7bd a360 9bbd
00000200: 6bc0 da3c 3aa2 eabc 8604 e2bd 10df a53c
00000210: 3a0f 143c 2f02 92bd cce5 cf3d ce01 c73d
00000220: 6a0c 6fbd c247 963a 719c d0bc 9755 303d
00000230: c968 623d 44ca f03d f7b6 a33d 873d bcbd
00000240: 8731 23bd bab7 cbbc 2ca7 88bc 0f12 ba3d
00000250: 8953 6c3b 10dd aabd 97f7 f4bc bb9a a23c
00000260: 89d2 84bb efb5 b73d e211 8abd c9c2 c6bd
00000270: 3521 b8bc ff23 7a3d bb20 d23d 62d0 383c
00000280: e125 8fbd 4572 153c d403 963b f8ff b0bd
00000290: 12f8 56bd f714 d43d 5e3f 57bc 81f6 e1bc
000002a0: 2590 9b3d a77d 8bbd cb25 843d ef4e a9bc
000002b0: 6fd7 ddbd 05cd dcbd 3fc8 873d 70b6 363d
000002c0: 522c af3d 6833 7c3d 7aa8 2fbd 16d3 723d
000002d0: 3106 c13c 188e a03d 8030 61bd 5368 94bd
000002e0: fbb8 f2bc c07a 4e3d 36f7 093d fa89 24bd
000002f0: 8a57 cd3c 3fa9 9ebd ca65 8e3d e460 c63d
00000300: 2b85 9dbd 14e8 c9bc 9d56 b9bd 92a8 5cbb
00000310: 2614 c83c 6e57 4cbd 3e66 de3d fec6 c53d
00000320: 1881 a23d 6075 acbd e0ab fb3c 01b2 62bc
00000330: fb7f f5bc f7bf 9b3d 185b b6bd 7b76 713d
00000340: 0a2d f8bc c709 86bd dfec b33d 0698 b8bc
00000350: 514e e9bc 74b1 9bbd d61f 90bc 6696 c5bd
00000360: 4ba1 d9bc 859d babd 35be c3bc 69d2 91bd
00000370: da82 2cbc 7894 5fbd 9c40 2d3d 57cd b8bc
00000380: 94f2 c0bc 3d91 4bbc d920 bbbd df56 a63d
00000390: ed48 cabd aec7 c53d b9e2 8fbd 9152 b93d
000003a0: c7db 91bd dc5b 563d 1e46 ae3d 3d2f 813c
000003b0: 452e ca3a 31a6 2e3d d46e 75bd 7f7f 85bd
000003c0: 871f 633d 3eb9 a53d 2268 5c3c 4890 eebc
000003d0: a161 aebc e83e 0dbb 2362 a7bd 4127 813d
000003e0: cdbd f3bc 362a fbbc 4b06 bd3c 33dd 213d
000003f0: 78ba 903d 78a5 413d 7a18 14bd 6ef2 e03d
-0.035719387 -0.04630515 0.07814197 0.096512355 0.04043363 0.052228298 -0.034442548 0.0995898
-0.109543905 0.054865956 0.08715863 -0.11634641 0.04541129 -0.012183554 -0.062114816 0.025084076
-0.024056066 0.05568323 -0.071245044 -0.078121886 -0.0225027 -0.044695254 -0.04554006 0.019570298
0.039232153 0.10747591 0.085595645 -0.034078985 0.07625993 0.012074174 -0.08137302 0.073090196
0.07965872 0.034617495 0.027685365 -0.007901783 0.06672212 0.06473603 -0.072840974 0.08789158
0.014659555 -0.03261487 -0.10927349 0.04566886 -0.033304792 -0.021876782 -0.026312806 0.029051766
0.06341929 -0.00649234 -0.06344204 0.09820715 -0.018000245 -0.09594637 0.0014659262 0.030452313
-0.059837017 -0.014927034 0.049621124 0.06880682 -0.02050531 0.10112959 0.082769684 0.006560552
-0.0051466106 -0.029790677 -0.055984 0.056887034 -0.10188118 0.08508903 -0.07118573 0.034286138
-0.09329985 -0.09723084 -0.05593473 -0.079669416 0.09500872 -0.02520271 0.092814766 0.03436589
0.098078124 0.056662474 0.100410484 -0.09891672 -0.009298563 0.014351057 0.09478148 -0.0139513975
-0.06451741 0.06892014 -0.0025530185 0.06757522 0.014799212 0.08471072 -0.107852265 -0.07427669
-0.07766424 -0.071514696 -0.01898509 0.020930005 0.010397599 0.08654495 0.09093778 0.03776026
0.08116785 0.0010896632 -0.067017674 -0.08472607 -0.018536685 0.09494225 0.11045771 -0.066611536
0.085868485 0.044317346 -0.05012031 0.030845173 0.026725862 -0.03474896 0.007878326 0.06074888
-0.07041454 -0.049550936 0.056538805 -0.026911994 0.03809765 -0.055498935 -0.08174424 -0.07586791
0.02670308 -0.028641809 -0.11036019 0.020247966 0.009036833 -0.07129323 0.10151252 0.09717141
-0.05836145 0.0011465477 -0.025465222 0.043050375 0.055275712 0.11757329 0.07993882 -0.09191423
-0.039842155 -0.024867881 -0.016681276 0.09085476 0.0036060533 -0.083429456 -0.029903216 0.019849172
-0.004053418 0.08970248 -0.06741692 -0.09705121 -0.022476772 0.061069485 0.10260149 0.011280151
-0.06989647 0.009121482 0.004578093 -0.08642572 -0.052482672 0.10355561 -0.0131376665 -0.027583363
0.07595853 -0.06811076 0.06452521 -0.020667521 -0.10832106 -0.10781292 0.06629991 0.04460758
0.08553375 0.061572462 -0.04288528 0.05928334 0.023562523 0.07839602 -0.054977894 -0.07246461
-0.029629221 0.050410032 0.033683024 -0.040170647 0.025066156 -0.07747125 0.069530085 0.09686449
-0.076914154 -0.024646796 -0.09049723 -0.0033669812 0.02442367 -0.049888067 0.10859345 0.096570954
0.07934779 -0.08420825 0.030721605 -0.013836385 -0.029968252 0.07604974 -0.089040935 0.058950882
-0.030294914 -0.06544834 0.08785414 -0.022533428 -0.028479727 -0.07602206 -0.017593306 -0.09647827
-0.026566168 -0.09112076 -0.023894409 -0.07120211 -0.010529244 -0.05458495 0.042297944 -0.022558851
-0.02355317 -0.012424764 -0.091371246 0.08122038 -0.09877191 0.096572265 -0.07025666 0.090489514
-0.07121997 0.052333698 0.085094675 0.015769595 0.0015425166 0.04263896 -0.059920147 -0.065184586
0.05544999 0.08091973 0.013452562 -0.029121533 -0.021286787 -0.0021552388 -0.08173015 0.06306315
-0.02975359 -0.030659776 0.02307429 0.039517593 0.07066816 0.047276944 -0.036156155 0.1098374

bias f4 [42]
00000000: 5233 393b 9ba8 d43d 6a51 dcbd a293 2e3b
00000010: a834 8d3d 6199 86bc d7fe 673c d81b 4c3d
00000020: 3e62 533d 25fa 9d39 4465 19bd 8062 953d
00000030: da3b a83d 1444 62bc d7e5 bbbc b1e5 01bc
00000040: 27ab 0a3c 5085 f5bb 17e3 953d 2bd4 7cbd
00000050: ce6d 8fbd 0ff8 13bd a742 bebd 8f42 e03c
00000060: e107 c3bd ba79 323d 4c75 81bd ee58 dabb
00000070: 0a81 8bbc c47d fabb ca5e 1e3d 80fe 9e3d
00000080: dfa8 263d 5184 85bd a373 393d ea77 903b
00000090: 9149 853d c9ba cdbd 9514 743d b89d 72bc
000000a0: 97b2 ef3a 23b6 8e3d
0.002825935 0.103837214 -0.10757716 0.002663829 0.06894809 -0.016430559 0.01415988 0.04983124
0.051607363 0.00030131746 -0.03745009 0.07294178 0.08214541 -0.013810176 -0.022936745 -0.007928298
0.008463657 -0.0074926987 0.073187046 -0.061725777 -0.070033655 -0.03612524 -0.09290057 0.027375488
-0.09522987 0.04357312 -0.06321201 -0.0066634333 -0.017029304 -0.007644387 0.038664617 0.07763386
0.04068839 -0.06519378 0.045276295 0.004408826 0.06508172 -0.10045392 0.05958994 -0.014808111
0.0018287477 0.069683336

weight f4 [1, 42]
00000000: ceb7 5dbd 4ca8 cdbd 5fbc e8bd 16d0 8938
00000010: 2295 163d 50e1 6abd b054 883d b0be 833d
00000020: bc67 a3bd 775f a0bd 0e34 65bd eac1 a8bc
00000030: 8962 063e 0309 043e fa7a fcbd 4234 2dbd
00000040: ccc9 c6bd 2e77 903d 934f e33d 46f9 81bc
00000050: 32c6 e13d 5723 a0bc 4090 f73d 356d 0abe
00000060: 1a9d ffbd ab7d 7cbb 8194 a2bb fd4a c6bc
00000070: a466 bcbd 6a87 753d 55fd dfbc 5828 99bd
00000080: b521 0b3e cc60 4b3d e838 053b 3a42 09be
00000090: 943e 62bd e73c 5dbd 15ec a5bd ffd7 5f3d
000000a0: 3357 bd3c 369e e1bd
-0.054130368 -0.10041866 -0.11364054 6.571428e-05 0.036763318 -0.05734378 0.06656778 0.06432855
-0.0797877 -0.078307085 -0.055957846 -0.020600278 0.13123526 0.12894063 -0.123281434 -0.042286165
-0.097064584 0.07053982 0.11099162 -0.015865933 0.11024131 -0.019548101 0.120880604 -0.13518222
-0.124811366 -0.0038527052 -0.0049615507 -0.02420568 -0.09199265 0.059943594 -0.027342478 -0.07478398
0.13587077 0.04965286 0.0020328108 -0.1340417 -0.05523546 -0.05401316 -0.0810167 0.05464935
0.023112869 -0.110165045
