ModelUnpredictability/one_thousand_brains/predictor_26.model (torch_old, 109395 bytes, 7 tensors)

weight f4 [84, 168]
00000000: 1c00 153c 704d a6bb d607 18bd 7b1d 37bd
00000010: 7ae6 b939 b9dc bfbc 3a85 cdbc 6a12 67bd
00000020: baa5 333b 43ab 283c 1ca8 4ebc acd9 d5bc
00000030: dcc4 80bd 2b83 b83c ba32 ef3c 41dc 623d
00000040: b3e2 7abd 2c0f 113d f721 113d 7965 98bd
00000050: 036a 723c 4de4 34bd 1e08 7e3d d194 58bd
00000060: 7c3e ce3c 3cf3 71bc 53aa 5fbd b841 97bd
00000070: 927b 2b3d 2acc aa3a d6eb 46bc 1feb 4cbb
00000080: 2477 4ebc 1bb2 85bd f633 f1bc 4785 303d
00000090: d085 a03d d66b 40bd 4a6f ca3c 27ee 293d
000000a0: 928c 54bd 75b0 823c 632e b0bc bf4f 413d
000000b0: fa10 4e3c 5b1b 20bb 7371 6a3d de7a 20bd
000000c0: b8c6 7ebd 2a63 433c 142a 04bd 4e65 513d
000000d0: 8a98 4c3d 7ba1 a13d c56b cebc ad6e 22bd
000000e0: ac78 3cbd 8351 60bb 905f 11bd 6a0c 03bd
000000f0: 5409 6bbd 2c2b e2bc 1ed7 083d e65f 683c
00000100: 6662 2abd def7 073d 2458 8e3d 6767 93bd
00000110: 8d53 3e3d db25 89bc 7db3 4c3d be44 ccba
00000120: 36c5 6f3d dd5e a23d 3d7b 60bd 7403 ccbc
00000130: f067 2b3c 3411 c73c b424 61bd 63fd 3c3d
00000140: 7fbd 1f3d f655 c93c 6013 943b 5f7c 1dba
00000150: c97e 753c 668a 78bd c1a6 96bd 5f29 9d3b
00000160: 3750 993d 4c65 fd3c 278b 91bd 7ffd 173d
00000170: 4713 f1ba 097d 173d fe7c a63c 1448 0cbc
00000180: e501 f93c 0b80 e4bc 6963 583d 5644 593c
00000190: 0b8f 8d3d 2a69 44bd 0ec8 52bd c25e 873c
000001a0: 535f 913d fb17 5abd 4f21 2e3b ca12 123b
000001b0: fc32 3fbd b0d2 5c3d 61d2 2f3d 6f10 933c
000001c0: 1a15 8abd 58ab 5f3d f24f b5bc 2675 59bd
000001d0: a524 963d eaf0 bc3a cc62 e9bc 4789 bbbc
000001e0: d2a1 dbbc 7276 903b afd0 023d 58c2 97ba
000001f0: a84b d9bc 3188 663d f452 03bd dc50 a43d
00000200: 2028 dabc c110 913d e003 84bc 5236 2bbd
00000210: 1b6b 74bd 54ac 81bd b942 54ba a514 99bd
00000220: f0b6 d23c 570d 463d dd0b ca3c 7c70 e13c
00000230: fd7a 07bd c2d5 223d 6529 0b3d fae6 833d
00000240: e7bb 8f3d 706b 683c a352 9abc 451c 0c3d
00000250: f51d e1bc da36 32bc e341 a83b 8cba 9d3d
00000260: ea28 8ebd 2881 ccbc b526 62bd e9f3 39bd
00000270: 5273 833d fcd7 193c 5df4 4cbc 9a4c ed3c
00000280: f2eb 75bd 0bb3 29bb 0e70 aabc da1c 01bd
00000290: 62d2 4ebd 75de 43bd 8768 f9bc 634b 6ebc
000002a0: 3874 20bd c94b 0ebd f1b9 95bd f32a 403b
000002b0: 207c 633b 8169 3f3d 9702 623c fd3a 223d
000002c0: 1cab 7d3d af33 69bd a7d9 543d 911b 2e3d
000002d0: 920c 7c3d 8136 803c 741e 0039 b42c 873d
000002e0: e4d6 4a3c f1a8 96bc d4d6 cfba 239f 523d
000002f0: 828f 9abd 5cff af3a 153f debc 6ddc bf3c
00000300: b75b 4ebd 6a6c 8bbd ea73 483d f7df 8a3d
00000310: e84a 7dbd 6d00 56bd 7bc2 87bd 3751 fb3c
00000320: e06b 5abd e506 8d3d 2be5 073d e195 df3a
00000330: 0394 64bd b841 0ebd 402b 933d 8d4c dabc
00000340: b2c8 8bbd 85ed 84bc f71a 16bd 9b4f 7a3c
00000350: 856b 0dbd 5706 253d 0b28 623d d20b ca3c
00000360: 0198 48bd ed98 8abc 6e59 52bb ae0e a9bc
00000370: e0c1 bab8 51f4 353d 756b a0bb f5cf 0e3d
00000380: 3c63 ecbb f3de 2f3d a878 a33d afdb 2dbd
00000390: 22b5 483d bfba 433b 053d 5c3d ad16 5dbd
000003a0: 42eb 223d b0a5 6dbc 7065 46bd 2d14 07bd
000003b0: 9e55 66bc 4b85 0cbb 97b3 283c 935b 4fbd
000003c0: dee1 5cbd c616 e0bc 73e7 ccba 9c40 583d
000003d0: d089 943c 1846 83bc 3dc8 6ebd dc82 da3c
000003e0: dea8 81bd 86ce 383d 63c5 1dbc 0163 febc
000003f0: db65 7a3d 3483 11bd b509 103c 80a0 bf3b
0.009094264 -0.0050751492 -0.037116848 -0.04470585 0.00035457668 -0.023420678 -0.025087941 -0.056414045
0.0027412013 0.010294738 -0.012613323 -0.02610477 -0.06287548 0.022523483 0.029198993 0.05538583
-0.061251353 0.03541486 0.035432782 -0.074412294 0.014795783 -0.044163037 0.06201946 -0.052876297
0.02517628 -0.014767464 -0.054605793 -0.07385582 0.041865893 0.0013030816 -0.012141189 -0.0031268073
-0.0126016475 -0.065281115 -0.029443722 0.043095853 0.07838023 -0.04697784 0.02471127 0.041486885
-0.05189187 0.015953282 -0.021506494 0.047195192 0.01257729 -0.0024430368 0.0572371 -0.039179675
-0.06220123 0.011925498 -0.03226669 0.051122002 0.04995016 0.07892128 -0.025197873 -0.03965633
-0.04601352 -0.0034228272 -0.035491526 -0.03199426 -0.057381943 -0.027608477 0.033408277 0.01418302
-0.041597746 0.03319537 0.06950405 -0.07197457 0.0464664 -0.016741684 0.04997586 -0.0015584452
0.058537684 0.0792825 -0.05480503 -0.02490399 0.010461792 0.024300195 -0.054966643 0.046140086
0.038999077 0.024577122 0.0045189112 -0.00060076074 0.014983841 -0.060678862 -0.073560245 0.0047961916
0.07486003 0.030932091 -0.07106619 0.037106987 -0.0018392586 0.036984477 0.020323273 -0.008562107
0.030396411 -0.027893087 0.05282918 0.013260921 0.06912049 -0.047951855 -0.05146032 0.016524676
0.0709826 -0.053245526 0.0026570146 0.0022289031 -0.046679482 0.053911865 0.042925242 0.017952172
-0.06742306 0.054606766 -0.022132847 -0.053090237 0.07331208 0.001441506 -0.028489493 -0.022892607
-0.02681056 0.004408651 0.031937297 -0.0011578305 -0.026525334 0.056282226 -0.032061532 0.08023235
-0.026630461 0.07083274 -0.016115129 -0.04179985 -0.059672456 -0.06331697 -0.00080971007 -0.07474641
0.025721997 0.048352566 0.02466386 0.027519457 -0.033076275 0.039754637 0.033975024 0.0644054
0.070182614 0.014185771 -0.018838232 0.034206647 -0.027480105 -0.010877335 0.0051348074 0.077015966
-0.069413975 -0.02496393 -0.055212695 -0.045398626 0.0641848 0.009389874 -0.012509433 0.02896719
-0.060039468 -0.0025894071 -0.020805385 -0.031521656 -0.050493605 -0.047819573 -0.03044535 -0.014544341
-0.039173335 -0.034740243 -0.07310856 0.0029322475 0.0034711435 0.046731476 0.013794563 0.039607037
0.06193076 -0.056934055 0.051965382 0.042506758 0.061535425 0.01565099 0.00012218376 0.06600323
0.0123803355 -0.018391104 -0.001585687 0.051421296 -0.07546903 0.0013427543 -0.02712969 0.023420537
-0.050380435 -0.06807788 0.04893867 0.06780999 -0.061839014 -0.0522465 -0.06628891 0.030678375
-0.053325534 0.06886081 0.033177536 0.0017058217 -0.055805217 -0.034730643 0.07185984 -0.02664783
-0.06825389 -0.01622654 -0.03664681 0.0152777685 -0.034526367 0.04028925 0.05521397 0.02466384
-0.048973087 -0.016918624 -0.0032096761 -0.020636883 -8.905283e-05 0.04442245 -0.0048956224 0.034866292
-0.007213978 0.04293723 0.07981998 -0.042445835 0.049000867 0.0029865948 0.05376913 -0.053976703
0.03977514 -0.014504835 -0.048436582 -0.032978225 -0.014058499 -0.0021441753 0.010296724 -0.05062444
-0.05392634 -0.02735461 -0.0015632942 0.05279599 0.01813212 -0.016024634 -0.05829643 0.026673727
-0.06331037 0.04511883 -0.00962958 -0.031053068 0.061132293 -0.035525516 0.008791377 0.0058479905

bias f4 [84]
00000000: add3 8abd a482 1e3d d10e 55bd 9c04 40bc
00000010: 5900 8d3c b3eb d5bc 51ca 1d3d fdf9 31bd
00000020: 0028 d03c c706 17bd bc7a 293c 61fc 8abd
00000030: 5c61 ec3b a285 8f3d c3c8 c7bb 4dc2 56bd
00000040: 84a7 6cbd c463 64bd 232d 27bd 99ea 873d
00000050: 311f 1b3d 2ee0 57bd 5ebb 6e3c 35e9 89bb
00000060: 9c36 1a3d a942 4e3c 0d2d 4cbd cb64 843d
00000070: cffd 54bd dd20 56bc 2297 513d bdf6 26bd
00000080: 0f28 8e3d 2a25 0b3d 8a09 583d 00cb ac3b
00000090: 82a7 2abd 8278 de3c 093c 003d a5f1 91bd
000000a0: 2136 6dbd cabd 6f3d 4ee6 38bd 66b3 4dbd
000000b0: dc1f 8a3d ce12 48bd 4d92 733d 755d 97bd
000000c0: 93cc c63c 7ff1 183d 5607 1e3c 6660 1bbd
000000d0: 8e0d 25bd 1692 1ebc bb00 933a b7fb 8c3d
000000e0: e5d4 82bd a660 6d3d a06b f23c 9131 363d
000000f0: a59e 14bc e6ab 0ebd 2bbf 9abd ce5e 04bd
00000100: aba9 86bc b6aa 60bd d240 96bd 4c48 3cbd
00000110: 561d b73c b36c ce3c 2956 983d dcb5 7abd
00000120: 6a26 913d ba0c e63c 4919 9b3d 8c89 ef3c
00000130: a312 473d 654c 123d c3d3 f33c 19d1 83bd
00000140: 4198 9dbc 0cea 9fbd 5ce0 203d def3 2bbd
-0.06778655 0.038698807 -0.052016083 -0.011719849 0.01721208 -0.026113367 0.038523022 -0.043451298
0.025409698 -0.036871698 0.010344204 -0.06786419 0.0072137546 0.0700791 -0.0060969307 -0.052431393
-0.057776943 -0.055759206 -0.04081453 0.06636543 0.037871543 -0.05270403 0.014571039 -0.0042087086
0.037649736 0.012589135 -0.04984765 0.06464537 -0.051999863 -0.013069359 0.051169522 -0.04076265
0.06941234 0.03397099 0.052743472 0.005273223 -0.041663654 0.027157072 0.031307254 -0.07126168
-0.05791295 0.058530606 -0.04514151 -0.050219916 0.06744358 -0.04884606 0.059465695 -0.073908724
0.02426747 0.037339684 0.009645304 -0.03793373 -0.04029613 -0.009678384 0.0011215428 0.06883948
-0.06388263 0.0579535 0.029592335 0.044480864 -0.009071027 -0.034831904 -0.07555994 -0.032316975
-0.016438326 -0.054850303 -0.07336582 -0.045967385 0.022352856 0.025198316 0.07438309 -0.06120859
0.07087405 0.02808224 0.07573182 0.029240392 0.048601758 0.035717387 0.029764062 -0.064363666
-0.01923764 -0.07808313 0.039276466 -0.041980617

weight f4 [84, 84]
00000000: a26e 613c 4d0d a0bd fe52 d7bc 474c ffbc
00000010: b5f6 353d ede0 e3bb 5efa 8e3d 9166 9e3d
00000020: c71f 013d b17b 9bbd 4486 6cbd 6b59 c53d
00000030: 3218 bb3d 0515 8abd 775e 623d e590 a0bd
00000040: ec0e df3c 25ac 643b 1832 2b3d a2c5 62bd
00000050: 0dcf 63bd 0dc8 8f3d e457 023d ebd2 d8bd
00000060: 3804 dabd ee33 8d3d 143c 963d 1442 873d
00000070: dcfa 02bd c04e c4bd 6ef3 98bd a247 2dbd
00000080: d732 70bc df54 9b3d a26a 0bbd 5cb7 53bd
00000090: f069 3cbd 6687 a8bd 0378 173d 5a12 53bd
000000a0: d0e2 86bd 0eb9 193d 851c d23d 3c48 023c
000000b0: 65d3 543c a86e 82bd 9252 743d d4d1 a53d
000000c0: 0c5d 743d 3bf9 9bbc 7f53 12bd b3e8 863d
000000d0: ce6c 3f39 9fc8 59bd 0268 943d 2edf 90bb
000000e0: c73b 9d3d a8c7 3fbd 740d 36ba 8d17 c83d
000000f0: bead 9b3d fe8c a8bc fd50 913d 1783 c53c
00000100: d9a8 303d a4f7 a93d cece 4cbd 2c25 843b
00000110: 46cd d13d f0bd df3d 96e3 013d 147b 67ba
00000120: a290 503d 21f1 1a3b aa8d 9fbd b4d3 a4bd
00000130: 5ba1 8dbd 14a6 bb3b 8f81 c3bd a0a7 35bc
00000140: 68a1 013b 0239 82bb 8b8f 92bd 6e97 b83d
00000150: 926b c93d 3b7c a03c 2379 8e3c 24c6 c43d
00000160: 5c3b 8e3c 9b2c c03d 35c1 a4bd dd9b 72bd
00000170: 86fe a8bc 65da 7d3d c3ef b83d 88d9 bf3d
00000180: 6b86 a3bd ac4b 68bd ef29 243d c009 6abc
00000190: c940 5ebd 5166 83bd 5290 513c 9219 ee3d
000001a0: 5e58 00bd 0e41 dfbd 40ab 4c3d 6a57 a7bc
000001b0: dea8 a83b 887d 65bd fd9a 6e3c ae06 073d
000001c0: 40c9 27bd dc9e 65bd 8ee4 933d 205f 63bd
000001d0: de48 39bd 2f3e b43d 9fc5 cb3d 47e0 b0bd
000001e0: 87d8 97bd 1779 89bd b735 ddbd 06ce 14bd
000001f0: b896 d3bd b223 bd3d 904b 833d 50c7 0e3d
00000200: af62 ad3d 3fef d93c c4a0 803d db6b bb3d
00000210: fb45 fb3c 7ff5 81bd 69e7 9b3d 0f4e 493d
00000220: 09ac 1c3d 1a13 8e3d ffd9 2fbd 43cf 74bd
00000230: fad6 a7bd ce2e 013d f2c0 7ebd 8530 663d
00000240: 2742 fbbc caba a1bc 5ff4 d43d 4708 71bd
00000250: 8775 48bd 5462 d3bd f8a3 8fbc ddde 31bd
00000260: 3361 89bd caf4 d3bd d608 53bd 72cd e6b9
00000270: 50b6 c03d ed25 b2bd 2ffe b4bd 472d da3c
00000280: 9ff6 633b fcb6 553d d3f3 1a3c 61c2 ce3c
00000290: d6e5 e5bd 5e7d 1abd b2c5 5a3d 6c65 6cbd
000002a0: c76b 8b3d f364 ee3b b7d2 ea3c 72d0 81bc
000002b0: 00db d8bd 4756 70bd 8b0f 713d 89f0 9bbb
000002c0: 5911 7f3d 5049 aabc a8be 543c 480b 98bd
000002d0: 54b4 8f3a 9eba 2dbd 2791 af3d e8ea 98bd
000002e0: 37a3 96bd 3d6d 88bd 6255 57bd 76db b4bd
000002f0: 08be 90bc 7be5 bd3c 3f4f 863d 0c1f 0f3d
00000300: 4cef 87ba 31c9 16bc 2c82 b9bc 6ce5 ed3c
00000310: 3644 f93a b746 ff3c f262 c7bd bd6b d73c
00000320: df5e 7a3d 4a55 073c 6514 863c 9238 a43d
00000330: 6af6 04bd 9d3c 2fbd 8c73 513c 1721 403d
00000340: 835c e9bc 996c cd3c 27bd 453d cfba 3c3c
00000350: 45b0 233d ff12 a0bc f791 093c 5be0 8abb
00000360: ec0e 6fbd d6f2 46bd 25e7 b13d e0e7 dcbd
00000370: 1f37 62bd 3bc6 2f3c 19f2 ae3d d96b d7bc
00000380: dc66 a3bd 9f16 c73d 86ac 4d3c 6590 a5bd
00000390: eed5 27bd bdff 53bd 4048 693b 7d1d b43d
000003a0: 7f65 553d 41fe e03c b2d2 23bd 5b9a 863c
000003b0: fe01 073b 1fe3 a43d c106 d8bd 3047 9e3d
000003c0: 0078 1abd ab58 3ebd 528c 3e3c 5a90 cabd
000003d0: d434 e13c b92b 8d3d 2df2 b5bc 946c 9dbc
000003e0: b826 a9bd 135d 653d 9058 143d 76db 823b
000003f0: edf7 a53d 2184 4cbd ad68 98bd f68b 573c
0.013759287 -0.07815037 -0.026284691 -0.031164302 0.04442473 -0.0069543035 0.069813475 0.07734407
0.031524446 -0.07591952 -0.057745233 0.09636196 0.09135474 -0.067422904 0.05526587 -0.078401364
0.027228795 0.0034892645 0.04179582 -0.05536426 -0.05561738 0.070205785 0.0318221 -0.105871044
-0.10645336 0.068946704 0.07335678 0.066044 -0.03197752 -0.09585333 -0.074683055 -0.042304642
-0.014660559 0.07584547 -0.03403724 -0.051688537 -0.045999467 -0.0822895 0.036979686 -0.051531173
-0.0658623 0.037529998 0.10259346 0.007951792 0.0129898535 -0.06368762 0.059649058 0.08096662
0.05965905 -0.01903974 -0.03572416 0.065873526 0.00018255712 -0.053169843 0.072464004 -0.0044211363
0.07677417 -0.046821266 -0.00069447537 0.09770117 0.07601498 -0.020575043 0.070955254 0.02411036
0.043129776 0.08299187 -0.05000191 0.0040327515 0.10244231 0.109248996 0.031711183 -0.0008830291
0.050919183 0.002364226 -0.07790692 -0.08048192 -0.06915542 0.005726585 -0.09546196 -0.011087328
0.0019780044 -0.003974081 -0.07156285 0.09013258 0.098349705 0.019590488 0.017391747 0.09608105
0.01736229 0.09383508 -0.08044664 -0.059230674 -0.020629179 0.061975855 0.09030106 0.09367663
-0.079846226 -0.05671279 0.040079053 -0.014284551 -0.054261003 -0.06416 0.012790756 0.11625971
-0.031334274 -0.1090108 0.049968004 -0.020427424 0.0051470837 -0.05602792 0.014563319 0.032965355
-0.04096341 -0.056059703 0.07221328 -0.05551064 -0.045235507 0.08800923 0.099498026 -0.086365275
-0.07414346 -0.06712549 -0.10801261 -0.03632929 -0.10331482 0.09235324 0.06410897 0.034858048
0.08466088 0.02660334 0.062806636 0.09151431 0.030673018 -0.06345653 0.07612497 0.049146708
0.038250003 0.06937237 -0.042932507 -0.059767973 -0.081953004 0.031538777 -0.062195726 0.056198616
-0.030671192 -0.019742388 0.103981726 -0.058845785 -0.048940208 -0.10321489 -0.017534241 -0.04342543
-0.067079924 -0.10349424 -0.0515221 -0.00044022087 0.09409773 -0.0869864 -0.08837544 0.026632918
0.0034784449 0.05217646 0.009457546 0.025239171 -0.11225478 -0.037717216 0.053411193 -0.05771391
0.06807666 0.0072752177 0.02866493 -0.015846465 -0.10588646 -0.05867603 0.058852714 -0.0047588986
0.062272403 -0.020786911 0.012984909 -0.07424027 0.0010963776 -0.0424143 0.085726075 -0.0746668
-0.073553495 -0.066614605 -0.05257166 -0.08830921 -0.017668739 0.023180714 0.06558084 0.034941718
-0.0010370999 -0.009203241 -0.022645079 0.029040061 0.0019017521 0.03116165 -0.09735669 0.02629649
0.061125632 0.008260081 0.016367147 0.080186024 -0.03246156 -0.042782415 0.012783896 0.046906557
-0.028486496 0.025076197 0.048276093 0.011519148 0.039963026 -0.019540308 0.008396617 -0.004238171
-0.05836384 -0.04857143 0.086866654 -0.10786414 -0.05522835 0.010728414 0.0854227 -0.026296543
-0.07978603 0.097211115 0.01255334 -0.08084182 -0.040975504 -0.051757563 0.0035596043 0.08794687
0.052098747 0.027464988 -0.039995857 0.016431024 0.0020600553 0.080511324 -0.10548163 0.07728422
-0.037712097 -0.04647128 0.011630135 -0.09890814 0.02749101 0.06893105 -0.022210205 -0.019216813
-0.08259338 0.055996966 0.036217272 0.003993447 0.08103929 -0.049930695 -0.0744184 0.013155928

bias f4 [84]
00000000: f58a 583d 81f1 bf3d 33fc 8cbc c88a f33a
00000010: 81ad 0d3d 9003 3abd 94bf 56bb a4d6 923b
00000020: d70d 06bc 6129 a83d 41c5 c53d 65de 893d
00000030: 23ed 44bd a20a d93c 1d95 19bd 4c97 893d
00000040: db68 c0bd a056 b83c 1515 293d 4bba b7bc
00000050: 1d27 c73d 5ca4 b13b 60f1 36bd fa85 103d
00000060: 4116 eebc 1341 02bd 97e1 043d 0eb0 61bd
00000070: 7d28 863d 849f 0fbd 26f7 c73d 3b17 26bd
00000080: 6b48 bfbd 09ee 653d 7b79 a03d f218 6ebd
00000090: 1ed0 cabd 77ca 7abd 2feb 283b 2ede 42bc
000000a0: 9a2c 963d 44c5 573d 0823 1dbd 239f c53d
000000b0: 1463 08bc 6a17 8fbc 0e0b 693d ee27 08bd
000000c0: 83ec 293d e6f4 dcbb 71a5 6b3c 819b 6f3c
000000d0: 64de 9dbd 4ca4 b33d 8e7e 703c 9410 ca3d
000000e0: 091f a7bd 243d 13bd 4754 99bd 9520 34bd
000000f0: 07fc 593d 38fa 04bd 0b58 84bd f818 3dba
00000100: 8dec 97bd 87fe 693d eb85 b63d 711c 7c3d
00000110: 6c1e ce3d 1e6f b9bc 0822 a53d 2089 97bd
00000120: a8a2 ba3c 4797 953b b3c3 b93d d2af 3abc
00000130: 3caf 0c3d 781d 3bbd b08e 423c dd44 41bd
00000140: 94be 873d ae9e a0bc 0830 a93d f274 07bc
0.052866895 0.09372235 -0.017210102 0.0018580789 0.034589294 -0.045413554 -0.0032767998 0.0044811536
-0.008182011 0.082110174 0.09656764 0.067318715 -0.048077714 0.026494328 -0.03749572 0.06718311
-0.093949996 0.022502244 0.04127987 -0.022427699 0.09724257 0.0054212045 -0.044663787 0.03528402
-0.029063346 -0.03180034 0.0324417 -0.05509954 0.06550691 -0.035064235 0.09763937 -0.040549498
-0.093399845 0.05613521 0.078356706 -0.05812926 -0.099029765 -0.06122824 0.0025774946 -0.011893792
0.07332726 0.05267836 -0.038363487 0.096494935 -0.008324403 -0.01746722 0.05689531 -0.033241205
0.04148532 -0.0067430614 0.014382706 0.014624477 -0.07708433 0.087715715 0.0146786105 0.09866443
-0.08160216 -0.03594698 -0.07486778 -0.043976385 0.053218868 -0.03246519 -0.06462105 -0.00072134985
-0.07418165 0.0571275 0.089122616 0.06155056 0.10064396 -0.022635993 0.080631316 -0.073992014
0.022782639 0.004565153 0.0907053 -0.011394458 0.034346804 -0.0456824 0.01187484 -0.047184814
0.06628147 -0.019606914 0.08261114 -0.008267628

weight f4 [42, 84]
00000000: c258 cbbc ea49 5bbd 86b8 8e3c 98f2 d43b
00000010: c77e ab3d 71b8 d73c 370f b93d ed49 e3bc
00000020: 81d3 5bbc 46cc 543d e794 473d 61cb 96bc
00000030: 7206 a43d 4639 bebd c865 733d f430 aabd
00000040: c961 d7bc 09c0 e6bd 320d 113d 91a1 833c
00000050: bc3c b6bc 312b 91bd b083 bf3d ba71 a43d
00000060: 888b 32bd 8f21 c9bd 2104 0cbd 3333 b43b
00000070: db56 28bc 92fe 983c 7f4b 333d 8e09 003a
00000080: e40a a13d af6b 833d 80ce 4e3d 5aae 8c3d
00000090: 1e5b 1abd 8379 a4bd 21ba 8abd 399c b03d
000000a0: 9153 bcbd 6b97 ddbd a722 4a3d fc81 64bd
000000b0: f431 623d 9d36 e7bb df93 e03c fadb 43bd
000000c0: 9e45 c3bd 6a37 7d3d a89d 5f3c d9d9 a6bd
000000d0: 6667 893d 5606 a43d 9f5f c1bd 5f38 6cbd
000000e0: c827 c13d b1c0 97ba b249 053c 4c9d c5bd
000000f0: 01ba 70bd 882c 4bbd 797f 84bd 290c c1bd
00000100: db04 a23d 100e 3c3d 078d c8bd 6f72 673d
00000110: 1610 c3bd f3e8 34bd d685 dfbd 9bdf a4bb
00000120: 82a2 88bd c004 1dbd d455 583d b58b a4bb
00000130: 793e 7abd 07ba 813d 617a 813d 60f5 eb3c
00000140: a93a 8cbd 896c a7bd b75e c73d 56f9 a6bd
00000150: 6c8f cabd 0f7d 65bd 5d55 593d 78ed 863d
00000160: 7c6f 793d 607d 8c3d 81e1 a03c 3b18 7c3d
00000170: d9eb ea3c a02f 6c3d 51e9 44bd b462 953d
00000180: bfb9 c53d 5d4d 74bd 8081 82bd d330 68bc
00000190: 3d7a 973d a7ea 83bd 32db 51bc 32d8 83bd
000001a0: 302e 9cbc 247a 9dbb c7f0 a23d 2d80 b23a
000001b0: fcd5 c83d 1ab4 f5bc 5370 c03d 4062 c0bd
000001c0: fcfa 8fbd 97c4 90bc 64a6 ba3d 5337 9c3d
000001d0: 9039 b0bc 5dbc d13c 7ae0 0ebd 160f 173d
000001e0: 6d30 e53d b7c2 febc e1eb bf3d 80eb 20bd
000001f0: 7252 88bd d5ad 513d 90b8 a83d 2a8a bc3c
00000200: 9a94 afbc 67b6 8fbd c887 a8bc 8fdb eb3c
00000210: 8108 243d 4ab7 843d c233 88bd a2d3 6abd
00000220: b6b0 d1bc 2a79 6fbc d7ba 173d 9915 cd3d
00000230: 5177 ccbd da16 653d f83b 76bd 2d5c debc
00000240: 355f b9bd a97c 9d3c b952 a6bd f20f 743d
00000250: 19ea 9b3d af3a 98bd 6b33 6ebc f88d da3d
00000260: f9e4 8a3d 8c88 87bd 6cf3 ac3d 0b97 91bd
00000270: 9918 793d 7fd7 14bd 466b 9abd 1b4d 73bd
00000280: 121a e4bd 9961 9fbd 420f 8bbd 5621 083d
00000290: 77b4 b5bd 2813 bfbd eef0 9ebd b386 c73c
000002a0: c1a4 6abd c952 cfbd ed18 eb3d 065b babd
000002b0: 5a92 39bc 8adf 103c 82ef c93d 6f20 cd3c
000002c0: 7fac d63d 30c4 dfbd 60ce 3b3d be2c d1bd
000002d0: 7289 c23c 45d0 60bb 5df8 8e3d 0cf1 873d
000002e0: 7c2d 8bbd 9da6 bcbd 7614 a73c 358f 75bd
000002f0: 4972 5abd 3a30 003d 32ff a8bd 3013 da3d
00000300: 842e b03d 0321 243d 4f83 2fbd c3a9 babd
00000310: 0781 b33d 615c 21bd 863e 153d 7343 3ebd
00000320: a881 843d 843f bcbd 101f 88b8 5003 2e3d
00000330: 38a1 1ebd a1ab b43d f951 b4bc c545 4bbd
00000340: 5eee e4bc 9049 c9bd 2175 d6bc e3a3 2bbd
00000350: a8b9 e33d 92db 793d 221f 1a3d 70c1 003d
00000360: 55b6 26bc ca83 c53c d62b 003d 1c86 c1bd
00000370: 66bb 853d 168f 6bbd cc51 40bc 9ad1 3bbc
00000380: 8e85 8dbd 3563 43bd afed 51bd dfa6 9abd
00000390: 040f 98bd 7690 debc a8bf 9e3b 5ee7 be3d
000003a0: cfc1 283c b7ee c83d 61df d83b 7f54 4abb
000003b0: cccd 88bd 011c 43bd 6f7b 543d 4b50 efbc
000003c0: 8f9c 63bd 77cf 953d c43d ebbd 5144 7f3d
000003d0: de12 3abd 1d7d 4d3d d8aa 85bd b245 503d
000003e0: d464 9ebc cbfe 883d 13bb 8a3d be98 7f3c
000003f0: eab6 8cbc 731f c93d f4f3 b73d 7a9a f6bc
-0.024822596 -0.053537287 0.017421972 0.006498646 0.0837379 0.026333066 0.09036105 -0.027745211
-0.013417126 0.051952623 0.04872599 -0.018407525 0.08009042 -0.09288268 0.059423238 -0.08310118
-0.026291745 -0.112670965 0.035412975 0.016068252 -0.022245757 -0.07088316 0.09351289 0.08029504
-0.0435901 -0.09820854 -0.034183625 0.0054992675 -0.010274614 0.018676076 0.04377317 0.0004884236
0.07863405 0.064170234 0.050489902 0.068691924 -0.037684552 -0.08030989 -0.067737825 0.08623547
-0.091956265 -0.10819896 0.049349453 -0.055788025 0.05522342 -0.007056071 0.02741426 -0.047817208
-0.09534763 0.061820425 0.013648428 -0.0814702 0.06709175 0.08009021 -0.094420664 -0.057670947
0.09431416 -0.0011577812 0.008135246 -0.096491426 -0.058771137 -0.049603015 -0.06469626 -0.094261475
0.07911082 0.04591185 -0.09792524 0.056505617 -0.095245525 -0.04416747 -0.10914199 -0.0050315387
-0.06671621 -0.038334608 0.052816227 -0.005021537 -0.061094735 0.0633431 0.0632217 0.028803527
-0.06847126 -0.08174998 0.09734862 -0.08153026 -0.09890637 -0.05602747 0.053059924 0.06588262
0.060897335 0.06859851 0.019638779 0.061546545 0.028676914 0.057662606 -0.04807407 0.07294217
0.09654569 -0.059644092 -0.063723564 -0.014171797 0.07396362 -0.06441241 -0.012808608 -0.0643772
-0.019064993 -0.00480582 0.07956081 0.0013618522 0.09806439 -0.029993106 0.09396424 -0.0939374
-0.07030293 -0.017671866 0.09113768 0.0762774 -0.021511823 0.025602514 -0.034882046 0.03687962
0.11190877 -0.031098707 0.09371162 -0.03928709 -0.0665635 0.05119117 0.082383275 0.0230151
-0.021433163 -0.07017212 -0.020572558 0.028791217 0.040047172 0.06480272 -0.06650497 -0.057330735
-0.025596958 -0.01461629 0.03704342 0.10013885 -0.09983695 0.055929996 -0.060115784 -0.027143562
-0.090513624 0.019224482 -0.08121247 0.05958552 0.0761301 -0.07433068 -0.014538626 0.1067161
0.06781954 -0.06617841 0.084448665 -0.07108887 0.060814474 -0.036338326 -0.07539992 -0.059399705
-0.11137785 -0.07782287 -0.067900196 0.033234917 -0.088723116 -0.09329826 -0.077607974 0.024356222
-0.057286028 -0.10123212 0.114793636 -0.090993926 -0.011326397 0.008842358 0.098601356 0.02503988
0.1048212 -0.10926092 0.04585111 -0.10213612 0.02374718 -0.0034303826 0.06980965 0.06637773
-0.06795785 -0.092114665 0.020395499 -0.059951026 -0.053331647 0.031295992 -0.082518 0.10648191
0.08602622 0.040070545 -0.042849835 -0.09114411 0.087648444 -0.03939474 0.03643658 -0.046451043
0.064700425 -0.09191802 -6.490771e-05 0.042483628 -0.03872797 0.08821798 -0.022011744 -0.049627084
-0.027945694 -0.09828484 -0.026178898 -0.04190434 0.111193955 0.061000414 0.037627347 0.031434476
-0.010175307 0.024110693 0.031291805 -0.094494075 0.06529884 -0.057509504 -0.011738252 -0.011463547
-0.06910239 -0.047702033 -0.051252063 -0.075513594 -0.07424739 -0.027168494 0.0048446245 0.093214735
0.010300114 0.09811156 0.0066184257 -0.0030873118 -0.06679878 -0.04763413 0.051875528 -0.029213091
-0.055569228 0.073149614 -0.1148639 0.06232101 -0.04542815 0.050168145 -0.065267265 0.050847717
-0.019335188 0.06689223 0.06773963 0.015600381 -0.017177064 0.098204516 0.08982077 -0.030102957

bias f4 [42]
00000000: 4d87 49bc 7961 86bc 5c28 1f3d 79ce b8bd
00000010: 9b65 9e3c 6ba0 96b9 9264 6c3c 1aa2 b9bc
00000020: 54ad 17bd 84eb a33c 3323 983d e75b 133d
00000030: 72a7 38bb 9f98 583d a7dd 36bb 630b b63d
00000040: a56e 073d ae2b 5d3c 8c79 42bc 12d6 26bd
00000050: 6428 bf3b 2ba5 7f3d 1f4d 6ebc 44f5 bdbd
00000060: 5ce8 e23c e31d 3fbd 7c16 14bd 0c15 7c3d
00000070: 3b3c 33bd db59 89bc f2ff bcbc 15a6 ea3c
00000080: c5d8 123d b227 9d3d 39b2 873c 4b10 0ebd
00000090: f2d8 d23b 01a5 11bc 011f 903c 2bdf c7bd
000000a0: a606 99bd 9c82 c7bd
-0.012300325 -0.0164039 0.03885685 -0.090237565 0.019335559 -0.0002872975 0.014428275 -0.022660304
-0.037030533 0.020009764 0.07428589 0.035976317 -0.0028175977 0.052879926 -0.0027903111 0.088888906
0.033064503 0.013499184 -0.011869799 -0.040731497 0.0058336724 0.062413376 -0.014544754 -0.09275296
0.027698688 -0.04665936 -0.036154255 0.06154351 -0.043758612 -0.01676648 -0.023071263 0.028643647
0.03585126 0.07673587 0.016564475 -0.034683507 0.0064345533 -0.008889438 0.017592909 -0.09759363
-0.07471971 -0.09741709

weight f4 [1, 42]
00000000: 8f46 f43d b095 203d e389 2d3a 575f db3c
00000010: 9c29 ab3d eb93 803a be6d 933d 66fe c4bd
00000020: d8a1 05be 02e5 0c3d ec62 05bc 9eb3 f63d
00000030: 3e80 b93d 5e0b e2bd 55e5 8ebd 4f67 12bd
00000040: 29bb acbd c761 9abb 9d60 33bd 5a0e 383d
00000050: affc 10bb d52b 16be d031 a43d 50bc 7b3d
00000060: 87bb 8dbd 7e4a 26bd be10 f8bd da6e 343d
00000070: 7a49 19bd fe6d 693c 4f8c febc daf7 09bb
00000080: bf95 23bd ebd8 bb3d 9459 ef3d 2c3a fbbd
00000090: d228 8c39 16ed babd 94ef 343d c8df 4fbd
000000a0: 2e0b 1439 8b26 1abd
0.119275205 0.039205253 0.0006619973 0.02677886 0.08357546 0.0009809708 0.07198666 -0.09618835
-0.1305002 0.034398086 -0.008141261 0.12045978 0.090576634 -0.11037324 -0.06977335 -0.035743054
-0.084341355 -0.004711363 -0.04379331 0.04493556 -0.0022123267 -0.14665158 0.080173135 0.061458886
-0.069205336 -0.040598385 -0.12112568 0.04405103 -0.03742359 0.014247416 -0.031072764 -0.0021052272
-0.03993773 0.09172233 0.116870075 -0.12266955 0.00026733294 -0.09127252 0.044173792 -0.050750524
0.00014118545 -0.037634414
