ModelUnpredictability/one_thousand_brains/predictor_90.model (torch_old, 109395 bytes, 7 tensors)

weight f4 [84, 168]
0.06983987 0.031692665 0.007222371 -0.05987322 0.041646894 -0.06634847 0.019939547 0.026031122
0.01180089 0.023388218 0.029340204 0.053761028 0.0075103873 0.034293354 -0.069039166 -0.06795496
0.047898456 -0.034669437 0.033181205 0.014933216 0.06652698 0.027377129 0.06062492 0.023837931
0.05342198 -0.0069807107 -0.05634927 0.035231918 -0.055934068 -0.03832722 0.054395236 -0.035042055
-0.05398263 0.05285384 -0.066700056 -0.056273878 -0.019744368 0.040310178 0.0109668635 -0.06720182
0.02599828 0.03876669 -0.037269063 -0.058860533 -0.06461119 -0.06020645 -0.005174081 -0.03361017
-0.0056381626 -0.013025038 0.016934173 -0.021788042 -0.04449519 0.055366773 0.07086888 0.04227565
0.017327227 -0.0574513 0.02740079 -0.042534966 0.05184934 -0.07402787 0.0068223146 0.06547796
0.052132014 -0.05065123 0.004748613 -0.017339038 -0.008679737 -0.047394365 0.04383763 -0.029238071
-0.023468403 0.05576236 0.027363127 0.02363039 0.03382432 -0.07149191 0.033127062 0.02043568
-0.0753209 -0.0701818 0.05430147 0.05628852 0.039197087 -0.052571062 -0.013265468 -0.052546754
0.04789075 0.025545187 0.0024210627 0.057673477 -0.016686868 -0.035428982 0.011896007 -0.019654552
0.010895814 -0.021099463 0.047583543 0.06345668 0.041548595 0.057553522 0.013821097 0.05140545
-0.0072669117 0.03728485 -0.06024431 -0.042782128 0.022362879 0.060573656 0.0026625984 0.010971779
0.019800693 0.02840418 0.049440503 -0.077831686 -0.028768625 -0.059367254 0.058818128 -0.07459896
0.017383963 -0.03518086 -0.044683434 -0.03930992 0.03460928 -0.004031082 -0.03660609 0.057024997
-0.0069072065 -0.056086864 0.038025327 -0.03075795 0.03693355 -0.077661425 0.021795949 0.027068112
0.065558106 0.037843615 0.008588584 -0.008303868 0.052433714 -0.038727976 -0.029571973 0.049858853
0.050436147 0.015340596 0.042650905 0.025666192 -0.00015929328 -0.032291975 -0.021000134 -0.0039894395
0.014356286 -0.08065494 -0.025039239 -0.0591383 -0.04061933 0.028282654 -0.047007248 -0.057889484
0.03115269 -0.046267774 0.04838494 -0.046868384 -0.019317286 -0.07970774 -0.06357042 0.03981864
-0.021094201 -0.07353462 0.040493768 0.059533678 -0.03760482 -0.021321028 0.05132686 0.05045449
-0.008235913 -0.07926527 -0.045097895 0.028592048 -0.04485218 0.06700459 -0.073369995 0.03565052
-0.06554108 -0.038562726 -0.08063418 -0.02110367 -0.025976313 0.04411954 0.0014162331 -0.06450301
0.024077239 0.030039197 -0.06333925 0.05736527 -0.038877502 -0.050321743 0.047606636 0.030933825
0.00047465996 -0.035720363 -0.076964065 0.06202331 0.06379265 0.023721129 -0.029836623 0.011293063
-0.06406477 -0.0674295 -0.06767907 0.011747542 -0.0039159656 -0.06386569 -0.035722446 -0.039523136
0.025409278 -0.0664524 0.007123197 -0.0044843657 0.044070337 0.051106703 0.018294703 0.03499589
-0.06130588 0.0027801942 0.017082512 0.0821333 0.05349351 0.0515385 -0.03867611 0.0445339
0.038077537 -0.0022837168 -0.065237105 -0.05948791 0.009045754 -0.038502526 -0.039569616 0.04181485
-0.020338183 -0.02076214 0.014373233 0.040116742 -0.05742247 -0.044789147 0.0010447435 0.063220054
0.011877005 0.007227072 -0.044269074 0.030790094 0.01028596 -0.05724997 0.014546825 -0.049516562
00000000: 3508 8f3d 2bd0 013d a4a9 ec3b 9f3d 75bd
00000010: ef95 2a3d b5e1 87bd 4358 a33c 383f d53c
00000020: 8558 413c a698 bf3c de5a f03c 8634 5c3d
00000030: b219 f63b 3077 0c3d 6864 8dbd f82b 8bbd
00000040: 2c31 443d 8a01 0ebd 04e9 073d 73aa 743c
00000050: 4c3f 883d 0046 e03c d651 783d c447 c33c
00000060: 02d1 5a3d 72be e4bb 7ece 66bd 584f 103d
00000070: 1f1b 65bd 01fd 1cbd 8acd 5e3d 4288 0fbd
00000080: e41c 5dbd 457d 583d 0a9a 88bd 707f 66bd
00000090: f1be a1bc 491c 253d 5cae 333c 1ca1 89bd
000000a0: 58fa d43c d2c9 1e3d 72a7 18bd be17 71bd
000000b0: df52 84bd 0a9b 76bd 568b a9bb d1aa 09bd
000000c0: 56c0 b8bb f866 55bc 89b9 8a3c d67c b2bc
000000d0: 9740 36bd 45c8 623d b423 913d 3b29 2d3d
000000e0: d4f1 8d3c 0e52 6bbd 9f77 e03c 2539 2ebd
000000f0: f95f 543d ed9b 97bd b98d df3b 4f19 863d
00000100: 6188 553d aa77 4fbd 419a 9b3b 990a 8ebc
00000110: 7535 0ebc 9820 42bd 168f 333d ae84 efbc
00000120: cf40 c0bc 1367 643d a328 e03c 8594 c13c
00000130: 5f8b 0a3d 5a6a 92bd 3eb0 073d ba68 a73c
00000140: d841 9abd 7abb 8fbd 386b 5e3d cb8e 663d
00000150: 208d 203d c154 57bd 6857 59bc 443b 57bd
00000160: 1729 443d 2444 d13c b1aa 1e3b 063b 6c3d
00000170: e6b2 88bc fb1d 11bd 78e7 423c 9502 a1bc
00000180: 5b84 323c c8d8 acbc f6e6 423d 93f5 813d
00000190: dc2e 2a3d 3ebd 6b3d e271 623c 858e 523d
000001a0: 461f eebb 00b8 183d bdc2 76bd 503c 2fbd
000001b0: 5b32 b73c 151c 783d fd7e 2e3b fac2 333c
000001c0: 1035 a23c e2af e83c 2082 4a3d 3866 9fbd
000001d0: 2eac ebbc 142b 73bd 47eb 703d 57c7 98bd
000001e0: d068 8e3c ce19 10bd fa05 37bd 7003 21bd
000001f0: 76c2 0d3d 2b17 84bb 44f0 15bd 0b93 693d
00000200: d955 e2bb 57bb 65bd 72c0 1b3d 19f8 fbbc
00000210: a247 173d f40c 9fbd 6b8d b23c f2bd dd3c
00000220: 5443 863d e801 1b3d 22b7 0c3c f20c 08bc
00000230: bcc4 563d 3aa1 1ebd ec40 f2bc cc38 4c3d
00000240: 2296 4e3d 2057 7b3c b7b2 2e3d e841 d23c
00000250: f707 27b9 9744 04bd 7908 acbc d8b9 82bb
00000260: a136 6b3c 6b2e a5bd 171f cdbc 013b 72bd
00000270: 7460 26bd 06b1 e73c ac8a 40bd 861d 6dbd
00000280: ed33 ff3c 4783 3dbd 492f 463d 10f9 3fbd
00000290: 493f 9ebc d03d a3bd 3531 82bd df18 233d
000002a0: bfcd acbc 5299 96bd cbdc 253d 96d9 733d
000002b0: 8307 1abd 70a9 aebc 1d3c 523d 5ea9 4e3d
000002c0: ecef 06bc d455 a2bd 92b8 38bd df39 ea3c
000002d0: ebb6 37bd b439 893d 0243 96bd 4806 123d
000002e0: 673a 86bd f3f3 1dbd 8823 a5bd 9be1 acbc
000002f0: 47cc d4bc b1b6 343d e6a0 b93a 271a 84bd
00000300: a13d c53c c314 f63c 02b8 81bd d8f7 6a3d
00000310: 043e 1fbd 2c1e 4ebd 2dff 423d ef68 fd3c
00000320: c8db f839 844f 12bd 569f 9dbd 280c 7e3d
00000330: b9a5 823d d052 c23c ef6b f4bc 8a06 393c
00000340: 6434 83bd 7a18 8abd 539b 8abd c378 403c
00000350: 8051 80bb 04cc 82bd b351 12bd 03e3 21bd
00000360: 1e27 d03c 3218 88bd b569 e93b 96f1 92bb
00000370: 1983 343d 4355 513d c6de 953c da57 0f3d
00000380: e01b 7bbd eb33 363b a0f0 8b3c 8135 a83d
00000390: 031c 5b3d 091a 533d d76a 1ebd 2e69 363d
000003a0: 31f7 1b3d 69aa 15bb 089b 85bd 98a9 73bd
000003b0: a434 143c d3b4 1dbd c013 22bd 0c46 2b3d
000003c0: 439c a6bc 5d15 aabc b57d 6b3c 7451 243d
000003d0: d333 6bbd d374 37bd c6ef 883a 8479 813d
000003e0: c597 423c 13d1 ec3b 7d53 35bd 823b fc3c
000003f0: 7186 283c f27e 6abd ce55 6e3c e1d1 4abd

bias f4 [84]
-0.06284775 0.04847548 -0.063432716 0.05730374 -0.0013606311 0.06551968 -0.05279357 -0.039111562
-0.011409472 -0.040433202 0.06509989 -0.062076453 0.06794069 -0.068485446 -0.05313561 -0.064174734
0.006914502 -0.060640235 -0.036265235 0.059862863 0.011938089 0.046592258 -0.007848695 -0.019201718
-0.069184534 0.020708753 0.002316527 0.00510077 -0.04882313 0.04069661 0.07960161 -0.008422635
0.037166975 0.021542516 0.029645367 0.0016917904 0.066690065 0.05647389 0.02902737 -0.071402095
0.028127426 -0.07570822 -0.02671671 0.0216934 0.039287172 0.017478593 -0.023652256 -0.0073742233
0.0142150745 0.027065767 0.057672035 -0.06988491 -0.047271717 -0.007172922 -0.034721322 0.026952969
0.033792756 -0.018807858 0.047329534 0.03748944 -0.045779116 -0.01134408 0.0131154535 -0.052995235
-0.012241333 0.022381226 0.073853575 0.008905192 -0.04519665 -0.028014021 -0.055302594 -0.011838711
0.05847079 -0.0664425 -0.004125448 -0.041158024 0.03518829 0.0012272979 -0.003318847 0.052664902
-0.063575625 0.050626867 0.047680784 0.0054238075
00000000: 52b6 80bd 3a8e 463d 03e9 81bd 54b7 6a3d
00000010: 3457 b2ba 2f2f 863d 123e 58bd 7233 20bd
00000020: cbee 3abc 499d 25bd 1753 853d e143 7ebd
00000030: 7d24 8b3d 1942 8cbd baa4 59bd 0b6e 83bd
00000040: 0c93 e23b e561 78bd db8a 14bd c332 753d
00000050: f997 433c 86d7 3e3d d097 00bc ec4c 9dbc
00000060: 9fb0 8dbd 67a5 a93c e0d0 173b 5c24 a73b
00000070: c3fa 47bd 7db1 263d 2b06 a33d 17ff 09bc
00000080: 663c 183d ee79 b03c d7da f23c 11bf dd3a
00000090: cd94 883d 2a51 673d cfca ed3c 433b 92bd
000000a0: 7d6b e63c e90c 9bbd 00dd dabc 5bb6 b13c
000000b0: 96eb 203d 442f 8f3c 60c2 c1bc 78a3 f1bb
000000c0: 58e6 683c 07b9 dd3c 8339 6c3d d21f 8fbd
000000d0: fd9f 41bd d50a ebbb f237 0ebd 79cc dc3c
000000e0: 466a 0a3d f012 9abc 9ddc 413d 878e 193d
000000f0: e282 3bbd 85dc 39bc 33e2 563c 8811 59bd
00000100: df8f 48bc d558 b73c 8b40 973d 15e7 113c
00000110: 1f20 39bd a97d e5bc f984 62bd 27f7 41bc
00000120: 117f 6f3d 0113 88bd c42e 87bb 5195 28bd
00000130: 9921 103d 49dd a03a 0381 59bb 27b7 573d
00000140: f033 82bd 1e5e 4f3d ed4c 433d 32ba b13b

weight f4 [84, 84]
0.07617063 0.03191164 0.09925027 0.03811504 -0.09426921 -0.029029392 -0.063447244 0.03815505
0.10396377 -0.07934113 -0.025792927 0.05899981 0.07504087 -0.04605853 -0.07710268 -0.069576696
-0.055134192 0.049988892 0.031649068 0.03397622 -0.10021709 0.072792135 0.03515113 0.003968609
0.06439235 0.06512072 -0.08641554 0.050754435 0.05088609 -0.08632376 0.08414951 0.113591224
0.0211146 0.09435736 -0.026472222 0.043455143 0.029807178 0.05904571 -0.015145495 -0.033366207
-0.09413013 -0.060370617 0.008120315 -0.06971856 -0.03152577 -0.04053875 0.0310321 0.008530343
0.07563216 0.031775076 0.10197373 0.014519188 0.0022925104 -0.10475091 0.035311285 -0.09215838
-0.036779717 -0.11991463 0.03790217 -0.10706188 -0.038606957 -0.07114283 -0.068317585 -0.060820032
-0.038578 -0.06606741 0.013466838 -0.07489633 0.055810757 0.113122866 -0.031144544 -0.058187943
-0.057857826 -0.061252356 -0.04776297 -0.044690188 0.043831296 0.00038088436 -0.025529236 0.087090455
-0.049842432 0.072266035 -0.010266367 -0.029062044 0.00064935215 -0.027911754 -0.0073575503 -0.073694095
0.07597319 -0.096295 0.008933879 -0.08153185 0.08612709 -0.058274522 0.021618137 -0.08574413
0.05247845 -0.064213626 -0.04771586 -0.087486744 0.016506929 -0.09383127 -0.038551103 -0.031168971
-0.058128517 0.020983774 0.01410008 -0.013872952 0.045297053 0.040908355 0.029682508 0.064188786
0.006501929 0.0060756016 -0.08974472 0.099337325 0.095974274 -0.050172098 0.1025516 0.063987635
-0.011761332 -0.09264167 -0.011517251 0.07682033 -0.049876526 0.020183997 0.08459125 -0.039524604
0.036645763 -0.084176235 -0.034237456 0.028430292 0.041628186 -0.07199689 -0.10411312 0.07196797
-0.09813219 -0.061989788 0.048874896 0.061309658 0.09745488 0.04266369 -0.08201826 0.051270492
0.071073756 0.0071270284 -0.060607087 0.07594056 0.0062257135 0.011670398 0.088021554 0.05986867
-0.057022378 0.08320833 0.06390354 0.0369232 0.06375863 0.01930207 -0.061289843 -0.047757845
0.021710675 0.093021005 -0.07702648 0.021691822 -0.055626173 -0.08731806 -0.06393504 -0.042944778
-0.019204289 0.08276856 0.08787132 0.0031473734 -0.06404486 -0.0032964845 0.053606045 -0.07933133
-0.056189317 0.057248637 -0.018880498 0.10558966 -0.06814184 -0.07618498 -0.07239606 -0.078870915
0.016104834 -0.028483583 0.02492163 -0.0065871347 -0.05547983 -0.07449013 0.017968697 0.11088872
-0.06416603 -0.07578918 -0.08698659 0.031253856 0.056104403 0.058243327 0.029385235 -0.08546443
0.04613905 -0.055578336 -0.04882935 -0.10799828 0.05720308 -0.049568195 0.08552484 0.044301305
-0.11987825 0.022175536 0.10493086 -0.09520966 -0.09630075 -0.07045747 0.07391826 -0.050868213
0.047042973 -0.05105799 0.104282156 -0.06053606 0.042185843 0.03395319 -0.042666852 -0.04069293
-0.004395812 0.098197 -0.10894 -0.0011043539 -0.030791106 -0.0022543925 0.061143704 0.020309694
0.08372899 -0.084529966 0.043738704 0.043885566 -0.077453785 0.011576508 0.074289046 -0.037896484
-0.038964793 0.10582359 -0.02205076 -0.05569778 -0.083292946 0.083616465 0.05661319 -0.02903522
-0.061218377 -0.034630798 -0.03165442 0.031323034 0.06429088 -0.09525991 0.06027927 0.100170314
00000000: 59ff 9b3d c8b5 023d ba43 cb3d 841e 1c3d
00000010: 3710 c1bd 0ccf edbc a1f0 81bd 7848 1c3d
00000020: f5ea d43d 9a7d a2bd b04b d3bc c9a9 713d
00000030: 07af 993d dfa7 3cbd 03e8 9dbd 3a7e 8ebd
00000040: 64d4 61bd 27c1 4c3d 74a2 013d a62a 0b3d
00000050: 9e3e cdbd 0b14 953d a2fa 0f3d 1b0b 823b
00000060: 23e0 833d 035e 853d a1fa b0bd e2e3 4f3d
00000070: ef6d 503d 83ca b0bd 9456 ac3d 84a2 e83d
00000080: 87f8 ac3c 6e3e c13d 46dc d8bc 05fe 313d
00000090: 2f2e f43c ead9 713d cf24 78bc 01ab 08bd
000000a0: 4cc7 c0bd 2e47 77bd 120b 053c 9bc8 8ebd
000000b0: 2a21 01bd f60b 26bd 0837 fe3c dac2 0b3c
000000c0: 09e5 9a3d 9526 023d 9ad7 d03d e3e1 6d3c
000000d0: f13d 163b a587 d6bd 91a2 103d 88bd bcbd
000000e0: 54a6 16bd cd95 f5bd 4e3f 1b3d 4243 dbbd
000000f0: 5422 1ebd 55b3 91bd 17ea 8bbd 6d1e 79bd
00000100: f703 1ebd 5a4e 87bd 03a4 5c3c 3f63 99bd
00000110: d299 643d f6ac e73d d822 ffbc 7b56 6ebd
00000120: 54fc 6cbd c0e3 7abd 1ba3 43bd 0f0d 37bd
00000130: 7288 333d 6fb1 c739 b022 d1bc 7b5c b23d
00000140: 9427 4cbd 3700 943d 4434 28bc 8613 eebc
00000150: 4939 2a3a 31a7 e4bc 9b17 f1bb eeec 96bd
00000160: d597 9b3d 5036 c5bd 685f 123c 2cfa a6bd
00000170: 6663 b03d 44b1 6ebd 8518 b13c 9e9a afbd
00000180: a5f3 563d 6f82 83bd b571 43bd 402c b3bd
00000190: 8a39 873c 9c2a c0bd c3e7 1dbd 1256 ffbc
000001a0: 2b18 6ebd 2ae6 ab3c 0604 673c 614b 63bc
000001b0: 6789 393d 858f 273d bb28 f33c 6975 833d
000001c0: 220e d53b d715 c73b 14cc b7bd 5e71 cb3d
000001d0: 298e c43d 4281 4dbd 9306 d23d f30b 833d
000001e0: 9ab2 40bc eaba bdbd dab2 3cbc fa53 9d3d
000001f0: 544b 4cbd e958 a53c 2d3e ad3d 8de4 21bd
00000200: de19 163d 9764 acbd 933c 0cbd a5e6 e83c
00000210: 5182 2a3d 1b73 93bd 4239 d5bd f163 933d
00000220: 88f9 c8bd 01e9 7dbd 0b31 483d d61f 7b3d
00000230: 6d96 c73d 1fc0 2e3d 31f9 a7bd 0201 523d
00000240: 1e8f 913d d989 e93b 233f 78bd b986 9b3d
00000250: 1201 cc3b 3235 3f3c a544 b43d da38 753d
00000260: 4c90 69bd 2169 aa3d dcdf 823d c83c 173d
00000270: e293 823d 601f 9e3c 0f0b 7bbd bb9d 43bd
00000280: 96da b13c cc81 be3d 0fc0 9dbd 0cb3 b13c
00000290: 45d8 63bd d0d3 b2bd 60f0 82bd dde6 2fbd
000002a0: 5052 9dbc 9082 a93d e1f5 b33d 2a44 4e3b
000002b0: f429 83bd d509 58bb 0392 5b3d 7778 a2bd
000002c0: c526 66bd 8c7d 6a3d 46ab 9abc 643f d83d
000002d0: f38d 8bbd df06 9cbd 6344 94bd 1387 a1bd
000002e0: 49ee 833c 6756 e9bc 7228 cc3c e4d8 d7bb
000002f0: d13e 63bd 488e 98bd 1733 933c a019 e33d
00000300: 7b69 83bd 5c37 9bbd 0626 b2bd 0b04 003d
00000310: bbcd 653d 8e90 6e3d 4eb9 f03c fa07 afbd
00000320: 4dfc 3c3d 1ca6 63bd 4901 48bd 342e ddbd
00000330: c74d 6a3d 0508 4bbd a627 af3d 4975 353d
00000340: ba82 f5bd 78a9 b53c fee5 d63d 48fd c2bd
00000350: 5439 c5bd 024c 90bd 7562 973d 305b 50bd
00000360: 22b0 403d 2f22 51bd e291 d53d a9f4 77bd
00000370: 10cb 2c3d 8012 0b3d 70c3 2ebd a1ad 26bd
00000380: be0a 90bb 821b c93d ef1b dfbd f8bf 90ba
00000390: a13d fcbc 6ebe 13bb d271 7a3d 8460 a63c
000003a0: 1b7a ab3d 0c1e adbd 5b27 333d 5ac1 333d
000003b0: 17a0 9ebd 65ab 3d3c db24 983d 5839 1bbd
000003c0: 8c99 1fbd 0aba d83d cca3 b4bc 5b23 64bd
000003d0: 7e95 aabd 1c3f ab3d 3be3 673d 45db edbc
000003e0: 1fc0 7abd 06d9 0dbd 11a8 01bd 954c 003d
000003f0: f0aa 833d a117 c3bd 65e7 763d 1826 cd3d

bias f4 [84]
0.074861884 -0.017351517 0.029779388 0.08892474 -0.042250544 -0.062076863 -0.07924025 -0.11123125
-0.0060191946 -0.050023984 0.066839084 -0.020938357 -0.09135654 0.039092343 0.048525725 -0.042779945
-0.026257897 0.043329556 -0.00865992 -0.040189676 0.009071383 -0.05342453 0.061182886 -0.07400122
-0.09256282 0.067398936 0.075212985 -0.09661562 -0.01019663 0.02219055 -0.029763935 -0.011215164
-0.0706904 0.049336165 0.06440773 -0.026359245 -0.053779643 -0.09234881 -0.065443404 -0.007574102
0.038886514 -0.07181475 -0.06668524 -0.00916038 0.062331285 0.072886035 0.037655164 -0.0021857347
-0.004924929 0.036404144 0.05232511 0.06413154 -0.013909146 -0.044290677 0.07671917 0.0051530357
-0.031259675 -0.076424375 -0.014762399 0.011856212 -0.051095374 -0.010124246 0.0679755 0.10375308
-0.07067156 -0.04179744 -0.024650574 0.098656066 -0.07908529 -0.055158556 0.07673866 -0.05342008
-0.057711676 -0.081403494 0.00949188 0.0018168401 0.021453716 -0.0655019 -0.053796872 -0.06119556
0.10105523 0.06637398 0.044847365 -0.07645721
00000000: 3051 993d c524 8ebc e7f3 f33c 2d1e b63d
00000010: e80e 2dbd 4f44 7ebd b648 a2bd 36cd e3bd
00000020: aa3c c5bb f3e5 4cbd eee2 883d eb86 abbc
00000030: 2319 bbbd 4b1f 203d e9c2 463d 063a 2fbd
00000040: cd1a d7bc 557a 313d 56e2 0dbc ee9d 24bd
00000050: 23a0 143c aed3 5abd e89a 7a3d f48d 97bd
00000060: 9391 bdbd 7408 8a3d 4409 9a3d 69de c5bd
00000070: c40f 27bc f5c8 b53c 7fd3 f3bc cfbf 37bc
00000080: 21c6 90bd b814 4a3d 33e8 833d 58ef d7bc
00000090: 0b48 5cbd 5f21 bdbd 3107 86bd 2c30 f8bb
000000a0: 7747 1f3d 9d13 93bd 4592 88bd 6b15 16bc
000000b0: 174f 7f3d 4645 953d 4d3c 1a3d 8b3e 0fbb
000000c0: 4c61 a1bb 831c 153d db52 563d 6657 833d
000000d0: 30e3 63bc 246a 35bd f11e 9d3d ccda a83b
000000e0: 250a 00bd 6284 9cbd fddd 71bc 8f40 423c
000000f0: 6249 51bd 2ae0 25bc bd36 8b3d 7f7c d43d
00000100: 40bc 90bd cb33 2bbd 00f0 c9bc 310c ca3d
00000110: 78f7 a1bd f0ed 61bd 2929 9d3d 04cf 5abd
00000120: 1463 6cbd e0b6 a6bd d583 1b3c 0a23 ee3a
00000130: b4bf af3c dc25 86bd 1c5a 5cbd 32a8 7abd
00000140: 0bf6 ce3d 15ef 873d dfb1 373d 9995 9cbd

weight f4 [42, 84]
-0.005737282 -0.0025088035 0.029216541 -0.04379733 0.1068092 0.07038843 0.037362408 0.058933746
-0.08551463 0.08331184 0.04542339 0.073770024 -0.045993228 0.04552424 0.0747161 0.117087014
-0.0063229525 0.08864877 0.050150923 0.09055295 0.050759386 -0.06924839 0.01758996 -0.103637934
0.037295274 0.06457164 0.004710591 -0.06108425 -0.109377235 0.09832627 0.11168739 -0.03837061
-0.04438759 0.02288966 -0.10276338 0.007419145 0.096640565 0.06637014 0.0044746897 0.019000564
0.06151173 -0.02567855 -0.007906697 0.08879199 -0.07799504 0.009429796 -0.064464085 -0.0018995312
-0.09235124 -0.06492146 -0.050676756 -0.09294459 0.054029647 -0.06597911 -0.08986211 -0.08704753
0.03216263 -0.02835567 0.0724145 0.012854323 0.088908955 -0.09661028 0.008170655 0.08469546
0.09192127 -0.10033778 0.08907701 -0.020990292 0.055503804 0.057194695 -0.096649006 -0.034601364
0.07654146 -0.07414413 0.01778272 -0.008836503 -0.06342504 -0.06909283 0.03949035 0.014020513
0.06901106 -0.049312774 -0.08090719 0.005038493 0.022410922 -0.046497688 0.02411307 -0.08701913
0.0028459188 0.11554299 0.106748946 -0.0011484604 -0.07809696 -0.043837517 0.10609414 -0.009694816
0.04400698 -0.06946384 0.014994834 0.016968088 -0.060994312 -0.06391608 0.053979605 -0.051733375
-0.091700666 -0.091751 0.01198591 -0.048274778 -0.07759265 0.09454305 0.07779828 0.080738656
-0.09199538 -0.023624783 -0.012439921 -0.011766953 -0.06303267 0.02838906 0.03354202 0.016634904
0.017309858 -0.010767094 -0.11258262 -0.052698113 -0.034558177 0.025337106 -0.06316867 -0.09707204
-0.050124083 0.09133978 0.05690713 -0.032781225 0.039249543 0.0010335287 -0.03129219 0.05101291
0.045059282 0.100533605 0.07979686 0.102591 0.014645972 0.019342331 -0.026308749 0.09039371
0.06276925 -0.09763137 -0.08475056 -0.022602925 0.0025500043 0.016842276 0.0669175 -0.074788965
-0.050647266 -0.08925132 -0.031447634 0.030281596 0.052975364 0.043734584 0.0149323065 0.014545286
0.044457886 0.06580333 -0.104084134 0.033393502 0.020273753 0.09454393 -0.05048816 -0.0775811
0.051738355 0.048503626 -0.026096854 -0.018213855 0.023178024 0.057031456 -0.07060589 0.04489454
0.06226822 0.08359016 -0.10783944 -0.0075897095 0.025584579 -0.037130497 -0.07535252 0.019784555
-0.038703885 0.09729409 0.09315718 -0.06799759 -0.012326702 -0.005315124 -0.08410947 0.042490937
-0.03258049 0.06963547 -0.00092221325 0.091105804 -0.006705202 0.018939147 -0.022601051 -0.0029193638
-0.0668773 -0.011483675 -0.019570202 0.0047161393 0.040345885 -0.0036685069 0.08309882 -0.03413558
-0.09628639 -0.101084664 0.11170573 0.09939074 -0.09663626 0.089823686 0.058380306 0.109741926
-0.0995742 -0.06118837 -0.016506877 -0.08945515 0.016610924 0.0036858213 -0.07965391 0.05509395
0.02689901 0.013812796 -0.10127043 0.031620596 0.053742945 -0.0021233165 -0.027424486 0.055543307
0.066967145 0.016802384 -0.060713496 0.083398804 0.07036944 -0.054828532 0.0062002013 -0.06759518
-0.08012149 0.0046176855 -0.05324086 -0.017207885 -0.10519158 0.09649482 -0.009631529 -0.07674583
0.024799496 -0.034641836 0.032418184 0.05319987 0.07479254 0.082546405 -0.035304476 0.11507
00000000: cfff bbbb bd6a 24bb 8757 ef3c d464 33bd
00000010: c8be da3d cf27 903d 5309 193d 8364 713d
00000020: 4b22 afbd 669f aa3d e00d 3a3d bd14 973d
00000030: 6563 3cbd a077 3a3d c104 993d 51cb ef3d
00000040: c530 cfbb 7c8d b53d 0e6b 4d3d d373 b93d
00000050: 13e9 4f3d 1ad2 8dbd d218 903c 2040 d4bd
00000060: eec2 183d 233e 843d 4d5b 9a3b 7b33 7abd
00000070: 2c01 e0bd 495f c93d 5cbc e43d 802a 1dbd
00000080: c3cf 35bd 1983 bb3c 9b75 d2bd 4d1c f33b
00000090: 7deb c53d 11ed 873d 6ba0 923b 12a7 9b3c
000000a0: b9f3 7b3d d35b d2bc 178b 01bc 93d8 b53d
000000b0: ddbb 9fbd 6e7f 1a3c bf05 84bd b1f9 f8ba
000000c0: a622 bdbd 8bf5 84bd 6e92 4fbd bc59 bebd
000000d0: 314e 5d3d 0e20 87bd a009 b8bd fa45 b2bd
000000e0: f6bc 033d 264a e8bc 0e4e 943d f09a 523c
000000f0: e615 b63d 9cdb c5bd 36de 053c d074 ad3d
00000100: 3841 bc3d e57d cdbd 026e b63d d5f3 abbc
00000110: f557 633d fc44 6a3d eaef c5bd 29ba 0dbd
00000120: c5c1 9c3d e1d8 97bd 11ad 913c fbc6 10bc
00000130: fde4 81bd 8b80 8dbd a2c0 213d 4bb6 653c
00000140: ac55 8d3d 31fc 49bd abb2 a5bd f119 a53b
00000150: 1c97 b73c 5c74 3ebd c688 c53c 1637 b2bd
00000160: 9882 3a3b cea1 ec3d 319f da3d f087 96ba
00000170: 4df1 9fbd f88e 33bd e247 d93d 01d7 1ebc
00000180: aa40 343d 0f43 8ebd e4ac 753c a900 8b3c
00000190: 2cd5 79bd 6fe6 82bd b819 5d3d 60e6 53bd
000001a0: 8fcd bbbd f3e7 bbbd 8d60 443c c6bb 45bd
000001b0: e5e8 9ebd c99f c13d b454 9f3d 4f5a a53d
000001c0: 1368 bcbd c388 c1bc cfd0 4bbc 2eca 40bc
000001d0: 4617 81bd 2d90 e83c 5b63 093d ec45 883c
000001e0: 67cd 8d3c 7768 30bc b791 e6bd fad9 57bd
000001f0: e08c 0dbd c38f cf3c 935e 81bd b5cd c6bd
00000200: e94e 4dbd 5a10 bb3d 7317 693d 9b45 06bd
00000210: 21c4 203d 7877 873a 3d2c 00bd eaf2 503d
00000220: 1590 383d 90e4 cd3d 896c a33d 3b1b d23d
00000230: a9f5 6f3c cf73 9e3c 7285 d7bc 5620 b93d
00000240: 2a8d 803d f5f2 c7bd b491 adbd c529 b9bc
00000250: f91d 273b d0f8 893c 0b0c 893d f52a 99bd
00000260: 8273 4fbd 65c9 b6bd 3ccf 00bd 1c11 f83c
00000270: b2fc 583d 0923 333d a2a6 743c 5a4f 6e3c
00000280: 7919 363d e5c3 863d 102a d5bd a0c7 083d
00000290: 2415 a63c 3fa0 c13d accc 4ebd d7e2 9ebd
000002a0: 99eb 533d bdab 463d 12c9 d5bc 3935 95bc
000002b0: d7df bd3c d199 693d d299 90bd 56e3 373d
000002c0: f60c 7f3d 5131 ab3d edda dcbd 19b3 f8bb
000002d0: c096 d13c 2616 18bd 6c52 9abd 3813 a23c
000002e0: f787 1ebd 2042 c73d 31c9 be3d 5242 8bbd
000002f0: eff5 49bc 7e2a aebb 9641 acbd fa0a 2e3d
00000300: 1f73 05bd 0b9d 8e3d afc0 71ba ae95 ba3d
00000310: 50b7 dbbb 4526 9b3c d725 b9bc cc52 3fbb
00000320: f7f6 88bd 0626 3cbc b051 a0bc d889 9a3b
00000330: ba41 253d 556b 70bb b72f aa3d c0d1 0bbd
00000340: cd31 c5bd 7a05 cfbd f9c5 e43d 5f8d cb3d
00000350: 3be9 c5bd 7bf5 b73d 3020 6f3d 60c0 e03d
00000360: 8fed cbbd a8a0 7abd 6e39 87bc 4334 b7bd
00000370: a213 883c d28d 713b 9721 a3bd 32aa 613d
00000380: 505b dc3c 114f 623c df66 cfbd 9984 013d
00000390: 9021 5c3d 5727 0bbb 51a9 e0bc 6181 633d
000003a0: 1226 893d 27a5 893c b7ae 78bd fecc aa3d
000003b0: da1d 903d e293 60bd 0f2b cb3b 576f 8abd
000003c0: bc16 a4bd f44f 973b 1713 5abd 8df7 8cbc
000003d0: af6e d7bd 149f c53d 90cd 1dbc eb2c 9dbd
000003e0: 5028 cb3c 99e4 0dbd eec8 043d 1be8 593d
000003f0: d52c 993d 170e a93d 6d9b 10bd d2a9 eb3d

bias f4 [42]
-0.031810593 0.013443318 0.086394764 -0.020268884 0.09832325 0.0613248 0.041280944 0.10304738
-0.039321296 -0.05972503 -0.06851955 -0.09149432 0.034640383 0.068159394 0.09299752 0.07707175
0.03817392 -0.072897755 -0.098451346 0.044421926 0.03648307 -0.05701229 0.040347487 0.0018111814
-0.06963375 0.07592083 -0.044614643 0.033373676 0.001919698 0.022421908 -0.0071558347 -0.09516403
-0.076146215 0.09057282 0.04508431 0.053200897 0.0118355155 0.006755449 0.03035397 0.033109475
-0.10651694 -0.112262644
00000000: d34b 02bd 5d41 5c3c bdef b03d ee0a a6bc
00000010: b35d c93d b72f 7b3d 3516 293d 810a d33d
00000020: 5e0f 21bd 3ca2 74bd fa53 8cbd 6061 bbbd
00000030: 13e3 0d3d 2797 8b3d 7c75 be3d cbd7 9d3d
00000040: 425c 1c3d 6b4b 95bd dca0 c9bd c4f3 353d
00000050: 466f 153d b885 69bd 6843 253d 2a65 ed3a
00000060: 249c 8ebd 617c 9b3d d8bd 36bd d6b2 083d
00000070: 609e fb3a 26ae b73c 7e7b eabb 5ce5 c2bd
00000080: 8cf2 9bbd 3e7e b93d 53aa 383d 2fe9 593d
00000090: c0e9 413c d05c dd3b e4a8 f83c cd9d 073d
000000a0: 8e25 dabd f5e9 e5bd

weight f4 [1, 42]
0.12120832 -0.06861082 0.12246244 0.054614417 0.09854239 0.12531118 0.024611058 0.04541875
0.007731949 -0.018545946 -0.029434556 -0.12520929 -0.047743566 -0.07391031 0.11399808 0.08690423
-0.13696928 -0.11425684 0.06772983 0.107935235 0.02907718 -0.1470608 0.13543372 -0.13348897
0.13351142 0.0073021497 -0.06594315 -0.095786914 0.02752629 0.10359753 -0.0028009 0.13678776
0.047620505 -0.077042475 -0.034364864 -0.041919615 0.086421624 0.09245739 -0.108491585 -0.13266091
-0.12493908 -0.11124254
00000000: 113c f83d d483 8cbd 96cd fa3d 5eb3 5f3d
00000010: 98d0 c93d 9351 003e 219d c93c 0309 3a3d
00000020: 4a5c fd3b abed 97bc bd20 f1bc dd36 00be
00000030: c28e 43bd 4a5e 97bd d377 e93d d8fa b13d
00000040: ad41 0cbe 7dff e9bd f0b5 8a3d 260d dd3d
00000050: 4433 ee3c 1b97 16be 23af 0a3e 55b1 08be
00000060: 38b7 083e df46 ef3b 340d 87bd ee2b c4bd
00000070: d07e e13c f12a d43d 4e8f 37bb 1712 0c3e
00000080: b80d 433d 72c8 9dbd 2cc2 0cbd e7b3 2bbd
00000090: d2fd b03d 4d5a bd3d d630 debd 43d8 07be
000000a0: 0fe0 ffbd 21d3 e3bd
