ModelUnpredictability/one_thousand_brains/predictor_40.model (torch_old, 109395 bytes, 7 tensors)

weight f4 [84, 168]
0.03827761 0.024568673 0.036330204 -0.061563376 -0.06700234 0.03721049 -0.020683251 0.03493837
-0.043414213 -0.007709489 -0.03374951 0.05856146 -0.02893272 0.030977705 0.053160656 0.013474298
0.053196497 0.019532451 0.03879565 0.0010963288 0.017883748 -0.053370632 0.013216725 -0.0634307
0.018346231 0.023333406 0.06710988 -0.0037941176 -0.034364965 -0.06485891 0.006012152 -0.046140924
-0.069080375 -0.045336243 0.060474273 0.04896494 -0.03343507 -0.021234874 0.045260817 0.019123297
0.0248673 0.034944132 0.019937847 -0.01580416 -0.053386606 0.022135835 0.062916584 -0.030083522
0.01535578 -0.040989887 0.04898036 0.03571963 -0.061206434 0.054415915 -0.04622942 -0.010311369
-0.005082745 -0.0153818615 0.06459779 0.021007527 0.03520123 -0.017249681 -0.049526285 0.0073371045
0.0092255715 0.036475684 -0.07870612 0.016668383 0.06088684 0.048113145 0.06554792 -0.031380348
-0.062442522 0.013987899 0.03192917 0.07157971 -0.0052937106 0.042164654 0.069279045 0.04479467
-0.022944696 0.07180199 0.05059107 0.019931402 0.071592115 -0.03579234 0.039769072 -0.016243843
-0.052442055 -0.03140254 -0.05745039 0.062125426 0.0028983327 -0.016786288 0.013736411 -0.015192028
-0.01754189 0.07595034 -0.04409284 0.05455175 -0.06847375 -0.060761087 -0.07417087 -0.034102023
-0.0023368718 -0.005602671 -0.07040072 0.011667586 -0.05298438 0.056070667 -0.03526106 0.008993392
0.060589354 0.05861594 0.01575439 0.053311873 -0.062453773 -0.052839864 0.044865828 0.007749314
-0.046271708 0.061673798 0.0013315676 -0.0133452015 -0.0582162 -0.06605717 -0.048160274 0.048279114
-0.0074443277 0.06982153 0.042435758 -0.06913728 0.0040495545 0.015645528 0.03653772 -0.0071947263
-0.052724887 0.02138525 -0.04680822 0.013045929 0.005006819 -0.03230051 -0.07906804 0.034106083
-0.03427414 0.046049032 -0.0724143 -0.003972168 0.05541625 0.016340641 0.02367478 0.0048582004
-0.0069084265 0.022847952 -0.05979 -0.05499721 0.0072578285 -0.0707271 -0.0038500798 0.05264576
-0.07190095 0.036814533 0.027886717 -0.00796802 -0.028385224 0.06603609 -0.03731987 -0.07341881
-0.023151994 0.012393763 0.01238041 -0.03307585 -0.055588696 0.032478712 0.041949246 -0.039783366
0.0024558385 0.07830158 0.009805054 0.045855146 0.010450032 0.030065298 -0.0039273896 0.07486605
-0.074102335 0.028283501 0.016157743 0.031488307 -0.045528423 0.01433748 -0.06790239 0.0729516
-0.056453284 -0.025228383 -0.030300757 -0.01035244 0.011006452 -0.026766112 -0.01635792 0.06761607
-0.030930782 0.06732563 -0.06023416 -0.028129874 0.068334155 0.023250682 -0.024040671 0.05624515
0.06086629 0.04463305 -0.05801351 0.027151706 -0.006355708 0.07709863 0.00917633 -0.04703147
-0.025645744 -0.005011385 0.038636114 0.017258352 0.035842985 -0.04209302 0.027007762 -0.012208221
0.0006341801 0.00036350236 0.02942013 -0.06729113 -0.052634064 0.04626559 -0.023143634 0.044554725
0.07639871 -0.04672573 0.05948689 0.042720545 0.009166966 0.033557948 0.03731893 -0.053517062
-0.019024745 -0.04430702 -0.06430638 0.058378596 -0.06835434 -0.018418407 -0.024835285 0.022975666
-0.050596237 0.014258169 -0.06385683 0.0144539485 -0.0688333 0.0059673097 -0.04280557 -0.03125219
00000000: fcc8 1c3d 3e44 c93c fbce 143d e129 7cbd
00000010: 8638 89bd 076a 183d ec6f a9bc 891b 0f3d
00000020: 1ad3 31bd e29f fcbb ed3c 0abd 24de 6f3d
00000030: 5004 edbc f5c4 fd3c fdbe 593d 4dc3 5c3c
00000040: 92e4 593d 8502 a03c 30e8 1e3d b1b2 8f3a
00000050: f080 923c 2a9b 5abd f68a 583c f4e7 81bd
00000060: d64a 963c b325 bf3c e870 893d bba6 78bb
00000070: 47c2 0cbd c0d4 84bd 9601 c53b 44fe 3cbd
00000080: 037a 8dbd 7fb2 39bd dfb3 773d 768f 483d
00000090: 36f3 08bd c2f4 adbc 6863 393d 76a8 9c3c
000000a0: 82b6 cb3c 9421 0f3d b254 a33c ba77 81bc
000000b0: eaab 5abd 3656 b53c 69da 803d b871 f6bc
000000c0: cf96 7b3c 03e5 27bd a19f 483d bf4e 123d
000000d0: 99b3 7abd 39e3 5e3d 0f5b 3dbd 04f1 28bc
000000e0: 288d a6bb 3404 7cbc d94b 843d fa17 ac3c
000000f0: 2a2f 103d 344f 8dbc 13dc 4abd 186c f03b
00000100: da26 173c 8767 153d ad30 a1bd 228c 883c
00000110: 7b64 793d 4a12 453d fd3d 863d ae88 00bd
00000120: bbc3 7fbd 802d 653c 29c8 023d 6298 923d
00000130: dd76 adbb d8b4 2c3d 2ce2 8d3d 9e7a 373d
00000140: 84f6 bbbc ec0c 933d 9538 4f3d 2e47 a33c
00000150: e39e 923d fd9a 12bd e5e4 223d cf11 85bc
00000160: 7bcd 56bd f39f 00bd 1a51 6bbd 3b77 7e3d
00000170: f4f1 3d3b 6683 89bc af0e 613c fce7 78bc
00000180: 02b4 8fbc da8b 9b3d b29a 34bd a871 5f3d
00000190: f73b 8cbd 9ee0 78bd e6e6 97bd 90ae 0bbd
000001a0: 3426 19bb 9c96 b7bb 412e 90bd 6729 3f3c
000001b0: 2606 59bd 5baa 653d e76d 10bd 0559 133c
000001c0: 8b2c 783d 4517 703d 5a0f 813c 8d5d 5a3d
000001d0: 87cf 7fbd 9d6e 58bd 3bc5 373d f5ed fd3b
000001e0: 6787 3dbd aa9d 7c3d ff87 ae3a d5a5 5abc
000001f0: 1c74 6ebd fb48 87bd b543 45bd 52c0 453d
00000200: 8cef f3bb 97fe 8e3d 1ed1 2d3d d997 8dbd
00000210: 20b2 843b 0d2b 803c 94a8 153d bdc1 ebbb
00000220: 0df6 57bd 1f30 af3c fab9 3fbd 98be 553c
00000230: 3e10 a43b 8a4d 04bd 6dee a1bd d2b2 0b3d
00000240: 0a63 0cbd e99d 3c3d f34d 94bd f628 82bb
00000250: 26fc 623d cfdc 853c 9df1 c13c 8a31 9f3b
00000260: 1560 e2bb a12b bb3c 5ce6 74bd c144 61bd
00000270: 14d3 ed3b 5fd9 90bd 9f51 7cbb 15a3 573d
00000280: ce40 93bd d6ca 163d af72 e43c 4c8c 02bc
00000290: 2188 e8bc ee3d 873d b8dc 18bd 9a5c 96bd
000002a0: 40a9 bdbc 360f 4b3c 34d7 4a3c 8b7a 07bd
000002b0: f9b0 63bd 6608 053d f9d2 2b3d e2f3 22bd
000002c0: 22f2 203b 945c a03d 61a5 203c 9bd2 3b3d
000002d0: 9c36 2b3c 804b f63c 55b1 80bb 5f53 993d
000002e0: f7c2 97bd cdb2 e73c 3e5d 843c e2f9 003d
000002f0: 037c 3abd c0e7 6a3c 6910 8bbd a667 953d
00000300: 8f3b 67bd c1ab cebc 4b39 f8bc 489d 29bc
00000310: 6854 343c 9b44 dbbc 0b01 86bc 4b7a 8a3d
00000320: 8d62 fdbc 05e2 893d 18b8 76bd 9f70 e6bc
00000330: c7f2 8b3d 3778 be3c f1f0 c4bc 5061 663d
00000340: ee4e 793d 25d1 363d 939f 6dbd 416d de3c
00000350: 8b43 d0bb e3e5 9d3d 5158 163c 12a4 40bd
00000360: 0617 d2bc 8b36 a4bb e740 1e3d 6361 8d3c
00000370: 18d0 123d bb69 2cbd 623f dd3c fd04 48bc
00000380: 1b3f 263a 7694 be39 7c02 f13c efcf 89bd
00000390: d196 57bd fd80 3d3d b897 bdbc 047f 363d
000003a0: ed76 9c3d 7b63 3fbd 86a8 733d bdfb 2e3d
000003b0: 0b31 163c 0f74 093d bcdb 183d b534 5bbd
000003c0: c8d9 9bbc 477b 35bd 10b3 83bd 651e 6f3d
000003d0: 5cfd 8bbd 33e2 96bc 5e73 cbbc 7737 bc3c
000003e0: 003e 4fbd 189b 693c 5fc7 82bd 41d0 6c3c
000003f0: 79f8 8cbd 6c89 c33b e554 2fbd 4c02 00bd

bias f4 [84]
-0.061337616 -0.036631294 0.012981416 0.028006366 0.06941368 -0.07442456 -0.03457492 0.036284864
0.0062891757 -0.019298604 0.062345028 -0.013657302 -0.07461201 -0.01794724 0.025113896 -0.011154369
-0.04803879 0.015041674 0.050389588 0.030719532 -0.015106525 0.018890603 0.0589884 -0.03209494
0.056036156 0.0054709464 -0.021738863 0.02687401 0.02883055 -0.041071914 0.0388592 -0.010205825
-0.022125162 0.006513058 0.0070758937 0.069052845 -0.06335947 0.047098644 -0.06133729 -0.045946226
-0.0685011 -0.051921867 0.0066813924 0.0152556775 0.017512804 0.0087624695 -0.026556997 -0.0075710234
-0.078893155 -0.07136939 -0.07007189 -0.052594747 -0.016520595 -0.058102135 0.026184462 0.06633179
0.073067956 0.06316143 -0.048663475 -0.030757243 0.06783094 0.030150687 -0.00642913 0.04885576
0.01927923 -0.0053342753 0.044590812 0.03086096 -0.0117195835 -0.04088347 0.049579058 -0.028298376
-0.049710948 -0.033866994 -0.014275917 0.015303198 0.001004212 -0.04271464 0.07096969 -0.004656009
-0.04809659 -0.04006161 -0.0017580928 -0.047585875
00000000: 273d 7bbd b20a 16bd 01b0 543c 9b6d e53c
00000010: c228 8e3d e76b 98bd 6e9e 0dbd 709f 143d
00000020: 6e15 ce3b 1b18 9ebc 805d 7f3d e0c2 5fbc
00000030: 2ece 98bd 1706 93bc a8bb cd3c d1c0 36bc
00000040: 52c4 44bd 5a71 763c 5065 4e3d 87a7 fb3c
00000050: 5c81 77bc 77c0 9a3c d29d 713d fc75 03bd
00000060: 2b86 653d a045 b33b b315 b2bc e226 dc3c
00000070: 0c2e ec3c 063b 28bd d32a 1f3d 5536 27bc
00000080: d43f b5bc 7e6b d53b e6dc e73b 946b 8d3d
00000090: 9cc2 81bd 82ea 403d cf3c 7bbd 1c32 3cbd
000000a0: 4e4a 8cbd 06ac 54bd 95ef da3b f3f2 793c
000000b0: 0377 8f3c 7690 0f3c 0f8e d9bc 5916 f8bb
000000c0: bc92 a1bd 1d2a 92bd da81 8fbd 976d 57bd
000000d0: 3356 87bc 81fc 6dbd cc80 d63c f6d8 873d
000000e0: a7a4 953d c85a 813d 5a53 47bd 9df6 fbbc
000000f0: f3ea 8a3d 93fe f63c 74ab d2bb fa1c 483d
00000100: 7aef 9d3c 25cb aebb dba4 363d 20d0 fc3c
00000110: 7f03 40bc 6d75 27bd 6913 4b3d ffd1 e7bc
00000120: b59d 4bbd 1eb8 0abd 89e5 69bc 44ba 7a3c
00000130: c39f 833a 8cf5 2ebd 8f58 913d 6f91 98bb
00000140: ee00 45bd a517 24bd ce6f e6ba 68e9 42bd

weight f4 [84, 84]
0.012805317 -0.04760414 -0.008090426 -0.05758888 -5.176426e-05 0.014005221 -0.029027913 -0.09108428
-0.073720135 0.021122886 0.023154944 -0.051504023 0.08266167 0.1067714 -0.08838563 0.0020627922
0.100240305 0.107231334 -0.00783039 -0.06506093 -0.048713602 0.10041528 0.037348874 -0.10192335
0.07479038 -0.02984442 0.03210251 -0.064163774 0.012535361 0.048903555 0.10324321 0.09821071
-0.09880484 -0.051887333 0.076923825 -0.10406752 0.02156094 -0.029221347 -0.11198622 -0.06365038
0.036474913 -0.06934626 0.06821121 -0.015321529 0.074782886 -0.08614549 -0.044573613 -0.0680326
-0.10011496 0.004550396 0.091415964 0.06833216 0.08000971 -0.08526428 -0.10133508 0.094359115
-0.018641908 0.0350074 -0.052547827 0.0612611 -0.016226254 0.063755766 0.025592169 0.06346033
0.08467216 -0.101405 0.1129214 -0.06897708 -0.02891102 -0.014472002 -0.059925042 -0.07423658
-0.008432694 0.010221477 -0.019364579 0.110987335 -0.034404397 -0.022503177 0.10574348 -0.100404084
-0.038198035 0.027825309 -0.026592989 0.07991502 0.015526586 0.09275897 -0.09602284 0.0683274
-0.038818542 -0.083037004 0.060377084 0.045679487 -0.047472965 -0.08051498 -0.05139011 -0.065938614
0.10155857 -0.028936977 0.056386165 -0.10373567 0.082939275 0.027416015 0.06632051 0.092169754
-0.06530853 0.009730136 0.08583053 0.047019843 0.104186445 -0.06531078 0.09630797 0.03727959
0.004241812 -0.08342226 0.0015208357 0.035068143 -0.04400301 0.04420884 0.05893206 0.07587178
-0.021550905 4.8025973e-05 0.019210761 0.021339653 0.09001271 -0.09686341 -0.047249224 -0.026000746
0.060235757 -0.10470236 0.07319704 -0.045993555 0.016720457 -0.10016997 -0.03189769 0.09939154
-0.09186788 -0.012547089 0.103879794 0.04137944 0.068262756 -0.012984442 -0.018969318 0.056693554
-0.07095413 0.09526802 0.05819938 -0.045662 -0.029605877 0.100086056 0.07822046 -0.04314676
-0.08288866 -0.017470427 0.066495135 -0.052507713 0.03802343 0.021610644 -0.0033761782 0.06806866
0.043932155 0.07095802 -0.031033736 -0.10418634 -0.1026356 -0.025716458 -0.0041655395 -0.053266313
-0.026475707 -0.09214037 0.043198768 0.06914182 0.10575532 -0.02385556 0.061241046 -0.03582741
-0.016218612 0.07425262 -0.017009242 0.09402029 0.0448736 0.066278525 0.1036386 -0.059120644
0.1048119 -0.045314886 -0.10900004 0.00027781966 0.10818261 0.077362835 0.01255316 0.017813476
0.02415623 0.0112687545 -0.053924624 0.09305987 0.0050121387 0.03431717 0.047189105 0.026279813
0.043053266 0.022789326 0.021492405 -0.07614277 0.009431972 -0.036036577 -0.069147386 0.009210241
-0.0034531585 0.09115327 0.11001779 0.04838756 0.03192856 0.08529375 0.08753963 0.05040542
0.03693717 -0.062200192 -0.025442112 0.048211783 -0.008764229 0.00092352764 0.040204067 -0.06139683
0.09949491 -0.09158101 -0.09423417 0.07627521 0.020430056 0.021681404 0.033612803 -0.045891993
0.024390813 0.0059365784 0.01943005 -0.08203045 -0.040079452 0.073902026 0.092410244 -0.07755468
0.09900991 -0.10167834 -0.008307952 0.0889803 -0.06123987 -0.004490477 0.01471008 0.06963939
-0.091255486 -0.0014166237 -0.020116068 0.02774464 0.07362923 -0.07377903 0.042427517 0.019157497
00000000: 64cd 513c 8ffc 42bd b58d 04bc 51e2 6bbd
00000010: 731d 59b8 2876 653c f2cb edbc 658a babd
00000020: 95fa 96bd e709 ad3c 70af bd3c e2f5 52bd
00000030: 864a a93d f7aa da3d 8603 b5bd e92f 073b
00000040: ca4a cd3d 1a9c db3d 094b 00bc aa3e 85bd
00000050: ea87 47bd 87a6 cd3d 22fb 183d 30bd d0bd
00000060: b32b 993d 497c f4bc ec7d 033d 4c68 83bd
00000070: 1d61 4d3c 184f 483d 2d71 d33d b222 c93d
00000080: 315a cabd d087 54bd 3d8a 9d3d 5a21 d5bd
00000090: 92a0 b03c 9b61 efbc 0859 e5bd 215b 82bd
000000a0: b866 153d 6905 8ebd 52b2 8b3d 2607 7bbc
000000b0: c527 993d 0c6d b0bd d292 36bd ad54 8bbd
000000c0: 1209 cdbd 7d1b 953b 4b38 bb3d bbf1 8b3d
000000d0: 21dc a33d 0a9f aebd c488 cfbd 5a3f c13d
000000e0: eab6 98bc eb63 0f3d 643c 57bd ebec 7a3d
000000f0: ecec 84bc 6292 823d aba6 d13c 7df7 813d
00000100: 9968 ad3d 6dad cfbd 5643 e73d db43 8dbd
00000110: ced6 ecbc fa1b 6dbc f673 75bd 5909 98bd
00000120: 4829 0abc fb77 273c 77a2 9ebc 544d e33d
00000130: a0eb 0cbd 9558 b8bc 0a90 d83d a8a0 cdbd
00000140: 8b75 1cbd e7f1 e33c 8ad9 d9bc 7caa a33d
00000150: 3963 7e3c 6af8 bd3d 9fa7 c4bd 3cef 8b3d
00000160: 3100 1fbd 4e0f aabd f64d 773d 6a1a 3b3d
00000170: 0373 42bd 0ae5 a4bd 707e 52bd d30a 87bd
00000180: f1fd cf3d 3d0d edbc 2ef5 663d 5e73 d4bd
00000190: 11dc a93d 8d97 e03c 0cd3 873d 7fc3 bc3d
000001a0: 7bc0 85bd 266b 1f3c ebc7 af3d e197 403d
000001b0: b45f d53d a9c1 85bd 1d3d c53d 7cb2 183d
000001c0: e6fe 8a3b 4ad9 aabd c756 c73a 9da3 0f3d
000001d0: 803c 34bd 5414 353d be62 713d aa62 9b3d
000001e0: 868b b0bc 7f6f 4938 e35f 9d3c 7fd0 ae3c
000001f0: 9558 b83d 5360 c6bd 6788 41bd 84ff d4bc
00000200: c5b9 763d 316e d6bd 54e8 953d bd63 3cbd
00000210: 57f9 883c ea25 cdbd 27a7 02bd cb8d cb3d
00000220: 3a25 bcbd 4e92 4dbc eebe d43d 7d7d 293d
00000230: 58cd 8b3d b2bc 54bc 8b65 9bbc 8037 683d
00000240: 6650 91bd e11b c33d 7962 6e3d 1408 3bbd
00000250: 0688 f2bc ebf9 cc3d 0c32 a03d a8ba 30bd
00000260: 88c1 a9bd 241e 8fbc 9a2e 883d 5412 57bd
00000270: 75be 1b3d ce08 b13c df42 5dbb 9567 8b3d
00000280: 34f2 333d 7052 913d 763a febc a65f d5bd
00000290: 9d32 d2bd 52ab d2bc 147f 88bb c72d 5abd
000002a0: 95e3 d8bc 17b4 bcbd 31f1 303d 3a9a 8d3d
000002b0: 3f96 d83d bc6c c3bc e4d7 7a3d c3bf 12bd
000002c0: e5dc 84bc c211 983d f756 8bbc b68d c03d
000002d0: 61cd 373d 09bd 873d 7940 d43d 7d28 72bd
000002e0: 9fa7 d63d 1a9c 39bd 6a3b dfbd 53a8 9139
000002f0: d88e dd3d 6870 9e3d c5ab 4d3c 91ed 913c
00000300: 49e3 c53c 95a0 383c 11e0 5cbd 2c96 be3d
00000310: de3c a43b 2990 0c3d 5d49 413d c348 d73c
00000320: 9f58 303d aeb0 ba3c d710 b03c bef0 9bbd
00000330: 8f88 1a3c 179b 13bd 259d 8dbd 8de6 163c
00000340: 634e 62bb 91ae ba3d 0251 e13d 0932 463d
00000350: 86c7 023d 7dae ae3d fa47 b33d ea75 4e3d
00000360: 6e4b 173d a1c5 7ebd fa6b d0bc b879 453d
00000370: d797 0fbc e418 723a 05ad 243d 3e7b 7bbd
00000380: fdc3 cb3d d38e bbbd d8fd c0bd 2d36 9c3d
00000390: ef5c a73c 339d b13c 94ad 093d 3ef9 3bbd
000003a0: 3ecf c73c a187 c23b c52b 9f3c 95ff a7bd
000003b0: 5a2a 24bd f259 973d 9541 bd3d fdd4 9ebd
000003c0: b5c5 ca3d bc3c d0bd 141e 08bc 4e3b b63d
000003d0: a8d6 7abd da24 93bb 8c02 713c 199f 8e3d
000003e0: 28e4 babd 01ae b9ba 74ca a4bc ba48 e33c
000003f0: ecca 963d 7619 97bd 7ac8 2d3d 2ff0 9c3c

bias f4 [84]
-0.054545972 -0.029735481 -0.03861508 -0.038103685 0.0785459 0.011187854 0.052149184 -0.036070608
-0.05701918 -0.06908739 -0.022884423 0.0017582366 0.0028171341 -0.06308584 -0.09326129 0.014327088
0.096996404 -0.055833213 -0.008670403 0.045743443 0.06640173 0.06924706 0.092049085 0.028753838
-0.0043537538 -0.0011199411 0.055364374 -0.057874806 0.0289721 -0.09078058 -0.025881171 0.011709453
-0.092491604 0.067502275 0.1012158 0.020397935 0.10070236 0.09796257 -0.07023579 0.017065344
0.051089495 -0.09502632 0.0033020426 -0.101738475 0.058255803 -0.0050587608 0.070829436 0.039596155
0.0693417 -0.0864448 -0.00866464 0.072251625 -0.04854099 0.0033600372 -0.014524795 -0.060808785
0.063363984 0.06083164 0.01629062 -0.007926963 0.07430292 -0.08283231 0.095674954 0.0031655352
-0.07991934 0.0572968 0.06166471 0.0058862907 -0.09149481 0.05207613 -0.020278133 0.045904905
-0.046204027 -0.038258664 0.07300382 -0.037100744 0.07371078 0.089581065 -0.090888314 -0.031672668
-0.028806511 -0.05121069 0.040201634 -0.035239767
00000000: 996b 5fbd d397 f3bc d92a 1ebd 9c12 1cbd
00000010: acdc a03d 434d 373c 629a 553d c6be 13bd
00000020: f28c 69bd b17d 8dbd 1d78 bbbc a174 e63a
00000030: ab9f 383b 2633 81bd c6ff bebd 2abc 6a3c
00000040: 0da6 c63d 5eb1 64bd 4e0e 0ebc 7a5d 3b3d
00000050: a1fd 873d 67d1 8d3d 3b84 bc3d 2b8d eb3c
00000060: efa9 8ebb fdca 92ba c1c5 623d 220e 6dbd
00000070: e656 ed3c 2beb b9bd c004 d4bc 01d9 3f3c
00000080: 3d6c bdbd a23e 8a3d 3b4a cf3d 9219 a73c
00000090: 0a3d ce3d 9aa0 c83d c8d7 8fbd 9fcc 8b3c
000000a0: 3843 513d 299d c2bd 1567 583b 435c d0bd
000000b0: a39d 6e3d f6c3 a5bb 060f 913d 942f 223d
000000c0: 0503 8e3d f909 b1bd 22f6 0dbc a9f8 933d
000000d0: ebd2 46bd 1234 5c3b 68f9 6dbc a212 79bd
000000e0: fac4 813d 992a 793d e873 853c 18e0 01bc
000000f0: 212c 983d fca3 a9bd 3bf1 c33d de74 4f3b
00000100: c0ac a3bd 0db0 6a3d 2394 7c3d c9e1 c03b
00000110: a261 bbbd c84d 553d 541e a6bc c806 3c3d
00000120: 6f40 3dbd 1eb5 1cbd 0783 953d f3f6 17bd
00000130: adf5 963d 4776 b73d a723 babd 33bb 01bd
00000140: a2fb ebbc 4dc2 51bd 78aa 243d 9357 10bd

weight f4 [42, 84]
0.03265136 0.08030291 0.07637029 0.00788987 -0.04534008 -0.096445546 -0.039399795 0.011661541
-0.055045515 -0.011946978 -0.038297463 -0.03528579 -0.053715836 -0.03984041 -0.09144445 0.099058226
-0.08647835 0.10189307 0.042560946 -0.09668302 -0.031281434 0.058671396 -0.062945105 0.08861622
0.056592755 0.093734816 -0.08726079 -0.03449603 -0.018223848 -0.049842656 -0.021421595 0.0029572216
0.019866722 0.044801738 0.02249342 -0.06907857 -0.07942954 0.08729138 0.053489853 -0.087017626
0.01040844 -0.017560227 -0.055305343 0.060196325 -0.09849132 0.094857045 0.013438303 0.10700777
-0.05854973 -0.05548298 -0.01332555 -0.079111 -0.042269252 0.06680579 -0.0033755403 -0.0008650559
-0.052585576 0.0064575872 0.06996401 0.0950232 0.10539356 -0.07887348 0.11934203 0.09491484
0.029577317 -0.0009108947 -0.021548085 0.056584172 0.093825236 0.07744094 0.036707185 -0.056172974
0.0040554143 -0.081163146 0.09500864 -0.025483679 -0.030812196 0.04192561 0.068302944 0.019731369
0.06609923 -0.080554225 -0.00068222446 0.065038085 -0.09705817 -0.011012532 0.023926709 0.1103006
-0.08427728 0.031246195 -0.04590542 -0.03095491 -0.029265627 -0.021134531 0.033672538 0.060062587
-0.07114085 -0.114341795 -0.035596345 -0.013400701 -0.07428866 -0.008859474 0.08411284 -0.11918438
-0.04833376 -0.047062173 -0.098326735 0.037529405 0.049925666 -0.004153626 0.10201695 0.03148084
0.032179315 -0.0073277177 -0.11420104 -0.06475952 -0.09530314 0.0039376756 0.07157887 -0.08560338
-0.023809688 -0.03594244 0.02969426 0.12626125 -0.108349934 -0.099075556 -0.0039687334 0.03088344
0.10671344 0.08679681 -0.023920573 -0.013677878 -0.10163471 -0.10405967 0.059330124 -0.063103676
-0.096917644 0.067654945 -0.04533812 0.049688824 0.093874894 0.05431931 -0.019440303 0.083411746
0.10585729 -0.083243646 0.06690081 0.09675409 -0.07392904 -0.0779185 0.06988736 0.09780647
0.06286098 0.021453772 -0.010115011 0.048282895 -0.004231088 -0.04549047 0.013876947 0.06858167
0.108264565 -0.0124872355 0.037829563 -0.089334644 -0.0032434657 0.06153733 0.01832844 -0.035252202
-0.09367311 -0.090199426 0.02510608 0.086503975 0.027171921 -0.06159997 -0.04536486 -0.050143987
0.026012825 0.030542037 -0.08359633 0.05749002 -0.08982756 -0.063793845 0.04849017 0.058013562
-0.01948199 0.018069673 0.03411501 0.0063227364 0.06233 0.10679182 0.015591939 -0.024786223
-0.022097487 -0.041024372 -0.074479155 -0.01996599 -0.100462876 0.007208357 0.015160612 -0.04564967
0.058345493 0.055267043 0.036605034 -0.048621364 -0.002339479 0.008118331 -0.0002631486 0.024228673
0.06997082 0.03551832 0.07690215 0.023427114 -0.08895467 0.06262782 -0.030177891 -0.09677142
0.035610076 -0.10354229 -0.036697563 0.015905993 -0.06444986 -0.012189974 -0.095709965 -0.08182901
-0.07032206 0.0710749 -0.057588104 0.060497098 -0.06985848 0.09947911 0.08384552 0.010089988
-0.09586537 0.0983545 0.005189727 -0.07592399 -0.07173644 -0.053613998 0.10921549 0.015071584
0.0966374 -0.06414404 0.081929415 -0.026036715 -0.064830706 0.1233947 0.049122576 0.027444929
-0.037684727 -0.01944682 0.031753708 -0.034121 -0.099820115 -0.104393445 0.095903225 -0.03123256
00000000: 6fbd 053d da75 a43d 0768 9c3d 8344 013c
00000010: 85b6 39bd 3e85 c5bd ae61 21bd 0c10 3f3c
00000020: 6877 61bd 42bd 43bc cddd 1cbd d587 10bd
00000030: 2305 5cbd b32f 23bd 3a47 bbbd 0adf ca3d
00000040: 901b b1bd 50ad d03d 6354 2e3d bf01 c6bd
00000050: f620 00bd 6b51 703d 5de9 80bd 6c7c b53d
00000060: cecd 673d 0af8 bf3d c9b5 b2bd b64b 0dbd
00000070: 2e4a 95bc d027 4cbd 577c afbc f2cd 413b
00000080: 89bf a23c 0782 373d 1f44 b83c 1179 8dbd
00000090: f4ab a2bd d3c5 b23d 2d18 5b3d 4c36 b2bd
000000a0: 2988 2a3c 77da 8fbc db87 62bd 6c90 763d
000000b0: d1b5 c9bd 6944 c23d 542c 5c3c e426 db3d
000000c0: d7d1 6fbd 1f42 63bd 6853 5abc f304 a2bd
000000d0: 8622 2dbd 79d1 883d 2b38 5dbb ebc4 62ba
000000e0: f963 57bd 2b9a d33b 4a49 8f3d 869b c23d
000000f0: 94d8 d73d 6b88 a1bd 9869 f43d b662 c23d
00000100: 214c f23c 1cc9 6eba 9c85 b0bc cec4 673d
00000110: 7227 c03d 5b99 9e3d 465a 163d a215 66bd
00000120: 48e3 843b dd38 a6bd e493 c23d 26c3 d0bc
00000130: dc69 fcbc 30ba 2b3d 6ae2 8b3d aea3 a13c
00000140: 085f 873d 9df9 a4bd 4fd7 32ba b032 853d
00000150: 6fc6 c6bd e86d 34bc f201 c43c 48e5 e13d
00000160: 9199 acbd 05f8 ff3c 5207 3cbd 2795 fdbc
00000170: 78be efbc 5322 adbc 37ec 093d 3004 763d
00000180: 4bb2 91bd 082c eabd 79cd 11bd 9d8e 5bbc
00000190: a724 98bd 5427 11bc 5a43 ac3d f116 f4bd
000001a0: 9ff9 45bd 44c4 40bd 875f c9bd 6fb8 193d
000001b0: db7e 4c3d 241b 88bb 43ee d03d 0ef2 003d
000001c0: 75ce 033d 5a1d f0bb 3ce2 e9bd a4a0 84bd
000001d0: 4b2e c3bd 9e07 813b f197 923d d350 afbd
000001e0: 890c c3bc 6138 13bd 6041 f33c a14a 013e
000001f0: 92e6 ddbd 20e8 cabd 260c 82bb 45ff fc3c
00000200: 938c da3d 87c2 b13d 14f5 c3bc 2e19 60bc
00000210: dc25 d0bd 3c1d d5bd 2504 733d 803c 81bd
00000220: c27c c6bd ad8e 8a3d 77b4 39bd 8286 4b3d
00000230: 7b41 c03d ed7d 5e3d 4541 9fbc c7d3 aa3d
00000240: b5cb d83d a57b aabd 4b03 893d 0227 c63d
00000250: 1c68 97bd bc93 9fbd 1b21 8f3d c24e c83d
00000260: 42bd 803d d2bf af3c 6eb9 25bc 49c4 453d
00000270: f0a4 8abb 3754 3abd 225c 633c 8c74 8c3d
00000280: d0b9 dd3d 4397 4cbc 2cf3 1a3d 15f5 b6bd
00000290: 5390 54bb 910e 7c3d 8625 963c 9d64 10bd
000002a0: b0d7 bfbd 7aba b8bd 44ab cd3c ff28 b13d
000002b0: a697 de3c 4050 7cbd 81d0 39bd c863 4dbd
000002c0: d918 d53c 4b33 fa3c 8d34 abbd a87a 6b3d
000002d0: 83f7 b7bd 59a6 82bd a19d 463d a19f 6d3d
000002e0: b298 9fbc da06 943c 2ebc 0b3d f52e cf3b
000002f0: be4d 7f3d abb5 da3d 5575 7f3c 7a0c cbbc
00000300: ca05 b5bc 2c09 28bd 8788 98bd b78f a3bc
00000310: 7bbf cdbd 1534 ec3b 3764 783c 26fb 3abd
00000320: affb 6e3d b25f 623d 29ef 153d 3227 47bd
00000330: f251 19bb c002 053c 35f7 89b9 367b c63c
00000340: dc4c 8f3d a87b 113d e07e 9d3d 38ea bf3c
00000350: de2d b6bd 0443 803d a037 f7bc 1830 c6bd
00000360: dfdb 113d fb0d d4bd 2f50 16bd 494d 823c
00000370: 4afe 83bd 75b8 47bc 9603 c4bd f895 a7bd
00000380: 0305 90bd b88f 913d 81e1 6bbd cecb 773d
00000390: f611 8fbd b4bb cb3d 33b7 ab3d 7a50 253c
000003a0: 1055 c4bd 166e c93d 960e aa3b 097e 9bbd
000003b0: 8eea 92bd 5a9a 5bbd 5fac df3d ceee 763c
000003c0: d4e9 c53d f35d 83bd 9cca a73d f34a d5bc
000003d0: f6c5 84bd 5cb6 fc3d c134 493d 30d4 e03c
000003e0: 4d5b 1abd f04e 9fbc 2d10 023d 76c2 0bbd
000003f0: 7d6e ccbd 3bcc d5bd e968 c43d 6ddb ffbc

bias f4 [42]
0.061311435 0.097057156 0.034646787 -0.08159329 -0.060114004 0.050180383 0.058792096 0.06792214
0.089991756 -0.011507482 -0.0146993175 0.048748158 0.11186428 -0.0062935688 -0.0810883 -0.046345297
0.022996442 -0.03493921 0.072775595 0.017662736 -0.08898075 -0.036779568 -0.043318145 0.08921607
-0.0684026 0.040583987 -0.05542547 0.043830767 -0.046104416 -0.0052245543 0.04078148 0.0585927
0.0085066985 0.015419851 -0.043198608 -0.012127104 0.020187393 0.020065485 0.032330904 0.060633514
0.036063984 -0.036755897
00000000: b321 7b3d e7c5 c63d cae9 0d3d 621a a7bd
00000010: 1a3a 76bd f289 4d3d fbcf 703d c31a 8b3d
00000020: 994d b83d e189 3cbc 68d5 70bc 26ac 473d
00000030: 1a19 e53d 483a cebb 9f11 a6bd 91d4 3dbd
00000040: 0963 bc3c 6b1c 0fbd 5f0b 953d 71b1 903c
00000050: 8a3b b6bd 2ca6 16bd 5e6e 31bd eab6 b63d
00000060: aa16 8cbd 653b 263d d105 63bd e487 333d
00000070: fcd7 3cbd bd32 abbb 7b0a 273d e6fe 6f3d
00000080: ae5f 0b3c 8ba3 7c3c 06f1 30bd c3b0 46bc
00000090: 0860 a53c 5f60 a43c 696d 043d d95a 783d
000000a0: d4b7 133d 5a8d 16bd

weight f4 [1, 42]
-0.100873105 0.04983244 -0.020616395 -0.038233258 0.03613563 0.08321327 -0.025799908 -0.10802633
0.03748515 0.07415477 0.00064956304 0.07314905 -0.12824029 -0.12646236 -0.1265641 -0.10769139
-0.07912543 -0.09072788 -0.015294381 -0.097245194 -0.06880508 0.0016222626 -0.009218056 0.029222813
-0.12530221 0.0014301385 0.08479185 -0.10385755 -0.048238046 0.12090428 0.07557493 0.025528535
0.017783483 -0.09726373 -0.057056606 -0.09634294 -0.12280355 -0.062834345 0.021530626 0.12011531
-0.1373465 -0.0554083
00000000: 8f96 cebd 1a1d 4c3d b7e3 a8bc 7a9a 1cbd
00000010: f402 143d b86b aa3d 545a d3bc e93c ddbd
00000020: 078a 193d 75de 973d 7047 2a3a 2bcf 953d
00000030: 6c51 03be 597f 01be 059a 01be 4e8d dcbd
00000040: 830c a2bd 8acf b9bd 4995 7abc 7d28 c7bd
00000050: aee9 8cbd 1aa2 d43a 5407 17bc ae64 ef3c
00000060: 394f 00be 7c73 bb3a 59a7 ad3d 44b3 d4bd
00000070: 4295 45bd aa9c f73d 07c7 9a3d 3821 d13c
00000080: abae 913c 3532 c7bd 30b4 69bd 734f c5bd
00000090: 6d80 fbbd 4baf 80bd ff60 b03c 04ff f53d
000000a0: 90a4 0cbe d0f3 62bd
