ModelUnpredictability/one_thousand_brains/predictor_36.model (torch_old, 109395 bytes, 7 tensors)

weight f4 [84, 168]
00000000: fdd7 0e3d fa7e 29bc 41f0 a0bd 6af4 3d3d
00000010: 8569 403d e9af d13c b3a6 83bd 4f5a b73c
00000020: 5ef8 d73c a958 3cbc b79c 4f3d c28b b0bc
00000030: dcb4 c33c 553a 7d3d 7022 61bc 85a0 1dbc
00000040: 4388 8abd 5286 b9bb 0639 213c bb2b 353d
00000050: 5437 5a3c 0ffc 8d3d 212c 153d a98c 02bc
00000060: 1721 843b 9da1 4b3d 5f9e ac3c 06f8 6abd
00000070: 547b e23c 9781 743d 2d7c 923c 20e0 703d
00000080: 9b74 85bd 240c 5bbc d1a7 873c 7c1e 6ebc
00000090: dbec 933d 465f 96bc ae07 cbbc 2b09 913d
000000a0: 250a 6bba 54c9 42bd e782 053c 7a2d 473b
000000b0: f6b4 47bd 1778 1bba 93c3 833d 1b7a 32bd
000000c0: 649d 4d3d fa4b 62bd fa2d 9f3c 8c6e 99bd
000000d0: cb29 513d 329a 8ebc 178a 0fba a1f7 ac3c
000000e0: fb79 a0bc 31c2 acbc 3c4a 72bd 91f0 06bd
000000f0: 6876 68bc 69cf 773d 369f 483d 4863 81bd
00000100: a46e 243d 9b81 02bd a78d 2cbd 1935 04bc
00000110: 68f3 f5bc e719 59bd b74a 18bc 56ca 283d
00000120: 4726 303b b397 59bd dc0a 063c 35f2 d0bc
00000130: 5d29 663d f1ef 003c b69a 903d afbd 233b
00000140: 9983 69bc e9f5 3cbd acfe 8abd 11e4 08bd
00000150: 7a50 42bd 62c7 4ebd 5807 3c3d 986a 0e3d
00000160: 5e1e 263c 10b9 f83c b72c 813d bdab 913d
00000170: 55cd 803c deca 96bd 1a3f 2b3d 0a9d 05bd
00000180: aa93 4a3c 8e80 6cbd ee8f 0b3b 832f 3dbd
00000190: e650 d9bc 2f61 40bd 111e a5bc 0ea1 68bc
000001a0: 41a8 53bd ad79 78bd f975 4b3d 7903 7ebd
000001b0: e6fa 8abc 40ba 403d b9e9 683d cc4f 3abd
000001c0: 7887 4d3d e377 67bd 233f 91bd e844 f63b
000001d0: 764a b93b 1944 e43b 2809 a8bc 0c71 babc
000001e0: d427 27bd f253 25bd 4fae 403d 71eb 32bc
000001f0: 5c76 9cbc d5ba 5bbd 3277 843d b390 a33c
00000200: bd6e bc3c 0da2 b6bc 8b1c 70bd 83b0 ae3a
00000210: 296b 52bd 12f2 80bd 3100 28bd 3f78 85bd
00000220: f5d8 a2bd fd98 813d 5f49 8ebd a6bc f6bb
00000230: 5de8 fc3c d2d8 2dbb 5bef 8e3d 5f8b 24bd
00000240: edc0 45bd 18db 80bd ae56 e63b b34e 923d
00000250: 89bf abbd 8d6d 34bd cf18 7abd f2e4 c5ba
00000260: 759f 7cbd 171f 1fbd b2dc d33b 6524 6e3d
00000270: bbdf 873b c8fe 0e3d 37fd 9cbc de46 d2bc
00000280: bf2c 8b3d f271 223d 7ea4 13bc ed38 cb3c
00000290: c720 363d bb33 8f3b cb15 933b 3eee 813d
000002a0: 6d42 26bc 7d0b 433d 3bdf 3dbd 737a c3bc
000002b0: 764d 5b3d c58d ecbb ec94 2abd ed45 67bc
000002c0: 551c 40bd d4cf 7e3c 0e6a f33b a34c 80bd
000002d0: 2957 a83d 3484 13bd c6ab 6a3d 7039 8dbd
000002e0: 34e0 d73c 14f8 7ebd 6d12 7d3d ad60 5cbd
000002f0: bc5d 423d 2665 933d 5e77 483d 22b5 89bd
00000300: 7f9c a0bc 6a8d 59bd 1a55 57bc a83e d7bb
00000310: c3da 36bd 872c c13c a69a 5bbd 7e5e 17bd
00000320: 5528 64bc dbd0 313d f285 8ebd 4b90 083d
00000330: 123d 48bd d9d3 a7bc 1324 583d 7c84 3abd
00000340: 0f47 5e3d 1493 513d afc9 843d 8a2f 3fbc
00000350: a93b 7abd 5cf9 843d 53de ed3c 0b48 84bd
00000360: 730c b0bc a67b 703c c059 fb3c e8a0 3cbd
00000370: 596b cfbc 12ea 893d 4c2d ddbc 8989 0abd
00000380: dacc e23b 8493 d2bc 4f39 d2bc fbe7 c1bc
00000390: f1b2 53bc d7df 81bd 142e 2d3d 606c 60bd
000003a0: 7501 2b3b b7a8 6dbd 54a4 253d 68e5 483d
000003b0: c6eb e23a fd71 10bc 0d60 24bd fb65 54bd
000003c0: a76d 533d 393a 423c 22a8 f73c 4310 b4bc
000003d0: 732e e33c 56b8 60bd 8e55 8cbd 095f 263d
000003e0: 2f5c da3b c1db 0f3d 4b26 393d bdbd 52bb
000003f0: ae9e d839 0532 10bd b4b0 cf3c 11a3 45bd
0.03487395 -0.010345215 -0.07858325 0.04637567 0.04697563 0.025596576 -0.0642828 0.02238193
0.026363548 -0.011495748 0.050686564 -0.021551017 0.023889951 0.061823208 -0.013741121 -0.00962079
-0.06764271 -0.005661764 0.009840256 0.044231158 0.013318855 0.06932842 0.036419038 -0.007968106
0.004032265 0.049714673 0.021071611 -0.05736544 0.027646698 0.0596939 0.017881477 0.058807492
-0.06516381 -0.013369594 0.016559513 -0.014533635 0.07222911 -0.018355977 -0.024783935 0.07081827
-0.000896605 -0.047555283 0.008148885 0.0030392096 -0.048756562 -0.00059306755 0.06433787 -0.04357348
0.050198928 -0.05524824 0.019431103 -0.07491788 0.051065248 -0.01740751 -0.0005475594 0.021114172
-0.019589415 -0.021088691 -0.059152827 -0.032944266 -0.0141883865 0.060500536 0.04897996 -0.063177645
0.040144578 -0.031861883 -0.042127278 -0.0080693 -0.030023292 -0.053003218 -0.009295157 0.041208588
0.0026878284 -0.053123187 0.0081813 -0.025506118 0.05619179 0.0078697065 0.07060759 0.0024984886
-0.014252567 -0.046132956 -0.06786856 -0.033420626 -0.04744003 -0.050483115 0.04590544 0.034769624
0.010139076 0.030361682 0.06307357 0.071128346 0.01572291 -0.073629126 0.041808225 -0.032620467
0.012364307 -0.057739787 0.0021295506 -0.04618789 -0.026527833 -0.04696768 -0.020155938 -0.014198555
-0.05167413 -0.060662914 0.049673054 -0.06201503 -0.01696534 0.04705262 0.05686352 -0.045486256
0.05017802 -0.056510817 -0.070921205 0.0075155385 0.0056546284 0.0069661257 -0.020512179 -0.022758983
-0.040809467 -0.04036326 0.047041234 -0.010920391 -0.019099407 -0.053644974 0.06468047 0.019966459
0.023002023 -0.022294069 -0.05862097 0.0013327751 -0.051371727 -0.06296171 -0.041015808 -0.06517076
-0.079515375 0.06328008 -0.06947588 -0.007529813 0.030872518 -0.002652694 0.06979247 -0.040171977
-0.04827969 -0.06291789 0.007029376 0.07143917 -0.08386142 -0.04404979 -0.061058816 -0.0015098138
-0.061675508 -0.03884801 0.006465518 0.058140177 0.004146544 0.034910947 -0.019163711 -0.025668558
0.06795644 0.039659448 -0.009011386 0.024807418 0.044464853 0.0043701804 0.004488682 0.06344269
-0.010147673 0.047618378 -0.046355467 -0.0238621 0.05354067 -0.0072190487 -0.04164593 -0.014115793
-0.04690202 0.01555248 0.007428414 -0.06264617 0.082197495 -0.03601475 0.057292722 -0.06895721
0.026352026 -0.062248304 0.06178515 -0.053803135 0.047452673 0.07197027 0.048941962 -0.067240015
-0.019605873 -0.05311338 -0.013142848 -0.0065687485 -0.04464222 0.023580803 -0.05361428 -0.03695535
-0.0139256315 0.04341207 -0.06959142 0.033340733 -0.048886366 -0.020486759 0.052768778 -0.045536503
0.054266986 0.051165655 0.064837806 -0.011669049 -0.061092053 0.06492874 0.029036677 -0.064590536
-0.021490311 0.014677918 0.030682445 -0.04605189 -0.025319742 0.067340985 -0.026999138 -0.03382257
0.006921393 -0.025705107 -0.025662092 -0.023670187 -0.012921081 -0.06341522 0.04228027 -0.054790854
0.0026093398 -0.058022227 0.04043992 0.049046904 0.0017312698 -0.008816239 -0.040130664 -0.05185507
0.051618244 0.011854702 0.03023154 -0.02198041 0.02773211 -0.054863296 -0.06852256 0.040617976
0.006663821 0.035121683 0.045202535 -0.003215655 0.00041316956 -0.035203952 0.025352813 -0.048251215

bias f4 [84]
00000000: cbe9 28bd b54a 96bb 6b52 7c3d 6baa 0f3d
00000010: 322d ef3c ea80 9fbd 4c05 c3bc a2a3 9f3d
00000020: 9d8a 95bd e8af 30bd b118 0c39 4ca9 afbc
00000030: a29e 8bbd 3deb cb3c 63ce 853d 4020 a03d
00000040: 78ac 4cbd ea5d 4b3d 6089 30bd 7ebf 4a3d
00000050: 61e8 283d 8a6d 30bb 0b7c 27bd 23df 173d
00000060: 487a 023c 4d0a 15bd 151e 8ebd e1cc c5bc
00000070: f20b 78bc b7d9 863d 6220 933d 5d58 6fbc
00000080: f6a7 a73c f25c be3c 8a37 803d 4aad 4abd
00000090: 167b 823d eac5 993d 2c78 88bc cb81 6e3b
000000a0: 51fc 033d b2f7 3e3d e329 12bc b874 d1bc
000000b0: af55 b0bb e9ef 87bd 46cf 703c 73e8 03bd
000000c0: 1e48 3b3d 65c8 8fbd b115 6bbd f624 7cbd
000000d0: dc29 5c3d a6fa 0cbc 6e74 86bd 5214 7fbd
000000e0: 9f95 c63c 4521 4a3d e082 343d 3788 80bd
000000f0: cf4d 99bd 5203 80bd 4f26 5fbc be38 613d
00000100: e985 533d 8ba2 09bd 080d 41bd 57c1 35bd
00000110: 2588 34bd 4abd 72bb 37ab 41bd c300 6e3d
00000120: 518f d33c ead0 d13c 8772 3d3d 9004 913d
00000130: 20a8 bfbc e90d e63b 06b2 5f3c 11a7 1abd
00000140: 0a50 a83c 7f75 3a3c d9d9 a83d 5e69 fe3c
-0.041238587 -0.0045865425 0.061602037 0.035074633 0.029196355 -0.0778826 -0.023806237 0.07794882
-0.07301829 -0.043136507 0.00013360639 -0.021443032 -0.06817366 0.024892444 0.06533506 0.07818651
-0.049969167 0.04965011 -0.04309976 0.049499027 0.04123724 -0.002692076 -0.04088978 0.037078034
0.007963724 -0.036386777 -0.069393314 -0.024145545 -0.015139567 0.065844946 0.07183911 -0.01460847
0.020465832 0.02323768 0.06260593 -0.049481668 0.06371133 0.07508452 -0.016658865 0.003639328
0.03222305 0.04662294 -0.008921119 -0.025568351 -0.005381308 -0.06637556 0.014697855 -0.032204103
0.045723073 -0.07020644 -0.057393733 -0.061558686 0.053750858 -0.008604681 -0.06565176 -0.06227524
0.024241267 0.049348135 0.044070125 -0.06275981 -0.07485544 -0.06250633 -0.013619973 0.054985754
0.05164138 -0.03360228 -0.04713157 -0.044373836 -0.04407515 -0.0037039095 -0.047282424 0.058106195
0.025825175 0.025612313 0.0462518 0.07080948 -0.023395598 0.007020701 0.013653284 -0.037756983
0.020545978 0.011380552 0.08244676 0.031056102

weight f4 [84, 84]
00000000: 86e3 1f3d bf12 a5bd 6b55 a03d fbec a2bd
00000010: 8075 1bbc 3909 263d aa96 ddbc b41d a3bd
00000020: 578b a1bd 73ca dfbc 2c78 4a3d 2086 46bd
00000030: 66db c93d 8240 393d 630d c5bd fd9c 4bbd
00000040: 2b72 343d 0cb7 b33d ad25 dd3c d32f 49bd
00000050: 4fd8 41bd 683a 3c3d ded7 c33d cc5c e43c
00000060: c294 9bbd 3e57 243d fc5c 9abd 46c0 9a3d
00000070: 1596 95bd 835a 9a3d b30f b4bd b3e8 8b3d
00000080: bf69 f63c 7e13 573d e183 7c3d 61ed d3bb
00000090: fbf7 f03c ba99 ecbc c33f b13c b58d 973d
000000a0: a734 5c3d 3712 0c3d 2584 a0bd 2ef4 663c
000000b0: a04a 31bd ea14 c13d f815 77bd 4e0d ba3d
000000c0: d448 81bd 3ba7 e2bd f7b8 993d 62ea 7cbd
000000d0: cb2b 8d3d 05ac 4a3d d502 d03c 1114 bfbc
000000e0: 224a b4bd 0f55 b73d ea3f fbbc 9c3d 42bd
000000f0: 8527 9b3d e4c5 273d 36c5 4c3d 4be2 d63b
00000100: c8e1 4bbd 3188 b83d 56a1 d1bc 70fb 1bbd
00000110: e983 fcbc 6a81 623b 19ff 973d dcaf 773d
00000120: 81df 8bbd d195 2f3d 621e 1e3c d8ad b4bd
00000130: 2ee7 983d 62ae 81bd f477 eabc 2405 43bd
00000140: 9a2d 2f3d c875 8fbc b089 59bc 6eea 313d
00000150: 794f 66bc 7a54 09bd 0251 9cbd b3d5 f7bb
00000160: 0d1f e33d 9206 b23c 38b0 93bd 01e3 8ebc
00000170: b7a9 cdbc 086b a53d 8083 503d cbd8 293d
00000180: 0554 b03c b59d c0bd eb77 d53b efe0 c73d
00000190: bd0d 6c3b 57e6 0dbd fb31 42b8 775e 11bd
000001a0: b13c 583d 486e a2bd 0460 69bd 4565 ad3d
000001b0: 9a0e 843d 399e 1ebc 61e0 2c3d 5ed2 293d
000001c0: 320e 9e3d 22dc 95bd 9ed7 503c af7e 3abd
000001d0: bd30 c13d d4a3 cb3c 0f19 f3bc 048f 8ebc
000001e0: 7aba 8f3c 213c a83d 8381 debc aa1e 08bd
000001f0: a6fd bf3d 2ddb b0bd 247e c73d 9c43 4e3d
00000200: cfbe a83d 918b 3bbd 64ca bebd 6470 b83b
00000210: f5f6 b53d 5a74 25bd c4b7 69bc bfca adbd
00000220: 0330 2dbd 8ee3 cf3c f151 02bd 498a 2b3d
00000230: 163c a8bd 9ddc 443d ed5f f03d 6cbc 803d
00000240: 668b 873d bf29 b4bd c2e0 52bd d693 6cbd
00000250: acbb 273d 0b8e 92bd 0693 64bd 16cb 29bd
00000260: 4a02 d5ba 8039 1cbc 9c1d 59bd 699b 7fbd
00000270: 0038 76bd b2b7 f1bc 49c1 653d a89a 61bd
00000280: f2db b33b 4298 8cbd 4f01 d23d 79a3 993d
00000290: 9657 d03d 0934 87bd d95b 43bd 36f3 273c
000002a0: 8beb 953d c4f3 6d3d a90b 22bd 7e54 b5bd
000002b0: 03c9 3abc a01d f23a 8e56 b9bd 43c5 79bd
000002c0: ffd8 4ebd 6140 283d ba12 81bd fdf7 383c
000002d0: 912e 9e3d 3598 c53c f65e e03d eef3 6cbc
000002e0: 1a8b 31bd 96d2 a7bd fde1 97bd 71de 0a3d
000002f0: f10d 583d ab2d e1bc dbb0 2dbd 6766 d33d
00000300: c9ca 6d3d 41dc a1bd 284a 8bbd bf18 dbbb
00000310: 513f c2bd 04c5 6dbd c4a1 4bbd b9f5 963d
00000320: 07ea 903c 0190 933c 4fd9 653d 4dbb 01bd
00000330: 113e a7bd bb03 43bd 3aa5 07bd 5e1e 88bd
00000340: 1422 a6bd ce72 55bd bf35 a3bd 3516 b03d
00000350: 5931 023d 9e13 1b3d 6839 343d 293f 86bd
00000360: 1b99 8abd 48b1 34bd fb49 abbd 490f b03d
00000370: 3202 9bbd d06c 7f3d 5289 a4bd cc5f c9bd
00000380: 04fc b13d 21a0 8a3d 02a1 5c3d 6cde 3ebd
00000390: 2d6a bd3b 12fc 88bd 2e74 453d c001 96bc
000003a0: d5a7 9b3d 9e29 153c 14c3 863d e80a 98bc
000003b0: f318 d83c 4aa2 dcbb 96e0 69bd 8161 63bd
000003c0: eaa8 5b3d 85d1 8a3d e5b0 c1bd 5bc8 02bc
000003d0: 8f66 ee3c 5a3f a4bd 2a21 c73c 3694 fb3c
000003e0: 4e49 aa3c abb9 0f3c d542 9d3d 11a4 203d
000003f0: de33 b1ba d4a1 80bd 5b37 b9bc 4341 56bc
0.039035343 -0.08060216 0.07828792 -0.07955357 -0.009488463 0.04053614 -0.027049381 -0.0796465
-0.07887905 -0.027318215 0.04943101 -0.048467755 0.098563 0.045227535 -0.09621694 -0.049710263
0.04405419 0.08775148 0.026995504 -0.049117874 -0.04732543 0.045954138 0.09562658 0.02787628
-0.07596733 0.040122263 -0.075372666 0.075562045 -0.073040165 0.07536795 -0.08792057 0.06831493
0.03007972 0.052508824 0.061649207 -0.0064675068 0.029415121 -0.028881896 0.02163685 0.07400075
0.05376115 0.03419706 -0.078377046 0.014096303 -0.04328406 0.09427817 -0.060323685 0.09084569
-0.06312719 -0.11067053 0.07505982 -0.061746962 0.068931185 0.049480457 0.025391975 -0.023324998
-0.08803202 0.089517705 -0.030670125 -0.047422037 0.07575897 0.040960208 0.049992763 0.006557738
-0.04977587 0.090103514 -0.025589626 -0.038081586 -0.030824618 0.0034562 0.07421703 0.060470447
-0.06829739 0.042867485 0.0096507985 -0.088222206 0.07465969 -0.06332089 -0.028621651 -0.047612324
0.0427681 -0.017512217 -0.013277456 0.04343646 -0.014057034 -0.03352783 -0.076326385 -0.0075633167
0.11089907 0.021731649 -0.072113454 -0.017442228 -0.02510534 0.08077055 0.05090666 0.041466516
0.021524439 -0.0940508 0.0065145395 0.097596996 0.003601893 -0.034643497 -4.6299752e-05 -0.03549048
0.052792255 -0.07931191 -0.056976333 0.08466581 0.064480975 -0.009681278 0.042206172 0.041460387
0.07717551 -0.073173776 0.01274672 -0.04553097 0.09433124 0.024858393 -0.029675035 -0.01740218
0.017544974 0.08214594 -0.027161365 -0.03323237 0.093745515 -0.086355545 0.09740856 0.050357446
0.08239519 -0.045787398 -0.09315947 0.0056286324 0.08884994 -0.040394165 -0.014265005 -0.084859364
-0.042282116 0.025377061 -0.031816427 0.041879926 -0.082145855 0.048061956 0.117370464 0.062859386
0.06618385 -0.08797025 -0.051483877 -0.057758175 0.040950462 -0.07155999 -0.055804275 -0.041453443
-0.0016251293 -0.009535193 -0.053006753 -0.06240407 -0.060112 -0.029506538 0.056092534 -0.055079132
0.005488866 -0.068649784 0.10254156 0.07501883 0.10172956 -0.06601722 -0.047695015 0.010250857
0.07320317 0.0580938 -0.0395619 -0.08854006 -0.011400464 0.0018471964 -0.09049712 -0.06097914
-0.050499912 0.04107702 -0.063024 0.011289594 0.077237256 0.02412043 0.10955612 -0.014462454
-0.04334555 -0.08194463 -0.07416151 0.033903543 0.05274767 -0.027487596 -0.04240499 0.10322266
0.05805472 -0.07903338 -0.068012536 -0.0066862996 -0.09484733 -0.058049217 -0.04971482 0.073710866
0.017689718 0.018013002 0.056115445 -0.031672765 -0.08166135 -0.04761098 -0.033116557 -0.06646417
-0.08111969 -0.05211144 -0.07969236 0.08597986 0.031785343 0.037860505 0.04400006 -0.065550156
-0.06767484 -0.04411438 -0.0836372 0.085966654 -0.07568778 0.06235963 -0.08034004 -0.09832725
0.08690646 0.067688234 0.053864487 -0.046598837 0.0057804794 -0.066887036 0.0482065 -0.018311381
0.07600371 0.009104161 0.06580177 -0.018559888 0.026379084 -0.0067332136 -0.057098947 -0.05551291
0.053627886 0.06778244 -0.09457568 -0.007982339 0.029101638 -0.08019896 0.024307806 0.03071032
0.020786908 0.008772294 0.07678763 0.039218966 -0.0013519486 -0.06280866 -0.022609403 -0.013077083

bias f4 [84]
00000000: d994 b5bd 9314 71bc 3f76 973c 2513 393d
00000010: 158c 36bd 6be1 4d3d 9469 a7bc 9703 d0bd
00000020: cbd8 023d be64 923d 319c 65bc 0461 99bd
00000030: 72b6 9dbd 513b e1bc 8a47 18bd f7f1 ad3d
00000040: 61d5 a73d 31a6 ee3c 2c87 9d3d fe3a 3ebc
00000050: ae0f 55bd 98e0 bdbd 383b 46bb a2b3 8f3d
00000060: 724c a3bd 1dd5 aabd aede f43c c85e cd3d
00000070: 4350 523d 3443 85bd 9ec8 45bd df73 7ebd
00000080: c47b 413c 85be 243d 58be b1bd cb37 58bb
00000090: 039a 0e3d 3a64 493c ba73 10bd 2ca0 b2bb
000000a0: e768 6b3d 1357 563d 3f05 8f3d 8e06 023b
000000b0: b0d1 bd3d e0f1 bb3d e40a 85bd 1acc 7ebb
000000c0: f7d9 553d 1507 973d 33ca abbc 2234 cbbd
000000d0: 138a ccbd eafe 833c 2678 1bbd 450b db3c
000000e0: 9910 2d3d abca b93b 4772 88bc 9de0 7a3d
000000f0: 8873 25bc e6db da3c d87c b03d 358b eabb
00000100: f039 38bc ec76 16bd d778 c1bb 0025 25bd
00000110: 43b8 123d 7ec2 a5bc 67db 1fbc 50d0 093d
00000120: 65ed ea3c 965a 2e3d b1ab 48bd 98be 633d
00000130: f8c2 46bc a517 d83c 927f 8bbd 4708 30bd
00000140: 15f3 bcbd e78b c4bd b453 5dbd 6077 15bd
-0.08866281 -0.014714378 0.018489001 0.045184273 -0.044567186 0.050263803 -0.020436086 -0.10156935
0.03194503 0.07148121 -0.01401429 -0.074892074 -0.07700814 -0.027494105 -0.0371776 0.08493417
0.08194996 0.02913198 0.076917976 -0.0116107445 -0.052016906 -0.092713535 -0.00302477 0.07016684
-0.07973565 -0.083414294 0.029891338 0.10027844 0.051346075 -0.065069586 -0.048287027 -0.062122222
0.011809293 0.040220756 -0.08678883 -0.003299224 0.034814846 0.012291962 -0.035266615 -0.005451223
0.05747309 0.052329134 0.069834225 0.0019840333 0.0926851 0.09176993 -0.06496218 -0.0038878978
0.05220982 0.07374398 -0.02097044 -0.09922053 -0.09987273 0.016112763 -0.03795638 0.026738772
0.042252157 0.005669912 -0.016656054 0.061249364 -0.010098346 0.026716184 0.08617562 -0.007157708
-0.011244282 -0.036734506 -0.005904298 -0.04031849 0.035820257 -0.020234343 -0.009756899 0.033645928
0.028677652 0.04256686 -0.048991863 0.055601686 -0.012131445 0.026378462 -0.068114415 -0.042976644
-0.09226052 -0.09596997 -0.054034904 -0.036490798

weight f4 [42, 84]
00000000: 1cbd 923d 9bfc 59bd d154 65bd 3fb8 633d
00000010: 9a41 8dbd f44d edbc 0da2 65bb badd c33d
00000020: 74b4 c0bd cd80 aabc 319b 4ebc c750 783c
00000030: cbe9 18bc e5a0 053d 26c2 36bd 3908 bc3d
00000040: 74f6 acbc 7381 513c 4784 82bd 736b 44bd
00000050: 2d92 793d fe55 44bb 6196 8cbd 222d d0ba
00000060: ba83 753d 8eb4 f53c 0e64 42bd 90db 9abd
00000070: 7521 ac3d 9fae 9e3d ea8a 7bbd ca70 0ebd
00000080: be67 dd3d fedb e0bd 5c40 1ebd a08d 0b39
00000090: 46c9 af3d 3e74 93bd 4aa2 be3b 6cc0 613d
000000a0: 7cab 09bd 5546 ac3d 30ee 813a 1f56 ce3d
000000b0: 5f9e 153d 0712 dc3d 99db 873d 869b 66bd
000000c0: 8465 38bc e6fa b73d d85c 9ebd 4fa9 653d
000000d0: a95a b13d e5dc 803d bd79 42bc a170 cfbd
000000e0: d682 83bd 4066 833d d7eb 253d 0578 793d
000000f0: 0ceb 4ebd 8570 ccbc d0aa 08bd f363 d7bd
00000100: 5bbf 3f3d 3626 09bd 0f2a 263d 7655 92bd
00000110: f8db 5abd a156 02bd 72d7 f33c 5da6 c23d
00000120: 3c51 1c3d 4f73 66bd b405 97bd db2d bf3d
00000130: be32 2c3d 9070 86bb 66ea a53d fe8a 6eba
00000140: 10e3 993c cb7e 29bd 675f c5bd f3ad fdbc
00000150: 3931 ab3d 38c0 4cbc b0bc bcbd 335d c73b
00000160: 3407 a3bd ccf3 cabd cfaa b1bb f989 acbd
00000170: 2f12 903c 324f d63b 37c8 9f3d 3367 aebd
00000180: 2de1 9dbd 2f8c b33d 8765 05bd 7cc7 973d
00000190: 7282 11bd e32f b3bb 67ff c23a fdf9 9e3d
000001a0: 207b a93d 00b6 59bd 00e3 503d 2c81 46bd
000001b0: e72b 8abd add5 74bc e65e a0bc ad8b 04bb
000001c0: 1b5f 963d 4f8d 4dbc 7522 a93d d054 adbd
000001d0: 252f fe3d d34f 623c fecb 96bd 3d9f fb3c
000001e0: 3634 bdbd c8dd c33c 9b7a 393d 45a0 c53d
000001f0: 748f ab3d 2cd3 95bd 2280 b8bd feac f63c
00000200: 994c bebd e965 3d3c 29f7 c4bc 18a5 adbd
00000210: 1b9b c73d 8ba0 84bd 390d 9dbd b7ec a0bd
00000220: d584 893d c478 a3bc aa82 863c 240c 863c
00000230: 1f73 913c b681 873c 4a0f 5abc 4c6d d4bd
00000240: 78b9 c2bc cf2e dabd 3fd8 36bd 5e62 a23b
00000250: 468b ef3c 6643 3bbd 8399 033d a71c c8bd
00000260: 2ebd dd3b 9d29 a9bb 7700 c33d f2c6 57bc
00000270: b34a 503d 0578 c4b9 3179 91bd a322 5fbd
00000280: 30e4 913d b2a0 2bbd 2355 343d cf42 9dbd
00000290: 8938 c63c 25b5 873d 5802 9fbd 20de 9bb8
000002a0: 8d4e c23d f622 043d cf4a ca3c 80e4 bdbc
000002b0: 3eb2 d33d 371d 893d 53f3 223d d3bb ac3c
000002c0: 36c9 8bbd 67cc ab3c 37b1 cd3d 6050 ee3d
000002d0: 4c71 883d 41ad 9bbd 081a 91bd f19a adbb
000002e0: 8654 283d 803e 3dbd aefb 55bd fcae 713c
000002f0: b8d7 bfbd 934d 743d dd8c 883d 9219 d2bd
00000300: 841e d1bd 4172 eb3b b71f 93bd f5d6 243d
00000310: 7b26 273d be9a cbbd 5261 823c 028c 983d
00000320: 0b1f 893d 4d02 14bd 06e6 bebd f521 dfbd
00000330: 5b30 663c 447e 353b fe89 6f3a da23 adbd
00000340: cb51 493d 8dd1 b03c 0558 c43c dbbd b0bb
00000350: 4e34 86bc 6532 033c b9a6 d93b 9140 d73c
00000360: a6cf 0b3d b518 43bd 07b1 1abd 288e 6c3d
00000370: e33d eabc f119 673d f342 34bc 341d 47bd
00000380: dfd6 39bc 2cf0 bbbd dba5 563d de2e 52bc
00000390: a192 b8bd 5404 bbbd 5daa 3bbd 858e 033d
000003a0: 8294 75bd b76f 70bd 9f33 8bbc fdd8 f73c
000003b0: e059 c6ba 04e4 f9bc 2ae6 873d 6794 28bd
000003c0: c3de c5bd c13f 8b3d 48fa cd3d 9e8f c43c
000003d0: e08d 3e3d b41c 8abd 399b 14bd bf38 83bd
000003e0: 5cf6 00bd c4d1 1cbd 53b9 953d 479c e73c
000003f0: 0d2a d73c 4027 85bd 4306 7b3b 7af4 9c3d
0.07164976 -0.05321942 -0.05598909 0.055595633 -0.06897278 -0.028967835 -0.0035039217 0.09563775
-0.09409419 -0.02081337 -0.012610243 0.015155978 -0.009333084 0.032624144 -0.044618748 0.09181256
-0.021113612 0.012787211 -0.06372886 -0.047954034 0.06093042 -0.0029958482 -0.0686462 -0.0015882591
0.059940077 0.029993322 -0.0474587 -0.075614095 0.08404819 0.0774815 -0.061411776 -0.034775533
0.10810803 -0.1097946 -0.038635597 0.00013308832 0.08583312 -0.07199906 0.005817686 0.05511515
-0.033610806 0.08411852 0.0009912904 0.1007502 0.036527988 0.10745626 0.06633682 -0.056300662
-0.011254672 0.08983402 -0.07732552 0.05606967 0.0865987 0.06292132 -0.011869845 -0.10128904
-0.06421439 0.06415987 0.040508118 0.060905475 -0.050517127 -0.024955997 -0.033366024 -0.10517111
0.04681335 -0.033483706 0.040567454 -0.07145207 -0.053432435 -0.031820897 0.029765818 0.095043875
0.03816341 -0.05626231 -0.07374135 0.09334918 0.04204058 -0.004102774 0.081013486 -0.0009099691
0.01878503 -0.041380685 -0.09637337 -0.030966735 0.08358998 -0.012497 -0.09215677 0.0060841083
-0.07960358 -0.09909782 -0.0054219733 -0.08424754 0.017586796 0.0065402025 0.0780186 -0.085157774
-0.077089645 0.08766972 -0.032567527 0.074110955 -0.035524793 -0.005468355 0.0014877141 0.07762525
0.08275437 -0.053152084 0.050997734 -0.04846303 -0.06746655 -0.014943522 -0.019576501 -0.0020224855
0.07342359 -0.012545898 0.08258525 -0.08463442 0.12411336 0.013812977 -0.07363127 0.03071558
-0.09238474 0.023909464 0.04528294 0.096497096 0.08376971 -0.073156685 -0.090088144 0.030111786
-0.092919536 0.011559942 -0.024043636 -0.08478755 0.09746381 -0.06475934 -0.07668538 -0.0785765
0.06714789 -0.019955046 0.016419727 0.016363211 0.01775509 0.016541343 -0.013309309 -0.10372409
-0.023770079 -0.10653459 -0.044639822 0.004955574 0.029241215 -0.045718573 0.032128822 -0.0977109
0.0067669367 -0.0051624314 0.09521573 -0.013169991 0.05085249 -0.00037473455 -0.071031936 -0.05447639
0.071236014 -0.041901298 0.044026505 -0.07678758 0.02419688 0.066263475 -0.07764119 -7.43235e-05
0.094876386 0.032259904 0.024693875 -0.023180246 0.103367314 0.066950254 0.039782833 0.021085655
-0.06825487 0.02097149 0.10043567 0.11636424 0.06662235 -0.07601405 -0.07085043 -0.0052980115
0.041096233 -0.046202183 -0.052241974 0.014751192 -0.09367317 0.059644293 0.066674925 -0.102587834
-0.102108985 0.007185251 -0.071837835 0.04024406 0.040808182 -0.09941624 0.015915547 0.07448579
0.06695374 -0.036135007 -0.09321217 -0.10895149 0.014049615 0.0027693668 0.0009137689 -0.08454104
0.04915027 0.021584297 0.023967752 -0.0053937263 -0.016382363 0.00800762 0.0066421893 0.026275905
0.034133576 -0.047630984 -0.037766483 0.05775276 -0.028593963 0.056421224 -0.01100229 -0.048611835
-0.011342733 -0.091766685 0.052404266 -0.012828557 -0.09012342 -0.09131685 -0.045816768 0.03211834
-0.05995608 -0.05870029 -0.016992388 0.030254835 -0.0015132986 -0.030504234 0.06635697 -0.041157153
-0.09661629 0.067992695 0.10057503 0.023994263 0.04652202 -0.06743756 -0.036280844 -0.06407308
-0.031484947 -0.038285986 0.073107384 0.028272761 0.026265169 -0.06501627 0.0038303293 0.07663818

bias f4 [42]
00000000: ac15 aabc e488 72bc 5b5e 6fbd b3ae 6cbd
00000010: 90c8 d73c ee11 b33c 55e0 2ebd 7be5 47bd
00000020: 90a6 413b c95a 463d 4ca1 b0bd 6880 50bd
00000030: 48c6 623d 6826 d6bc d0d8 68bd 33ca 853d
00000040: 4879 cfbd 32ec 80bd 4c32 88bd 597b 9d3d
00000050: 37d1 82ba 18b4 d3bd 0370 a73d bdab 9fbd
00000060: 849c d1bd da6f bbbc ab1a af3c 48be 55bd
00000070: 828d c0bd ec41 1b3c e8cd 9dbc 9bb6 833d
00000080: 075c 18bd ff00 9d3d 0fea b0bd 6abc 86bd
00000090: 8420 d0bd c777 36bd 9c66 39bd ce32 bdbd
000000a0: db6d 313d bcab 283d
-0.020762287 -0.014803145 -0.058439594 -0.057783794 0.026340753 0.021859135 -0.04269441 -0.048802834
0.0029548742 0.048426423 -0.08624515 -0.050903708 0.055364877 -0.02614136 -0.056847394 0.06532707
-0.101305544 -0.06295051 -0.06650218 0.07689542 -0.0009980564 -0.103370845 0.081756614 -0.07796428
-0.10234931 -0.022880483 0.021375021 -0.05218342 -0.094019905 0.009476166 -0.019263223 0.064313136
-0.03719714 0.076662056 -0.08638393 -0.06578906 -0.10162452 -0.044547822 -0.04526387 -0.09238206
0.043317657 0.041179404

weight f4 [1, 42]
00000000: 927d ee3d 1117 153d d812 cbbd 5913 6dbd
00000010: b30c bd3d e1c1 13bd 6ee3 923d 8fc6 ae3d
00000020: 74df afbd 62c1 a33d 48f3 e43d c983 ecbd
00000030: cf04 f4bd 40ab e0bd 479d ccbd 1a91 893d
00000040: c590 8b3d 579a 3a3d dc30 acbc c8f0 2ebd
00000050: ce86 03bd 6094 ccbd caa4 c43c 84e9 9f3d
00000060: b698 c13d 8160 9fbc d495 083b 50e3 07bc
00000070: b6ea 80bd a41d 353d bfe7 d13d 3603 ce3c
00000080: 9291 f83d cb7b 5d3d 73be e0bd 2709 af3a
00000090: 8fef 4cbd 6212 6b3d d05b b9bc 9ff7 b2bd
000000a0: b1c5 69bd 32e9 a13b
0.116450444 0.03639895 -0.099157035 -0.05787978 0.09230938 -0.03607357 0.07172285 0.08533966
-0.08587542 0.07995869 0.11179215 -0.115485735 -0.1191498 -0.10970163 -0.09990936 0.06717129
0.06814722 0.045557346 -0.021019392 -0.042710096 -0.03211098 -0.09989238 0.024004359 0.078082114
0.094529554 -0.019455196 0.0020841258 -0.008293942 -0.062947676 0.04421772 0.1024928 0.025148015
0.1213714 0.054073136 -0.10973825 0.0013354168 -0.05003315 0.057390578 -0.022626787 -0.08738636
-0.0570733 0.004941129
