ModelUnpredictability/one_thousand_brains/predictor_67.model (torch_old, 109395 bytes, 7 tensors)

weight f4 [84, 168]
000000 04 59 c4 3c 64 d0 22 bc 76 64 5b bd db 7a af 3c
       0.023968227 -0.0099373795 -0.053562604 0.021420887
000010 9e f4 43 3d d8 56 97 bd cc 1c 8a bd 10 67 11 bc
       0.047840707 -0.07389611 -0.06743774 -0.00887467
000020 4b 1b 1d bd 33 5b 8f 3d 74 79 38 3d 57 8b fa 3c
       -0.038356107 0.06999817 0.0450377 0.03058402
000030 a8 e9 31 bd 3b d3 19 3d 99 5a 69 3d cd 6e 86 bd
       -0.043435723 0.03755496 0.056971166 -0.06564102
000040 53 be 84 3d dc cc 3b 3d 45 4d ef bc 36 f4 85 bc
       0.06481614 0.045849666 -0.02921165 -0.0163518
000050 34 99 20 bd 45 c1 8a bd 05 c2 d1 3c 0c 90 99 bd
       -0.039208606 -0.067751445 0.025605211 -0.07498178
000060 76 d6 07 ba db 73 05 3d a2 3f 1f 3d fc 14 2a 3b
       -0.00051817985 0.03258119 0.038879044 0.002595245
000070 51 94 53 bd ad 05 81 bd e9 66 24 3d ed 2c 99 3b
       -0.051655117 -0.06299911 0.040137205 0.004674545
000080 10 52 3a 3d 4f dc 53 bc f2 ac d5 bc 52 e7 e5 b9
       0.045488417 -0.012930944 -0.026083443 -0.0004385063
000090 b4 b8 3c 3d eb 67 b8 3c dc 31 81 bc 69 ab 1c bd
       0.046074584 0.02251049 -0.015770845 -0.038249407
0000a0 bf b8 03 3d 0c 2c 3b 3d 2d 4f bf bb 68 88 3b bc
       0.03215861 0.045696303 -0.005838296 -0.011446096
0000b0 dd 69 a0 bd c4 f0 2a 3d c1 cb 0e bc fd 16 15 3d
       -0.07832692 0.04173352 -0.008715571 0.036398876
0000c0 32 d7 5f 3d 54 1a f0 bc cd a7 34 bd 62 e8 92 3d
       0.054648586 -0.02930943 -0.04410534 0.0717323
0000d0 55 d3 3c 3d 9d 28 33 3d 59 b7 8a 3d 47 b6 4a 3d
       0.04609998 0.043739904 0.06773252 0.04949024
0000e0 79 b0 71 3d fd 91 78 bd 4b 9b 03 3d e5 7f ec bc
       0.059006188 -0.0606861 0.03213052 -0.028869579
0000f0 58 ee b4 3c 3d 84 59 bd cf 00 4e 3d 55 d3 2e bc
       0.022086307 -0.053104628 0.05029374 -0.010670503
000100 8b 66 87 bd 61 ac 82 3d c3 01 70 bd c5 72 29 bd
       -0.066113554 0.06380535 -0.05859543 -0.04136922
000110 13 c6 d9 3c f3 13 48 bc 09 70 45 3d e7 a7 32 bd
       0.026583707 -0.0122117875 0.04820255 -0.043617155
000120 1b e6 11 3d e9 a1 90 bd 2d 28 ea bb 0f 8e 18 3d
       0.035619836 -0.07062132 -0.0071459026 0.037244853
000130 ff 9f 5a 3c 18 91 51 3c 18 27 a1 3b 07 14 90 3c
       0.01334381 0.012790941 0.0049179904 0.017587675
000140 6d 5f cc bc 9b 9a 90 bd 6a 6a 46 bd bf 11 d6 3b
       -0.024947846 -0.07060739 -0.048441328 0.006532877
000150 3b e9 42 3d a0 55 18 bd 10 de 40 bd 0b 99 02 3c
       0.047585707 -0.037191033 -0.047086775 0.007971059
000160 ee 86 7e bd 4c c5 1d 3d 28 55 77 bd a9 f4 03 bd
       -0.062140398 0.038518235 -0.060383946 -0.032215748
000170 ad ad b9 3c 78 e3 ed bc 0f 84 70 3d 78 96 20 bd
       0.022665823 -0.02903913 0.05871969 -0.039206
000180 2b be ed 3c ed 92 a0 3b 93 59 ac bb d0 50 ed bc
       0.029021343 0.0049003274 -0.0052597015 -0.028969198
000190 0e 83 9b bd a0 2f f1 bc 94 b9 23 3d d1 a1 b0 3c
       -0.07593356 -0.029441655 0.039971903 0.021561535
0001a0 30 25 5f bd 9a 24 58 bd 78 cd 67 3d 36 ee ca 3b
       -0.054478824 -0.05276928 0.056592435 0.0061929477
0001b0 e8 0f 89 bd 37 dc 9f 3c 54 f3 83 3d c9 ed 0e 3d
       -0.06692487 0.019514186 0.064428955 0.03489474
0001c0 eb c6 b8 bc de b9 25 3d 85 e9 5b 3c a8 95 75 3d
       -0.022555789 0.04046046 0.013422375 0.059957176
0001d0 e3 71 80 bd 45 a6 0b bd 8b d7 69 3d 43 02 2c 3b
       -0.06271722 -0.034094114 0.057090323 0.0026246465
0001e0 ca 5a c9 3c a0 c8 fe 3c 84 da 63 bd ee d5 38 3d
       0.024579424 0.031101525 -0.055628315 0.045125894
0001f0 af e3 67 3d fc b1 51 3c 4c 0b 93 3d 90 dd da bc
       0.05661362 0.012798782 0.07179889 -0.026716977
000200 9e 8f f1 3c 17 74 a9 bc 51 fe f7 bc bf 67 10 bd
       0.029487427 -0.020685239 -0.030272635 -0.03525519
000210 de 3e 0f 3c 6f 0f 53 3d 06 31 6a 3c 20 13 85 3d
       0.008743016 0.05152839 0.014293915 0.064977884
000220 46 13 47 3d b6 8f e7 3c 29 e0 b5 bb 1c 2d 90 bd
       0.048602365 0.028266769 -0.0055504036 -0.07039854
000230 b6 7f 6f bc 1c 77 8e 3d 22 48 24 bd 9a 1d ee 3c
       -0.014617851 0.06956312 -0.040107854 0.02906685
000240 c8 3b 63 bd d8 bf 8c 3c bd fc 0e 3c f4 af ec bc
       -0.055476934 0.017181322 0.00872725 -0.028892495
000250 14 83 64 3d 0a 04 ac bb 44 84 11 39 a5 75 d0 3c
       0.05578907 -0.005249505 0.0001387755 0.025446722
000260 a4 9e 56 bd 43 43 14 3d 65 ee 1a bd 30 c4 8a bd
       -0.052397385 0.03619696 -0.037825007 -0.06775701
000270 7c 79 59 bd e9 c9 86 3d 07 e3 73 bd 16 ad 57 3c
       -0.053094372 0.0658148 -0.059542682 0.0131638255
000280 36 02 59 3d cc 59 b2 3c c8 ff 49 bb 32 27 6f 3d
       0.052980624 0.021771334 -0.0030822624 0.05838699
000290 4f 31 04 3d f8 b3 31 bd bc 18 07 3d d8 ab 6d bd
       0.032273587 -0.043384522 0.032982573 -0.05802521
0002a0 5a 92 ed 3c b5 29 87 3d 0c df c8 bc 39 8d ce bc
       0.02900045 0.06599752 -0.02452042 -0.025213825
0002b0 7f 2f 9d bd 23 6a 88 bd b3 62 3a 3d 9d 6f 24 3d
       -0.07675075 -0.06660869 0.045504283 0.040145505
0002c0 1f a1 9c bd 07 11 4d bd 3f a9 3c 3c 3f fa 1f bd
       -0.07647919 -0.050065067 0.011514961 -0.039057013
0002d0 7a 66 1f bd 4f a5 53 3d af 80 00 3d 1f a0 fb 3c
       -0.03891609 0.051671322 0.031372722 0.030716
0002e0 48 78 ad bc 02 eb 21 3d 0f bd 8a 3d e3 6b 13 3d
       -0.021175519 0.03953076 0.06774341 0.03599156
0002f0 a8 ed 4b 3d 1c ca 76 3d 02 5d d6 bc 36 25 91 bd
       0.049787194 0.06025134 -0.026167396 -0.070871755
000300 8a 48 8e 3b 78 8d 92 bd 6b e8 0a 3d cc e7 88 bc
       0.0043421434 -0.07155889 0.033913057 -0.016712092
000310 ef ce ff 3c 6f 53 b8 3c 90 4c 7b 3c 4e 53 62 3d
       0.031226603 0.022500722 0.015338078 0.055255227
000320 ce a7 d3 3c 02 0d 93 bc 6c 13 2c bd 90 d7 1e bc
       0.025836851 -0.017950539 -0.04201071 -0.009694949
000330 cd bf 0d 3c 8a 0d 03 bd 9f f2 82 3c bf 66 56 bd
       0.008651686 -0.031995334 0.015984831 -0.05234408
000340 23 b9 b9 3c 76 cd 7f bd 95 1a 12 3d 85 28 b0 3c
       0.022671288 -0.062451802 0.03566988 0.021503696
000350 72 ec eb bb 4f 6a 92 bd 28 24 71 bc 36 ce 22 bd
       -0.0071998173 -0.07149183 -0.014718093 -0.03974744
000360 0c 46 59 3d 30 28 9a bc 54 aa 80 bd 5e 9a 82 bd
       0.053045318 -0.018817991 -0.062824875 -0.063770995
000370 a3 8d a1 bc f7 3c ff bb 22 70 96 3d dd a7 86 bd
       -0.019720858 -0.00778925 0.073456064 -0.06574986
000380 99 ac 88 3d f5 9b a0 bd 75 a9 15 bd 38 90 1e bd
       0.066735454 -0.078422464 -0.03653856 -0.038711756
000390 73 9f b4 3b e6 1c 3e bc ce 17 79 3d d3 ea fd 3c
       0.005512172 -0.01160357 0.060813718 0.030995762
0003a0 47 77 87 3d 13 c3 00 bd a9 e1 14 3d 2a aa 31 3d
       0.06614547 -0.031436037 0.03634802 0.04337517
0003b0 82 89 58 bd 4e 13 42 3d 0f f4 70 3d 77 45 43 3c
       -0.052865513 0.04738169 0.058826502 0.011918417
0003c0 85 7e 68 3d 4b 29 63 3d bc 31 69 bd 6e f4 89 3d
       0.056761283 0.055459302 -0.056932196 0.067360744
0003d0 1f 0d ee bc f1 43 a1 bd 58 e9 65 3d 31 f0 87 3d
       -0.029058991 -0.07874287 0.056130737 0.0663761
0003e0 07 d0 18 3c b0 ab 8a 3b f6 d3 57 3d e1 56 a5 bc
       0.009326941 0.0042318925 0.052692376 -0.020183029
0003f0 20 1a c1 3c 11 f9 b2 3c 7f cb 27 bc fb de d7 3c
       0.023572028 0.02184728 -0.010241388 0.026351443

bias f4 [84]
000000 3e b1 27 bc 2b c7 91 bd 11 fb b4 bb 9b aa e7 3c
       -0.010235129 -0.071180664 -0.0055230935 0.028279593
000010 26 34 08 bd a3 c5 5d bd 1c dd 4f 3d 96 f4 7e 3d
       -0.033252858 -0.05414356 0.050747976 0.062244974
000020 c8 5f 23 bd 4f ab 93 bd 74 81 46 bd 15 1b 4b bd
       -0.039886266 -0.07210409 -0.0484633 -0.049586374
000030 aa 8e 0e 3d c4 b9 ae bb 25 ad 4d bd 83 d2 27 3d
       0.034804024 -0.0053322036 -0.05021395 0.040972244
000040 a2 7b a7 bc bf bb 62 3d 86 6e 5b 3d 38 67 0c 3d
       -0.020444695 0.05535483 0.0535722 0.034278125
000050 6d b4 78 3d e8 6d a1 bb ee 49 74 3d b8 7e 89 bd
       0.060718942 -0.004926432 0.059640817 -0.06713623
000060 79 97 60 3d 8f 6a 9b bd d0 80 2c 3d 09 08 72 3c
       0.054831956 -0.07588684 0.042115033 0.014772424
000070 92 2c d5 bc cf a8 0e 3d 4e b0 53 bd 7c 2a 24 3d
       -0.02602223 0.034828957 -0.05168181 0.04007958
000080 9f e0 76 bd cb 84 fd bb db b5 86 bd db 11 71 bc
       -0.06027281 -0.0077367774 -0.06577655 -0.01471373
000090 b9 65 c6 bc fd ca 67 bd c7 31 62 bd f1 cb 3a bd
       -0.024218427 -0.05659007 -0.055223253 -0.04560465
0000a0 76 41 6f bd 72 8c 91 3b 16 2b 00 3d 75 41 c4 3b
       -0.058412038 0.004441791 0.03129109 0.0059892484
0000b0 bf 19 84 bd be 2c 21 bd 5b c1 99 bd 3b 75 89 3d
       -0.06450223 -0.03934931 -0.07507583 0.06711813
0000c0 fe 28 cb 3c 0d 38 64 3c fa 37 4e bd ae ff a5 bc
       0.02479982 0.013929379 -0.050346352 -0.02026352
0000d0 96 ab 8b bd 34 0c 64 bd 94 5b 6a 3d 2b 15 92 bd
       -0.06819837 -0.0556757 0.057216242 -0.07132944
0000e0 d1 a9 88 3c 29 f8 83 bd 23 f1 0f bd 3b 6d 74 bd
       0.016682537 -0.06443817 -0.035142075 -0.059674483
0000f0 b7 4e 98 bd 44 7d 97 bd fb 2d 82 bc c1 9d cd 3b
       -0.07436889 -0.073969394 -0.015891066 0.0062749092
000100 d0 dd 17 3b 20 7b 30 bc 17 9e 71 3c 8d d1 96 bd
       0.0023172982 -0.010771543 0.014747164 -0.073641874
000110 59 c1 c6 3a 0f 61 33 3c e6 0f bd bc 3c ef 76 3c
       0.0015163823 0.010948434 -0.02307887 0.015071686
000120 e0 42 61 3c 2d 4e 3d 3c 04 9d eb bc 8b b5 51 bd
       0.013748854 0.011554283 -0.028761394 -0.051198523
000130 2c 57 23 bd cb 75 fd bc 2a 21 d2 3c 4a e0 8b bd
       -0.039878055 -0.030939957 0.02565058 -0.06829889
000140 a3 5c 6d bc 7f c5 6c bc 5f fa 5c bc 75 3c 2f 3c
       -0.014487418 -0.014451384 -0.0134874275 0.010695566

weight f4 [84, 84]
000000 13 09 28 3d 71 13 9c bd 7e b0 d1 bd d1 42 b9 bb
       0.04102428 -0.07620896 -0.10238741 -0.005653717
000010 78 75 19 3d 30 6e f5 3c 12 0c 7d 3b 7d 95 37 3d
       0.037465543 0.029959768 0.003861193 0.044820298
000020 db 98 05 3d 30 d4 81 3d 31 07 87 bd 50 7f 9d 3d
       0.032616477 0.063393 -0.065931685 0.076902986
000030 05 1a ad 3d f1 d6 58 bd b6 c1 5f bd ff 38 7f 3c
       0.084522285 -0.05293936 -0.054628097 0.015577554
000040 d3 25 45 3d f3 73 55 bc 95 06 1e 3d 3b 72 d3 bd
       0.048131775 -0.013028133 0.038580496 -0.10324522
000050 8a 44 b8 bc 57 34 d8 bd 60 a1 34 3c 00 66 67 bd
       -0.02249362 -0.10556858 0.011024803 -0.05649376
000060 ee 09 44 3d 99 08 73 bd af 52 3f bd 14 7b 4e 3d
       0.047861032 -0.05933437 -0.046709713 0.050410345
000070 d9 e4 9b bd ca 5e 81 3d 57 2e 99 bd cb 74 2a bd
       -0.076120086 0.06316908 -0.07479542 -0.04161529
000080 ae 57 92 bc 9c d1 77 bd 0f b8 92 3d 95 5e 37 bd
       -0.017864075 -0.060502633 0.07164013 -0.044767935
000090 87 1c 57 bd 70 d5 cb 3a d4 e4 a1 3d 0e ab 41 3d
       -0.05251744 0.001555128 0.079049736 0.04728227
0000a0 97 58 c2 3d 14 c1 b4 3c 0b e5 51 3c dd 68 51 bd
       0.094895534 0.022064723 0.012810956 -0.051125396
0000b0 eb 56 17 bc 5e 76 7d bd 76 06 62 bd df 83 c0 3d
       -0.009237031 -0.061880462 -0.055181943 0.094001524
0000c0 24 a8 95 bd 65 56 46 bc 5c 87 c3 bd 86 25 cb 3d
       -0.07307461 -0.012105559 -0.09547302 0.099192664
0000d0 0c c2 6f 3d 82 ba 7b bd b0 4d 00 bd f2 17 46 bd
       0.058534667 -0.061457165 -0.03132409 -0.04836268
0000e0 d2 b5 f4 bb 14 81 95 3d 07 83 a1 bd d0 56 11 bd
       -0.0074679637 0.0730001 -0.078863196 -0.03548318
0000f0 69 7e a2 3c 55 83 72 bd 60 9c c8 bd 90 5d 16 3c
       0.019835668 -0.05920728 -0.09795451 0.0091775805
000100 42 f3 4c 3d de 13 6d bd ca a3 ea bd c4 8c 35 bc
       0.050036676 -0.057880275 -0.114570215 -0.011080924
000110 6a 3b 63 3d ff 27 30 bd 73 0e fc 3b 37 6c f9 3b
       0.055476584 -0.043006893 0.007692152 0.007611777
000120 2b c8 a7 bd 73 11 a0 3d c6 fc c8 bd f5 eb 45 3d
       -0.08192476 0.07815828 -0.09813838 0.04832073
000130 4e c9 4a 3d a8 d8 96 3d 96 c7 a7 3d 47 ef 96 3d
       0.049508385 0.07365543 0.08192365 0.07369857
000140 42 23 a9 bd fd a6 b1 3d 75 fc fe bc 34 42 67 bd
       -0.08258678 0.086744286 -0.03112624 -0.05645962
000150 09 64 67 3d 1f 14 da bd a4 5e a8 bd de 1a b8 3d
       0.056491885 -0.10648369 -0.08221176 0.089894995
000160 81 92 98 3b 95 73 52 3d 02 e6 c3 3d f9 5c a4 3d
       0.0046561365 0.05137976 0.09565355 0.080255456
000170 00 eb ed 3c 0e 10 bb 3d 0b f3 0c 3d 2b db b4 3d
       0.02904272 0.091339216 0.03441147 0.088308655
000180 3d 70 2c bd 83 b5 a8 bd 20 9f 99 3d 71 ee bf ba
       -0.042099226 -0.082377456 0.07501054 -0.0014643205
000190 33 23 c5 bb cd ad 80 3c 8b 8d ac bd ac 06 8e 3c
       -0.006016159 0.015707875 -0.08425435 0.017337166
0001a0 6f 77 b6 3d 06 7c b3 3d ad 4a db 3c d9 bc 94 3d
       0.08909499 0.0876389 0.026769007 0.07262582
0001b0 38 b7 a8 3d cc 9d e3 3c 99 ba 5a bd af 7f c0 3d
       0.08238071 0.027785204 -0.05340061 0.09399354
0001c0 e4 84 3c bd 0d 51 9b 3d bb f8 70 3d 1f 32 0c 3b
       -0.046025172 0.075838186 0.058830958 0.002139218
0001d0 8f ed c4 3d 22 82 4f bd ac 44 46 bc 0b c3 69 3d
       0.09615623 -0.050661214 -0.012101334 0.057070773
0001e0 0d 26 e6 bd 0b cc 52 3d 58 ec 5e bc ea be fb 3c
       -0.11237726 0.05146412 -0.013606153 0.030730683
0001f0 bb db a8 3d a9 b4 8a bd 17 9e 98 bd ef b2 12 bd
       0.08245035 -0.067727394 -0.07452028 -0.035815176
000200 21 9b 92 3d 16 04 ff 3b 56 b6 9c 3d 30 4d 8d bd
       0.07158495 0.0077824695 0.07651965 -0.06899488
000210 21 e5 e2 3c 8b 85 94 3d af 8e b3 3d 1d 61 91 bd
       0.027697148 0.07252034 0.08767449 -0.07098601
000220 3d ed 3d bd 06 5e 99 3c 98 73 6d 3d 24 42 99 bd
       -0.046368826 0.018721592 0.057971567 -0.074833184
000230 c0 96 83 bd 63 55 eb bc e1 db c1 3d a7 b3 c7 3b
       -0.06425238 -0.028727239 0.09465767 0.0060944143
000240 11 25 2f 3d b9 3d b8 3d 79 86 9f bd 63 98 b6 bd
       0.04275996 0.08996148 -0.077893205 -0.08915784
000250 c0 e7 39 3d 79 03 6a bd 9b 7e 44 bc d2 ef 96 bb
       0.04538703 -0.057132218 -0.011993076 -0.0046062255
000260 bb 2c 8d 3d 48 0d b8 bd 0d 19 b4 3d a6 51 a2 3d
       0.06893297 -0.08986908 0.087938406 0.079257295
000270 26 f3 8f bd 64 eb f2 bc 19 06 5f 3d 1d 3e a0 bd
       -0.07028799 -0.029653259 0.054449175 -0.07824347
000280 f1 46 b2 bd 6d c8 05 3d 15 ae c1 bd 1e ea 88 3c
       -0.08704937 0.032661844 -0.09457032 0.016713198
000290 63 9c d0 bb bb 06 6f bc 58 d6 c4 3d 44 47 e7 3d
       -0.006366299 -0.014589007 0.09611195 0.1129289
0002a0 1d 56 e8 3a 95 d0 27 bd 79 00 8b 3c af 71 85 3d
       0.0017725859 -0.040970404 0.016967999 0.06515824
0002b0 96 a7 5a bd e6 7b 44 bd 28 41 9b bd f9 12 8e 3d
       -0.05338248 -0.04796972 -0.07580787 0.069372125
0002c0 73 41 ad 3d d3 a4 97 3d 1c 9d 36 3d 1d 16 83 3d
       0.08459749 0.074044846 0.044583425 0.06400702
0002d0 fa d2 68 bc e0 25 d8 bd c5 2f 83 bd ef d2 cf bd
       -0.014210457 -0.10554099 -0.06405596 -0.10147654
0002e0 5a 6e bb 3d 4f 1e ab bd c8 4d 4a bd 31 26 a0 bd
       0.09151907 -0.0835539 -0.049390584 -0.078197844
0002f0 86 2d 2a bd cd 1c 63 3c da 25 94 3d 3f f7 9c 3c
       -0.04154732 0.013861847 0.07233782 0.019160865
000300 98 30 75 3d 4a 33 33 3d bc d6 5a bd a1 99 6d bc
       0.059860796 0.043750085 -0.053427443 -0.01450196
000310 74 4f 46 bd db fc 78 bd 1f bb e1 bd 95 6a 6d bd
       -0.048415616 -0.060788017 -0.11022019 -0.057962973
000320 7e eb 50 3d 6b 4c bc 3d 01 9f d8 3d 25 07 a8 bd
       0.051005833 0.09194263 0.105772026 -0.08204488
000330 a2 77 90 bd a6 d6 9a 3d 74 59 bc bd 2d f4 5a 3c
       -0.07054068 0.07560472 -0.09196749 0.01336388
000340 99 9b 1b 3d 10 8f ae 3d 62 62 08 bd 42 79 2e 3d
       0.037990186 0.08523381 -0.03329695 0.04259611
000350 ae fe 75 3d 68 38 e5 3d ca 73 2e 3d cd d3 1e 3d
       0.060057335 0.11192399 0.042590894 0.038776208
000360 19 a6 ab bd c1 eb f2 3b 91 8d 2c bd 32 5b 0c bd
       -0.0838129 0.007413358 -0.042127196 -0.034266658
000370 cd 2b 51 3c 71 40 42 3d d1 fd 78 b9 0e d6 03 3d
       0.012766791 0.047424737 -0.00023745677 0.03218656
000380 ce 47 e2 3d 33 c2 77 3d 0d 63 ae 3d 95 0d 8c 3c
       0.11048852 0.060487937 0.08514986 0.01709632
000390 d7 38 86 3d 17 a7 50 b9 86 b8 0b bd 33 8d 42 3c
       0.0655381 -0.00019898672 -0.034111522 0.011874485
0003a0 6c 38 6a 3d 1c f9 b8 3d 1d 76 5c 3d 48 11 81 bd
       0.057182714 0.09031889 0.05382358 -0.06302124
0003b0 9b cc 1b 38 38 a6 55 bd 16 94 84 bc 19 82 b0 3d
       3.7145433e-05 -0.05216047 -0.016183894 0.08618564
0003c0 40 4a e6 3d b3 f8 a4 3d 54 12 b7 3d 32 c6 ce 3d
       0.11244631 0.08055248 0.08939043 0.100963965
0003d0 b8 57 2f 3c fb b5 0a 3c 9b 83 d2 bb b5 17 6d 3a
       0.010702066 0.008466239 -0.00642438 0.0009044365
0003e0 84 ad 76 bd 96 71 5f 3d 21 94 31 3d b6 f1 5c bd
       -0.06022407 0.054551683 0.043354157 -0.05394145
0003f0 55 ad 9b bd 44 ab 95 bd 08 35 f9 3c 86 6b fb 3b
       -0.0760142 -0.07308057 0.030420795 0.00767273

bias f4 [84]
000000 df ef 22 3d 0d 56 86 3d fb 45 86 bc 14 26 a2 bd
       0.03977954 0.06559382 -0.016390791 -0.07917419
000010 81 c8 2e 3c 30 ec 8a 3c 25 a2 5c 3d f7 af ee bc
       0.010667921 0.016958326 0.05386557 -0.029136641
000020 4f 74 18 bc 4e a8 e7 bc 97 b2 f7 3d 05 ad aa 3b
       -0.009305074 -0.028278496 0.1209461 0.005208614
000030 57 e1 81 bd f5 18 8e bd 47 b4 c1 3d fd 77 a7 bd
       -0.06341808 -0.06938354 0.09458213 -0.08177183
000040 2a b9 8b bd 32 f1 27 3d dc 65 d5 bd b2 d5 23 bd
       -0.068224266 0.041001506 -0.10419819 -0.039998718
000050 13 6e c8 3d 87 1a e7 bc eb 01 e5 3d 5c 4c 9f bd
       0.0978662 -0.028210891 0.111820064 -0.07778236
000060 15 c2 8a 3c 4f 8e d1 3c 60 dc ba 3d 90 f9 92 bd
       0.016938249 0.025580553 0.091240644 -0.071765065
000070 e5 fa 86 3d 9e 63 0e 3d 71 5e 85 bd 47 a1 79 3b
       0.06590823 0.03476297 -0.06512154 0.0038090514
000080 19 92 c4 bd 80 70 53 3d 77 7a 97 bd a0 00 37 3a
       -0.095981784 0.05162096 -0.07396405 0.0006980989
000090 0d bd 9a 3b e2 77 b1 3d 94 64 ab bd df 3c 64 bd
       0.0047222436 0.08665444 -0.08368793 -0.055722114
0000a0 05 18 e7 bb a6 61 ca bd f5 92 ba 3d 46 6d 98 3d
       -0.007052424 -0.09881906 0.09110061 0.07442717
0000b0 51 b3 da 3c ca 49 0f bd 89 a0 6a bd 8b 92 76 3b
       0.026696833 -0.03498248 -0.057282005 0.0037623968
0000c0 be 38 ea bd 1f 0e 96 3d 5a 1b 8c bd 96 a6 d3 3a
       -0.11436604 0.07326912 -0.068411544 0.0016147669
0000d0 69 4d e1 3d bf d6 91 bc 8e 35 c8 bd 8a 2d 1d 3d
       0.11001093 -0.017802594 -0.0977584 0.038373508
0000e0 5c 94 db bd 1d 38 9e bc ee 30 c6 bd 9e 38 eb 3b
       -0.10721657 -0.019313866 -0.09677301 0.00717838
0000f0 b2 42 c9 3d a0 b6 34 bd 1f 1a d6 bc aa d8 2f 3d
       0.09827174 -0.044119477 -0.026135502 0.042931236
000100 45 30 a6 bd 4e 84 9a 3d 7e ac 86 3d 99 06 ab ba
       -0.081146754 0.07544766 0.06575869 -0.0013048231
000110 3e 00 a2 bd e2 74 93 3d 22 d3 e4 3d 2f 7b 8e bc
       -0.079102024 0.07200028 0.11173083 -0.017392723
000120 bd 2b 02 3d f4 08 7c 3d 52 cf 5f 3d 6b 77 8a 3d
       0.031779993 0.061531976 0.054641075 0.067610584
000130 0a 35 fc 3c 62 dc 95 bc 64 d5 2c bc 0b df 36 3d
       0.03078701 -0.018293563 -0.010548923 0.044646304
000140 c6 53 93 bc 53 54 c5 3d df cf d4 3d 1c 98 53 3d
       -0.017984282 0.09635224 0.10391211 0.051658735

weight f4 [42, 84]
000000 1e a8 0b 3c 3b 85 a7 bc 18 9a 07 bd be 27 3f 3c
       0.008523969 -0.020449271 -0.03310594 0.01166719
000010 d0 58 90 3d d7 e0 5c bb c6 a0 63 bd 90 1a 8c 3c
       0.0704819 -0.003370335 -0.055573247 0.01710251
000020 16 bd 10 bc 9b 09 6c 3d 97 c6 5b bc 2c c3 9d bd
       -0.008834144 0.057626348 -0.013414047 -0.07703242
000030 66 eb d2 ba 2a 72 60 bd 4e b8 c0 3d df eb 54 ba
       -0.0016091883 -0.054796375 0.09410153 -0.0008122306
000040 6b 9a 0b 3c 1c 63 95 bc e6 b1 97 ba 2c 20 7c bd
       0.008520703 -0.018235736 -0.0011573404 -0.06155412
000050 69 ad bc bd 15 4d 91 bd d0 06 9b 3d 05 8b dc 3b
       -0.09212763 -0.0709478 0.07569659 0.0067304396
000060 90 1f 15 bc 6c 95 b4 bd 6c d4 5c 3d 58 52 92 3c
       -0.009101763 -0.088175625 0.05391352 0.01786153
000070 70 58 ac 3d 1d 9c 96 3d 65 94 22 bc eb 6d 90 3d
       0.084153056 0.07353995 -0.009923075 0.07052215
000080 25 92 2c 3d a2 32 5c bb c8 01 67 bd 60 79 d1 3d
       0.04213156 -0.0033599515 -0.056398183 0.102282286
000090 b4 18 30 bd 08 24 ac 3d d0 ab 41 bd 10 1d 15 3d
       -0.04299231 0.0840531 -0.047282994 0.03640467
0000a0 e3 c5 80 bc fd 95 b9 bd 20 fc c5 bd d8 58 b4 3d
       -0.01571936 -0.09061811 -0.0966723 0.08806008
0000b0 e9 b3 70 3d 2b 32 a9 bb 9f 6d 77 bd 1e 38 8d bd
       0.058765326 -0.005163451 -0.060407277 -0.06895469
0000c0 4f 5d 46 bd 93 8a a1 bd 09 c7 21 3d 41 b6 67 3d
       -0.04842883 -0.07887759 0.039496455 0.056570295
0000d0 1d b1 e0 3d 80 fd 6e bc c1 94 18 3d e6 5c b9 bd
       0.10971282 -0.014586806 0.037251238 -0.09050922
0000e0 fc 77 98 3d 01 85 69 bd 08 46 33 bc 42 5c af 3d
       0.0744476 -0.057011608 -0.01094199 0.08562519
0000f0 89 b1 9c bd 7c 04 be bc 6f a3 81 3d aa 8e a4 3d
       -0.0765105 -0.023195498 0.063300006 0.080350235
000100 0e 1f ba bd aa 6b 21 bd 5f 58 46 3d 06 6e 30 3c
       -0.090879545 -0.039409317 0.04842412 0.010768419
000110 25 a2 e2 3d 9b c3 5c bc b9 12 f4 bc 9c 0c 9d 3d
       0.11066083 -0.01347437 -0.029794084 0.07668421
000120 e6 eb b5 3c 19 5a ad bd 9e 6a 7c 3d 27 bb 66 3c
       0.022207212 -0.084644504 0.061625116 0.0140827065
000130 87 8c 1f 3d b5 79 58 bd 55 1c 97 3d 8a 0d 95 3d
       0.038952377 -0.052850444 0.07378451 0.07277973
000140 86 67 8d bc 36 60 d9 bd f3 18 01 3d 5d c6 65 bd
       -0.017261278 -0.10614054 0.031517934 -0.056097377
000150 c2 0d 02 3d e3 a6 83 bd 8c 25 6f 3d 6c 2e ab bd
       0.0317514 -0.064283155 0.058385417 -0.08358464
000160 4c 49 75 bd 3f 0e f9 bc d1 02 28 3d b4 4c 85 bd
       -0.059884354 -0.0304023 0.04101831 -0.065087706
000170 c7 30 8f 3d 45 7f ca 3d 6f 5d cc bc 23 57 74 bd
       0.069917254 0.09887556 -0.024946896 -0.059653413
000180 8f 1b 53 bd 4f 93 0e 3d 68 46 58 bd 20 d8 a6 bc
       -0.051539954 0.034808453 -0.05280152 -0.020366728
000190 90 bb 4a bd 0a aa 6a 3d 4a cb 83 bd 46 1f d7 3c
       -0.04949528 0.057291068 -0.06435259 0.02626003
0001a0 ee 0e c4 bc 2c 97 e6 3c 62 1e e3 bc 9f 30 1a 3d
       -0.0239329 0.028148256 -0.027724449 0.037644025
0001b0 19 94 b4 bd 0f 8c 7c bd e9 91 89 3d 4a 70 55 bb
       -0.0881731 -0.061657008 0.06717283 -0.003256815
0001c0 c0 13 a4 bd 8a 16 cb bd dc 17 14 3d 9b 85 dc bc
       -0.080115795 -0.09916408 0.036155567 -0.026919177
0001d0 5e a5 a2 3d 86 7d 41 3d a3 1f 39 bd ae da b9 bc
       0.079416975 0.04723885 -0.045196187 -0.022687282
0001e0 b0 e5 9d bd 42 a0 40 3c 71 28 2f 3b 1e f1 ba bc
       -0.07709825 0.011756958 0.0026726986 -0.022820052
0001f0 d7 c5 a9 3d be f9 31 bc 2f f3 86 3d 73 f1 d3 bd
       0.08289688 -0.010862766 0.06589352 -0.10348787
000200 ef cb 44 bd ac 4a 1a bd 9b c8 43 bc a7 a5 df 3d
       -0.04804605 -0.03766887 -0.011949684 0.109202676
000210 92 f2 d8 bb 56 aa 6c bd 05 bc b2 bd 73 5c 6e bd
       -0.0066207135 -0.057779633 -0.08727268 -0.058193635
000220 35 58 d5 bd 9d c3 3b 3d 65 07 84 bd 1b 0b 91 bd
       -0.10417215 0.04584085 -0.06446723 -0.07082196
000230 b8 2d 7b 3d a5 5a 2a bd f9 32 1e bd 57 12 91 bd
       0.061322898 -0.04159035 -0.03862283 -0.07083576
000240 1f 6e bf 3d b2 c7 8d bd bc f1 b1 3c 63 c7 59 bd
       0.09347176 -0.069228545 0.021721713 -0.053168666
000250 19 0a ba bd 74 09 04 bb f8 b1 c0 bd 87 f1 0e 3d
       -0.09083957 -0.0020147236 -0.09408945 0.034898307
000260 3f 69 a8 bc bb 67 42 3d 9f 42 55 3c 86 8d c6 bc
       -0.020557998 0.047462206 0.013016372 -0.024237406
000270 72 d7 13 bd c6 40 54 3d 63 df 5c 3d ef cc ef 3c
       -0.036094137 0.051819585 0.053923976 0.029272525
000280 58 1d 71 3d c0 81 a8 bd bb 4d af bd 55 9f 8e bc
       0.058865875 -0.08227873 -0.08559748 -0.01740996
000290 08 2f 50 bc 54 1a 22 3c ef cd c4 3d 70 63 9c 3d
       -0.012706526 0.009893972 0.09609591 0.07636154
0002a0 2d c5 4d 3d 0f 71 02 bd 0d 01 8b 3d 92 22 02 bd
       0.05023687 -0.031846102 0.0678731 -0.03177125
0002b0 c3 b6 64 3d e0 a4 bb bc 69 9d e4 3b 06 22 8f 3d
       0.055838358 -0.022905767 0.0069767726 0.06988911
0002c0 ed 61 0f bc b2 22 87 bd 9c 6e 88 bd 21 db ea 3a
       -0.008751375 -0.065984145 -0.06661722 0.0017918089
0002d0 d7 6d e0 bd 14 93 27 3d cb 07 cc 3d b3 5e 12 3a
       -0.1095845 0.04091175 0.09962424 0.00055835693
0002e0 68 2e ae 3d 11 ff 6b 3d 69 33 9e bd e6 ec 92 bd
       0.08504945 0.057616297 -0.077246495 -0.07174091
0002f0 54 51 94 bd dd fc c9 3d fe 44 23 3d 93 1d 4e 3b
       -0.072420746 0.09862683 0.039860718 0.0031450733
000300 20 bd b4 bc 28 b7 8d bd f3 ae da 3d ab 98 cc 3c
       -0.022062838 -0.069197 0.106779 0.024975142
000310 fa f2 fd bb fb 1c 99 3d 5d 9f 69 3c a7 88 00 bc
       -0.0077499123 0.07476231 0.014259187 -0.00784508
000320 b1 9a a1 bd 93 df 85 bb 56 42 ae bd 20 b5 87 bd
       -0.07890833 -0.00408549 -0.08508746 -0.06626344
000330 3a 03 cb bd a8 9a ab bd 00 dd 8c 3d da 36 99 3d
       -0.09912725 -0.08379108 0.0687809 0.07481165
000340 60 94 03 bd 9d f2 ba 3d b7 54 71 bd a6 99 c4 3c
       -0.032123923 0.09128306 -0.05891868 0.023999047
000350 ac e8 a3 bb d5 01 1a bc a3 10 eb 3c 46 72 14 bd
       -0.005002102 -0.009399851 0.028694456 -0.036241792
000360 bb ee 6e bc ec a2 a0 bd 50 22 99 3d 3e 0f b4 3d
       -0.014583285 -0.07843575 0.07477248 0.0879197
000370 78 3e 4b bd bd ce 48 bd f8 e5 53 bd 16 29 99 3d
       -0.04962012 -0.049025286 -0.051732987 0.0747854
000380 2f b2 9b bd cc 74 2f 3b 1b 5b 10 bb de ea e0 bd
       -0.07602345 0.0026772497 -0.002202696 -0.10982297
000390 25 bb 8a 3c 24 29 48 bd 60 28 26 3d a0 9a 89 3d
       0.01693494 -0.04886736 0.04056585 0.067189455
0003a0 bc cc 5b bd 17 c4 9e 3d 4c 05 2d 3d 1a 45 3e bd
       -0.053662047 0.07752245 0.04224138 -0.04645262
0003b0 9f 0a 07 bd 8b de aa 3d ba 40 94 3d 5b 00 16 bd
       -0.032969113 0.08343228 0.07238908 -0.036621433
0003c0 ba 16 8f bc dd fd cf bc ce 0c 82 bd ea dd af 3c
       -0.017466892 -0.025389606 -0.063500986 0.021468122
0003d0 e6 90 aa bc b6 b8 95 3d ed 62 73 3c 7d d7 3c bd
       -0.020821046 0.073106214 0.014855129 -0.046103943
0003e0 cd ca 2a 3d 11 dc 80 bd 48 37 50 bd 79 c4 a0 bd
       0.041697312 -0.06291974 -0.05083397 -0.07849974
0003f0 61 0b bb bd 98 67 c4 bd 90 5f 86 bd b7 e0 5f 3d
       -0.0913303 -0.095900714 -0.06561196 0.054657664

bias f4 [42]
000000 dd 83 c8 3d da 55 f1 3c 18 76 45 3c aa c3 ee bd
       0.09790776 0.029459883 0.0120520815 -0.11658414
000010 df 7d 80 3d dd 82 98 3c a1 89 98 bd ab c2 b3 3d
       0.06274008 0.018617088 -0.07448126 0.08777364
000020 c5 3a 91 bd 22 6f 7a 3d 83 d3 00 bd 08 bb 5a bc
       -0.070912875 0.06114114 -0.031451713 -0.013350256
000030 9b ac 6b bd 7e d2 ba bd 9e 84 a0 bd e3 6f 20 bc
       -0.057537656 -0.091221794 -0.07837795 -0.009792301
000040 6a 2f d1 bc d9 ca 8e bd 3a 3c 4d bc 74 b5 8d bd
       -0.025535304 -0.06972284 -0.012526566 -0.06919375
000050 be 9a 18 3d 39 53 87 bc 80 1c a1 3d 78 e5 3c bc
       0.03725695 -0.016519176 0.07866764 -0.011529319
000060 48 af b2 3d 4e e3 cd 3d 6d dd 80 3d 40 05 a7 3d
       0.087248385 0.100531206 0.062922336 0.08155298
000070 c8 7a c0 bd fa 05 07 bd 2e 45 b1 bb 71 e7 62 3d
       -0.09398419 -0.032964684 -0.005409858 0.0553965
000080 76 a1 8d 3d a5 91 af bd 50 69 be bc bb 2d eb 3d
       0.06915562 -0.08572701 -0.023243576 0.11483332
000090 bc 07 92 3c 3f 2f d6 bc c6 d2 e1 bc 7a fd bb bd
       0.017825954 -0.026145576 -0.027566325 -0.09179206
0000a0 8b 85 eb 3d 5a de 42 bd
       0.11500081 -0.047575332

weight f4 [1, 42]
000000 ac 4f 19 3d 80 76 1d bb 89 23 6a 3a 6a ad 95 bd
       0.037429497 -0.002402693 0.0008931687 -0.07308467
000010 d3 e2 cf 3d 76 e5 e7 3d 53 1e 3a 3d 1b 71 3b 3d
       0.10150685 0.11323063 0.045439076 0.045762163
000020 19 25 de 3c 0e 3f 54 bd b3 c1 b8 bd 57 71 e0 3c
       0.027117299 -0.051817946 -0.0902132 0.027397795
000030 c1 53 bc 3d 61 94 70 bc 45 b0 a2 3d 74 0f ee 3d
       0.09195662 -0.014683814 0.07943777 0.11624041
000040 c2 34 f2 3d 0d f2 87 bd 09 03 2a 3d eb e5 98 3d
       0.11826469 -0.066379644 0.0415068 0.07465728
000050 b8 63 a8 3c 08 c8 92 3c 91 30 a2 bd ee 18 01 3d
       0.020555362 0.017917648 -0.079194196 0.031517915
000060 13 03 14 3d 64 f6 96 3d 7d a5 6f 3b 6f ea 04 3d
       0.036135744 0.07371214 0.0036567145 0.032450136
000070 ee 81 f7 bd fb 82 98 bd 9a 66 01 3e b4 7c 13 bc
       -0.12085329 -0.074468575 0.12636796 -0.0090018995
000080 1e 47 01 bd 6a 22 a5 3c a1 77 72 bd fd 7e 0d 3e
       -0.031561963 0.020158011 -0.05919612 0.13817973
000090 c6 3d 80 3c a8 b2 98 3d 10 e6 1a 3c aa b1 87 bd
       0.015654456 0.07455951 0.009454265 -0.066256836
0000a0 a5 b4 c0 3d 3f 6a f4 bd
       0.09409455 -0.11934327
