ModelUnpredictability/one_thousand_brains/predictor_29.model (torch_old, 109395 bytes, 7 tensors)

weight f4 [84, 168]
0	0x3ce22701	0.02760649
1	0xbd26ed91	-0.040753905
2	0x3d03ef72	0.032210775
3	0xbc75ea01	-0.015009404
4	0x3b5e5b95	0.00339291
5	0xbb337e67	-0.0027388574
6	0x3d2e241e	0.042514913
7	0xbd558191	-0.052125517
8	0x3d0cf73f	0.03441548
9	0x3d906340	0.070501804
10	0x3d11d975	0.035607774
11	0xbd5b53e7	-0.053546812
12	0xbd973b41	-0.07384349
13	0x3ca79ec8	0.020461455
14	0xbd9876d5	-0.074445404
15	0x3cc6d24c	0.0242702
16	0x3d18efd9	0.03733811
17	0xbc9c267a	-0.019061316
18	0x3d6b0c12	0.057384558
19	0x3ca2ff85	0.019897232
20	0x3d30ea41	0.043192152
21	0x3d48b97d	0.04900502
22	0x3cda49f2	0.026646588
23	0xbbe1b494	-0.0068879817
24	0xbd8801e6	-0.06640987
25	0xbd8158d8	-0.06315774
26	0x3d4d9b7d	0.050197113
27	0xbd1cf8a4	-0.03832306
28	0x3d0c98af	0.034325298
29	0x3d4af167	0.049546625
30	0xbd52f1b3	-0.051500034
31	0x3d8c4128	0.06848365
32	0xbd3b4467	-0.04571953
33	0x3d8b0c6e	0.0678948
34	0xbd0381b1	-0.032106105
35	0xbd0b9a94	-0.034082964
36	0x3d5d13d0	0.053973973
37	0xbd873897	-0.066025905
38	0xbd210e32	-0.03932018
39	0x3c5a7a76	0.013334861
40	0xbd4d61e0	-0.05014217
41	0xbd63808b	-0.05554251
42	0x3c674027	0.014114416
43	0xbc31116a	-0.0108073745
44	0xbd3a7173	-0.04551835
45	0xbd5c795a	-0.053826667
46	0xbc38084d	-0.011232448
47	0xbcf4e3b3	-0.029893732
48	0xbd81a794	-0.06330791
49	0xbd3b68d6	-0.045754276
50	0xbcfc85a2	-0.03082544
51	0xbc32860d	-0.010896218
52	0x3c8dc5e2	0.017306272
53	0x3ba8a7a1	0.005146936
54	0xbcde9fc3	-0.02717579
55	0xb87597e8	-5.8554026e-05
56	0xbd4dcc9a	-0.05024395
57	0xbcf1007e	-0.02941918
58	0x3d7f217a	0.062287785
59	0x3d5f3099	0.054489706
60	0xbd7e7710	-0.062125266
61	0xbd9083da	-0.07056399
62	0x3d8ad02b	0.06777986
63	0x3b8adb0a	0.0042375373
64	0x3d3bbdd5	0.045835335
65	0xbd5bc9dd	-0.05365931
66	0xbcdf01e8	-0.027222589
67	0xbd084aba	-0.03327439
68	0xbd1ca967	-0.038247492
69	0x3ca61c2c	0.020277105
70	0x3d5ae6fc	0.05344294
71	0xbd848c64	-0.0647209
72	0x3d14879a	0.036262132
73	0xbc97de00	-0.018538475
74	0xbd1b348c	-0.03789191
75	0x3d508deb	0.050916594
76	0xbca70659	-0.020388769
77	0xbd1f932e	-0.03895872
78	0xbcb63db6	-0.022246223
79	0x3c3f24d3	0.011666494
80	0x3d477639	0.04869673
81	0xbd023da0	-0.03179705
82	0x3c5cae65	0.013469313
83	0x3d9706f0	0.0737437
84	0x3d81b7cf	0.06333887
85	0xbc3f7470	-0.011685476
86	0x3d89be04	0.06725696
87	0x3d1c651d	0.038182367
88	0xbd6adad2	-0.05733759
89	0x3d773985	0.06035759
90	0xbba8e3b2	-0.0051540965
91	0xbd200489	-0.039066825
92	0x3d2b000e	0.0417481
93	0xbd4cdb6a	-0.050013937
94	0x3c708dbf	0.014682232
95	0xbcfdf4ef	-0.031000583
96	0x3c8e240f	0.017351178
97	0x3d080d55	0.03321584
98	0xbc569edb	-0.0130993975
99	0x3bfd97e2	0.007739053
100	0x3cc47dd8	0.023985788
101	0x3d96a6f8	0.073560655
102	0xbd805e1c	-0.0626795
103	0x3d1093f8	0.035297364
104	0xbc49b6f0	-0.012311682
105	0xbd837ee3	-0.06420686
106	0xbd766be0	-0.06016147
107	0x3d6611e3	0.0561694
108	0xbd29399f	-0.041314717
109	0x3d43c37d	0.047793854
110	0x3d255bc3	0.040370714
111	0xbaad530c	-0.0013223602
112	0xbd3e6d9f	-0.04649126
113	0x3c803ad7	0.015653057
114	0x3d673fa5	0.05645718
115	0x3d3c179f	0.045920964
116	0xbcd96def	-0.026541678
117	0x3d5857e3	0.05281819
118	0x3d71fe0c	0.05908017
119	0x3bd27ff0	0.0064239427
120	0x3d30ef46	0.04319694
121	0xbc892f86	-0.016746294
122	0x3badfe5d	0.0053098635
123	0x3b9c3cff	0.0047680135
124	0xbc058c22	-0.008151086
125	0x3cbb0c8d	0.022833133
126	0xbb8ba22b	-0.0042612753
127	0x3d7f6053	0.06234772
128	0xbbe6a5d4	-0.007038811
129	0xbd733984	-0.059381023
130	0x3d391ac8	0.045191556
131	0x3ccc6526	0.024950575
132	0x3d9c7d04	0.07641032
133	0xbb8dcaa5	-0.0043271356
134	0x3d4f2fab	0.05058257
135	0x3d7b9425	0.06142058
136	0xbd97acd5	-0.07406012
137	0xbd891e53	-0.06695237
138	0x3cdd820e	0.027039554
139	0xbb19ead3	-0.0023485913
140	0xbd0bdeaa	-0.034147896
141	0x3d9de561	0.07709766
142	0xbc745c7f	-0.014914631
143	0xbd1dcd68	-0.03852597
144	0xbcdbdb5d	-0.026837999
145	0x3c359c6a	0.011084655
146	0x3c52d332	0.012867736
147	0x3d1f6d9f	0.038922902
148	0xbc074ef2	-0.008258568
149	0x3c98d58c	0.018656515
150	0x3c38e731	0.011285589
151	0xbd386fa9	-0.045028362
152	0x3c5dd3f2	0.013539301
153	0x3d48bacb	0.049006265
154	0xbd630579	-0.05542514
155	0x3d99be3c	0.075069875
156	0xbbb3d615	-0.005488167
157	0x3c651b78	0.0139836
158	0x3d231ce9	0.039822493
159	0xbcbe4493	-0.023226058
160	0xbcef054d	-0.029177332
161	0xbd73c16c	-0.059510633
162	0xbd90b10e	-0.070650205
163	0x3ba141ff	0.0049211974
164	0x3d6e5143	0.058182966
165	0x3d2ed014	0.042678908
166	0xbd37170f	-0.044699725
167	0x3cc55115	0.024086514
168	0xbd91fffe	-0.07128905
169	0x3d260418	0.040531248
170	0x3cfaa3d6	0.030595701
171	0xbd7295b3	-0.059224796
172	0xbd897c85	-0.06713203
173	0xbb9898c6	-0.004656884
174	0xbd30d421	-0.043171052
175	0xbd90968b	-0.07059964
176	0xbd8f6e1d	-0.07003424
177	0xbca586af	-0.020205824
178	0x3d2b1eee	0.041777544
179	0xbd27b3cb	-0.04094295
180	0x3cc70aef	0.024297206
181	0xbb39d7db	-0.002835742
182	0x3cbf7d09	0.023375051
183	0xbb9423c9	-0.0045208675
184	0x3c1773b0	0.009243891
185	0xbca06f2d	-0.019584263
186	0xbc7c4040	-0.015396178
187	0xbd565a64	-0.052332297
188	0xbc9c9f77	-0.019119008
189	0xbce58914	-0.028019466
190	0xbd64120a	-0.055681266
191	0xbbeb2343	-0.0071758344
192	0x3d86e4fd	0.06586645
193	0x3d23fb01	0.040034298
194	0xbd4a3ffe	-0.049377434
195	0xbd863ad2	-0.06554188
196	0x3d3a222c	0.045442745
197	0x3cd1fff2	0.02563474
198	0xbbdf06dd	-0.006806238
199	0x3d30b4e1	0.04314125
200	0xbd30a4c6	-0.04312589
201	0x3d541e58	0.05178675
202	0xbd8a8c9a	-0.06765099
203	0xbb6468fc	-0.0034852615
204	0xbca81b13	-0.020520722
205	0xbb7db00d	-0.003870967
206	0xbd6996fb	-0.05702875
207	0xbc82b517	-0.015955491
208	0xbba95fd3	-0.005168894
209	0xbcccb0ea	-0.024986703
210	0x3d6be92c	0.057595417
211	0x3d1f78ee	0.038933687
212	0x3c3112c5	0.010807698
213	0xbc06c920	-0.008226663
214	0xbcff1c9f	-0.031141577
215	0xbd9ddfa4	-0.07708672
216	0xbd1d6c1d	-0.038433183
217	0xbd838842	-0.064224735
218	0x3d1598c6	0.03652265
219	0x3d11024e	0.03540259
220	0xbd9678bf	-0.07347249
221	0x3c564776	0.013078561
222	0xbd88addf	-0.06673788
223	0xbc7027fc	-0.0146579705
224	0x3d3d4fe4	0.046218768
225	0x3d06fff1	0.03295893
226	0xbd2b6cea	-0.041851915
227	0x3c13d80d	0.0090236785
228	0x3ce855e3	0.028361266
229	0x3d8a96d4	0.067670494
230	0x3c1e9dd0	0.00968118
231	0xbd8b14e4	-0.06791094
232	0x3d870e71	0.06594551
233	0x3cc03b50	0.023465782
234	0x3c844982	0.016148333
235	0xbc08dec8	-0.008353896
236	0xbd7262c2	-0.059176214
237	0xbb4f6e3d	-0.00316514
238	0xbd84d307	-0.06485563
239	0xbd5bac00	-0.05363083
240	0x3ca6cbd0	0.020360857
241	0x3c2fbc0a	0.010725984
242	0x3d80c00c	0.0628663
243	0xbd35d3ac	-0.04439132
244	0x3d1cae86	0.038252376
245	0xbd851b87	-0.06499391
246	0x3b82f559	0.003996533
247	0x3cbfb4d3	0.023401653
248	0xbb58b6eb	-0.0033068012
249	0x3d772457	0.06033739
250	0x3d6a0935	0.057137687
251	0x3cb428ac	0.02199205
252	0x3bae17f4	0.005312914
253	0xbd37ae55	-0.04484399
254	0xbd0159c0	-0.031579733
255	0xbce6332d	-0.028100574

bias f4 [84]
0	0xbbf5d177	-0.007501777
1	0x3ced4ba1	0.028966727
2	0x3c621b88	0.013800509
3	0xbd57880f	-0.05261999
4	0x3cc707d2	0.024295721
5	0xbc2585c0	-0.010102689
6	0x3da39cc8	0.07988888
7	0x3d6b7a09	0.05748943
8	0x3d687fc0	0.056762457
9	0xb99b3aa6	-0.000296076
10	0x3c86bb31	0.016446682
11	0x3d8a8285	0.06763176
12	0xbaf945ad	-0.0019017957
13	0x3a902346	0.001099684
14	0x3d3faf1b	0.046797853
15	0xbd5c560e	-0.053793006
16	0xbd8a3952	-0.06749214
17	0xbcf37b16	-0.029721778
18	0x3d591828	0.053001553
19	0xbd3fb082	-0.04679919
20	0xbd3d480f	-0.0462113
21	0xbc9b45f9	-0.018954264
22	0x3d64b53b	0.055836897
23	0x3d7d8a07	0.06189921
24	0x3c18af8d	0.009319198
25	0x3d2bb833	0.041923713
26	0xbd75fe91	-0.060057227
27	0xbd6d5724	-0.057944432
28	0xbc264036	-0.010147145
29	0xbc6df6a4	-0.014524136
30	0x3d960607	0.073253684
31	0x3d27ff9e	0.04101526
32	0xbb1d3f5b	-0.0023994062
33	0xbd3f94b7	-0.046772685
34	0xbcd77de6	-0.02630515
35	0x3d3ebe34	0.04656811
36	0x3cd76e6e	0.026297774
37	0x3d44459d	0.04791795
38	0xbd3bc819	-0.045845125
39	0xbd4d2ba2	-0.05009044
40	0x3d5168d7	0.051125374
41	0x3d589817	0.05287942
42	0xbd0af2fc	-0.033923134
43	0x3d0d490b	0.034493487
44	0xbcfd1be0	-0.03089708
45	0x3cfc3322	0.0307861
46	0xbd913f58	-0.0709216
47	0xbcfe7cbc	-0.031065337
48	0xbc7b19c1	-0.015325964
49	0x3c63b651	0.013898448
50	0xbb69bc0e	-0.0035665068
51	0xbcd9487a	-0.026523817
52	0x3a669c44	0.0008797089
53	0x3d645a20	0.055750012
54	0x3d4a6cfa	0.049420334
55	0xbd07fe10	-0.033201277
56	0xbc09dbab	-0.008414189
57	0x3c947900	0.018124104
58	0xbd75dfa4	-0.060027733
59	0x3bbd99f6	0.005786176
60	0x3c03dbab	0.008047978
61	0x3cb8515f	0.022499738
62	0xbd62e220	-0.05539143
63	0x3d2f3434	0.042774394
64	0xba96e663	-0.0011512752
65	0xbd203960	-0.039117217
66	0xbd416606	-0.047216438
67	0xbd3dd252	-0.046343155
68	0x3d35d7a2	0.044395097
69	0x3d8c6238	0.06854671
70	0xbd8f4b02	-0.069967285
71	0x3a731eca	0.0009274302
72	0xbd3e4e37	-0.04646131
73	0x3c8ae0fe	0.016952988
74	0xbd354929	-0.044259224
75	0xbd184336	-0.037173472
76	0x3bef3d9f	0.007301047
77	0xbd1d0b63	-0.038340937
78	0x3d81b734	0.06333771
79	0xbd3ef970	-0.0466246
80	0xbb4cc822	-0.0031247218
81	0x3d87a72e	0.06623684
82	0xbd1f894b	-0.038949292
83	0x3c0da9e4	0.008646462

weight f4 [84, 84]
0	0x3d94223f	0.072330944
1	0xbd085ab4	-0.033289626
2	0xbcde1417	-0.027109189
3	0xbd49b2b8	-0.049242705
4	0xbd883e39	-0.06652493
5	0x3d3d783f	0.046257254
6	0x3dc842d2	0.0977837
7	0x3ca720b4	0.020401336
8	0xbc334d50	-0.010943726
9	0x3bedab90	0.007253118
10	0x3c666910	0.014063135
11	0xbc0967e1	-0.008386583
12	0xbcb0adc0	-0.021567225
13	0xbd856615	-0.06513611
14	0x3cbeea6a	0.023305137
15	0x3d8f248b	0.06989392
16	0x3d0e1e57	0.034696903
17	0xbd770656	-0.060308777
18	0x3d9b48ed	0.07582269
19	0x3d69f063	0.057114016
20	0xbdc84cb6	-0.097802565
21	0x3cf831c3	0.030297166
22	0x3beed22a	0.007288237
23	0x3c97a7cb	0.018512627
24	0x3dc22321	0.094793566
25	0x3d312eb7	0.04325744
26	0x3c8f0a7c	0.017461054
27	0x3d81d178	0.06338781
28	0xbc92721a	-0.017876673
29	0xbd2838a9	-0.04106966
30	0x3db49521	0.088175066
31	0x3d331b6a	0.043727316
32	0x3d91c343	0.07117321
33	0x3d8f5fac	0.0700067
34	0x3d056e5f	0.03257596
35	0x3d6a972d	0.05727308
36	0xbc01920b	-0.0079083545
37	0xbdc957ac	-0.09831175
38	0x3d809eb1	0.06280268
39	0x3d84a35b	0.0647647
40	0x3cf071a9	0.029351072
41	0xbc948b05	-0.018132696
42	0x3d1c6a4e	0.038187318
43	0x3dcad21c	0.099033564
44	0x3bdd336a	0.006750514
45	0x3d32f2e5	0.043688674
46	0x3c93614f	0.017990736
47	0xbc17268f	-0.009225502
48	0x3d717a37	0.058954444
49	0x3da2fa08	0.07957846
50	0x3d2bf4a1	0.041981343
51	0xbd88d122	-0.06680514
52	0x3c58d09f	0.013233333
53	0x3d634353	0.055484127
54	0xbd2b9f88	-0.041900188
55	0x3dbf561c	0.09342596
56	0x3d92eb31	0.071737655
57	0x3da2ae72	0.07943429
58	0xbdc2bb86	-0.095084235
59	0xbc7cea94	-0.015436787
60	0xbd0e4aa7	-0.034739163
61	0xbd70b43d	-0.05876564
62	0xbd97fe35	-0.07421533
63	0x3d35144c	0.04420881
64	0x3d07e346	0.03317573
65	0x3d9f1413	0.07767501
66	0xbdb9068f	-0.09034454
67	0x3c88bfa3	0.016692942
68	0xbd23b091	-0.03996331
69	0x3d434772	0.047675557
70	0x3d8d6cca	0.069055155
71	0x3c066ade	0.00820419
72	0x3dc5b1e8	0.096530735
73	0xbd8b912d	-0.068147995
74	0x3c926da1	0.01787454
75	0x3d3912d7	0.045183983
76	0x3d5e0f5a	0.05421386
77	0xbd5a0ff7	-0.05323788
78	0x3d826f6a	0.06368907
79	0x3ce09faa	0.027419884
80	0x3ca259e5	0.019818256
81	0xbd976f8f	-0.07394325
82	0xbca51fc9	-0.020156758
83	0xbdc8a4d8	-0.097970665
84	0xbd816e5b	-0.06319877
85	0xbd20db67	-0.03927174
86	0xbc908b11	-0.017644437
87	0xbdd934c6	-0.10605769
88	0x3dc0db17	0.09416788
89	0x3daa43cc	0.083137125
90	0xbda89597	-0.08231657
91	0x3dc5572c	0.09635767
92	0xbd4800ca	-0.048828878
93	0x3d010786	0.031501316
94	0x3d9711a1	0.07376409
95	0xbd44f435	-0.048084456
96	0x3d39070f	0.045172747
97	0x3de4463d	0.111462094
98	0x3d9546e8	0.07288915
99	0x3d8a2fa8	0.06747371
100	0xbc984af9	-0.018590437
101	0xbd1fbe3f	-0.038999792
102	0xbd768c57	-0.060192432
103	0xbcd36672	-0.025805686
104	0xbda91137	-0.082552366
105	0x3d1bb2a7	0.038012173
106	0xbd18607f	-0.0372014
107	0xbdb19bb2	-0.08672275
108	0xbd1a821e	-0.037721746
109	0x3d2b8c8f	0.041882094
110	0x3c39afaf	0.01133339
111	0xbd08eea5	-0.033430714
112	0x3d4d1198	0.050065607
113	0xbd39f42d	-0.04539888
114	0xbd9f0b30	-0.07765806
115	0x3a0379e9	0.00050154194
116	0xbdc48100	-0.09594917
117	0xbdbedc33	-0.093193434
118	0xbd8ee273	-0.069767855
119	0x3dbd2bce	0.09236871
120	0xbb617e53	-0.003440757
121	0x3c9e1d03	0.019300943
122	0xbc90bf39	-0.017669307
123	0x3d9cab33	0.07649841
124	0xbd4bcb83	-0.04975463
125	0xbd8121ff	-0.06305312
126	0x3cbfd303	0.023416048
127	0x3cfb775a	0.03069656
128	0xbd0f18fc	-0.034935936
129	0xbc0ee4a5	-0.008721505
130	0x3cc9638d	0.024583602
131	0xbd908447	-0.0705648
132	0xbd82d66b	-0.06388553
133	0xbd8e8878	-0.06959623
134	0x3d0760ad	0.03305118
135	0x3d3e9822	0.046531804
136	0x3cb08063	0.021545595
137	0xbc8c5ca4	-0.017134018
138	0xbc5c2f4a	-0.013439009
139	0xbc5fd254	-0.013660986
140	0x3cded4c3	0.027201062
141	0x3b95f50b	0.0045763305
142	0xbd972726	-0.07380514
143	0xbbcdc09c	-0.0062790643
144	0x3bb69ba4	0.005572753
145	0x3da3aa7e	0.07991503
146	0xbdcbae2d	-0.09945331
147	0xbdae02dd	-0.0849664
148	0xbc81d087	-0.015846504
149	0x3d604987	0.05475762
150	0xbc832671	-0.016009541
151	0xbdd20091	-0.10254014
152	0xbd9c1804	-0.07621768
153	0x3d8b9e06	0.0681725
154	0x3c96f4cb	0.018427273
155	0x3d36cf71	0.044631425
156	0xbc33bfed	-0.010971052
157	0xbab482ca	-0.0013771888
158	0x3d76883c	0.060188517
159	0x3d921d23	0.07134464
160	0x3d6c16b4	0.05763884
161	0x3db0340e	0.08603679
162	0xbd4b9188	-0.049699336
163	0xbd589220	-0.05287373
164	0xbdc4fbe5	-0.096183576
165	0xbdab2a80	-0.083577156
166	0x3d691b56	0.056910835
167	0xbdbaec43	-0.091270946
168	0x3a8f45df	0.0010930857
169	0xbd80bdaa	-0.062861755
170	0x3dbc1670	0.09183967
171	0xbd8c39d0	-0.06846964
172	0xbd14ae3f	-0.036298987
173	0x3d1ce697	0.038305845
174	0x3ce26fa6	0.027641129
175	0x3dd264d2	0.10273136
176	0x3d82064f	0.063488595
177	0x3d35e64e	0.04440909
178	0xbdc96b82	-0.098349586
179	0x3d985e7c	0.074398965
180	0xbd05254a	-0.032506265
181	0xbcbf4964	-0.023350425
182	0x3dae2a22	0.0850413
183	0xbcd31da4	-0.02577097
184	0xbcd84b2b	-0.02640303
185	0x3d6248d5	0.05524524
186	0x3d5d3869	0.054008875
187	0xbd38646e	-0.045017652
188	0xbd99f897	-0.07518118
189	0x3da93b22	0.08263232
190	0x3c0bd4fc	0.008534666
191	0x3d90ab26	0.07063894
192	0xbd0682fe	-0.032839768
193	0xbd6febd3	-0.05857451
194	0x3d050dce	0.03248387
195	0x3c2acf58	0.010425411
196	0x3bb9d1d7	0.005670767
197	0xbda5e9ec	-0.08101258
198	0xbc58c6ff	-0.013231038
199	0x3d0e3fc8	0.034728795
200	0x3d5cf8c6	0.053948186
201	0x3db3be07	0.08776479
202	0x3d50d29e	0.05098211
203	0xbdeb1698	-0.11478919
204	0xbd1aba47	-0.037775304
205	0xbd236308	-0.039889365
206	0xbb0aaadb	-0.0021158967
207	0x3d254074	0.04034467
208	0x3aea12b0	0.0017858353
209	0x3dbd5ca4	0.092461854
210	0xbce9309a	-0.028465558
211	0xbdcfabe9	-0.10140211
212	0xbdd351a9	-0.1031831
213	0x3bd92a83	0.0066273822
214	0x3cfbeb34	0.030751802
215	0xbcbb6e0d	-0.022879625
216	0xbc8c444c	-0.01712241
217	0xbd10dcca	-0.03536681
218	0x3d657fad	0.056029964
219	0xbdc08b6b	-0.09401592
220	0xbd8fb637	-0.070171766
221	0xbd32b7f3	-0.04363246
222	0x3d598499	0.05310497
223	0x3d235913	0.03987987
224	0x3b896e37	0.004194047
225	0x3da9990c	0.082811445
226	0x3af3a288	0.0018587867
227	0x3ccbcf92	0.02487925
228	0xbdc500fe	-0.0961933
229	0xbdb463b5	-0.0880808
230	0x3d32f235	0.043688018
231	0xbd075dfa	-0.033048607
232	0x3dc6d142	0.097078815
233	0x3d65d96d	0.056115557
234	0xbd8d78f5	-0.06907836
235	0x3cc2029f	0.02368289
236	0xbda94cb9	-0.08266587
237	0xbd971ef1	-0.073789485
238	0x3d987e55	0.07445971
239	0xbd1cdec5	-0.038298387
240	0x3dbc6c3a	0.0920033
241	0xbd0e4313	-0.034731936
242	0x3d92afff	0.07162475
243	0x3dbf2240	0.093327045
244	0xbd97040e	-0.0737382
245	0xbb5551e7	-0.0032550038
246	0xbd5a93c4	-0.053363577
247	0x3d987b82	0.07445432
248	0x3d8a6291	0.06757081
249	0x3d751b26	0.059840344
250	0x3d5dd005	0.05415346
251	0xbd589c6d	-0.052883554
252	0x3d83374f	0.06407034
253	0x3de2726f	0.11056983
254	0xbcfaf440	-0.030634046
255	0xbc98e1e4	-0.0186624

bias f4 [84]
0	0x3d137006	0.035995506
1	0xbca41dbd	-0.020033712
2	0x3d5af428	0.0534555
3	0xbda49520	-0.08036256
4	0xbd9986a2	-0.07496382
5	0xbd852282	-0.065007225
6	0xbd490368	-0.049075514
7	0x3cee391a	0.029079963
8	0x3dd56d78	0.1042127
9	0xbdb225d4	-0.086986214
10	0xbd4dbbe1	-0.050228003
11	0xbd04e376	-0.032443486
12	0xbd89845b	-0.06714698
13	0x3dac8192	0.08423151
14	0x3d814d16	0.06313531
15	0xbc6d222f	-0.014473482
16	0x3c876236	0.016526323
17	0x3b94430c	0.004524594
18	0x3c83a95b	0.016071966
19	0x3cc634df	0.024195133
20	0x3d5cfc54	0.053951576
21	0x3ccb6120	0.024826586
22	0xbd2901d6	-0.041261517
23	0xbb9e9426	-0.004839438
24	0xbc9c4130	-0.019074053
25	0xbcbe2e4f	-0.023215441
26	0xbdab6d1a	-0.08370419
27	0x3dbd1d87	0.092341475
28	0xbb0b48d4	-0.0021253126
29	0xbd6445aa	-0.0557305
30	0x3dc1c8d0	0.0946213
31	0x3da94b8b	0.08266362
32	0x3d0a985a	0.0338367
33	0x3d9c1904	0.07621959
34	0xbd15d8cb	-0.036583703
35	0xbdc3ce4e	-0.09560834
36	0xbcd14948	-0.025547639
37	0xbd0453d2	-0.0323065
38	0x3dc92a6d	0.09822545
39	0xbd425e2a	-0.047453083
40	0x3db5c142	0.088747516
41	0xbdc5a7b9	-0.09651131
42	0x3dc83112	0.097749844
43	0xbda70854	-0.08155885
44	0x3c6a9b62	0.014319273
45	0x3d911185	0.0708342
46	0x3d86fc26	0.06591062
47	0xbcef7f0b	-0.029235383
48	0x3d8d253e	0.06891869
49	0x3d17ff46	0.037108682
50	0xbd5c2a3e	-0.053751223
51	0x3b4d62e1	0.0031339454
52	0x3d801d0e	0.06255542
53	0x3d04e33c	0.03244327
54	0xbdbff501	-0.09372903
55	0x3daba89b	0.08381768
56	0xbdb908f9	-0.090349145
57	0xbc72b110	-0.014812723
58	0x3d33bbdf	0.04388034
59	0xbd8e7bc2	-0.06957199
60	0xbdaa879f	-0.08326649
61	0xbcdc57ad	-0.026897276
62	0xbcab8429	-0.020937042
63	0xbd1f30cf	-0.038864907
64	0x3d506d63	0.05088557
65	0xbad4cba6	-0.0016235008
66	0xbd344f7d	-0.04402112
67	0x3d3a0fce	0.04542523
68	0xbdb00cb2	-0.085961714
69	0xbd7a0713	-0.061041903
70	0x3db67719	0.08909435
71	0xbda50e5b	-0.08059379
72	0xbd12558d	-0.03572612
73	0xbbd3ae96	-0.0064600212
74	0xbca1c92c	-0.019749247
75	0x3cf0e923	0.029408043
76	0x3c3003dd	0.010743109
77	0x3d820049	0.06347711
78	0x368b0aeb	4.143794e-06
79	0x3ce34ddb	0.027747085
80	0x3c0a2cbb	0.008433516
81	0x3cbbfe1f	0.022948323
82	0xbcf23d11	-0.029570134
83	0x3d16e591	0.036840025

weight f4 [42, 84]
0	0xbdc44142	-0.095827594
1	0x3c127122	0.008938106
2	0x3d7f85ea	0.06238357
3	0x3d433a16	0.047662817
4	0x3da90fa7	0.082549386
5	0x3d9079d6	0.07054488
6	0x3db81c9e	0.08989833
7	0xbd40cc72	-0.047069974
8	0xbdaaee9c	-0.083462924
9	0xbb5ca3b0	-0.0033666901
10	0x3dd1e76d	0.10249219
11	0x3ca3ec59	0.02001016
12	0xbd947f41	-0.07250834
13	0x3d98599f	0.07438969
14	0xbdc67260	-0.09689784
15	0x3da25d23	0.07927921
16	0x3c4df353	0.01257022
17	0xbc482cbb	-0.012217696
18	0x3d5c8372	0.053836294
19	0xbc254059	-0.010086142
20	0xbd979de3	-0.074031614
21	0x3cd5acf1	0.026083441
22	0xbd9e167f	-0.077191345
23	0xbd096208	-0.033540756
24	0xbd83c8e3	-0.064348005
25	0x3d9d0a23	0.07667949
26	0x3dc03432	0.093849555
27	0xbb82c489	-0.003990714
28	0x3bfe8b46	0.0077680675
29	0x3d5effb8	0.05444309
30	0x3c16bde3	0.009200546
31	0xbddd584f	-0.10807859
32	0xbdbbbf67	-0.091673665
33	0x3db32c50	0.08748686
34	0xbcfef35f	-0.031121908
35	0xbca760ea	-0.020431954
36	0x3d7ff914	0.0624934
37	0x3d89cb61	0.067282446
38	0x3a41f5ed	0.00073990115
39	0xbda2a49c	-0.07941553
40	0xbdc61ad4	-0.09673086
41	0x3c3b7d1a	0.011443401
42	0xbd81153e	-0.0630288
43	0xbd894342	-0.067022815
44	0xbd3efe9e	-0.04662954
45	0x3d1851ff	0.037187573
46	0xb9a338a5	-0.00031131986
47	0x3d5e405d	0.0542606
48	0x3d9a291a	0.07527371
49	0xbd7d0fb1	-0.061782543
50	0xbb17f5b2	-0.0023187217
51	0xbb7e7e31	-0.003883254
52	0x3cf3f473	0.029779648
53	0xbdbea6c0	-0.09309149
54	0xbd690e40	-0.056898355
55	0xbda615f3	-0.08109655
56	0x3d8818ab	0.0664533
57	0xbbc3fe60	-0.0059812516
58	0xbce74831	-0.028232666
59	0xbdbd7a04	-0.09251788
60	0xbd5d7e0f	-0.054075297
61	0x3be6be05	0.007041695
62	0x3d6c6643	0.057714712
63	0xbd5ee3b9	-0.054416392
64	0x3d885f7c	0.06658837
65	0xbd67fc2d	-0.056636978
66	0x3d11b591	0.035573546
67	0xbdb2071d	-0.08692763
68	0x3d70a019	0.05874643
69	0x3d3a308c	0.045456454
70	0x3da56b46	0.080771014
71	0xbd569326	-0.052386425
72	0x3d90236a	0.07038005
73	0xbda07a9f	-0.07835888
74	0xbacb4b87	-0.001551018
75	0x3db66a07	0.08906942
76	0x3dc0c21e	0.09412025
77	0xbca52ccb	-0.02016296
78	0x3dd36457	0.10321873
79	0x3cfb3929	0.030666905
80	0xbd5efd33	-0.05444069
81	0xbcdf742c	-0.027277075
82	0xbbd23f52	-0.00641624
83	0x3a4c39a0	0.0007790569
84	0x3c2a87af	0.010408326
85	0xbd9a7b19	-0.0754301
86	0xbba95787	-0.005167905
87	0x3d704d40	0.05866742
88	0x3dd995a3	0.10624244
89	0xbd766031	-0.06015033
90	0x3d9e76c9	0.077375
91	0xbd1c9d75	-0.0382361
92	0x3d29dd8c	0.04147105
93	0x3d62ceca	0.05537299
94	0x3dc0bc68	0.09410936
95	0x3ccce705	0.025012502
96	0xbc8b09d2	-0.016972456
97	0x3cd797f2	0.02631757
98	0xbc09144a	-0.008366654
99	0x3db68ef1	0.08913983
100	0x3d26f23b	0.040758353
101	0x3dc231d7	0.094821624
102	0x3d917737	0.071028166
103	0x3dc06169	0.093935795
104	0xbc69448d	-0.014237535
105	0xbdb7f025	-0.08981351
106	0xbcbd7995	-0.023129264
107	0x3d9683f2	0.07349385
108	0x3d0fd116	0.03511151
109	0x3d3bbc79	0.04583404
110	0x3d6384c0	0.055546522
111	0xbd37649d	-0.044773687
112	0xbd1fc1f3	-0.039003324
113	0xbd9da810	-0.07698071
114	0x3d56b1e1	0.052415732
115	0x3dcbd38c	0.09952459
116	0xbd448962	-0.04798258
117	0x3da3dc9e	0.08001064
118	0xbd0cd71b	-0.034384828
119	0x3d248b66	0.040172003
120	0xbbb42bef	-0.0054984014
121	0x3c6dac4a	0.014506409
122	0xbdc6299f	-0.09675907
123	0x3d63f710	0.05565554
124	0x3d1fb72a	0.03899304
125	0x3d53fa02	0.051752098
126	0xbd2449aa	-0.040109314
127	0xbc1bb686	-0.009503966
128	0xbd8236a4	-0.06358078
129	0x3c982d41	0.018576266
130	0x3cee3b35	0.029080966
131	0x3d14d782	0.036338337
132	0xbd94da2e	-0.07268177
133	0x3d009311	0.031390253
134	0x3d899e41	0.06719638
135	0x3dade662	0.08491208
136	0x3d836b60	0.064169645
137	0x3dc73300	0.09726524
138	0x3d4bcccb	0.049755853
139	0xbd8bb930	-0.06822431
140	0x3cf5d6f7	0.03000973
141	0xbd8b5ffe	-0.068054184
142	0x3da1ca1d	0.07899878
143	0xbc9db2a3	-0.01925022
144	0x3cca1ab5	0.024670938
145	0x3c67daf3	0.014151323
146	0xbda7c4ce	-0.081918344
147	0xbd7c8281	-0.061647896
148	0x3d8ceb70	0.06880844
149	0x3d7fd178	0.062455624
150	0x3d0bc09f	0.034119245
151	0x3dc966af	0.098340385
152	0xbd9a628c	-0.075383276
153	0x3d589a28	0.05288139
154	0x3d36ef04	0.044661537
155	0xbd273ac5	-0.04082753
156	0x3dd42c17	0.10359972
157	0xbd84c218	-0.06482333
158	0x3d5fe2bc	0.05465959
159	0x3d85d7a3	0.0653527
160	0x3da8c505	0.082407035
161	0x3d008ff8	0.0313873
162	0x3dab9800	0.08378601
163	0x3dc94f67	0.09829598
164	0x3c9a6bd6	0.018850248
165	0xbd90cdcc	-0.07070503
166	0x3c15e24e	0.0091481935
167	0x3a308e22	0.00067350466
168	0xbd102fb3	-0.03520174
169	0xbbbe5c4e	-0.0058093434
170	0xbd87fc29	-0.066398926
171	0x3d855e4a	0.06512125
172	0xbd96272d	-0.07331691
173	0xbafacf0a	-0.0019135189
174	0x3c5c91aa	0.013462463
175	0xba48a84c	-0.0007654473
176	0x3d82d3d6	0.06388061
177	0xba286f16	-0.00064252445
178	0x3d9dfa06	0.07713704
179	0xbd4a78cb	-0.049431603
180	0xbd97064f	-0.0737425
181	0xbdac4f01	-0.08413506
182	0x3b58cddb	0.0033081684
183	0x3d44182e	0.047874622
184	0xbddd134a	-0.10794695
185	0xbcd635d7	-0.02614872
186	0xbc851dbb	-0.016249528
187	0x3d5f3178	0.054490536
188	0x3d05f802	0.03270722
189	0xbdb9bce9	-0.09069235
190	0xbda8d87e	-0.082444176
191	0xbca4946f	-0.02009031
192	0xbdcb584e	-0.09928952
193	0x3d363069	0.04447976
194	0x3da55eb4	0.08074704
195	0x3d931328	0.07181388
196	0x3b71fbf7	0.0036923864
197	0x3bde52e1	0.0067847823
198	0xbdbcd11f	-0.09219574
199	0x3c6a357e	0.01429498
200	0xbd283257	-0.041063633
201	0xbdcb1668	-0.09916383
202	0xbdd44fd9	-0.10366792
203	0xbd6820d2	-0.056671925
204	0x3cf14c7a	0.029455412
205	0xbd165527	-0.0367023
206	0x3d58b320	0.052905202
207	0x3db37bc0	0.08763838
208	0xbd683b1d	-0.056697
209	0xbb438b75	-0.0029837762
210	0xb9ff0c33	-0.0004864648
211	0x3d8e8194	0.06958309
212	0xbcd5d09c	-0.02610045
213	0x3d9b8f0a	0.07595642
214	0x3d51f09b	0.05125485
215	0x3da796de	0.081830725
216	0xbc5bbd75	-0.013411869
217	0xbdc199c2	-0.09453155
218	0x3cc0ea68	0.023549274
219	0x3d61cc3e	0.05512642
220	0x3d86878a	0.06568821
221	0xbcdbf458	-0.02684991
222	0x3ce03daa	0.027373154
223	0x3de1b041	0.11019946
224	0xbda5e7c1	-0.08100844
225	0xbdac98ef	-0.08427607
226	0x3ceaadd4	0.02864734
227	0x3c85ff69	0.01635714
228	0x3d9c97d8	0.076461494
229	0x3dc738f9	0.097276635
230	0x3c3e2abb	0.011606867
231	0x3ceea53f	0.02913153
232	0xbbb3b87a	-0.005484638
233	0x3d68b14d	0.056809712
234	0x3da43f2f	0.08019864
235	0x3d29368b	0.04131178
236	0x3d1abaac	0.03777568
237	0xbdc65cc1	-0.0968566
238	0xbd41a902	-0.04728032
239	0xbd379364	-0.044818297
240	0x3da4cc83	0.0804682
241	0xbdb50ea2	-0.088406816
242	0xbb260143	-0.0025330342
243	0x3cc45022	0.023963992
244	0xbd965314	-0.07340065
245	0x3dc23f6b	0.09484752
246	0x3c5d45e3	0.013505432
247	0x3d73dd15	0.059537012
248	0x3bf64a9e	0.0075162193
249	0xbdabd7d4	-0.08390775
250	0x3bc61e38	0.006046083
251	0xbaf9f035	-0.001906878
252	0x3cf777a5	0.030208418
253	0x3dbc147b	0.09183594
254	0xbdc21e27	-0.09478407
255	0x3ca8fea5	0.020629236

bias f4 [42]
0	0x3ca6c7d7	0.020358963
1	0x3d4082e5	0.04699983
2	0xbd897b64	-0.06712988
3	0xbc83dc54	-0.016096272
4	0xbd9c67b1	-0.07636965
5	0x3d332ccc	0.043743894
6	0xbd32f64b	-0.043691915
7	0x3dc5d39d	0.09659503
8	0x3da62b6d	0.081137516
9	0x3c9bf367	0.019036962
10	0xbde30e29	-0.11086685
11	0xbcaadfbe	-0.020858642
12	0xbd43e9af	-0.04783028
13	0x3b3c77a0	0.0028757825
14	0x3d99530f	0.07486545
15	0xbd1f0f94	-0.038833216
16	0xbd01d4a1	-0.03169692
17	0xbd8f8a41	-0.07008792
18	0xbd9b9437	-0.07596629
19	0x3db4b5c5	0.08823732
20	0x3d81b945	0.063341655
21	0xbd02f356	-0.031970344
22	0xbdb0b52b	-0.08628305
23	0x3ced306e	0.028953757
24	0xbda8a0d3	-0.082338
25	0x3d7b63d4	0.0613745
26	0x3da42692	0.08015169
27	0xbd7857c7	-0.060630586
28	0x3d8838dd	0.06651471
29	0xbdc55ba0	-0.09636617
30	0x3d8867f1	0.0666045
31	0x3dd2b55d	0.102884986
32	0xbd82a85f	-0.063797705
33	0x3dc7e9d0	0.09761393
34	0xbd95dc4e	-0.073174104
35	0x3d8e2f57	0.06942623
36	0x3c624207	0.013809687
37	0x3db51675	0.08842174
38	0xbc39d348	-0.011341877
39	0xbdb18b8e	-0.08669196
40	0x3c53915b	0.012913073
41	0xbddfb6c0	-0.10923529

weight f4 [1, 42]
0	0xbd859650	-0.065228105
1	0x3e0c637f	0.1370983
2	0xbd3e779a	-0.04650078
3	0xbd03d48b	-0.03218512
4	0xbc72b67d	-0.014814016
5	0x3dc2cc54	0.09511629
6	0xba4a6b5c	-0.0007721686
7	0x3cee9305	0.029122839
8	0x3cf28666	0.029605102
9	0xbd6deffc	-0.058090195
10	0x3ddb37af	0.1070398
11	0x3e14b3e8	0.14521754
12	0x3d99105d	0.07473824
13	0xbdf43f29	-0.11926109
14	0x3ddf6896	0.1090862
15	0xbd8645d6	-0.06556289
16	0xbdfa573d	-0.12223671
17	0x3d0678e4	0.032830134
18	0x3d8d8906	0.06910901
19	0x3df7bd9d	0.12096713
20	0x3d7d6943	0.061867964
21	0x3bbc9fd3	0.005756357
22	0xbd45d36f	-0.048297342
23	0xbd1e8351	-0.03869945
24	0x3daabbdf	0.08336615
25	0xbd4ddd47	-0.050259855
26	0x3c957882	0.01824594
27	0x3cf27ea9	0.029601412
28	0xbda33efa	-0.07970996
29	0x3d9d3498	0.07676047
30	0x3d7e5a32	0.062097736
31	0xbdf65707	-0.12028318
32	0x3d53b515	0.051686365
33	0x3d578387	0.05261567
34	0xbd5bcfed	-0.05366509
35	0xbdddbed1	-0.10827411
36	0x3d17828c	0.036989734
37	0x39ccbf93	0.00039052646
38	0x3df09210	0.11746609
39	0x3d2d425d	0.042299617
40	0xbdcc9a18	-0.099903286
41	0x3dc515d6	0.096233055
