ModelUnpredictability/one_thousand_brains/predictor_48.model (torch_old, 109395 bytes, 7 tensors)

weight f4 [84, 168]
00000000: 094b 0dbd 89e2 673d fadc cfbc e9c9 14bd
00000010: 4093 453d 55bf 1fbd 7a2b 723d 4713 3c3d
00000020: 79e4 abbb 0fc9 5b3d ef4d 5e3d e7a5 a53c
00000030: b83b 67bc 8b7c 973d db5c 863a ef27 3abd
00000040: 6cd2 183d e4f4 e03c f7fd 2c3d 4836 67bd
00000050: dc52 b5bc 9125 73bd 7d5d 803d 0543 3d3d
00000060: 8aa5 943c 02b0 b8bc 579e e33c cc98 f3bc
00000070: 34de 85bd d170 9dbd 5e2c 26bd a3fb 873d
00000080: f1ce 60bd bb78 353d c093 b6bc a4ac 633c
00000090: 1055 083d 1b9a 503d 2cde 8e3c cd46 ccbc
000000a0: 9206 64bd 7150 e4bc 09fd eb3b 816b 08bd
000000b0: fc17 0f3d 37da a03d 74cb 8bbd c7e9 5abd
000000c0: f444 1f3d 6c30 79bb f2a2 943d 88d4 fcbc
000000d0: c0f8 1d3d fd18 123d a353 633d e1c8 36bd
000000e0: b5be 86bd 6875 18bd 4ce0 893c efde 97bd
000000f0: 22ef 253c a70c b5bc 8df4 7a3d 1c6b 823d
00000100: 9377 bdbb fc1b 563b 3cf2 0ebc 298a 83bd
00000110: f209 ec3c 3e5f ffbc 7488 d6bc cf32 bfbc
00000120: cf7d 59bd 3bc8 9dbd 9a6b e0bc 352e 1a3d
00000130: f3d7 8d3d 4002 95bd 87a1 573d 1887 d3bc
00000140: 8c67 2d3b 3345 343d 8f70 b43c 6cc7 44bd
00000150: fd5e d23c 974d 04bd 4ef4 d23c 2c16 483b
00000160: 20b4 13bd 28fc 98bd 64c9 e6ba cce6 6bbd
00000170: c79f 243d a265 9dbd dc52 033d 6e8d 29bd
00000180: 1eef 923d 0878 ad3b 05cf 8c3d fff8 233d
00000190: facb 46bd c986 7e3c 0b6b 313d cd64 27bd
000001a0: 7e7f 96bc 779c 3e3d c785 aebc 5251 693d
000001b0: 3793 293d 47ca 54bd 1ca8 bcbc 75d6 2abd
000001c0: 2599 35bd 2a54 8d3c 4e5b 883d 349e ee3c
000001d0: c875 7d3d b166 57bc e48c 8dbd d860 a4bd
000001e0: abd6 143d 222e 8a3d c479 5a3d dfcf 793d
000001f0: ae7b 77bd 5b1f 7fbd 079e 96bd 155f 1c3c
00000200: ca89 6cbc 6d2f e1bc 58b6 2ab9 c416 07bc
00000210: 8a7f 423d 1bbb 3c3c 344b d3bb 001e 793d
00000220: ec58 73bd 3aea 43bd 4072 7abd a93a 2b3d
00000230: fe6c 733d 3939 6abd ebff 853d 9682 56bd
00000240: 727c 35bd aa36 8a3d b0f3 49bd 34a0 45bd
00000250: f2a8 c93c 5f44 6dbc 4e1f 8b3c 65d4 eb3b
00000260: 342e 5f3d a198 cbbc 2520 2a3d 067b 99bd
00000270: b5d4 543d 3a2a 8abc 1c13 07bc 6b0c a5bc
00000280: c4fc 843d 76d0 57bb 6d31 b3bc c336 9c3c
00000290: 5104 1b3c f90f bd3a 3fac ff3c c847 403d
000002a0: c5c6 8ebd c19b 123a 24ec 97bd aa1b 80bc
000002b0: 1966 4fbb 7f53 06bc 8cc5 2fbd 9e28 9dbc
000002c0: bac8 1b3d dc34 3fbc 2e92 10bd 3314 6cbd
000002d0: 4847 803d c87a 8a3d deb0 42bd ac2e 3b3c
000002e0: 10a7 083c 06a5 7d3b a6b0 c83c 697f 76bd
000002f0: 0a9e 3d3d a5d8 84bd 976f 383d c7ca 953d
00000300: 9781 2f3c 485e 2dbd 6826 253c 5f65 40bd
00000310: 95a5 8fbd 912f 843d 12f2 1b3d dcde b83c
00000320: 38b8 443d 958c 7fbd 9ba5 a5bc 4008 0e3d
00000330: 126d d43a 74e2 9b3d 255c 41bd 539d 79bd
00000340: a3a9 5cbd f24f 913c dcca b3bc 4c2a 8ebc
00000350: 24eb 09bd 4af0 153d 99b2 263c fe08 513d
00000360: 646d 3a3d 7bce 333d f33f 4abd 2e58 b53c
00000370: cee1 a63b 52db cbbc f2b4 383d 6877 f83c
00000380: 80e6 783c ba74 63bd c538 ca3c ffb7 8d3a
00000390: 3c03 aabd e2dd 463d 568b 84bd ee3f 313d
000003a0: c4ea 16bd 1cbb a13c 087a 813d 3a33 3ebd
000003b0: c106 57bd 8d92 dc3c e805 1f3d 5bee 7ebd
000003c0: 45b3 853d aab3 863d 5606 37bd 8f18 713d
000003d0: fc3b 903b 9a67 49bd e5b0 30bd 4d57 f2bb
000003e0: 9f3e 383d 4476 98bd 19fa 833c 7c58 e83c
000003f0: d866 c13c 82ca c43b 40a7 6db7 4109 1c3d
-0.034495387 0.056612525 -0.025373925 -0.03632537 0.04823613 -0.039000828 0.059123494 0.04591682
-0.005245742 0.05365854 0.054273542 0.02022071 -0.014113359 0.073968016 0.0010251062 -0.04544824
0.03731005 0.027460523 0.042234387 -0.05644825 -0.022134237 -0.059361998 0.062678315 0.046206493
0.018145341 -0.022544865 0.027785463 -0.029735945 -0.065365225 -0.07687534 -0.040569656 0.06639793
-0.054884855 0.04430459 -0.02228725 0.013896141 0.033284247 0.050928216 0.017439924 -0.024936104
-0.05567033 -0.027870389 0.007201795 -0.03330565 0.034934983 0.07854121 -0.06825915 -0.053445604
0.03888412 -0.0038023246 0.07257642 -0.030863062 0.038567305 0.035668362 0.055499684 -0.044625167
-0.06579343 -0.037221342 0.016830586 -0.07415568 0.0101278145 -0.02210076 0.061268378 0.06368086
-0.0057820766 0.0032670489 -0.008724745 -0.06422836 0.028813336 -0.031173345 -0.026188113 -0.023339657
-0.053098496 -0.077042066 -0.027395058 0.037641723 0.06925955 -0.0727582 0.05264428 -0.025821254
0.0026459424 0.044011306 0.022026328 -0.048041746 0.02568006 -0.032300558 0.02575126 0.0030530794
-0.036060452 -0.0746997 -0.0017607627 -0.057593152 0.040191438 -0.076854005 0.032061443 -0.041394643
0.07174514 0.00529385 0.06875423 0.040032383 -0.04853437 0.015535065 0.043314975 -0.040867615
-0.01837134 0.046535935 -0.021304024 0.05696232 0.04140016 -0.05195072 -0.02302938 -0.04170843
-0.044335503 0.017252047 0.0665804 0.029128172 0.061879903 -0.013147042 -0.069116384 -0.08026284
0.036337536 0.067470804 0.05333878 0.060989257 -0.060420685 -0.062285762 -0.0735436 0.009544154
-0.014437148 -0.027488435 -0.00016280392 -0.008245174 0.047484912 0.011519219 -0.006448174 0.060819626
-0.059410974 -0.047830798 -0.061144114 0.04180399 0.059430115 -0.057183478 0.06542953 -0.05237063
-0.044308133 0.067487076 -0.049304664 -0.048248485 0.024616692 -0.014481633 0.0169827 0.0071969503
0.054487422 -0.024853053 0.04153456 -0.07494168 0.051960666 -0.016865838 -0.008244302 -0.020147523
0.06493524 -0.003293065 -0.021874154 0.019069081 0.009461478 0.0014424316 0.031210063 0.046943456
-0.06971506 0.0005592667 -0.07418087 -0.015638191 -0.0031646548 -0.008198618 -0.042913005 -0.019184407
0.038033225 -0.0116703175 -0.035295658 -0.05763645 0.06263596 0.067617 -0.047531955 0.011424702
0.008340612 0.0038703098 0.024498295 -0.0601801 0.046293296 -0.06486634 0.045028295 0.07314067
0.010712049 -0.04232624 0.010079958 -0.046971675 -0.07014004 0.06454385 0.038072653 0.022567205
0.048027247 -0.06238993 -0.020220568 0.034675837 0.0016206822 0.07611552 -0.047207016 -0.06094105
-0.053872716 0.017738316 -0.021947317 -0.017354153 -0.033671513 0.03660611 0.010174417 0.051033966
0.04551448 0.043898087 -0.049377393 0.022136774 0.005092836 -0.024884854 0.045094438 0.030330375
0.015191674 -0.05553124 0.024685273 0.0010812281 -0.08301398 0.048551448 -0.06471889 0.04327386
-0.036844984 0.019742541 0.06322104 -0.046435572 -0.052496675 0.02692535 0.038823992 -0.062239032
0.065283336 0.06577237 -0.044683777 0.05886131 0.004401682 -0.049171068 -0.04313745 -0.007395661
0.044981595 -0.074444324 0.016110467 0.028362505 0.02360861 0.006005586 -1.4165242e-05 0.038094763

bias f4 [84]
00000000: b160 25bd 95a8 f4bb 06ff 42bd 2393 4fbd
00000010: e211 063d e77f 483d 174e 5a3b f26d 58bb
00000020: e3ee 0abc 1376 96bc 1b64 05bd e041 123d
00000030: b427 a13c c31b 6dbc c005 103d f7f5 3ebd
00000040: f195 8e3d 586d 72bd 2902 2abb 18a3 8cbd
00000050: 0d39 0abd 1088 2c3d 6ec3 1c3d de3c 5a3d
00000060: b1fb 363d d17e 303d cd3f 3f3c a62c c53c
00000070: afdc 52bc 721e f9bc 4bd2 723d 6b7f 6fbc
00000080: 3433 a3bd 950b ec3c 3f40 3d3d 3c16 b53c
00000090: f147 6dbb 4cbe a33c 1012 9cbd ccfa 7abd
000000a0: 6262 7c3d f885 7f3c 9b97 233d ef9c 113d
000000b0: 5158 143d c40f a3bd 1f7c c9bb 1314 babc
000000c0: 3d1d 0a3c c343 6bbd cfdc 33bd 1e2a c53b
000000d0: 2ebd 873d f7df 943d 820b 683d 4784 683a
000000e0: b9b9 e73b 5557 e53c f3c8 81bd a46a ef3c
000000f0: f628 9ebc 6221 6bbd 78ef 19bd 7e3e 8abd
00000100: 110c c93c e73e 22bc 07ff 9d3c 38e2 6c3d
00000110: 5ed2 5c3d 1500 0c3d 3f15 7bbd 80d5 37bd
00000120: 56c6 973d 7566 313c 4a5b 30bd 2b38 c8bc
00000130: 6d6f 903c 6f9f a0bc 06f7 a0bc ec05 b73c
00000140: 3151 8f3c c52a 6a3d 7876 8e3d 4795 443d
-0.040375415 -0.0074663856 -0.04760649 -0.05067743 0.032731898 0.048950102 0.0033310705 -0.0033024517
-0.008479807 -0.018366849 -0.03256617 0.035707355 0.019672252 -0.014471951 0.035161734 -0.04662129
0.06962193 -0.05918631 -0.002594123 -0.06867045 -0.033745814 0.042121947 0.038272314 0.053280704
0.044673625 0.04308969 0.011672926 0.024069142 -0.012869998 -0.030410025 0.059282582 -0.014617781
-0.079687506 0.028814116 0.046203848 0.022105329 -0.003620621 0.019988202 -0.07620633 -0.061274335
0.061617263 0.0155959055 0.039939504 0.035550054 0.036217038 -0.079619914 -0.0061488296 -0.02271465
0.0084298225 -0.05743767 -0.04391175 0.0060169837 0.0662788 0.072692804 0.0566516 0.00088698085
0.0070717004 0.027995745 -0.06337156 0.029225655 -0.019306641 -0.057404883 -0.03758189 -0.06750201
0.024541887 -0.009902692 0.019286646 0.057832927 0.05391156 0.034179766 -0.06129956 -0.044881344
0.074108765 0.01082765 -0.04305581 -0.024440845 0.017631257 -0.019607274 -0.01964904 0.022341691
0.01749477 0.057169694 0.0695619 0.047993924

weight f4 [84, 84]
00000000: e206 983d fff8 75bd d98d 95bc e8b7 d13d
00000010: 254d d13d 44c6 15bd c9a7 4abd 3357 663d
00000020: 7d33 473d 95b3 ca3d 1b13 c0bd 4f7b a7bd
00000030: c24d 6f3d 056b ecba ecbd 553d 925f 123d
00000040: b5b1 94bd e840 adbd 2ba2 33bc 7753 023d
00000050: bfd9 fdbc f7a6 b4bd 2ce0 f8bb 397d 493d
00000060: ed46 11bd 7f98 153d 465c 1fbd 1980 5dbd
00000070: cb0d 293d bbd9 5bbd 740f 92bc 7c04 bf3d
00000080: 4182 91bd 0db5 88bc 68e0 4fbd beb1 7a3d
00000090: 20f3 a1bd 96fc cdbd a1a7 9d3d 003b 833c
000000a0: 9f8e d23d fb2c e53d 656c 5b3d e9f3 283c
000000b0: 5bac 4abd 8240 a4bd 2841 873d ac40 dabd
000000c0: 2212 203d b502 9bbd a06e b13d a853 a6bc
000000d0: df36 24bd 25e7 bdbd ace3 b53d 807e bc3d
000000e0: fe8f 23bd d80d 17bd 0021 243d e728 71bd
000000f0: 77e7 bfbd cdfe ca3d 1304 a73d 72bd e43d
00000100: c2fd 36bd c7d3 a5bd 2cbd 2ebd 2714 983d
00000110: ca14 d8bc dc31 97bd c8a9 d43c 662b 6a3b
00000120: 026c d53c cce5 863d d797 c1bd 575e 5cbd
00000130: 927f 69bd 7308 893d 156e d6bd f289 8ebc
00000140: 7641 8fbd 8967 e53c 624a 313d 11b0 ec3d
00000150: f8b2 ffbc 6488 893b 7f52 9dbd 8beb b83d
00000160: 1436 8e3d e4f7 b3bd 62a3 9fbd c287 253c
00000170: 973b 5b3d 9355 1f3d 8900 bfbd 5042 98bc
00000180: 90dc 5d3c 4c54 793d 7421 d33d 7e98 df3d
00000190: 3e95 5ebd cc09 7bbd dde1 c9bc 875d d3bd
000001a0: 9fec 96bd 8d53 c3bc 68c5 c0bd 2a66 dabd
000001b0: fc3e d2bc ee43 a23d 2380 99bd 50dc 81bd
000001c0: e22a 70bc 1025 093e 57fc 2fbc 1051 213d
000001d0: af80 84bd 260a 87bd c4e9 e5bc e018 2c3d
000001e0: b242 a53d 2c83 283d 3f9b 22bd 7bd4 d23d
000001f0: 6db7 ed3c b595 9d3d 8c6c 133d b981 873c
00000200: 2c56 993d c33c a9bd 7bd0 413d a64a 38bd
00000210: 95d4 ccbc f15f d63c 579a f13d 30af 77bd
00000220: cd58 25bd 1f39 ce3c 13be afbd 1980 e53d
00000230: 2841 fb3b 8994 333d 7ac0 773b 3729 983d
00000240: 1d89 83bd 8109 79bc 33ce 823d 8a93 82bc
00000250: ad73 9b3b 73f6 ad3d a0d1 553d 4397 023d
00000260: d8c8 b6bd da70 e43d cb88 a0bd 6735 a53d
00000270: 7bed 10bc 1dd0 86bd b5b1 c4bd 95eb 57bd
00000280: 42e3 79bd bc40 a8bc 864a cebd 3f09 bb3c
00000290: 8f0b b5bc 31b8 fd3c 153c 8d3d 6a58 0ebd
000002a0: 347d c23d 2522 d3bd 4af7 a83d ec44 833d
000002b0: 6e97 27bd ac98 843c 5c0a 65bb 14cb 98bd
000002c0: a574 73bd 26c7 b3bd aa05 babd decb 3cbb
000002d0: 21b5 963d e7c5 e63d 796f 1fbb d4cf 8c3d
000002e0: 8af0 73bd 3d84 cf3d 666e 93bb 4b97 9d3d
000002f0: b192 033d 98bd 1c3d e525 27bd 2a35 af3c
00000300: b67e 86bd 8474 b8bd 90f9 ddbd 2435 8d3c
00000310: 312c 803d c4ad d73c 32ca 89bd 07ff c43d
00000320: 3d63 273d 7ec1 0cbc 88c4 61bd 0e5f 0b3b
00000330: 65c5 c53d 6491 7abb dbeb 353d f7cc b13c
00000340: 4a8c 6e3d 9032 63bd f351 85bd c873 16bc
00000350: d7cf d3bd f7e7 ca3b 6aa2 a4bd 25c2 b53d
00000360: 6418 7fbd e6bf f03d 3c3c 163d 341c 70bd
00000370: 4ceb ba3d 2662 a6bd 0fa6 04bd 15b1 b53d
00000380: 6262 4abd 2cd4 5c3d 284c e0bb 1686 42bd
00000390: c5ac f3bc 96be 94bc 4dcd a63d a2c5 433d
000003a0: e545 a13d 09cb b03d ab4f 133d f7f6 3e3d
000003b0: 2566 0e3d 9dab 8c3c c36f cc3d a939 273d
000003c0: 7941 08bd 1002 00bd 52d9 65bd 0eb7 d6bd
000003d0: 4429 b9bd 81f2 bcbd 284c 88bd 58d1 afbd
000003e0: c82c 61bd 742d 3b3d 6ce6 913d 6a28 303b
000003f0: 8113 783d 91ea 693d cf36 80bd 3b7c abbd
0.07423188 -0.060051914 -0.018256115 0.102401555 0.10219792 -0.036566034 -0.04947642 0.056235503
0.048633087 0.09897534 -0.09378644 -0.08177816 0.058423765 -0.0018037265 0.052183077 0.035735674
-0.072604574 -0.084596455 -0.010963957 0.03181788 -0.030987618 -0.088209085 -0.0075950827 0.049191687
-0.03546803 0.036522385 -0.03890636 -0.05407724 0.04127292 -0.05367444 -0.017829634 0.09327027
-0.07104922 -0.016687894 -0.05075112 0.061204664 -0.079077005 -0.100579426 0.07697988 0.016019344
0.10281109 0.1119022 0.05357017 0.010312059 -0.049480777 -0.080201164 0.066042244 -0.106568664
0.039079793 -0.07568876 0.08663678 -0.020303562 -0.04009139 -0.09272603 0.088813156 0.092038155
-0.039932244 -0.036878437 0.040070534 -0.0588769 -0.0937032 0.09911881 0.08155074 0.11168946
-0.044675596 -0.08097034 -0.042660877 0.07425719 -0.0263771 -0.07382557 0.025959864 0.0035731434
0.026052479 0.06586799 -0.09452789 -0.053800907 -0.057006426 0.06691065 -0.10470215 -0.017399762
-0.069949076 0.028003471 0.043283828 0.115570195 -0.031213269 0.004197167 -0.076817505 0.09029301
0.06943908 -0.08787516 -0.07794835 0.010103168 0.053523626 0.03889997 -0.09326274 -0.018586308
0.013541356 0.060871407 0.10309115 0.109177575 -0.054341547 -0.06128864 -0.024643833 -0.10320573
-0.07369351 -0.023843551 -0.09412652 -0.106640175 -0.025664799 0.07923113 -0.07495143 -0.063408494
-0.014658662 0.13393044 -0.010741315 0.039383948 -0.06469857 -0.065937325 -0.02806557 0.04201591
0.08069362 0.04114072 -0.039698835 0.10294434 0.029018128 0.0769457 0.03599219 0.016541349
0.07487139 -0.082635425 0.047317963 -0.044993065 -0.02500371 0.026168795 0.11797016 -0.060469806
-0.04036789 0.025173722 -0.08581176 0.11206073 0.0076676793 0.043842826 0.0037803934 0.07429736
-0.06422637 -0.01520002 0.06386986 -0.015939493 0.0047440142 0.08494272 0.052201867 0.031882536
-0.08925027 0.11154337 -0.07838591 0.08066826 -0.008845682 -0.06582663 -0.096042074 -0.052714903
-0.061007746 -0.02053868 -0.10072808 0.022831557 -0.022100238 0.030971618 0.06896225 -0.034752287
0.09496537 -0.10309247 0.08250292 0.0640963 -0.0409159 0.01618608 -0.0034948802 -0.07460609
-0.059437413 -0.08778219 -0.090831116 -0.0028808038 0.07358766 0.112682156 -0.0024327917 0.068755776
-0.059555568 0.10132644 -0.0044992445 0.076948725 0.032122318 0.03826675 -0.040807623 0.021387655
-0.06567137 -0.090065986 -0.10838616 0.017237253 0.06258429 0.026327975 -0.06728019 0.09618955
0.040866125 -0.008591054 -0.055119067 0.0021266374 0.09656791 -0.0038233632 0.044414382 0.02170418
0.05823926 -0.055468142 -0.06509771 -0.009182878 -0.10342377 0.006192203 -0.080387905 0.08874921
-0.06227912 0.11755352 0.036678538 -0.058620647 0.091269106 -0.08124189 -0.03238493 0.08871666
-0.04941023 0.05391328 -0.006845016 -0.047491156 -0.029745469 -0.018157285 0.08144627 0.0477959
0.078746594 0.08632476 0.03596465 0.046622243 0.03476538 0.017171675 0.09982254 0.040826473
-0.033265565 -0.031251967 -0.056115456 -0.10484134 -0.09041074 -0.092259414 -0.06655151 -0.08584851
-0.054974347 0.045697644 0.071240276 0.0026879557 0.060565475 0.057108466 -0.06260454 -0.083733045

bias f4 [84]
00000000: 81e9 c63d 6d9b 963d 90de b0bc f375 c8bd
00000010: eb62 2e3c 4c52 8e3d ffd3 7abc 2f33 7e3d
00000020: ecb6 f33d e0a8 e6bc 9e2d 303c e394 39bd
00000030: a2e3 d23d 08b3 a33d 195c 913d ffeb 503d
00000040: 0571 e2bc b70d ef3d ba6b 01bd 0b91 cc3d
00000050: f8c7 4bbd 5a7d 2cbc b5f6 c43d 1ad9 70bd
00000060: 8033 a23d be3d 25bd f73c acbd f885 a6bd
00000070: bed2 363c 29c8 4fbd 2d75 2a3d 12c1 4f3d
00000080: 57a0 2fbd 54d3 80bd 42f2 303b efba 07bd
00000090: d44d babd ffea c7bd f0e4 bcbd 91e4 0d3d
000000a0: b07f a73d 20e2 ae3d 0c2a 963c bf1d 89bc
000000b0: 356f a93c baad a5bd ced9 953d 70d9 063d
000000c0: 622f c63b a044 80bd 8fa0 94bd cea2 bebd
000000d0: 95f2 6d3d e960 f13c edb1 90bd 5803 6d3d
000000e0: b14f dabd 61eb 3f3d b70c 553d abbc 70bd
000000f0: 8608 bc3d e3a4 b8bc 508f 56bd 55d0 84bd
00000100: 834c c03d a3b6 b0bd 1c1e 6fbd 6db2 853c
00000110: fe21 68bd ab74 093b e73d 533d dfde e63b
00000120: a3a0 513d 7166 e6bd 4bad 213c 8c1d 55bc
00000130: 2eea 3ebd de07 d6bd e031 743c 1a34 6c3d
00000140: 322f 6bbd 46a2 52bb 2c54 9e3d c6cd 793d
0.09712506 0.07353864 -0.021590501 -0.09788122 0.010643701 0.06949291 -0.015309333 0.06206053
0.11900124 -0.028156698 0.0107530635 -0.045308005 0.10297324 0.07993132 0.07097644 0.051006313
-0.027641783 0.11672538 -0.031596877 0.09988602 -0.049751252 -0.010527933 0.09617368 -0.058800794
0.07919979 -0.040342085 -0.084100656 -0.08131021 0.011158643 -0.050727997 0.041615654 0.050721236
-0.04287752 -0.06290308 0.0026999866 -0.03313726 -0.09096876 -0.09761619 -0.09223354 0.034641806
0.08178651 0.08539224 0.018330596 -0.016737817 0.02068291 -0.08089776 0.073169336 0.03292221
0.006048129 -0.06263089 -0.072571866 -0.09308396 0.058092672 0.029465156 -0.07065187 0.057864517
-0.10659731 0.046855334 0.05201408 -0.058773678 0.09181313 -0.022539562 -0.052382767 -0.06485049
0.093895935 -0.08628585 -0.058378324 0.016320432 -0.056673042 0.002097408 0.051572707 0.0070456113
0.051178586 -0.11250008 0.009867976 -0.013007533 -0.04661005 -0.10450719 0.014904469 0.057666875
-0.057418056 -0.003214018 0.07730898 0.060987256

weight f4 [42, 84]
00000000: 1329 cd3c 5ca0 7ebc b814 223d bcd3 fdbb
00000010: ca5f 4e3d d817 c1bd 87c5 86bd 5490 39bb
00000020: f530 a23d e716 853d 361f 953d ffd9 5fbd
00000030: 2c94 603d 7336 08bd 3af3 123d 0c7d 92bc
00000040: cf90 b6bc 4ed0 cbbc ecfc 02bd 8ecf fa3c
00000050: 3c1a 2bbd 33ff 97bd e0af b4bd 0204 86bd
00000060: 5344 343d d296 c43d 0d15 133d d256 bdbb
00000070: fa6b a9bd 71af d13d 74d3 cfbc c8e6 c43d
00000080: 1179 d8bd b662 97bd a86a 33bd ccbb 9c3d
00000090: c7b5 87bd e649 e2bc 85ad c3bd 3115 9e3d
000000a0: 4dad 723c 665e 69bd 25d0 463d 2cba 28bc
000000b0: 6207 6bbc f634 683d 68c0 84bd b4cb 163d
000000c0: 1de9 8cbd 83c8 473d 2c41 89bd 6c35 d1bd
000000d0: bdfc 3c3d af70 98bd 86a3 eb3c 8b09 c03d
000000e0: 3654 87bd a521 3abc e015 d2bc 7a94 1bbd
000000f0: b15f e53d f96d 83bb d356 a7bd 68fb a73d
00000100: 1247 ecbd 2b5a 43bd baa1 85bc 5484 adbd
00000110: 7c6f a93d 88fa ecbc cc79 d5bb 2235 bbbd
00000120: efae 94bd 26a0 1ebd 3231 52bc 3703 dfbd
00000130: b277 e5bd 7559 7d3d f231 86bd 91fa 1bbc
00000140: df9c 963d cf89 8a3d 9156 25bc 12da cabd
00000150: 101c 713d d5ef 0cbd d3c9 dabd e1b9 8f3d
00000160: f2ff 713d 3487 bb3d 5e0f 593d 3911 d0bd
00000170: dc95 babb cd47 da3d 3854 cd3c a57e af3d
00000180: 9967 dbbd 9168 853a 7bde 8dbc b6f2 363d
00000190: f367 973d 21a5 b13d 137f 63bd 1fe7 9e3d
000001a0: 3783 00bd 19c6 763d 4c96 5ebd 5967 2a3d
000001b0: 5440 dabd 6e53 d63d 8093 6a3c 5bf7 3c3d
000001c0: 21c9 7dbd b80c 50bc 98e9 46bd 6191 bebd
000001d0: c130 b43d ed60 533a 7a1d 06bd 8722 c9bd
000001e0: 219b db3b f833 c7bc daeb 373d c75d d2bd
000001f0: 3b1b 6c3d cc8d aa3c c49f ba3d 117a 213d
00000200: 7c45 383d d59c b2bc cad0 8cbc 30a3 513d
00000210: 6bd9 a03d 3a91 a23d b647 0bbd e170 983d
00000220: ebe2 8a3c 21cf 4dbd 2681 d23d c785 ec3c
00000230: 5e61 8c3d eb1a 003d 9eb1 793d 4f30 323d
00000240: 859d 18bd 400e a53d f2e4 b6bd 852e 6f3d
00000250: 55c1 253c 3edb 8abc 0d89 9bbd 4376 7cbd
00000260: f400 843d 1680 2ebb b479 833d 6388 4bbc
00000270: 49e3 b5bd 18ec b7bd 96d6 d4bd 55ac acbd
00000280: c80d d63b f802 8cbc caea a03c c00a 9e3d
00000290: 2fd7 043c 510a 9cbc dca6 b43d 17e6 46bd
000002a0: 4109 dbbd 4a10 a0bc 1c5a e6bc 14f5 4ebd
000002b0: 1883 a0bd 1726 48bd 1f9c 293d e982 c53d
000002c0: d5a3 0fbc 6e38 233b f979 83bc f9aa 9a3d
000002d0: 9f87 5cbd 83a3 133d 0139 553d c145 9fbd
000002e0: bd93 87bc d920 84bd 33d7 c63c 59f2 963b
000002f0: b2b2 e1bd 6206 22bd 71ac bdbd b248 773d
00000300: 71ff 06bd 52b3 dc3b 6aad b7bd 7115 a73d
00000310: b21f b7bd 1012 a9bd 97d7 42bd 97fb 023c
00000320: e30d 493d b5de ee3c e111 863d 17bd 933d
00000330: 1216 0e3c 734f 37bd a4b3 0fbd 7f3d 72bd
00000340: 456b 253d 19e5 ecbc 818a 94bc dbb4 17bd
00000350: 1d85 94bd 84f7 d6bd ea1d f8bc 035c 443d
00000360: c230 b4bd aad7 0fbd 0435 b6bd 17a2 ccbd
00000370: bd55 e6bd aa87 bd3d 98a9 9e3d 8b05 9a3d
00000380: 92bb abbd 5cbf 33bc 233e a1bd 5f0f 663d
00000390: c89c 6d3c 3140 80bd 4267 20bd 6509 cf3d
000003a0: 5066 ffbc fb96 e4bd c4a3 c53c 45b7 2f3d
000003b0: a376 a33d be08 993d b92e ecbd f16a e6bd
000003c0: d114 2d3d c394 8fbd 9996 283d 2aac a0bd
000003d0: 6082 7bbd 3dd5 733d 2221 733c 0e74 383d
000003e0: db12 8ebd 117b d13d d752 bb3c 1e43 b13c
000003f0: 5683 363c 936d d53d 9acc e53d 1f5e a7bc
0.025044 -0.015541162 0.03957054 -0.007746188 0.05038432 -0.09428376 -0.06580644 -0.0028314786
0.07919494 0.06498509 0.07281344 -0.054651257 0.054828808 -0.03325505 0.03587649 -0.017881893
-0.022285847 -0.0248796 -0.031979486 0.030616548 -0.041773066 -0.07421722 -0.08822608 -0.06543733
0.04401047 0.09599079 0.035908747 -0.005778172 -0.08272548 0.10238541 -0.025369383 0.096143305
-0.105699666 -0.073918745 -0.043802887 0.07653007 -0.06626468 -0.027623128 -0.095545806 0.07718886
0.014811826 -0.05697479 0.048538346 -0.010298293 -0.014345022 0.056691132 -0.06482011 0.03681536
-0.068804 0.048775207 -0.06701884 -0.102152675 0.046139468 -0.07443368 0.028764497 0.0937682
-0.06607859 -0.011360561 -0.025645196 -0.037983395 0.11199892 -0.0040109125 -0.08170857 0.08202249
-0.11536993 -0.047693413 -0.016312469 -0.08472505 0.08273217 -0.028928056 -0.0065147635 -0.09140994
-0.072599284 -0.03872695 -0.012829112 -0.10889285 -0.11204471 0.06185289 -0.06552495 -0.009520189
0.073541395 0.06764566 -0.01009144 -0.09904875 0.058864653 -0.03440841 -0.10683026 0.070178755
0.05908198 0.09156647 0.05299317 -0.10159535 -0.005694134 0.10658226 0.025064573 0.085690774
-0.10713119 0.0010178258 -0.017318001 0.04466506 0.073928736 0.08674074 -0.05554111 0.077589266
-0.031375136 0.060247514 -0.054342553 0.041602466 -0.10656801 0.10465132 0.014317393 0.046134334
-0.06195939 -0.012698345 -0.048562616 -0.093050726 0.087983616 0.00080634543 -0.032742955 -0.09821039
0.0067018424 -0.024316773 0.04490266 -0.10271793 0.057643156 0.020819567 0.09112504 0.039423052
0.04498814 -0.021803299 -0.017189402 0.05118102 0.07853969 0.07937856 -0.034003936 0.07443405
0.016953906 -0.05024636 0.10278539 0.028872384 0.06854509 0.03127567 0.060960405 0.043503102
-0.037259597 0.080593586 -0.089303866 0.058393974 0.010116895 -0.016950246 -0.075945 -0.06163622
0.06445494 -0.0026626638 0.064196974 -0.012422654 -0.08881242 -0.08980578 -0.103924915 -0.08431307
0.0065324046 -0.01709126 0.019643206 0.07716894 0.008107944 -0.019047888 0.088208884 -0.048559275
-0.106951244 -0.019539017 -0.02811914 -0.050526693 -0.07837504 -0.04886445 0.041408654 0.0964411
-0.008767088 0.002490546 -0.016049372 0.07552142 -0.053840276 0.03604461 0.052056316 -0.077769764
-0.01654994 -0.06451578 0.024272537 0.004606527 -0.110204116 -0.03955687 -0.09261406 0.060372062
-0.03295845 0.006735244 -0.08968623 0.081583865 -0.08941592 -0.08255398 -0.047568884 0.007994554
0.04908551 0.02915893 0.06546379 0.072138004 0.008672254 -0.044753503 -0.035083428 -0.05914068
0.040385503 -0.028917836 -0.01813245 -0.03703771 -0.07251952 -0.104964286 -0.030287702 0.04793931
-0.08798362 -0.035117783 -0.08896831 -0.09991854 -0.11246822 0.092543915 0.07747191 0.075205885
-0.083853856 -0.010970917 -0.0787318 0.056167003 0.014502712 -0.062622435 -0.039160974 0.10109214
-0.031176716 -0.1116161 0.024125941 0.04289939 0.079816125 0.074723706 -0.11532349 -0.11250866
0.04225618 -0.07010796 0.041159246 -0.07845338 -0.061403632 0.05952953 0.014839442 0.045032553
-0.0693719 0.10228551 0.02286665 0.02163845 0.011139711 0.1042129 0.11220665 -0.020430623

bias f4 [42]
00000000: 7e4b b7bd 13b0 bb3d c019 e23d 5ee2 8bbc
00000010: e36b 5f3d 1a46 143d 7100 f0bc a490 bcbd
00000020: c2b0 19bd 12b0 0fbd 332b 18bd d02f c73d
00000030: d709 6fbc 16d9 b1bd 1552 ccbd dab5 cebd
00000040: 3a91 11bd f1ef 1cbd 2bed 99bd 5f59 12bc
00000050: 0c90 95bc 4687 b3bd f2f3 09bd 8655 f0bc
00000060: d280 0fbd 5b42 b13d 94f9 17bd f07b 3b3d
00000070: 22cf 4ebd 7888 15bd 5f4c 68bc 6db4 8c3d
00000080: 7e58 b33d c1a9 ffbc 8fdf 713d d648 fa3b
00000090: 0a75 63bc 2c5c b8bc 0ae2 53bd 4e99 b2bd
000000a0: 326b 8739 533f d3bd
-0.08949946 0.09164443 0.11040068 -0.017075714 0.05454625 0.036199667 -0.029297085 -0.092072755
-0.037522085 -0.035080023 -0.037150573 0.097259164 -0.014589748 -0.08683984 -0.099765934 -0.10093279
-0.03553889 -0.038314763 -0.07515939 -0.008932441 -0.018257163 -0.08766036 -0.03367991 -0.029337656
-0.035034962 0.086552344 -0.03710325 0.045772493 -0.050490506 -0.0365071 -0.014178365 0.06870351
0.08757113 -0.031208875 0.059051093 0.0076380773 -0.013882885 -0.022504888 -0.05172924 -0.08720647
0.00025829073 -0.103148125

weight f4 [1, 42]
00000000: 9c72 d2bd e4aa 393b 5b87 003d bd49 073c
00000010: 4ba4 f0bc ff2a ba3d 0c1c 08be 4adf dbbd
00000020: f4ec 353d 45d8 84bc afab 9c3c 6cad a53d
00000030: 9744 9b3d 03c0 983d 48c5 c9bd a028 3cbd
00000040: 8a46 573d 2e34 00be a013 263d 64f8 e7bb
00000050: bf93 783b 1a72 e4bd d4e0 83bd 45d1 1bbd
00000060: 8b66 11bc 155a 2fbd 1a89 c0bd f6ec e33d
00000070: 8398 6fbd d594 5e3d c199 e13b cdec 9cbc
00000080: a057 783b 993b bebd 84a9 19bd 1c6b 373d
00000090: 8b61 93bc d02d 393d 19a8 843c 05ce fbbc
000000a0: 9b76 1bbd a617 c7bd
-0.10275766 0.0028330619 0.031379085 0.008257327 -0.029375216 0.09090232 -0.13291949 -0.107359484
0.04441543 -0.016216407 0.019124834 0.08089718 0.07581442 0.07458498 -0.098520815 -0.04593718
0.052557506 -0.12519905 0.04054606 -0.007079171 0.003792986 -0.11154576 -0.06439367 -0.03804137
-0.008874546 -0.04281052 -0.0940115 0.11129181 -0.058495056 0.054341156 0.006884784 -0.019155884
0.0037894025 -0.09288711 -0.03751518 0.04477988 -0.017990848 0.045209706 0.016193436 -0.030737886
-0.037954908 -0.097213075
