ModelUnpredictability/one_thousand_brains/predictor_14.model (torch_old, 109395 bytes, 7 tensors)

weight f4 [84, 168]
000000 ac 0c 15 bd fe 53 2f bd 66 b2 22 bd 8f 8b 11 bd
       -0.036389038 -0.04280471 -0.039720915 -0.035533484
000010 66 28 4f 3d 24 02 65 bd 56 33 89 3d 9f da 20 bc
       0.050575636 -0.055910245 0.06699245 -0.009817748
000020 b1 e0 95 bd 1a 6a 38 bd 87 4e 83 bd a7 08 1c 3d
       -0.07318247 -0.04502306 -0.06411462 0.03809419
000030 5c cb 28 3d ce a7 12 bb 80 ad 94 3d 5f f4 6b bd
       0.041209564 -0.0022377851 0.07259655 -0.057606097
000040 e0 9f a9 3b 6b bc 9f ba fc b9 5a 3c 08 2f 02 3d
       0.0051765293 -0.001218689 0.013350006 0.031783134
000050 18 c6 3c bd 5a 22 95 3d 95 80 7e 3d bc 31 ff 3b
       -0.046087354 0.07281943 0.062134344 0.007787911
000060 80 1f 71 3d 93 40 85 3c 92 66 a8 bb f6 fb 66 bd
       0.05886793 0.016266143 -0.0051391805 -0.056392632
000070 88 cd c5 3c 57 73 91 3d 7f 07 4e 3d 2d 11 ef 3c
       0.024145856 0.071020775 0.050300118 0.029182995
000080 c3 62 46 3d 69 c8 03 3c b2 30 76 3d 82 26 84 3d
       0.04843403 0.008043387 0.060105033 0.06452657
000090 2c 4e 65 bd f1 32 d6 bc e3 0e 0f 3d 06 7f 32 bd
       -0.055982754 -0.026147338 0.034926306 -0.04357817
0000a0 e9 0f f3 3b 1a 7e 79 3d 29 3a 22 bd c8 3f 59 3c
       0.007417668 0.060911275 -0.039606247 0.013259836
0000b0 d7 cf a8 bd 57 16 8c 3d 1c 10 26 3b 36 d4 03 bd
       -0.08242767 0.068401985 0.0025339192 -0.032184802
0000c0 86 9d 08 3d e6 91 82 3b 2c eb 36 bd 89 3e 89 3d
       0.03335335 0.0039846776 -0.04465787 0.06701381
0000d0 86 7d 28 bd 56 8a 20 3d 04 35 47 bd 50 03 eb 3a
       -0.041135333 0.039194427 -0.048634544 0.0017930064
0000e0 32 db 45 3d de de 04 3d 2b aa 78 3c 06 51 6f bd
       0.048304744 0.032439105 0.01517729 -0.05842688
0000f0 fa 80 2b bd 98 bf 34 bd e9 e1 b1 bb 18 8a 8f bc
       -0.04187105 -0.04412803 -0.005428542 -0.017521903
000100 71 c6 31 bd ba 82 43 bd 4d aa 26 3d 39 10 9b bd
       -0.04340214 -0.047732092 0.040689755 -0.075714536
000110 59 90 25 3c 70 d0 40 3d 29 67 7d 3d a8 29 12 bd
       0.010105216 0.04707378 0.06186596 -0.035684258
000120 af 31 9f bc 39 33 83 bd 8c 05 2e bd 65 7a 22 bb
       -0.01943287 -0.06406254 -0.04248576 -0.002479219
000130 d5 79 8e bd 8b 40 da 3b c9 6c 95 3d c1 6d 5f bd
       -0.06956831 0.006660526 0.0729614 -0.05454803
000140 5e e6 d1 3c 7f 18 88 bd 41 3d 7f 3b ce 7b 92 bd
       0.025622543 -0.06645297 0.0038946422 -0.0715252
000150 4f 93 f3 bc 75 d5 09 bd 0e 21 7a 3d 84 9a 3e bd
       -0.029733328 -0.033650834 0.06106668 -0.046534076
000160 e2 1e 9d 3d 42 17 62 3d 62 34 16 bc 44 58 46 bd
       0.07671906 0.05519796 -0.0091677625 -0.04842402
000170 8a 9d ae 3c af d4 ae bc 61 df 0a bb d2 76 15 3d
       0.021315355 -0.02134165 -0.0021190273 0.03649027
000180 09 37 31 3d 7b e9 cd bc 10 85 75 bc ff b4 0c 3d
       0.043265376 -0.025135746 -0.014985338 0.0343523
000190 f6 a2 7a bd 04 00 15 3d 11 62 6d 3d dd 92 6c 3b
       -0.061190568 0.036376968 0.05795485 0.003609828
0001a0 a5 30 8d bd b7 c0 00 3d 27 a7 10 bd 86 47 4d bd
       -0.06894044 0.031433787 -0.03531566 -0.05011704
0001b0 d2 90 cf 3a 98 57 25 bd a5 2a 27 3d f0 13 04 bc
       0.0015836006 -0.04036674 0.040812153 -0.008061394
0001c0 ee 0c 51 3d 14 a1 de bc e0 b3 89 bd 5a 9e 69 3d
       0.05103772 -0.027176417 -0.067237616 0.05703578
0001d0 df 22 99 3d 02 09 83 3d 97 76 0d 3c bb 1b 4d 3d
       0.07477354 0.063982025 0.008634231 0.050075274
0001e0 8c 9b f4 3c 2b 53 3c bd fd 82 6d 3d 94 75 22 3d
       0.029859327 -0.045977753 0.05798625 0.039662912
0001f0 8f 3f 65 bd 1a 55 63 bd f9 ff 55 3d e1 8e 42 bc
       -0.055968817 -0.05550108 0.052246068 -0.011874885
000200 ed fe 98 bc 52 eb d3 bc 3d a2 e8 3c 67 08 6c 3d
       -0.018676246 -0.025869045 0.028397674 0.0576252
000210 15 b6 ab bc 17 37 69 bc 9f 33 76 bc f1 80 89 3c
       -0.020960847 -0.014234326 -0.015026956 0.016785117
000220 87 55 9d 3c a0 12 36 3d fe ec 47 3d fe b9 0e 3c
       0.019205822 0.044451356 0.048809998 0.008711336
000230 ed 75 1a 3d 98 47 80 bd de cf 72 3c 1a 36 90 3a
       0.03771012 -0.062636554 0.014820067 0.0011002452
000240 11 7d 4f 3c ab 9e 72 3d f3 f5 7f 3d b6 57 67 3c
       0.0126640955 0.05923335 0.062490415 0.014120033
000250 72 22 09 3d 4f 5c 77 bd 94 fd bc 3a 37 af ec 3c
       0.033480115 -0.060390767 0.0014418834 0.028892143
000260 95 90 1a bd d8 fc 56 3b 2d c4 16 bd a6 d0 9a bd
       -0.03773554 0.0032804515 -0.03680818 -0.07559328
000270 e2 94 54 bd 72 de 36 bb 94 6e 05 3c 93 7f 92 3d
       -0.0518998 -0.0027903584 0.00814404 0.07153239
000280 ed f3 44 bc ed 23 64 3d 74 78 0f 3d c4 c5 9a bd
       -0.012021047 0.055698324 0.035026982 -0.07557252
000290 61 09 a2 bd 5c 15 9e bd e6 f1 8f bd f1 67 2f bc
       -0.07911945 -0.07718918 -0.0702856 -0.010705934
0002a0 23 d0 43 3c c7 02 4c 3c 4b 07 32 bd d6 e7 79 3d
       0.011951479 0.012451834 -0.043463986 0.06101211
0002b0 a4 9c 76 3d e0 46 91 3c f2 db 91 bb 6e 03 78 3d
       0.060207978 0.017733991 -0.0044512684 0.060550146
0002c0 29 36 0a bc 24 49 6f bd 4e be 32 bd 2a 54 84 bd
       -0.008435764 -0.05841936 -0.04363852 -0.064613655
0002d0 b6 73 07 bd 44 58 ee bc 58 2b be bc df ff 40 3c
       -0.033069335 -0.029094823 -0.023214027 0.011779754
0002e0 b7 51 3a bd ae 90 0c 3b d8 a4 5e bd 29 d9 1e bd
       -0.045488086 0.002144854 -0.054356426 -0.03878132
0002f0 af f5 8e bd 82 3c ca 3c 8d ce 84 bd e8 fb 94 3d
       -0.06980454 0.024687055 -0.06484709 0.0727461
000300 27 68 96 3d 40 c5 98 bc cb 89 87 3d 5c f7 92 3b
       0.07344084 -0.018648744 0.06618079 0.004485054
000310 c1 37 c6 3c 12 e1 c2 3c bc 05 76 bd 64 f2 37 3c
       0.024196507 0.023788963 -0.060064062 0.011227224
000320 8c 56 50 bd 24 85 5a bd 13 8f aa bc 8e 65 f6 bc
       -0.050863788 -0.05334963 -0.020820176 -0.030077722
000330 98 b7 3c bb b1 84 fa 3c bd 82 01 3d 72 ba 05 bd
       -0.0028795954 0.03058085 0.031618822 -0.03264851
000340 97 74 70 bd 6e 28 2d bd ff 5b 61 bd 16 89 82 3d
       -0.05870494 -0.042274885 -0.055019375 0.06373803
000350 8b 9c c4 3c be 6f 5d bc 20 43 7c bd 93 a5 6f 3c
       0.024000427 -0.013515411 -0.061587453 0.014626878
000360 c2 4c d6 3c f1 9f 20 bd a7 97 83 ba fd 65 db bc
       0.026159648 -0.039215032 -0.0010039703 -0.02678203
000370 2c b3 40 bd fc 02 24 bb a8 f7 6b bd 70 0a 1f 3d
       -0.04704587 -0.0025026193 -0.05760923 0.038828313
000380 e1 12 24 bd a2 8a d4 bc 75 da 31 3c 08 63 7f bd
       -0.040057067 -0.025945012 0.010855307 -0.062350303
000390 ff 2f 9b bc 07 78 5f 3d e9 bf 38 3c a7 0a b2 bc
       -0.018943785 0.054557826 0.011276224 -0.021733595
0003a0 23 54 0f bd 2e 15 0b 3c 20 dd 98 3d 55 12 38 bd
       -0.03499235 0.008488936 0.07464051 -0.044939358
0003b0 d0 2f 08 bc 5c 94 36 bd f0 45 73 bb 62 dd 84 3c
       -0.008312181 -0.04457508 -0.0037120543 0.016218845
0003c0 d4 a4 95 bd 79 db 45 3d da 04 9f 3d f2 a0 1d bd
       -0.07306829 0.04830501 0.07764597 -0.038483568
0003d0 fc 44 86 3d 96 43 80 bd 6a 46 71 3d 80 27 c2 3c
       0.065561265 -0.06262891 0.058905043 0.023700476
0003e0 39 c2 5b bc bf 85 cb bc 2a 74 3c 3d 0a 92 23 bd
       -0.0134130055 -0.024844049 0.04600922 -0.039934196
0003f0 bf 61 46 bd 92 8d 7d 3d 0a b5 91 3c 9a 09 2f bd
       -0.04843306 0.06190259 0.017786521 -0.042733766

bias f4 [84]
000000 40 c3 73 3d ae 4c dd 3c 3c 3c 9a 3d e4 86 69 3c
       0.059512377 0.027014103 0.0753102 0.014253352
000010 0b c9 69 3d 79 65 e7 3c 46 9d e3 bc 89 fa e0 3c
       0.057076495 0.028246628 -0.027784955 0.027463214
000020 a3 68 44 bd 95 d5 13 3d eb 93 27 3c 28 73 63 bd
       -0.04795135 0.03609236 0.0102281375 -0.055529743
000030 c5 64 48 bd a3 61 95 bc cd bd 20 bd ef 11 9f 3d
       -0.048924226 -0.018235033 -0.039243508 0.077670924
000040 de e6 01 3d 15 87 07 bc 52 bc 06 3d 25 55 8b bd
       0.031714313 -0.008271952 0.03289444 -0.068033494
000050 50 90 b7 3c 21 1f 8d 3c bb 8c bf 3b fd 61 42 3d
       0.02240768 0.017226757 0.005845634 0.04745673
000060 9d e4 67 bd 37 3b 18 3d 15 fe 90 3d b0 f9 bb bc
       -0.056614507 0.037165847 0.07079712 -0.022946209
000070 b8 5a 5c 3d 04 ac fb 3c fc 90 24 3c 44 54 80 bd
       0.053797454 0.030721672 0.010044333 -0.062660724
000080 b1 a7 3e bd 8e da a8 bc ff 8b 0b 3d cf 15 42 3d
       -0.04654664 -0.020612027 0.034069058 0.04738408
000090 09 d8 f2 bc d4 53 64 bd 5b d5 99 bd 79 07 47 bd
       -0.02964403 -0.055744007 -0.075113975 -0.04859111
0000a0 44 dc 76 3d f3 5a 93 39 cd e0 88 3d 4f b0 69 3d
       0.060268655 0.00028105787 0.06683502 0.057052907
0000b0 ea 92 8d bd db 34 41 bc 83 5f 17 3c f8 e7 2f bd
       -0.06912787 -0.011792387 0.00923908 -0.042945832
0000c0 e4 89 28 bd 8b ac 3c 3d 05 7a 94 3d 76 d1 81 3d
       -0.041147128 0.046062987 0.07249836 0.0633878
0000d0 27 a6 b0 3c 00 81 cc 3c d0 8d 0a bd 80 16 5f 3d
       0.021563603 0.024963856 -0.03382665 0.054464817
0000e0 f5 95 5e 3d 53 fe d4 ba 5a d7 b8 bc 5d c7 6f bd
       0.05434223 -0.0016250111 -0.022563625 -0.058539737
0000f0 d9 39 fd bc 07 12 91 3d 6b 11 43 bd 3d 7c d0 bc
       -0.030911373 0.070835166 -0.047624033 -0.025449866
000100 d9 4d d5 bc 97 2f a3 3c 09 4b cf bc db 72 2c bb
       -0.026038097 0.019920154 -0.025304334 -0.0026313576
000110 e0 58 4b bd c0 fa 95 3d 25 03 b2 bb e7 f8 16 3d
       -0.049645305 0.073232174 -0.0054325038 0.036858466
000120 ba 0f 98 bc 52 dd 8a 3d 8a c9 fd bb 15 5e 94 3d
       -0.018562187 0.06780495 -0.0077449726 0.07244507
000130 96 3c 96 bd 0d 7b 10 bd 07 f2 cb 3a 3d 1f 75 bd
       -0.073357746 -0.0352736 0.0015559801 -0.059844244
000140 f7 62 74 3c be e8 1f 3c a1 3b 68 3d 5f 71 76 bc
       0.014916173 0.00976008 0.05669749 -0.015041678

weight f4 [84, 84]
000000 1c 0f 2d 3c 95 89 53 bd 7e 66 a6 bc de 1b 81 3d
       0.010562684 -0.05164488 -0.020312544 0.06304143
000010 b1 5c 91 bd 27 5c 9f bb 38 53 97 3d c5 28 90 bd
       -0.070977576 -0.0048632803 0.073889196 -0.07039026
000020 d9 42 0b 3d 42 27 1f bd 1e 1b a7 bd aa af 8b bd
       0.033999298 -0.0388558 -0.08159469 -0.06820615
000030 90 e2 8c 3c 86 6b 11 3d 24 ed 3a 3d 03 d0 6d bd
       0.017197877 0.035502933 0.04563631 -0.058059704
000040 9a 3f 5e bd dc df 01 3d 52 1a 3d 3d 58 ca 5f bd
       -0.054259874 0.03170763 0.04616768 -0.05463633
000050 df 5d 14 3d 82 79 a4 3d 3f ef 8c 3d 21 97 16 3d
       0.036222335 0.08030988 0.0688157 0.03676522
000060 e9 a9 79 3d 74 63 f7 ba e6 ce c5 bd ff 59 00 3d
       0.060953055 -0.0018874244 -0.09658603 0.031335827
000070 ea 65 92 3d ea 8e b7 3d 2e 6e 35 bd 9d d6 e0 bc
       0.07148345 0.089628056 -0.04429453 -0.027446086
000080 ee 23 86 3d 08 42 a5 bc 56 17 9e bc b2 1e a3 bd
       0.06549822 -0.020173088 -0.019298237 -0.07964839
000090 2b 26 a8 3d 14 90 c2 3c 76 ea 96 3d ba 98 9e bd
       0.08210405 0.023750342 0.073689386 -0.07743974
0000a0 9c 48 3d 3d b9 fb 93 3b bb 9f e0 bd 6f db 93 bc
       0.046211824 0.0045160917 -0.10967966 -0.01804897
0000b0 be 50 a0 bd 9a 4e d1 bd c2 6a 4d 3d 24 70 b2 bd
       -0.078279 -0.1022007 0.05015064 -0.087127954
0000c0 0f 4b 1a 3b dc c2 25 bd 6b a7 28 bc 09 e4 56 3d
       0.0023543274 -0.040469036 -0.010293822 0.052463565
0000d0 bd 14 23 bd 78 c1 d5 3d 8d e1 db bd de de e2 3c
       -0.0398147 0.10437292 -0.1073638 0.027694162
0000e0 e7 cd 73 3d 4d a0 39 bd 3b e1 07 3d 63 b9 74 3d
       0.059522536 -0.04531889 0.03317378 0.05974711
0000f0 00 5c b7 3d b4 c0 17 3d 0b 95 81 3d 9c 2e ab bc
       0.089530945 0.03704901 0.06327256 -0.020896249
000100 0f 96 c8 bd 22 4a 98 bd 32 f7 d5 3d 8a bd 14 3d
       -0.097942464 -0.07436015 0.104475394 0.03631357
000110 1a 6c a5 3d a8 a7 f5 bb ba 34 81 bd 40 6d a1 3d
       0.08077259 -0.007496793 -0.06308885 0.07882166
000120 20 0e ca bd 75 87 bf bd 3d 3a 52 bd f7 5b bb bd
       -0.098659754 -0.09352008 -0.05132507 -0.091484
000130 15 78 7a bd d6 15 08 bc 09 d4 fc 3c a5 30 a7 3d
       -0.061149675 -0.008305987 0.030862825 0.08163575
000140 72 ab c3 3d 83 49 3e 3d a6 a7 34 bd 7f 54 db 3d
       0.09554185 0.046456825 -0.044105195 0.10709476
000150 71 b2 34 3c 9c a6 69 bc d9 b2 9e 3d 53 54 ad bd
       0.011028872 -0.014260914 0.07748956 -0.08463349
000160 09 ab 85 bd d7 61 8e 3d 20 db 65 bb 2f 48 68 bb
       -0.06526763 0.06952255 -0.0035073236 -0.0035443415
000170 81 59 a3 bd f1 5a d2 bd 34 4a 5c bd b4 b2 a5 3c
       -0.07976056 -0.10271252 -0.053781703 0.020226814
000180 71 5c ae bd 21 cb 22 3d 8e a4 00 3b 10 50 ef bc
       -0.085137255 0.0397445 0.0019629332 -0.029212981
000190 6a 68 83 bd 97 a9 a0 3d d4 39 ab bd 53 92 ff 3a
       -0.064164 0.07844847 -0.08360639 0.0019498564
0001a0 c5 9e 3b 3d 8b a9 ec 3c f7 98 4f 3d a1 fd 54 bd
       0.04580571 0.028889438 0.050682988 -0.051999692
0001b0 97 7d 91 bd 8b 8b 35 3d 48 59 a1 3d e5 d7 cf 3d
       -0.071040325 0.04432253 0.07878357 0.101486005
0001c0 20 34 bd 3b 91 a4 6b bd 0a 47 87 bc ff d9 44 bd
       0.005774036 -0.05752999 -0.016513366 -0.04805946
0001d0 95 3e 5d bd 41 3b b9 3c bf e9 8c 3d c5 ff fc bc
       -0.05401476 0.022611262 0.06880521 -0.03088368
0001e0 a8 6a b1 3a ee 76 eb bc 77 fd 36 bd 07 53 a4 bc
       0.0013535814 -0.028743234 -0.044675317 -0.020059122
0001f0 18 71 af 3d 34 6a 51 3d 6b ad ca 3d 91 8c 9c bd
       0.08566493 0.051126674 0.09896358 -0.076439984
000200 5d 9a 38 bc e5 e5 c0 bd 70 05 d5 3c dd 88 ae bd
       -0.011267272 -0.09418849 0.02600357 -0.08522198
000210 bc 76 36 bd d5 52 ea 3c c4 e3 26 bd d1 62 a4 bd
       -0.044546828 0.02860395 -0.040744558 -0.0802666
000220 21 fa d2 b8 ee 70 c4 bd 94 72 bc 3d 27 ec 8f 3c
       -0.000100601705 -0.09591852 0.092015415 0.01756866
000230 79 57 df 3d cb 27 c0 3d 16 16 be bd 9a db 02 bd
       0.10905356 0.0938259 -0.09281556 -0.03194771
000240 d3 3d 43 bd 8c 5d 20 39 1e 4f 26 bd 63 92 14 3c
       -0.047666382 0.00015293638 -0.040602796 0.009068104
000250 d6 65 84 3d 90 d2 9c bd 40 65 11 3d c4 3f 94 bc
       0.06464736 -0.07657349 0.03549695 -0.018096812
000260 65 37 7a bd 27 32 35 bd f1 15 9f bd 2b a6 a0 bd
       -0.061087985 -0.044237282 -0.07767857 -0.07844194
000270 ad 64 c8 3d 16 b9 25 bd 59 55 ea 3b ec 2b b9 bd
       0.097848274 -0.040459715 0.0071512875 -0.090415806
000280 f9 9e 29 bd 3b d1 7f 3d e7 36 01 bd 5b b9 8c 3d
       -0.041411374 0.062455397 -0.0315465 0.06871291
000290 44 88 87 3d ca e8 b0 3d 9d dc bf 3b d2 71 b6 bb
       0.066177875 0.08638151 0.0058551566 -0.0055677677
0002a0 f8 5a b8 bd df 43 7f 3c f4 ee b9 bd a0 38 b9 3c
       -0.09001726 0.015580147 -0.0907878 0.022610009
0002b0 18 7d 04 3d 1d 01 d6 3c 06 f8 88 bd ca 3e e6 39
       0.03234586 0.026123578 -0.06687932 0.000439158
0002c0 a6 be c3 3d ee 8a 8e bd 15 2a a9 bc db d8 df 3d
       0.09557848 -0.069600925 -0.02064995 0.10930034
0002d0 72 fb 0d 3c 37 1c 86 3d 3f 7d e7 3d 56 8b c1 bd
       0.008665906 0.0654835 0.11303186 -0.09450404
0002e0 66 d9 70 3c ca be 82 bb 66 09 eb 3c c9 8f 4d bd
       0.014700269 -0.003990029 0.028691005 -0.050185952
0002f0 83 0c 79 bd f3 da 9f b9 46 44 09 3d 0d 54 8e 3d
       -0.060802948 -0.00030489973 0.033512376 0.06949625
000300 c1 88 b2 bd b7 41 88 3b 38 8f f2 3c 3c 4a b9 3d
       -0.0871749 0.0041582244 0.029609308 0.09047362
000310 cc da 8b 3d d7 04 e3 3b b6 54 2a bd bb 3a 9a bd
       0.068288416 0.006928067 -0.041584693 -0.07530733
000320 ca 21 d8 3d 24 3c 2e bd ac 8e 97 bb 8a 10 22 bd
       0.1055332 -0.042537823 -0.004625162 -0.039566554
000330 82 5e cd 3d dc 34 e2 bd 4c e3 5c 3d 48 10 7b bd
       0.100277916 -0.110452384 0.053927705 -0.061294824
000340 c4 1f bb 3d 99 bf 00 3d 84 5a c9 bd d1 ab 9f bd
       0.09136918 0.03143272 -0.098317176 -0.07796443
000350 2d f5 b6 3d 95 b8 ca 3d 5f d2 1a 3d c7 ea 9f bd
       0.08933482 0.098984875 0.03779828 -0.07808452
000360 db 07 40 bd 45 88 b4 bd 01 01 da 3c 55 8e 48 bd
       -0.04688249 -0.08815054 0.026611807 -0.048963863
000370 04 d0 58 3d d4 f2 bf bc 7f 32 e4 bb 5e c4 a1 3d
       0.052932754 -0.02343122 -0.0069640274 0.07898782
000380 c6 e6 97 3b f7 ef db 3d da 1f f0 bd 80 04 7e 3d
       0.0046356646 0.10739129 -0.11724825 0.06201601
000390 ed 1f be 3b ab 09 8c bb 87 fd 12 bd f7 c5 eb bd
       0.0058021457 -0.0042736134 -0.035886314 -0.11512368
0003a0 38 5c 31 3d eb 7c 23 3d c8 fb cf 3d d9 da 86 bc
       0.043300837 0.039914053 0.10155445 -0.016461777
0003b0 3f 98 35 ba e7 4c eb bc 89 81 f0 bc 4b 60 a7 bd
       -0.00069272885 -0.028723193 -0.029358642 -0.08172663
0003c0 96 c7 31 bd c4 ad a9 bd eb 92 5b 3d 24 a6 27 b9
       -0.04340323 -0.08285096 0.05360691 -0.00015988253
0003d0 a4 96 82 bc f9 66 8a 3d e5 0a 91 3d 20 00 fd bc
       -0.015940972 0.06757922 0.07082156 -0.030883849
0003e0 cd e2 97 bd 58 fc ed bd ab 30 92 3d 7a b1 be bd
       -0.07416306 -0.116203964 0.07138189 -0.09311195
0003f0 e7 70 c3 3d 8b 37 89 3d b0 83 3d bd 80 8e 72 bd
       0.09543019 0.06700047 -0.046268165 -0.05921793

bias f4 [84]
000000 6c 27 08 3d a3 c1 cc bd 65 a5 93 bd da 44 b3 bd
       0.03324072 -0.09997871 -0.07209281 -0.08753367
000010 dd 97 cc 3c 89 12 88 3d 86 e3 8e 3d 5f 07 b9 bd
       0.024974758 0.0664416 0.069769904 -0.09034609
000020 8c 10 9d 3d c2 aa 94 bc 4a 8a 9d bd 2b ec c1 bc
       0.07669172 -0.01814783 -0.07692392 -0.023672184
000030 da 43 af bd 6f d9 9e bd 11 6c bb bb 92 f7 c2 3d
       -0.085578635 -0.07756316 -0.0057196696 0.095198765
000040 25 10 aa 3d a6 f5 b2 bd 9e 59 e0 bb cc 31 d2 bc
       0.083038606 -0.0873826 -0.0068466207 -0.02565851
000050 a1 5e a9 3b a1 bd bc 3c bc 48 38 bd 2b 43 70 bd
       0.0051687513 0.02303964 -0.04499124 -0.058657806
000060 f0 f7 c4 bd ab 2b a6 b9 cd 12 b9 3d e5 b8 c4 3d
       -0.09617603 -0.00031694522 0.09036789 0.09605578
000070 38 28 49 3c b4 62 bf 3d ba b3 0a 3d a2 96 8d b9
       0.012277655 0.09344998 0.033862807 -0.00027005846
000080 6f 96 06 bc 5c 5a 4f 3c bf 8d c6 bd 94 c6 73 3d
       -0.008214577 0.012655821 -0.09695005 0.05951555
000090 ec 81 87 3b 0b d0 b3 3d cb 27 dd 3c 62 e6 9b 3c
       0.004135361 0.087799154 0.026996514 0.019030754
0000a0 22 07 78 bd 27 0e d7 bd 28 ec c6 bd f1 98 ca bd
       -0.060553677 -0.10500746 -0.09713012 -0.098924525
0000b0 39 cb c2 bd 95 bb b3 3d 98 f0 97 3d 9f 44 a5 bd
       -0.09511418 0.08776013 0.074189365 -0.08069729
0000c0 e0 55 5c bd 3c 4f d4 3b 42 11 93 3d e5 cf fb 3c
       -0.053792834 0.006479172 0.07181026 0.03073878
0000d0 8c 77 b6 bd 06 d1 90 bd 28 19 7d 3d 5d 2c 1d 3c
       -0.089095205 -0.07071118 0.06179157 0.009593097
0000e0 8d cd c2 bd dd c2 11 3d 99 2f d8 bd 99 f8 46 bd
       -0.09511862 0.035586227 -0.105559535 -0.048576925
0000f0 6c 5d 93 3d b9 de 59 3c 28 97 f8 bc f2 47 d8 bd
       0.07195553 0.01329773 -0.030345514 -0.105605975
000100 b6 ae a3 3c 1a ad 73 3c 34 14 08 3c bd d0 88 bd
       0.01998077 0.014872814 0.008305598 -0.06680439
000110 c3 3c 23 3c f8 9c 43 bd 29 68 b8 3d e9 6f c0 3c
       0.009963217 -0.04775712 0.09004242 0.023490863
000120 ee 08 c1 bd 20 df 6a bd a7 64 d8 3c 1a 1d 08 3d
       -0.09425531 -0.057341695 0.026415182 0.03323088
000130 b9 12 9b 3d c9 e0 05 3d 20 73 d1 3c 70 ba 8c bc
       0.075719304 0.032685075 0.025567591 -0.017178744
000140 c1 3f da 3d cf 48 37 bd 48 79 8d 3c 6b bb 4b bd
       0.10656691 -0.04474717 0.017269745 -0.049739283

weight f4 [42, 84]
000000 32 c7 60 3d e9 39 99 3c 42 ef 86 3d cf fc bf 3d
       0.054877467 0.018704372 0.065886036 0.09374391
000010 04 cf 86 bd a8 94 e8 3b 95 75 e7 3c cd 36 04 bd
       -0.06582454 0.0070977993 0.02825431 -0.032278825
000020 09 25 94 3b 1e b2 21 3d 4e 4f 99 3c 56 55 16 bc
       0.0045210165 0.039476506 0.018714573 -0.009175619
000030 f7 ce 95 bc fd d3 7a bd 10 bd 4e bd 2a fc b2 3d
       -0.018287165 -0.061237324 -0.050473273 0.08739503
000040 df 9b cd 3d 8e f1 a2 bd 57 3b ab bc a9 a2 87 3b
       0.10039496 -0.07956229 -0.020902319 0.0041392636
000050 c9 77 e0 bc 6e ca 4e bd a7 ce 80 bd 99 43 83 bd
       -0.027400868 -0.05048602 -0.06289416 -0.064093776
000060 11 3f 8e 3c d2 88 df bd bd be 81 3d 6c eb f9 3d
       0.017364057 -0.10914768 0.063352086 0.12203106
000070 b5 a1 4a bd 8c 76 3b 3c fc ce e2 3d 2f f7 f4 3c
       -0.049470622 0.011441838 0.110746354 0.029903023
000080 de 00 cd 39 fa b9 c7 3c bc 4a 8a bb 7b c0 64 bd
       0.00039101293 0.024380673 -0.004220335 -0.055847626
000090 9b a5 a3 bc b3 98 61 3d e5 dc 4e bd 1b fe a5 3b
       -0.019976428 0.055077266 -0.05050363 0.005065692
0000a0 ef e1 ce bc c9 4f a3 bd f5 0a 52 bd 80 3a 96 3d
       -0.025254218 -0.07974202 -0.05127998 0.07335377
0000b0 92 48 00 3c e4 a5 67 3c b3 a5 ea bd f8 bc 71 3d
       0.007829802 0.0141386725 -0.11457386 0.059018105
0000c0 52 a6 d8 3d 31 6b f3 3c 56 d9 8e bd d2 54 82 bd
       0.10578598 0.029714199 -0.06975047 -0.063638344
0000d0 91 10 86 bc 06 20 38 3c 5b 73 d9 bd 50 46 85 3c
       -0.016365321 0.011238104 -0.106177054 0.01626888
0000e0 b0 6e 93 bd 0d c7 8e bd 13 33 77 3d 80 05 66 bd
       -0.07198846 -0.0697156 0.060351443 -0.05615759
0000f0 06 2a ba 3d ad d2 80 3c 09 03 5f bd 50 a6 01 3d
       0.090900466 0.015725458 -0.054446254 0.03165275
000100 41 ed ca bd e3 bf 88 bc 5a 41 6a bd 27 89 bc 3d
       -0.09908534 -0.016693061 -0.05719123 0.09205847
000110 52 63 55 bc f2 7d 12 bc 9b 30 c3 3d 65 6b a9 bd
       -0.013024168 -0.0089411605 0.09530755 -0.08272437
000120 2d 27 cd 3d fb 17 17 3d e5 86 38 3b 52 9b 70 bd
       0.10017238 0.036888104 0.0028156575 -0.058741875
000130 da 76 92 3d 2a 12 82 bd 64 56 1b bd 67 e2 86 bd
       0.071515754 -0.06351121 -0.037924185 -0.065861516
000140 0b 07 b4 bd 01 9a bb 3d 59 4e a8 3d 18 96 05 bd
       -0.08790406 0.09160233 0.08218069 -0.032613844
000150 14 97 a9 3c ce 5f da 3d c2 4e 95 3d 46 f6 bd bd
       0.020701922 0.106628045 0.072904125 -0.092754886
000160 ab 84 51 3b f4 6a db 3d 44 8d 61 3b fa 70 86 bd
       0.0031969945 0.10713759 0.0034416476 -0.06564517
000170 6b 86 41 bd a3 2a 92 bd dc 8f 23 3d 3f 7c b8 bc
       -0.04724733 -0.071370386 0.039932117 -0.022520183
000180 b3 8e 20 bc 1b 3d cc bd 71 c8 71 3d 9e 3e af bd
       -0.009799647 -0.099725924 0.059029046 -0.08556865
000190 59 e7 ad 3b f7 f0 b6 3d fe f5 f1 bb e8 14 04 bd
       0.00530712 0.08932679 -0.007384061 -0.0322465
0001a0 13 20 12 bd 1c 79 d1 bc ba c5 9c 3d 77 5d 93 3d
       -0.03567512 -0.025570445 0.07654901 0.071955614
0001b0 d4 b9 bd bd f2 dd 61 3d 16 48 aa bc 95 92 63 bd
       -0.092639595 0.055143304 -0.020786326 -0.055559713
0001c0 fc 5f b9 bd 53 17 78 3d c0 13 59 3d 97 98 a8 3d
       -0.09051511 0.06056912 0.05299735 0.08232229
0001d0 28 06 b9 3d 28 fa 30 bc c0 f2 51 ba bb 01 90 bd
       0.09034377 -0.010801829 -0.000800889 -0.0703158
0001e0 9d 07 a5 3d 94 ae 57 bc d6 2e 8d bc 05 7a f4 3d
       0.08058093 -0.013164181 -0.017234247 0.11937336
0001f0 47 fa 4c 3c a1 05 fb bb 5a ad dd 3d 07 e9 4e bd
       0.012510843 -0.007660583 0.1082408 -0.0505152
000200 fb ac c7 3d 76 b5 9e bd b0 c8 0e 3b 18 a7 35 3c
       0.0974979 -0.07749455 0.00217871 0.011087202
000210 d2 b0 5b bd cd 26 a8 bd 2f 95 d4 3c e1 c8 2e bc
       -0.053635426 -0.08210526 0.025950043 -0.01066801
000220 86 54 bb bd 53 09 90 3d d0 ac 9e bc bd e0 be bd
       -0.09146981 0.070330285 -0.019369513 -0.09320209
000230 e4 ff 62 bd 4f 93 64 3d 13 82 6c 3d c3 24 b1 3d
       -0.055419818 0.055804547 0.057741236 0.0864959
000240 c3 43 8b 3d f1 85 92 3d fb 83 8e 3d 7c 8a 65 3d
       0.06800034 0.071544535 0.06958767 0.056040272
000250 5f cd d1 bd 9b e2 8e 3d b2 38 db 3d ee 55 da 3d
       -0.102442496 0.06976815 0.10704173 0.10660921
000260 57 bc 7f bd 42 ff 1b bd c3 b7 1b bd 77 a9 c2 bd
       -0.062435474 -0.03808523 -0.038017046 -0.09504979
000270 be fa 7d bd 9f be a2 3c aa c3 8f 3d 5d 71 b0 bd
       -0.062006705 0.019866286 0.07019742 -0.08615372
000280 92 09 e2 bd 2e f9 63 bd cd 48 a0 3c 1d ca 3a bc
       -0.11036982 -0.05565756 0.019565964 -0.011400727
000290 06 e2 19 bd d1 28 4c bc 67 56 d9 3d fb 1d d7 3d
       -0.03756907 -0.012460903 0.10612183 0.10503765
0002a0 61 5c e4 bc 14 b9 c0 bd 5c 56 85 3c 50 37 84 3d
       -0.027876081 -0.09410301 0.01627653 0.064558625
0002b0 8e d8 a6 3d e7 a1 1c bd 59 52 cf bd f2 cd bd 3d
       0.08146773 -0.03824034 -0.101231284 0.092677966
0002c0 b0 3e 2f bd 07 62 0d bc 22 1e 60 3d 92 10 b3 3d
       -0.042784393 -0.008629329 0.054716237 0.08743395
0002d0 55 b1 e2 3b 38 ce 87 bd c6 f3 af 3c e6 a0 5a bd
       0.0069181123 -0.0663113 0.021478545 -0.0533761
0002e0 d8 93 bf bc 06 d6 e0 3d 6b f0 0a bd d3 d4 30 3b
       -0.023385927 0.10978322 -0.033920687 0.0026982322
0002f0 dc b1 b2 3d 1b 9a a3 3c 9b e0 cb 3d 12 6e d1 bc
       0.0872533 0.019970944 0.099549495 -0.02556518
000300 06 65 ba bc 31 3b bf bd d6 ce b2 bd 91 33 bb 3c
       -0.02275325 -0.09337462 -0.08730857 0.022851737
000310 d3 23 da bd 67 f4 47 bd 58 75 bf 3d 87 58 4d 3d
       -0.10651364 -0.048817065 0.093485534 0.050133254
000320 de 80 83 bd fd 07 84 bd ff ae a1 3d 92 cd 32 3d
       -0.06421064 -0.06446836 0.07894706 0.04365308
000330 65 48 94 3d 17 af 30 bd c9 c0 31 3d d5 9a 36 3d
       0.07240371 -0.04313573 0.043396745 0.044581253
000340 ce b9 19 3d ea 8a 13 3a 08 16 18 3b 59 23 70 bd
       0.037530713 0.0005628305 0.002320649 -0.05862746
000350 22 08 1b bd 93 ae 0e 3c 13 82 e0 3c af 47 c1 3d
       -0.037849553 0.008708614 0.027405774 0.09437501
000360 cc 44 78 3c b8 a7 ac 3d c6 2c 49 3d f4 a0 95 3d
       0.015153121 0.08430427 0.049114965 0.0730609
000370 15 1a 9f 3c b5 7d ac 3d 09 50 b5 bd 4c 63 b1 bc
       0.019421617 0.08422414 -0.08853156 -0.021653794
000380 31 8e 8a bc df d2 8e 3d b8 a8 62 bc 52 b9 de ba
       -0.016913505 0.06973814 -0.013834171 -0.0016992486
000390 a4 68 8c 3d f4 ac a8 bc ad 89 da 3d ec 1c 0f bd
       0.06855896 -0.020590283 0.10670791 -0.03493969
0003a0 f5 b1 ca 3d 43 1b 1e 3d 60 ac 5a bd ce 95 23 bd
       0.09897224 0.038600218 -0.053387046 -0.039937787
0003b0 33 63 b9 bd 94 90 bf bd 10 85 99 bd 57 42 eb 3c
       -0.09052124 -0.09353748 -0.07496083 0.028718157
0003c0 5f 97 16 bd e5 ef 3b bd d7 f2 ca bd da 02 e8 bc
       -0.036765452 -0.045883078 -0.09909599 -0.028321672
0003d0 9f cb b2 3c 08 00 a3 3d 0c f8 c3 bc af 5b b6 3d
       0.02182561 0.0795899 -0.023921989 0.08904206
0003e0 b0 c1 b5 3d ce 43 15 3d df f5 4c bd 38 3b 52 bd
       0.088748336 0.036441617 -0.05003917 -0.051326007
0003f0 23 92 45 bc b2 45 32 3d e2 a7 74 3d 1c 2a 2d bd
       -0.0120587675 0.043523498 0.059730418 -0.042276487

bias f4 [42]
000000 78 b2 66 bc 4f 15 d0 3c 5e 7e 99 3d 72 33 44 3d
       -0.014080636 0.025400786 0.07494806 0.047900625
000010 cb 0e 85 3d e4 3d 3b bd 77 75 c1 3c dc 62 44 3d
       0.06496962 -0.04571332 0.023615582 0.047945842
000020 72 8f a7 3d 0f c5 5f 3d 20 98 9b 3d 20 91 7b bb
       0.08181657 0.05463129 0.07597375 -0.0038386062
000030 ab c8 e1 bc b2 f9 c2 3d c9 1b 83 bc 36 4d 13 bd
       -0.027561506 0.09520282 -0.01600446 -0.035962306
000040 37 06 4e 3d 55 3a 8f bd c2 08 81 bd 18 63 8a bc
       0.050298896 -0.06993548 -0.063004985 -0.016892955
000050 64 c6 b1 3d e4 e1 8e bc 6c a8 0b 3b 29 eb 43 3d
       0.08680418 -0.017441697 0.0021310104 0.047831688
000060 2d f2 10 bd 81 06 4f 3d b3 61 dd bc 90 1e 53 bc
       -0.035387207 0.050543312 -0.027024126 -0.012885705
000070 29 47 be bd 90 35 b4 bd 58 30 c9 bd 0b 4e 87 3d
       -0.092909165 -0.08799279 -0.09823674 0.066066824
000080 5c ca 15 3c 50 1c bc bd 24 25 95 bd e5 bd 8a 3d
       0.0091424845 -0.09185088 -0.07282475 0.06774501
000090 d5 4e f4 bc 2e 2a 27 3d b4 01 87 3d df fb 87 bd
       -0.029822746 0.04081171 0.06592122 -0.066398375
0000a0 b4 e0 b9 3d bb 40 bd bd
       0.09076062 -0.09240862

weight f4 [1, 42]
000000 a4 89 7b 3d b4 cf a3 bd 71 cb 96 39 9c 91 bd bd
       0.06141056 -0.079986006 0.00028761805 -0.092562884
000010 16 a7 eb 3d a5 20 b4 3d 84 f7 69 3d e0 45 43 3c
       0.115064785 0.08795289 0.057120815 0.011918515
000020 c3 8b 06 be 52 e5 d0 3d 1d 38 f8 3d 3b c8 3f bd
       -0.13139252 0.101999894 0.12120078 -0.046821814
000030 31 45 91 3c 68 0a f9 3c 84 3c f1 bd dc 75 4d 3b
       0.017733188 0.03040047 -0.117791206 0.0031350767
000040 a1 07 78 bb 22 da f0 3a 2b 3a ce 3d 95 c7 e2 bc
       -0.0037846344 0.0018375556 0.100696884 -0.027683059
000050 f9 6f bf bd 25 b0 2c bd de c0 aa 3d ae 93 91 bd
       -0.09347529 -0.042160172 0.08337568 -0.07108246
000060 44 5e c2 bc fe 54 2e 3d 2e 52 a9 3d 3b ed b4 bc
       -0.02372659 0.042561524 0.08267628 -0.022085777
000070 e0 68 e1 3d b7 66 eb bd 82 05 a1 3d 54 a9 84 bd
       0.110063314 -0.11494201 0.07862379 -0.06477609
000080 44 a4 dc 3d a7 24 20 3d e9 47 2a bc 28 99 c0 3d
       0.10773519 0.039097454 -0.010393121 0.09404212
000090 a2 62 bf 3d 32 70 d1 bd ca d6 e3 3d f2 b6 8b 3c
       0.093449846 -0.10226478 0.11124952 0.017055009
0000a0 18 50 8c 3d 50 bd 9e 3d
       0.06851214 0.07750952
