ModelUnpredictability/one_thousand_brains/predictor_10.model (torch_old, 109395 bytes, 7 tensors)

weight f4 [84, 168]
00000000: 98bb acbb a2bb 0bbd a88a 8abd 49ad 553d
00000010: ae69 46bd 2d44 9dbd 4199 853d 6b1d f3bc
00000020: 245c 403d 7324 12bd 6b84 b13c 275f 1f3d
00000030: 765f 8bbd f177 be3b dc3a 633c 41cf 5c3c
00000040: ed7d ae3c 32ef 8dbc 3250 393d 813b 74bd
00000050: 5d20 1f3d 6e4e 1f3d 50ab 313d 7d83 6f3d
00000060: 58ed 2abd 1dfa 233b 0475 163d 29eb 37bd
00000070: 615b a63b c040 5ebd 8dc3 803d 7e55 b9bc
00000080: 6521 27bd 960f 83bb 7808 14bc ba54 903d
00000090: f082 87bd e6a1 623c 7174 48bd 680c 5cbd
000000a0: b2c7 173c 9dd8 bebc 1fa0 b6bb 06dd 16bd
000000b0: d779 5a3d dfae 4c3b 727b d33c edb3 03bd
000000c0: 5ee9 733d 48d0 503d f79d 8dbc 3bfd 8bbd
000000d0: 9c22 eebc 198e 5abc a440 2b3d 0c5c dfbc
000000e0: a90c db3c 3a11 263d b413 7fbd 6f2f 79bd
000000f0: cb35 8bbc 94dc 4f3d c965 59bd 4b0a 78bd
00000100: eb24 983d d717 663d f080 7f3d c013 4f3d
00000110: f644 d2bc c185 95bc ad3e a4bc a5de 063b
00000120: 9944 3d3d 6613 813d fc42 88bc c986 84bd
00000130: 3663 22bc 39f5 d1bc 77b1 103d 362f 283b
00000140: fc92 7c3d 699e a23d 002d 753c fc82 79bd
00000150: cb9a 153d d48f f2bb 8a82 ef3c 787d 3d3c
00000160: 2fc5 d3bc 8844 133d cb3d 4a3d efe8 833b
00000170: 1267 c83a edb8 56bd b61b 2cbd fa5d 83bd
00000180: 9f8e 8f3d fdd0 293d b3ec b43c ad42 953c
00000190: e461 34bc 8c9d 86ba ca47 8e3d 883e 18bd
000001a0: 558f d4bc a41e 53bd 816e 4ebb 5782 723c
000001b0: c057 dc3c c06b 5ebd ba98 34bd f972 67bc
000001c0: df6a 55bd 6d7c 0d3d 6f03 01bd 1991 993d
000001d0: 649a 163d 3efc 913d acfd a03c eb3d 703d
000001e0: 7f62 9bbd 905d 8bbd f745 84bd 5b9e 3a3c
000001f0: 1902 5abd 7e9a 803c 5f6f 6e3d bc38 4c3c
00000200: d44c 383d 723b 46bd ca7f edbc ca28 553d
00000210: e29b 213d a330 2fbb 5abb f8bc 6a61 76bd
00000220: 832f 2bbd 7a3c 6a3d 84f5 8c3c 5291 4c3d
00000230: 3a58 003d 2f1d 2ebd f393 20bd 4572 52bd
00000240: 0c0b 33bd 3b39 823d c2d4 1b3c 67e7 a1bd
00000250: 3cfd f1bc 4d96 31bd 2d76 73bd 22ef a3bc
00000260: 4592 56bd 47f7 83bd 7b9a c4bc 62f2 073d
00000270: 9e9e 913b 775d a53c a825 953d 079c 2bbd
00000280: 4a0f 83bd e3ff 4f3c 3522 6bbd 2947 183d
00000290: 9cfe 743d dd20 d23c 3115 d6bc d3b2 e0bc
000002a0: e32b 473d cf04 7c3d 46e3 8a3d def7 88bd
000002b0: 916a cfbc b5b9 923d cde3 4fbd 3e0a 76bd
000002c0: 461f 203d ea06 73bd 1d53 523d 183b 2fbc
000002d0: 5a16 52bc 8f07 0dba b197 fcbc a335 5f3b
000002e0: 0f2c 203d cc13 853b bdb5 c13b 90e8 58bc
000002f0: 54a1 a7bc 0beb c73c 25cd 23bd c75d 313d
00000300: fd1f 983d 6d05 9a3d fad0 f43c 8333 afbc
00000310: 5303 0ebd bfe2 8a3d a4ce 8a3c 95c9 b7bc
00000320: b4a8 823d 5aca f43b 95af 33bd 159c b23c
00000330: 5881 9b3d 7ea7 7d3d 5099 0abd e6f7 1ebc
00000340: 04a2 9bbb bbed 8ebd e719 73bd f8a6 6f3d
00000350: 7059 bf3c aa72 093d cb32 323d 8d42 9e3c
00000360: 8614 8cbc 73b9 873d e1e5 6fbd 9016 323d
00000370: 4bac 94bd 47c3 2d3d b39a 213d 52a4 03bd
00000380: ee28 c9bc e794 6d3d 8fa3 853c b9c7 593d
00000390: 9c75 00bd b4f0 83bd 0bf8 aebc 744c 9cbb
000003a0: 2ffc 6d3c cd3c 343d 3757 ebbc 16e6 683c
000003b0: 9176 9b3c b76c 67bd 072c ed3c 8400 e93c
000003c0: 1851 843d 19b2 953d c1ae 9c3d 1cd9 11bd
000003d0: 5c2a 32bd 45cb fb39 ec65 88bd 7585 8dbd
000003e0: 293a 60bd 6dc5 263b 9062 1abd be84 603d
000003f0: 32e5 83bd bcfb 923d 8456 76bd cc94 10bd
-0.0052713864 -0.034114487 -0.06764728 0.05216721 -0.048440628 -0.07679019 0.065233715 -0.029677114
0.046962872 -0.035679292 0.021669587 0.038909104 -0.06805317 0.005812638 0.013869014 0.013477148
0.02130028 -0.017325971 0.045242496 -0.05962706 0.038849223 0.038893156 0.043376267 0.058475006
-0.041730255 0.0025020905 0.03673269 -0.044902 0.005076811 -0.05426097 0.06287298 -0.022623774
-0.040803332 -0.0039996607 -0.009035222 0.0704741 -0.06616771 0.013832545 -0.048939172 -0.05372277
0.00926392 -0.023296649 -0.005573287 -0.036831878 0.05333885 0.003123216 0.0258157 -0.032154012
0.05954873 0.050979882 -0.017287238 -0.06835409 -0.029069237 -0.013339543 0.041809693 -0.027265571
0.026739435 0.040543772 -0.06227465 -0.06083625 -0.016993424 0.05074747 -0.053075586 -0.06055669
0.074289165 0.05617508 0.062378824 0.050555944 -0.025667649 -0.018252255 -0.020049417 0.0020579484
0.046207998 0.06302528 -0.016633503 -0.06471021 -0.009911349 -0.025629627 0.035325494 0.0025662906
0.061663613 0.079403706 0.014964342 -0.060915932 0.036524575 -0.0074023996 0.02923705 0.011565559
-0.02585086 0.03595403 0.049375337 0.0040255706 0.0015289506 -0.052422453 -0.042018615 -0.06414409
0.07009625 0.041459072 0.022085523 0.01822027 -0.011009667 -0.0010270341 0.069472864 -0.03716901
-0.025947252 -0.051542893 -0.003149897 0.014801583 0.026897311 -0.054301977 -0.044090964 -0.014126533
-0.052103873 0.03454249 -0.031497415 0.07498378 0.036768332 0.071281895 0.01965221 0.0586528
-0.07587146 -0.06804955 -0.06458657 0.011390294 -0.053224657 0.015698668 0.05821168 0.012464698
0.044995144 -0.048396535 -0.028991599 0.052040853 0.039455302 -0.002673187 -0.030362774 -0.060151495
-0.041793358 0.05718658 0.017206915 0.049943276 0.03133414 -0.0425083 -0.039203595 -0.051378507
-0.043711707 0.06358572 0.009511175 -0.079054646 -0.029539697 -0.04335623 -0.059438873 -0.020011488
-0.052385587 -0.06443649 -0.023999443 0.03319014 0.0044439575 0.02018617 0.07282573 -0.041896846
-0.063994005 0.0126952855 -0.05740567 0.03717724 0.059813127 0.025650436 -0.026133152 -0.02742902
0.048625838 0.061528023 0.0678163 -0.06687902 -0.02531937 0.07164327 -0.050754357 -0.06006836
0.039092325 -0.059332766 0.051348794 -0.010695241 -0.012822712 -0.00053798495 -0.03083405 0.003405907
0.039104518 0.004061198 0.0059115575 -0.013239041 -0.02046267 0.02440407 -0.039990563 0.043302324
0.07427976 0.07520566 0.029884804 -0.021386867 -0.03467114 0.0678153 0.016944237 -0.022434989
0.06379834 0.0074704112 -0.04386862 0.021802941 0.0759303 0.06192731 -0.033837616 -0.009702658
-0.0047495384 -0.06978937 -0.059350874 0.058508843 0.023358077 0.033556618 0.04350547 0.019318843
-0.01709963 0.066271685 -0.05856884 0.04347855 -0.07259425 0.04242256 0.039454173 -0.03213913
-0.02455565 0.058003332 0.016313342 0.053168986 -0.03136216 -0.06442395 -0.02135851 -0.004769856
0.014525457 0.044003297 -0.02872811 0.014215013 0.018977435 -0.056500163 0.028951658 0.028442629
0.0646078 0.0730936 0.07650519 -0.035607442 -0.04349743 0.00048025898 -0.06660065 -0.069102205
-0.054742966 0.0025447265 -0.037691653 0.054814093 -0.064402 0.07176921 -0.0601411 -0.035298154

bias f4 [84]
00000000: 1c04 0f3c 92f2 0b3c fa04 6ebd 85f7 61bd
00000010: 0b96 433c bdf6 c13c 49fa bf3c ce1f 363d
00000020: dd42 1cbd 5918 e83c e6d3 8a3c 6f0a 50bd
00000030: bbd7 65bd 8daf 45bd 089d 1abc 75bd 413c
00000040: 184e 89bd 7be1 24bd ee6f 0a3d 9b5b 76bd
00000050: 1de1 7ebb 475e 71bd defe 41bd 98fd 7d3d
00000060: 4611 4bbc d5b2 7cbd 749f 673d 9a1c 67bd
00000070: 1e10 6b3c 3715 523c d0d3 3d3d c2c7 65bd
00000080: f454 3cbd fc69 0fbd 50bc 4bbd b872 8bbc
00000090: d9c8 683d 4680 73bc 0f3e dfbc e547 e9bc
000000a0: 5450 31bd afd8 9b3b 1e5d 983d ff1b 8abd
000000b0: 1790 383d bdbb d7bc 560f 953c ebe3 203d
000000c0: cb2c a93c 9fec b5bc 5bce 69bd 8631 58bc
000000d0: 77e1 89bd d67c 12bd e79b 92bd 514f 283d
000000e0: 15e4 44bd 71d6 7c3d 2aad ebbc 6c90 e2bc
000000f0: 21c9 893d 1df0 afbc de8e 0abd 3d94 8a3d
00000100: ad3b b6bc 1be6 fd3c 746e 9d3d ac2c 853c
00000110: 0e10 313d 0df5 dbbc bc53 4abd 1fbe 3bbd
00000120: 410a 56bd 7326 553d 5f4e 07bb e1cc 58bd
00000130: a42a 2b3d d1c8 25bc ee57 45bd f08a 48bd
00000140: c4f7 67bd 336f 3fbc 7389 463d 160a 14bd
0.008729007 0.00854172 -0.058110215 -0.055167694 0.0119376285 0.023677224 0.023434775 0.044463925
-0.038149703 0.028331922 0.016946744 -0.0507912 -0.05611394 -0.04826312 -0.009436853 0.011824955
-0.06704348 -0.040254097 0.03379815 -0.060145956 -0.0038891502 -0.0589278 -0.0473622 0.062009424
-0.012394255 -0.061693985 0.05654855 -0.05642376 0.014347104 0.012822441 0.04634458 -0.056098707
-0.045979455 -0.035013184 -0.049740136 -0.017022476 0.05683217 -0.014862126 -0.027251272 -0.028476665
-0.043289497 0.0047560553 0.07439636 -0.06743621 0.04505929 -0.026334638 0.01819579 0.03927986
0.020651242 -0.022207556 -0.05708156 -0.013195401 -0.06732457 -0.035763584 -0.07158642 0.041091267
-0.04806908 0.061727945 -0.028769094 -0.027656756 0.067278154 -0.0214768 -0.033827655 0.067665555
-0.022245253 0.030993512 0.07687083 0.016256653 0.0432282 -0.026850248 -0.04939626 -0.04583561
-0.052255873 0.05203862 -0.0020646078 -0.052929763 0.041788712 -0.010118679 -0.04817956 -0.048960626
-0.056632772 -0.011684227 0.048470926 -0.03614243

weight f4 [84, 84]
00000000: 9227 dc3c dce4 b1bd 2843 e2bd 58a5 bfbd
00000010: 5ca8 b5bd 2cf8 36bd cf80 a9bd b889 e5bc
00000020: 56d6 a9bd b93d 8c3d 42ec 5a3d 8a6f cdbd
00000030: 203c 2abd 3b51 78bd bb84 87bd 460a 8d3d
00000040: e61e 833c 1cf7 adbd b045 a1bd b28f cb3d
00000050: 7767 823d 7a7f db3d 75f9 10bd 76ff 60bd
00000060: 72aa 72bd fbf4 363d 681a 42bd 7faa 763d
00000070: 6796 dbbc d264 cf3c b64c d83d 5c6b 1cbd
00000080: ecaa a6bc 5bcb 28bc 5d6c bbbd 2243 723d
00000090: 0070 b03d d0e1 8e3b c79b 56bd a340 28bd
000000a0: fa68 c8bd 7ad0 1abd 9e1f 1d3d 32d5 4ebd
000000b0: 479c 09bd 669b 063d dff4 313d d11d 323d
000000c0: a392 e1bb 4314 a8bc 449e 8cbc f3aa d6bc
000000d0: b27a 433d 0462 cdbc 8b8e 8bbc 67dc 80bd
000000e0: 846d 6abd a9be 9e3d d48e 863c f3d7 62bd
000000f0: 4c78 8c3d 4f54 83bd f764 7ebd 9aa9 ed3d
00000100: 63d7 a6bd e036 8bbd e179 243c 0ef6 d03c
00000110: f5cf 62bd 648d c1bd b56e 8abd f326 833d
00000120: 7161 0fbd 1e36 b93c 6389 9dbc de27 58bd
00000130: d468 a1bd 6518 153d 74c8 a6bd 7ec8 463d
00000140: b0d8 a7bd 5a47 773c 1032 61bd 8b54 2a3d
00000150: 7818 d0bd 41e7 9f3d 78c9 8c3b 9d13 af3d
00000160: 1f82 a7bd 3c26 12bc ed37 933c 819d 8fbd
00000170: 8c1c b13d 1a4c 853d 6cbc 47bd 6bd9 97bc
00000180: 1787 01bd 97ff 7c3d 325d af3d 68bc d0bd
00000190: a962 be3d 7387 cb3d 2ba1 8ebd 4c6f 213d
000001a0: 7915 c13d 7061 a13d 45e9 56bd c7d2 173d
000001b0: 398d b13d 33d2 76bd 93db fd3b 3971 9b3d
000001c0: b96f 50bd 81a0 873d 61a6 cfbd 809e eabd
000001d0: cab1 c33d f314 a1bd cb08 6dbd a830 7a3c
000001e0: 009d 3abc 6bfb b9bd cd93 f53d 99a3 c13c
000001f0: 1598 b33b 561b 9f3d 985c dfbd acee f4bc
00000200: 81c4 a5bb c460 d6bd c131 033d 6b86 d3bd
00000210: 1a99 a53d 049e 87bd 28c4 b4bd a62b 66bd
00000220: 0ed2 203c e548 48bd 583d 123c e805 cb3a
00000230: ee13 cfbd 1fcc 5fbc ec55 a6bb e69a 053d
00000240: d6d6 f43d 3c4a 6b3c 106f 9f3d 5319 303d
00000250: 0ecb 3bbd 78f1 adbd d6d3 b43d 68b9 4e3d
00000260: 6247 00bc 2192 803d 4d0d a7bc 8ee0 c53d
00000270: 39f1 d43d e041 9abd e015 e43c 9214 923d
00000280: 1f5d 353b c0bb 6bbc 1c84 9fbd df0b d9bd
00000290: 1fb6 1dbd 6dc3 103d a02c c0bd e4b7 e0bd
000002a0: 1547 a5bd b05b cfbd 1707 05bd 9195 c33d
000002b0: 0bb9 5a3d 397f 9c3c 3b46 063d c3b0 553d
000002c0: c115 aabd ddae 853d 7adb 3fbd 1e09 bc3d
000002d0: 6888 ab3c 41c3 493d 9d6c 87bc 498d 6cbd
000002e0: 66a4 fe3c da98 93bd 58f2 b1bc 1478 a63d
000002f0: 3912 f0bb 66ce d63a 2143 bf3d 1fc5 a93d
00000300: 4f78 48bd f397 253d 2e3f cdbb eb0e 5f3d
00000310: 1d5a 033d d712 82bd 82b5 693d 9f7e ff3b
00000320: 704e cfbd 5906 693d 277d 42bd 5c48 babd
00000330: f78b 84bd 3465 66bd 0829 64bd 2914 14bd
00000340: 5d16 b03d c551 1ebd cb50 e93d 6b4d 573d
00000350: a8a8 ca3d 2b88 51bd d1bb 68bd c3cc a03c
00000360: 82bd 9d3c 28d5 9abd 517c 0c3d add4 4e3c
00000370: be3f acbd 4289 073d 7bbe d7bd bfc9 2bbd
00000380: 75b2 c8bd 7002 26bd 10b3 86bc 7f44 8f3d
00000390: 39eb ef3b 2ee7 1d3d 4570 5b3d 40e4 213d
000003a0: 2e2c 8d3d 7980 c83d 1a74 bb3c 4308 853d
000003b0: b74e 743d f885 973d 3ee7 4e3d b4ea b23d
000003c0: 716e 34bd f62b 473d d1b0 613d 2ce2 1fbd
000003d0: 5648 e0bc f444 713d bb33 eabc a9ec 613d
000003e0: 8390 be3c 9e58 b13d b6c9 6c3d 6aa4 08bd
000003f0: 24da 313d 64b6 fa3c c7b0 263b e10c 45bc
0.026874337 -0.086862296 -0.11047965 -0.09357709 -0.088700026 -0.04467027 -0.082765214 -0.028019771
-0.082928345 0.0684771 0.05344797 -0.1003104 -0.041561246 -0.060624342 -0.06617113 0.06886725
0.016005944 -0.08494398 -0.0787462 0.09939517 0.063673906 0.107176736 -0.03539415 -0.054931127
-0.05924458 0.044667225 -0.047388464 0.06022119 -0.026805116 0.02531663 0.105615065 -0.038188323
-0.020345174 -0.01030239 -0.09151528 0.059146054 0.08615112 0.004360415 -0.052394655 -0.041077267
-0.09785648 -0.037796475 0.03836023 -0.050496288 -0.033596303 0.032863043 0.043446418 0.043485466
-0.0068839355 -0.020517474 -0.01716531 -0.026204562 0.047724433 -0.025071152 -0.017035743 -0.062920384
-0.05723335 0.07751209 0.016425528 -0.055381726 0.06858882 -0.06412565 -0.062108006 0.116046146
-0.081465505 -0.06797576 0.010038824 0.025507953 -0.055374105 -0.09450796 -0.06759397 0.06403913
-0.035005037 0.022608813 -0.01923055 -0.052772395 -0.078813225 0.036400218 -0.08143702 0.048531048
-0.08195627 0.015092695 -0.054979384 0.041584533 -0.10160917 0.0780778 0.004296478 0.08548663
-0.081791155 -0.008920249 0.017971003 -0.07012463 0.08648023 0.06508656 -0.048763677 -0.01853629
-0.031622972 0.061767187 0.085626975 -0.10192186 0.09296162 0.09937944 -0.06964334 0.03941278
0.09427924 0.07879913 -0.052468557 0.037066247 0.08669514 -0.060259055 0.0077471226 0.07589955
-0.050887797 0.066224106 -0.10139156 -0.11456013 0.09555395 -0.07865324 -0.057869714 0.01527039
-0.011389971 -0.09081157 0.119910814 0.02363758 0.005480776 0.07768886 -0.10906333 -0.029898964
-0.0050588255 -0.10467675 0.03202987 -0.103283726 0.080858424 -0.06621936 -0.08826476 -0.05619397
0.009815706 -0.048897643 0.008925758 0.0015489431 -0.10111223 -0.013659506 -0.0050761607 0.032618426
0.11955039 0.014360961 0.07784855 0.0429929 -0.045847945 -0.08493322 0.08829467 0.050469786
-0.007829519 0.06277872 -0.020392084 0.09661971 0.10397572 -0.07532096 0.027842462 0.0713283
0.0027673913 -0.014388025 -0.0778887 -0.10597967 -0.038503762 0.035342623 -0.093835115 -0.10972574
-0.080701984 -0.1012491 -0.032477465 0.09550012 0.053399127 0.019103633 0.03278182 0.052170526
-0.083049305 0.06527493 -0.04684017 0.091814265 0.020939067 0.049258474 -0.016531283 -0.057751928
0.03108425 -0.072068885 -0.021722004 0.08128372 -0.007326391 0.0016388416 0.09338976 0.08289551
-0.04894286 0.040428113 -0.006263635 0.054457586 0.03206836 -0.0635125 0.057057865 0.007797077
-0.10122383 0.05689082 -0.047482636 -0.09095833 -0.06472009 -0.05624886 -0.055703193 -0.03615204
0.085980155 -0.0386522 0.11392363 0.052564066 0.0989545 -0.05115525 -0.05681974 0.019628888
0.019255403 -0.075601876 0.034298245 0.012623948 -0.08410595 0.033089884 -0.10534378 -0.041940447
-0.09799663 -0.04052967 -0.016442806 0.069954865 0.007321742 0.03855055 0.053573865 0.039524317
0.06893192 0.09790129 0.02288251 0.064957164 0.05964538 0.073985994 0.0505135 0.08736172
-0.044050638 0.04862591 0.055100266 -0.039034054 -0.027378242 0.05890365 -0.02858912 0.055157337
0.023262268 0.086594805 0.057809554 -0.033359922 0.043420926 0.030604549 0.0025434957 -0.012026996

bias f4 [84]
00000000: 4b89 2b3d 1e97 ae3d 3e6d 6cbd 5cf2 aebd
00000010: 14f6 dc3d c7e4 893d a46d 543d f2a6 c43d
00000020: 000d 923c 310e a83d ca84 e93b 771f 8dbd
00000030: 32d2 34bc 09dd 393d a651 c738 0d2c 01bd
00000040: cf81 ce3d 07dc 7bbd 07c3 ab3d 9b47 8a3d
00000050: a96e d4bd 4217 0cbd 397b bd3d 6b3a b8bd
00000060: d860 963c 7d22 aa3d 8e76 24bd 6f34 cc3b
00000070: e453 fc3b 6f45 0a3c a16f dc3d 829d f1bc
00000080: 61ea b93d e6bc 82bd 93fd b2bd cd15 bf3d
00000090: d025 8d3b a081 a6bd b05b abbd da6f 563d
000000a0: 4dfd b63d 7fd1 86bb 3008 7f3c 536d 903c
000000b0: c6a7 dc3c b594 afbd e506 c5bd fa63 0a3d
000000c0: 981b b93d d2a4 833d 798d d83d 1a79 613d
000000d0: 2681 313d c086 a43d e3d5 41bc 105b 3abd
000000e0: 1b4d 90bd d6aa b73d a788 453d 63d7 093a
000000f0: e543 773d 9b2b 643d b993 71bd 6cfe 1e3c
00000100: bdf1 b13d ba45 b1bd 0df2 2bbd afc7 103d
00000110: 7d67 babd bc50 c5bd fdcc 9c3d abda 72bd
00000120: a105 033c ba95 2f3d 03ed f03c 3d24 ba3d
00000130: f143 d93d 2063 063d d322 813d d370 13bd
00000140: 9865 f23c b4c6 d8bd a4d6 a9bd 01c6 d1bd
0.04187898 0.08524917 -0.05772137 -0.0854232 0.10789123 0.06733089 0.051862374 0.09602155
0.017828465 0.08205832 0.0071264254 -0.06890767 -0.011036443 0.04537681 9.504268e-05 -0.03153615
0.10083353 -0.06148913 0.08386808 0.06751939 -0.10372669 -0.034201868 0.092520185 -0.08995517
0.018356726 0.08307359 -0.040152125 0.0062318365 0.00770043 0.008439406 0.10763479 -0.02949405
0.09077907 -0.06383686 -0.08739772 0.0933033 0.004307486 -0.08130193 -0.083670974 0.052352764
0.08935032 -0.0041143293 0.015565917 0.017630255 0.02693547 -0.085732855 -0.09620456 0.03378675
0.09038466 0.06427921 0.10573859 0.055047132 0.043336056 0.08033514 -0.01183078 -0.045497
-0.07045957 0.08968131 0.048226025 0.00052582304 0.060367484 0.055705648 -0.05897877 0.009704214
0.08688686 -0.086558774 -0.041978884 0.035346683 -0.0910177 -0.096345395 0.07656286 -0.05929057
0.0079969475 0.0428674 0.029409891 0.09088943 0.10608662 0.032809377 0.0630547 -0.03599627
0.02958946 -0.105847746 -0.082928926 -0.102428444

weight f4 [42, 84]
00000000: 1eb0 d23d 2907 8cbd 6bb6 c0bd 49d9 a6bd
00000010: a148 013d bb6b aa3d feff aebd 4107 e8bc
00000020: 3ddc 2c3d 4319 afbd 6723 1dbd 16fc e53d
00000030: 84a6 d7bc a1b0 1b3d 9862 8a3d b54a 3bbd
00000040: 2e8c ba3d 6907 acbc 10d7 ccbd 42ee a73c
00000050: 60f5 ffbc 7ec9 b03d f9c9 533d 40ec af3d
00000060: f58b e73d 9977 23bc eef6 b6bd c1b3 7fbd
00000070: 0e67 0dbc c856 d33d d2b8 9d3d 4ddf cf3c
00000080: 7c3f c8bd e2f9 4cbb f016 863c d6c1 10bd
00000090: 7e2c 6cbc 1a42 4abd fb5d 34bd e424 72bd
000000a0: fea2 1dbd ab96 9abc 8cb5 a13d 41af 173c
000000b0: ee95 1e3d c91b 8fbd 3b13 60bd 092b 983d
000000c0: fe66 c13d 0cfa d03b af3e d1bd b7c5 a9bd
000000d0: 1860 813d a975 b1bc 89a7 253d c74e e53d
000000e0: 1f1d 3fbd 6f30 c63d b57a c13d 8f17 d6bd
000000f0: 6c91 be3b cfd5 dabd f5b8 73bd 9f8c cdbb
00000100: 089a bbbd 6475 28bd 8f45 cd3d 44ce 55bd
00000110: 920a 41bd 52e5 41bc 0659 cdbb ea58 8e3d
00000120: eb5f d7bd d359 033d a839 b63d 24d5 543d
00000130: 91ab 94bd 1d5a 2abc 355c 9a3d fb87 e7bc
00000140: 0a21 b9bd db73 cfbc 8b18 1fbd 4d14 9fbd
00000150: 9a7c a6bd 2c19 a2bb 5e42 633d 5867 c8bd
00000160: 66aa 493a 1c1d 633d 7b12 063d e302 1c3d
00000170: 8f78 bebd c198 c83d 7175 20bd ff5f 263d
00000180: 3b20 c33d e87b fe3c fbd3 09bd de63 703d
00000190: 4ada ebbc 5b14 d2bc c462 463c 682c 603d
000001a0: ff74 bb3c e3cf 9a3d 3b39 c73d 74c9 313d
000001b0: 302f a03d b463 5ebd ff88 91bd 5268 d9bc
000001c0: 24b5 98bd aa95 88bd a569 bcbd 38b9 c3bc
000001d0: 0b5a 5abc 53bc 2fbd 6678 5fbc c093 a3bd
000001e0: 40bf eabc a4eb a53d e5a4 95bc 294f ef3c
000001f0: f3b3 25bb d811 983b 9523 c7bd 1c54 cb3b
00000200: f66f 9f3d 0483 d43b 299e b03d 0888 083c
00000210: dd1e bf3a 3976 a2bc 156e aabd b4be 7e3d
00000220: 4e96 8dbd b71a 67bd d81a cabd e77c e1bc
00000230: 8628 e63d fc82 7d3d 45ed 7bbd 3cb6 15bd
00000240: 3a6e cabd afbb 6b3c 1f11 07bd ac18 c9bd
00000250: ef55 c93d 541d 3bbd 3226 de3c 635f 8a3d
00000260: cc9e af3d 076b e0bb 2464 0b3d 4377 a7bc
00000270: d5e6 773d 469d b43d 498e 87bd e81f 1abd
00000280: 295e 50bd 583f 99bc c5cc d33d a40e caba
00000290: d257 4bbd d88c e2bc 2709 5dbc 9ba5 63bd
000002a0: 8b55 ae3b 7fae 91bc 4acb dcbd f718 5ebd
000002b0: 34f2 a93d 2a2c ac3d 4160 8c3d f3a7 93bc
000002c0: 7975 ac3d 50e2 cabc 8529 9ebd 546e e63c
000002d0: cae1 9a3d adeb 41bd 442c fdbc 5d4b 983c
000002e0: 170a d3bb 721d 833d f609 bcbc 7dcb ad3b
000002f0: bb9f 883d 7afd 8d3b 2bbd b33c 3875 73bd
00000300: 99f6 b43d b024 2fbc cbc6 2b3d a9c7 d5bb
00000310: 053c d03d a319 a23c 2784 073d 3ee8 8b3d
00000320: 196c 9ebd cdc7 c93d 25c1 9d3d cd10 6b3d
00000330: 28e6 27bc db32 9a3d 5c99 0e3d b2bf e03d
00000340: e60f a83c c46b 04bd ed03 a7bc 7fbc b13d
00000350: 1343 48bd e027 8bbb 0154 92bd 8689 89bd
00000360: 5a30 863d b3fa c3bd 1018 9abd 9f39 b9bc
00000370: 7ae0 c93a 0cd4 6f3d 4755 9fbb e44c c53c
00000380: 3c1f 76bd 4f10 f8bc 669f acbd 8a80 983d
00000390: 0c94 ba3d ac06 bebc 5d3c b8bd c0dd 81bd
000003a0: 0d81 943c 85f2 5b3d 7049 2f3d ef3a 673d
000003b0: bd8d c7bd ac09 9c3d 2089 07bd 91d0 eebc
000003c0: 6940 29bd 4e64 4b3c f7e0 adbd c387 233d
000003d0: 3d54 e33d 9f7a 193c ca47 ddbc 2e9a 3fbb
000003e0: 02ec 623c e4d9 533d c9b5 e8bc ffd1 363d
000003f0: 833f c33d 6702 b53d b803 93bb 2f54 a63d
0.10287498 -0.06837303 -0.094097935 -0.081469126 0.031563405 0.08321329 -0.085449204 -0.028323771
0.042202223 -0.0854974 -0.03836384 0.11229722 -0.026324518 0.038010243 0.067570865 -0.045725543
0.091087684 -0.020999627 -0.100019574 0.020499352 -0.031244934 0.086321816 0.051706288 0.08589983
0.113059916 -0.009977245 -0.08933817 -0.062427286 -0.008630527 0.103192866 0.07701267 0.025375033
-0.09777734 -0.0031276871 0.01636836 -0.035341106 -0.014414905 -0.049379446 -0.04403494 -0.059117213
-0.03848552 -0.018870672 0.078959554 0.009258092 0.038717203 -0.069877215 -0.05470584 0.07430083
0.09443472 0.006377464 -0.10217034 -0.08289664 0.063171566 -0.02166255 0.040442977 0.11196666
-0.04665863 0.09677207 0.09447233 -0.10453712 0.0058156755 -0.10685312 -0.05950256 -0.006272867
-0.091602385 -0.041127577 0.10023033 -0.052198663 -0.04712922 -0.011834459 -0.006266716 0.06950553
-0.10516342 0.032068085 0.08897716 0.05196108 -0.07259286 -0.010397461 0.07537118 -0.028263083
-0.09039505 -0.025323799 -0.038841765 -0.07767544 -0.081292346 -0.0049468484 0.055483215 -0.09785336
0.0007692933 0.055447683 0.032732468 0.03808869 -0.093003385 0.097947605 -0.0391745 0.040618893
0.09527632 0.031064942 -0.033649426 0.05868899 -0.028790612 -0.025644472 0.0121085085 0.05472985
0.022882937 0.075591825 0.09727713 0.04340501 0.078215 -0.054294303 -0.07106208 -0.026539002
-0.07456425 -0.06669171 -0.091998376 -0.02389203 -0.013327132 -0.04290421 -0.013639545 -0.079871655
-0.028655648 0.081015855 -0.018267104 0.029212551 -0.002528426 0.004640799 -0.097235836 0.006205095
0.07785027 0.006485345 0.08623917 0.008333214 0.0014581342 -0.019831764 -0.08321778 0.062193587
-0.06913434 -0.05642196 -0.09868401 -0.027525378 0.11238198 0.061892495 -0.061505575 -0.036550745
-0.09884305 0.014388009 -0.032975312 -0.09819159 0.09830844 -0.045682266 0.027117822 0.06756475
0.0857521 -0.006848696 0.03403105 -0.02044261 0.060522873 0.0881906 -0.066189356 -0.037628084
-0.050871048 -0.018706962 0.10341791 -0.001541574 -0.0496443 -0.02765505 -0.013490952 -0.055577856
0.005320256 -0.017783402 -0.10780962 -0.054223027 0.0829815 0.08406861 0.068542965 -0.01802442
0.08420844 -0.024766117 -0.07722763 0.02812878 0.07562597 -0.0473439 -0.030904897 0.018590624
-0.006440412 0.064021006 -0.022953968 0.0053037987 0.06671091 0.0043331953 0.021940788 -0.05943796
0.08836097 -0.010689899 0.04193763 -0.0065240455 0.10167698 0.019787615 0.033085015 0.06831406
-0.07735462 0.09852562 0.07702855 0.05738907 -0.010247745 0.07529231 0.034814224 0.10974063
0.020515393 -0.032329336 -0.020387614 0.08678531 -0.048892092 -0.004246697 -0.07144929 -0.06715684
0.06552191 -0.095693015 -0.07524121 -0.022610484 0.0015401982 0.058551833 -0.004862461 0.024084516
-0.06008838 -0.030281214 -0.0842884 0.07446392 0.09110269 -0.02319654 -0.089958884 -0.063411236
0.018127942 0.05369808 0.042794645 0.056452688 -0.09743831 0.07619032 -0.033089757 -0.029152187
-0.041321192 0.012414051 -0.08490174 0.039924394 0.111000516 0.009367614 -0.02701177 -0.0029236185
0.013850214 0.05172147 -0.028406994 0.04463386 0.09533598 0.08838349 -0.0044865273 0.081215255

bias f4 [42]
00000000: 91b5 a8bc 3ea0 c5bd 7307 dcbc 926e 173d
00000010: 22e3 ec3d a97d 833d 8117 e83c 404a 9d3d
00000020: a6ec afbd 5404 acbd 9089 25bd ee1f 44bc
00000030: 2ce3 853d 55f5 9abd 2b82 4dbd fa4a 03bd
00000040: cba7 d6bd 8c66 b33d 832b 4f3d 0c02 e2bd
00000050: 02e1 d03c dd68 3abd b84f e63d d1cd 4e3d
00000060: 9843 90bd aa46 3ebc 6ed4 c7bd eee5 85bd
00000070: ea2d 6bbd a742 95bc b8b4 d83a bca0 b83c
00000080: 246b b53d 503c 47bd 22d1 0bbd 4a42 f2bc
00000090: b76e 4cbd c2ea 4fba 56b6 873d c7aa c53d
000000a0: a832 b03d 2864 13bd
-0.02059439 -0.096497044 -0.02685902 0.036970682 0.1156676 0.06420452 0.02833152 0.07680178
-0.08590059 -0.08399263 -0.040414393 -0.011970503 0.0653747 -0.075663246 -0.050172966 -0.032053925
-0.10481223 0.08759794 0.050578605 -0.11035547 0.025497917 -0.04551016 0.11245674 0.05048925
-0.070441425 -0.011613527 -0.097573146 -0.06537996 -0.057416834 -0.018220259 0.001653335 0.022537582
0.08858326 -0.048641503 -0.03413499 -0.029572625 -0.049910273 -0.0007931405 0.06626575 0.09651714
0.08603412 -0.03598419

weight f4 [1, 42]
00000000: 2254 45bd 6655 0ebe 72b0 853d 0eec 963d
00000010: e5e0 573d d332 b8bd 8750 a23d e99c 8fbd
00000020: 738f 6ebb 001f 453c afbb 45bd adc9 69bd
00000030: 071c a33d d756 51bd 3311 18bd aa27 b0bd
00000040: c27c cebd 3031 bcbd e372 87bd ed22 bbbd
00000050: 15ed 88b9 52c0 da3d 8673 bb3c b45a df3c
00000060: f61c 983d 9f75 c43d 23f5 81bd e1e8 183d
00000070: 944c e9bc 9d3d cf3d edbe cc3d 5fa6 793d
00000080: b821 083e 3684 af3d 8a3a c7bb f3b3 0abe
00000090: de3e 4c3d 4f1a 4bbd 57f8 1dbd 0852 9c3d
000000a0: e049 f83b 6d25 893d
-0.04817594 -0.13899764 0.06527795 0.073692426 0.05270471 -0.08994069 0.079255156 -0.0701235
-0.003640142 0.012031317 -0.048274692 -0.0570771 0.0796433 -0.051108208 -0.037125777 -0.08601315
-0.100823894 -0.09189069 -0.0661371 -0.09137521 -0.0002611658 0.106812134 0.022882234 0.02726493
0.07427399 0.09592747 -0.06345584 0.037331466 -0.028478898 0.10119174 0.09997354 0.06094968
0.13294113 0.08570139 -0.0060799764 -0.13545208 0.049864642 -0.049585637 -0.038566913 0.07632834
0.007577166 0.066965915
