ModelUnpredictability/one_thousand_brains/predictor_120.model (torch_old, 109395 bytes, 7 tensors)

weight f4 [84, 168]
0	0x3d64abf9	0.05582807
1	0x3c4f4ee9	0.012653091
2	0xbc6d8c80	-0.01449883
3	0x3d27cb59	0.04096541
4	0xbd0678fd	-0.032830227
5	0x3c48db2d	0.012259287
6	0xbd770e5e	-0.060316436
7	0xbce7c6c8	-0.028293028
8	0x3afeddd6	0.0019444774
9	0xbc0fa4bb	-0.008767302
10	0xbbf59789	-0.007494871
11	0xbb2054fc	-0.0024464717
12	0xbd242f38	-0.040084094
13	0xbd830959	-0.06398267
14	0xbd808c11	-0.062767155
15	0x3cf16dfd	0.029471392
16	0x3d9f8aaf	0.07790124
17	0x3d8cc061	0.06872631
18	0xbd226945	-0.039651174
19	0xbd1bf835	-0.038078506
20	0xbd6014a7	-0.054707196
21	0x3d6c26d9	0.057654236
22	0x3d76abbf	0.060222384
23	0xbd67938c	-0.056537196
24	0x3d440ec7	0.047865655
25	0x3d148f4b	0.036269467
26	0x3cbc183b	0.022960773
27	0x3d482c93	0.048870634
28	0x3d132e5a	0.035932876
29	0xbd07ef91	-0.033187453
30	0xbcf9309b	-0.030418685
31	0xbd2b57c5	-0.04183175
32	0xbc41abcb	-0.011820744
33	0xbcfc3072	-0.03078482
34	0xbccaf9b2	-0.024777267
35	0x3d52d504	0.05147268
36	0x3d88ad3a	0.06673665
37	0xbd30b174	-0.043137982
38	0x3d5414b0	0.05177754
39	0x3c8de2d6	0.017320078
40	0x3d89f8a7	0.0673688
41	0xbd696168	-0.05697766
42	0xbd871102	-0.06595041
43	0x3d27667a	0.040869214
44	0x3c8056dc	0.015666418
45	0xbd479892	-0.048729487
46	0x3cebf416	0.028802913
47	0x3d9160e0	0.070985556
48	0xbc926cad	-0.017874086
49	0xbd1a921e	-0.037737004
50	0xbc1fe76c	-0.009759765
51	0xbc8a85ac	-0.016909443
52	0x3d551665	0.05202331
53	0x3d5f7719	0.05455694
54	0xbc95c67e	-0.018283125
55	0xbd1058bd	-0.035240877
56	0xbd024199	-0.03180084
57	0xbd7086c2	-0.058722265
58	0xbcdac280	-0.026704073
59	0x3d39d04e	0.04536467
60	0xbd9ee6ff	-0.07758903
61	0x3d005f7b	0.031341057
62	0xbd340e3d	-0.04395889
63	0xbd363f6a	-0.04449407
64	0x3d697aee	0.057002
65	0x3da13f54	0.07873407
66	0x3cb135c1	0.021632077
67	0xbd7a6dd0	-0.06113988
68	0xbc84ff3b	-0.016234985
69	0x3cd8ef17	0.026481194
70	0x3c827a55	0.015927473
71	0x3d7b59b5	0.06136485
72	0xbd076ab8	-0.03306076
73	0x3d5522f2	0.05203528
74	0xbd856a19	-0.06514377
75	0x3d163da4	0.03667988
76	0xbc9cc162	-0.01913518
77	0xbd824add	-0.06361935
78	0xbd61f54e	-0.05516558
79	0xbcfd780e	-0.030941036
80	0x3cfe75bd	0.031062001
81	0xbd3ced94	-0.04612501
82	0x3d81865e	0.06324457
83	0x3ca2a755	0.01985518
84	0x3d9dfdff	0.077144615
85	0xbcbadbcc	-0.022809885
86	0x3d5b6f72	0.05357308
87	0xbd55da83	-0.052210342
88	0xbce083b3	-0.02740655
89	0xbcb59c84	-0.022169359
90	0x3d1c4768	0.038154036
91	0xbd35c1bf	-0.044374224
92	0x3d9e8ca2	0.07741667
93	0xbd6717ec	-0.056419298
94	0xbd05ff99	-0.03271446
95	0x3c0ffe5e	0.008788673
96	0xbc403fe6	-0.011733985
97	0x3d536cdf	0.0516175
98	0xbd2f2eec	-0.042769358
99	0x3d9e7cff	0.07738685
100	0xbbc9edce	-0.0061623817
101	0x3d897fcd	0.06713829
102	0xbd79cdec	-0.060987398
103	0x3d2c9e10	0.042142928
104	0xbd980a69	-0.074238606
105	0xbd73a5f3	-0.059484433
106	0xbd4b2d96	-0.04960402
107	0x3d0b6e67	0.034040835
108	0xbc8d7ce9	-0.017271476
109	0x3d2adf6c	0.041716978
110	0xbd09a906	-0.03360846
111	0xbd84dbe4	-0.06487253
112	0xbd8f13ff	-0.06986236
113	0x3ce4ec78	0.027944788
114	0x3d78f83f	0.06078362
115	0x3d2a7378	0.041614026
116	0x3d736be5	0.059429068
117	0x3c347126	0.011013305
118	0xba9f4cf2	-0.0012153669
119	0x3ced2f7c	0.028953306
120	0xbd1d0537	-0.03833505
121	0xbd6a70e2	-0.05723656
122	0xbc1b5749	-0.00948126
123	0xbc3f5d9e	-0.011680035
124	0x3cd96859	0.026539015
125	0xbd19e920	-0.03757584
126	0x3d966530	0.07343519
127	0x3d76f9f3	0.060296964
128	0x3d15ce4a	0.036573686
129	0x3c9f9de4	0.019484468
130	0x3d981a25	0.07426862
131	0x3c9e856e	0.019350734
132	0x3d20658f	0.039159354
133	0xbd90990e	-0.07060443
134	0x3d1e8df7	0.038709607
135	0x3c5f94c8	0.013646312
136	0xbd07a924	-0.03312029
137	0x3d86e824	0.06587246
138	0x3d603faa	0.054748215
139	0xbcb195f2	-0.021677945
140	0xbd890065	-0.066895284
141	0x3d9580fa	0.07299991
142	0x3d64fcf3	0.055905294
143	0x3d90f123	0.07077243
144	0x3d87804a	0.06616266
145	0xbd289d3c	-0.041165575
146	0x3d7216b4	0.059103683
147	0xbbf78561	-0.007553742
148	0x3d047b18	0.032343954
149	0x3d6babf8	0.05753705
150	0x3d9c54a2	0.0763333
151	0xbd6657d8	-0.056236118
152	0xbc9a97fb	-0.018871298
153	0xbd4121ae	-0.04715126
154	0xbcdf9181	-0.027291061
155	0xbcea973f	-0.028636573
156	0xbcf364a4	-0.029711075
157	0x3d8c854d	0.068613626
158	0xbd524ba3	-0.051341664
159	0x3ab16124	0.0013532978
160	0xbd66f611	-0.05638701
161	0x3d9b1742	0.075727955
162	0xbd0df978	-0.03466174
163	0xbd11519c	-0.03547822
164	0xbd947aa7	-0.072499566
165	0xbc05247d	-0.008126375
166	0xbd3695e4	-0.04457654
167	0xbd5b31ac	-0.053514168
168	0x3d9fd0dc	0.07803509
169	0x3ccd4c1a	0.025060702
170	0x3d6b6263	0.057466876
171	0xbcff9f16	-0.031203788
172	0xbc47097d	-0.012148258
173	0x3d848bc9	0.064719744
174	0xbce81627	-0.028330876
175	0x3c29ddc5	0.010367815
176	0xbc0a9d1a	-0.0084603075
177	0x3d83c5fb	0.06434246
178	0xbd431d97	-0.04763564
179	0xbd0cc69a	-0.03436909
180	0xba91338a	-0.0011077982
181	0x3d967dde	0.07348226
182	0x3d41055e	0.04712426
183	0x3c37f3f6	0.011227598
184	0x3d0b574c	0.0340188
185	0xbc50eb37	-0.012751392
186	0x3caee9bd	0.02135169
187	0x3d371369	0.044696245
188	0x3cede630	0.029040426
189	0xbc0b8629	-0.008515873
190	0xbcbea1a5	-0.023270437
191	0xbd1ed1b1	-0.038774196
192	0x3c15abfb	0.009135242
193	0x3d516f9e	0.051131837
194	0x3c8c7922	0.017147604
195	0xbb591e2b	-0.0033129554
196	0xbb7dff16	-0.003875678
197	0x3cf1309e	0.029442128
198	0x3c8ef9d7	0.017453117
199	0x3d2a88cd	0.04163437
200	0xbd82ed4f	-0.06392919
201	0xbd9a4414	-0.07532516
202	0xbd218edf	-0.039442893
203	0x3da26fb0	0.07931459
204	0x3da03859	0.078232475
205	0xbc57bb33	-0.01316719
206	0x3d73da15	0.05953415
207	0xbc065e4f	-0.008201196
208	0x3d919d62	0.071100965
209	0x3cc19e7b	0.02363514
210	0xbd3252ba	-0.043535925
211	0x3c6c5b6a	0.014426092
212	0x3d9cf258	0.07663411
213	0xbd83ea36	-0.064411566
214	0xbd8e981a	-0.06962605
215	0xbd1b2ec4	-0.037886396
216	0xbd6054f7	-0.05476853
217	0x3d3ed84a	0.046592988
218	0x3da12fab	0.0787042
219	0xbc5f9e0e	-0.013648523
220	0xbba5ba25	-0.0050575905
221	0xbd58e26a	-0.0529503
222	0xbd9115ab	-0.07084211
223	0xbcb9acdf	-0.02266544
224	0x3d19ff97	0.037597265
225	0xbd0d3e78	-0.034483403
226	0xbd3adaeb	-0.045618933
227	0x3cbcb089	0.023033397
228	0xbd611e48	-0.05496052
229	0xbb5f13c0	-0.0034038872
230	0x3d9284df	0.071542494
231	0xbd68a207	-0.056795146
232	0xbcdf4f7f	-0.027259586
233	0x3c7f1d91	0.015571014
234	0x3d8a72fd	0.067602135
235	0xbce03a4e	-0.027371552
236	0x3d4c3dd0	0.049863636
237	0xbbde5e85	-0.00678617
238	0xbb8f56fc	-0.004374383
239	0x3d98d298	0.074620426
240	0x3da33993	0.07969966
241	0x3cb3ef23	0.021964615
242	0x3d801d66	0.06255607
243	0x3cd9a187	0.02656628
244	0xbcd1e0f2	-0.025619958
245	0xbd8dad58	-0.06917828
246	0xbd7d27b4	-0.061805442
247	0x3d6cd89c	0.057823762
248	0x3d9a3f4e	0.07531606
249	0x3d2d8954	0.042367294
250	0xbcec5921	-0.028851094
251	0xbd2e1779	-0.042502854
252	0x3c3852c8	0.011250205
253	0xbd7121ae	-0.05887001
254	0x3d5e80f0	0.054322183
255	0xbd6e6c93	-0.058209013

bias f4 [84]
0	0x3d9908a5	0.07472352
1	0x3d066dcd	0.032819558
2	0xbd868ed6	-0.065702125
3	0x3d66504f	0.056228932
4	0x3d084667	0.033270266
5	0x3d907f9f	0.07055592
6	0xbc993da8	-0.018706158
7	0x3d91b5c7	0.071147494
8	0xbd6d7ae7	-0.057978537
9	0x3d384e17	0.044996347
10	0x3da0af53	0.078459404
11	0xbd87141f	-0.06595635
12	0x3d97a8ed	0.07405267
13	0xbcba60ad	-0.022751177
14	0xbd4dc13c	-0.05023311
15	0x3d86ff60	0.06591678
16	0x3d73b075	0.059494454
17	0xbd171c04	-0.036891952
18	0x3cfb9c43	0.03071416
19	0xbd4e01c1	-0.05029464
20	0xbd342cad	-0.04398792
21	0x3d65f6d5	0.0561436
22	0xbce66b0b	-0.028127214
23	0x3d1f3468	0.038868338
24	0xbc3b8491	-0.0114451805
25	0x3d31b5d1	0.043386284
26	0xbd881658	-0.06644887
27	0x3bf7f85c	0.0075674485
28	0x3dad7b9c	0.08470842
29	0xbd5b0e2a	-0.053480305
30	0xbdbd244d	-0.092354394
31	0x3d9a640e	0.07538615
32	0x3d813880	0.06309605
33	0x3d7ec70d	0.06220155
34	0xbc469435	-0.012120296
35	0xbd866cc6	-0.06563716
36	0x3d8fb746	0.070173785
37	0xbd587d11	-0.052853648
38	0xbd474d89	-0.048657928
39	0x3d4985fd	0.049200047
40	0xbd6f21d4	-0.05838187
41	0x3cf27a25	0.029599259
42	0xbb946bc5	-0.0045294487
43	0xbd21257b	-0.039342385
44	0xbd174cc4	-0.036938444
45	0xbd4ae4e6	-0.0495347
46	0xbd87c39c	-0.066291064
47	0x3c73f246	0.014889305
48	0x3d552455	0.052036602
49	0x3d25fc80	0.040524006
50	0x3d453019	0.048141573
51	0x3d4ccd33	0.05000038
52	0xbc0a7573	-0.008450854
53	0xbd6648f6	-0.056221925
54	0x3cdc1b6d	0.026868546
55	0x3d27be9b	0.04095326
56	0x3c94852e	0.018129911
57	0x3d7bad8d	0.061444808
58	0xbd05623c	-0.032564387
59	0xbc14b86a	-0.009077171
60	0xbc6e2acc	-0.014536571
61	0xbc9d1efa	-0.01917981
62	0x3cc68360	0.024232566
63	0x3d878026	0.06616239
64	0x3d9484a7	0.07251864
65	0xbd0982b7	-0.033571925
66	0xbc9ab4c1	-0.018885018
67	0xbd4fb5e5	-0.050710578
68	0x3a85c7f0	0.0010206681
69	0xbbb33a23	-0.005469577
70	0x3d8040d1	0.06262363
71	0xbcb0a540	-0.021563172
72	0xbd8fdacf	-0.07024156
73	0xbd011556	-0.03151449
74	0x3c0db348	0.008648701
75	0xbd5aa33c	-0.05337833
76	0xbcefeba9	-0.029287176
77	0xbd86d249	-0.065830775
78	0x3d913fcf	0.07092249
79	0x3d437443	0.047718298
80	0xbd227e2d	-0.03967111
81	0x3d309421	0.043110017
82	0xbd24124d	-0.040056515
83	0x3d1c26d0	0.038122952

weight f4 [84, 84]
0	0x3c966f07	0.018363489
1	0x3de0da3e	0.109791264
2	0x3d53cad3	0.0517071
3	0x3c83f4a4	0.016107865
4	0xbd63adf2	-0.05558581
5	0xbd9bbe23	-0.07604625
6	0xbd945346	-0.07242446
7	0x3c0e5be4	0.008688901
8	0x3df27a80	0.11839771
9	0xbda5d86f	-0.08097922
10	0x3d96fba0	0.073722124
11	0x3d4880c3	0.04895092
12	0xbcd09295	-0.02546052
13	0xbb3212e6	-0.002717191
14	0x3d836f43	0.06417706
15	0x3d76f195	0.060288984
16	0x3d975970	0.07390106
17	0x3da71388	0.08158022
18	0x3e018984	0.12650114
19	0xbdeac84c	-0.11463985
20	0x3ddb450b	0.10706528
21	0x3b936e52	0.004499235
22	0x3d5c0425	0.05371489
23	0x3e0cd157	0.13751732
24	0xbdc89780	-0.09794521
25	0xbc4ba5bc	-0.012429651
26	0xbcb441b9	-0.022003995
27	0x3e124bcc	0.14286727
28	0x3d31f086	0.04344227
29	0x3c9dc4aa	0.019258816
30	0xbd7bb380	-0.06145048
31	0x3bf4e48b	0.0074735335
32	0x3dcf0079	0.10107512
33	0xbd2d4782	-0.042304523
34	0xbd646364	-0.05575885
35	0x3dbb1309	0.0913449
36	0x3d441d7a	0.047879674
37	0x3d3a5c8d	0.04549842
38	0x3dd915ce	0.10599862
39	0x3d80f6b6	0.062970564
40	0x3dc15fa9	0.09442074
41	0xbdf24865	-0.118302144
42	0x3da027c7	0.07820087
43	0x3dbfdf65	0.09368781
44	0x3cd036c6	0.025416743
45	0x3d333667	0.043753054
46	0x3d8edff1	0.06976307
47	0xbdc43b6d	-0.09581647
48	0x3da83a13	0.08214202
49	0x3d7fe004	0.062469497
50	0x3d2ffc6b	0.042965334
51	0xbde5141b	-0.111854754
52	0xbdc2e6d5	-0.09516684
53	0x3c91b04e	0.017784264
54	0xbcf83a64	-0.03030128
55	0x3dc09deb	0.094051205
56	0x3d23d914	0.040001944
57	0xbd9f394f	-0.077746026
58	0xbdcca1bf	-0.09991788
59	0xbb488af4	-0.00306004
60	0xbdc56c11	-0.09639753
61	0xbda660e4	-0.08123949
62	0xbd4ed5d3	-0.050496887
63	0x3d77403b	0.06036399
64	0xbd844fbf	-0.06460523
65	0xbddc9e97	-0.10772436
66	0xbd9baf90	-0.07601845
67	0x3d96895e	0.073504195
68	0x3d974f4e	0.07388173
69	0xbd7b6161	-0.061372165
70	0xbdcb104e	-0.09915219
71	0xbc7dbc6a	-0.015486816
72	0xbc2bcbd5	-0.010485609
73	0xbd371aad	-0.044703174
74	0x3da2bd9b	0.079463206
75	0x3dee900b	0.11648568
76	0x3d255071	0.040359918
77	0xbcc2bc2a	-0.023771364
78	0x3dc09098	0.09402579
79	0x3af79806	0.0018889911
80	0xbdfc86e7	-0.12330418
81	0x3d2c4c38	0.042064875
82	0xbcc1d12f	-0.023659317
83	0xbd84450b	-0.064584814
84	0x3d8bac79	0.06820006
85	0x3ddb52d2	0.10709156
86	0x3d51251e	0.05106079
87	0x3c55f22c	0.013058227
88	0xbce93ead	-0.028472269
89	0xbcac5164	-0.021034904
90	0xbd945f9c	-0.072447985
91	0xbd3aad14	-0.045575216
92	0xbd8ee19f	-0.069766276
93	0x3dacc747	0.08436447
94	0xbcf1b0f6	-0.029503327
95	0x3dbc2f02	0.091886535
96	0xbdade463	-0.08490827
97	0xbb69c211	-0.003566865
98	0xbd828f6e	-0.06375013
99	0x3cf1180b	0.02943041
100	0x3d085288	0.033281833
101	0x3cdacf7f	0.02671027
102	0xbcd9b86c	-0.026577197
103	0x3ba03c9a	0.004890037
104	0x3d55bdcc	0.052182958
105	0x3d45bc21	0.048275117
106	0xbcc5cc43	-0.024145251
107	0x3daedfae	0.08538757
108	0x3d301424	0.042987958
109	0x3b90acfb	0.004415152
110	0xbce94e8b	-0.028479835
111	0xbcb9f75b	-0.022700956
112	0x3dc9a291	0.0984546
113	0x3dc02a43	0.09383061
114	0xbcc6dcae	-0.02427515
115	0xbc8d3d96	-0.01724128
116	0x3da7a9b2	0.08186664
117	0xb8eb0a21	-0.0001120756
118	0xbdb66c6e	-0.089074
119	0xbac628c3	-0.0015118349
120	0xba9300c3	-0.0011215437
121	0xbc883c96	-0.016630452
122	0xbd6aabdd	-0.057292808
123	0xbb553848	-0.0032534767
124	0xbcc72e51	-0.024314078
125	0x3bb1cf25	0.005426305
126	0x3d954f75	0.07290546
127	0xbd463ca3	-0.04839767
128	0xbbb209da	-0.0054333033
129	0xbbc4faa6	-0.006011325
130	0xbdc11d21	-0.09429384
131	0x3d987a05	0.074451484
132	0x3cb457e2	0.022014562
133	0xbd20ab94	-0.03922613
134	0xbd9473c0	-0.0724864
135	0xbdaec643	-0.08533909
136	0x3cd299ae	0.025708046
137	0xbc682a52	-0.014170246
138	0xbda968d5	-0.08271948
139	0x3c32e43c	0.010918673
140	0x3dc88a7d	0.097920395
141	0xbdd2b86b	-0.10289081
142	0xbdaf6138	-0.08563465
143	0x3daae962	0.083452955
144	0xbc0d8ae7	-0.008639074
145	0x3d9b7640	0.07590914
146	0x3dac97a5	0.084273614
147	0xbcee60a5	-0.029098818
148	0xbe002e9f	-0.12517785
149	0xbd35904c	-0.044327065
150	0x3dafd25f	0.08585047
151	0xbcf1807d	-0.029480213
152	0x3c90d12a	0.017677862
153	0xbbb5df74	-0.0055503193
154	0x3d29c70e	0.0414496
155	0x3ced640f	0.028978376
156	0xbd41dd70	-0.04733032
157	0x3d8d7ec8	0.06908947
158	0x3d7e8afa	0.062144257
159	0xbd282188	-0.041047603
160	0x3e091743	0.1338778
161	0xbc4ac2e1	-0.012375564
162	0xbd5bc9fb	-0.05365942
163	0x3c3ba234	0.011452246
164	0xbdd560ae	-0.10418831
165	0xbda51a5c	-0.08061668
166	0x3d8da2d2	0.06915821
167	0x3cba4ca2	0.02274162
168	0xbca419a0	-0.02003175
169	0x3d40c4bf	0.04706263
170	0x3cc70486	0.02429415
171	0xbdbae8ec	-0.091264576
172	0x3d9feda7	0.078090005
173	0xbd0f243b	-0.03494666
174	0xbc88e453	-0.016710436
175	0xbbf9c180	-0.007621944
176	0xbb1320b6	-0.0022449917
177	0xbd4d1868	-0.050072104
178	0x3d90181a	0.07035847
179	0xbd36fcf4	-0.04467483
180	0x3d36a42e	0.044590168
181	0x3d67d502	0.056599624
182	0xbd107217	-0.035265055
183	0x3d8839b4	0.06651631
184	0xbd134ba0	-0.035960793
185	0xbd896b25	-0.06709889
186	0x3daf9067	0.085724644
187	0x3dba1785	0.09086517
188	0xbc0adbb0	-0.008475229
189	0xbda1ab41	-0.07893992
190	0x3d0df617	0.034658518
191	0x3dc8b596	0.0980026
192	0x3c3a8ec2	0.011386575
193	0x3d6d0ae1	0.057871703
194	0xbd880056	-0.06640689
195	0x3d04a4f1	0.032383863
196	0x3d216fbf	0.03941321
197	0x3da2534b	0.07926043
198	0xbd2ffb96	-0.04296454
199	0xbd202f89	-0.039107833
200	0xbcbc5207	-0.022988332
201	0xbd7084a9	-0.058720265
202	0x3cee325c	0.029076748
203	0x3d0b4651	0.034002606
204	0xbdc222d3	-0.094792984
205	0xbca92a5f	-0.020650087
206	0xbd444f89	-0.047927413
207	0xbc9577d8	-0.018245623
208	0x3c90e8eb	0.017689189
209	0x3d96fad7	0.07372063
210	0xbd09819f	-0.033570882
211	0x3d5ee7de	0.054420345
212	0xbddd11c6	-0.10794406
213	0xbd80f84e	-0.0629736
214	0x3db5b46c	0.08872303
215	0x3cff355e	0.031153377
216	0xbda3fb0c	-0.08006868
217	0xbc8f9810	-0.017528564
218	0xbc812ddc	-0.015768938
219	0x3dd490d5	0.10379187
220	0xbc84fda4	-0.016234227
221	0xbd93e562	-0.07221486
222	0xbd0b82d6	-0.03406032
223	0x3d93b7f3	0.0721282
224	0xbbf3545d	-0.0074258284
225	0xbd22d72a	-0.039755978
226	0x3d819457	0.06327122
227	0x3dd97540	0.10618067
228	0x3c1b89fd	0.009493348
229	0xbd890f94	-0.066924244
230	0xbd4a3a2f	-0.049371894
231	0xbd96333a	-0.073339894
232	0xbb7117d1	-0.0036787877
233	0xbd9e4ee2	-0.077298895
234	0x3b51d144	0.0032015601
235	0xbc7453ae	-0.014912529
236	0xbde9fbf8	-0.11425012
237	0xbdd7c7aa	-0.1053613
238	0x3d1a24ce	0.037632756
239	0x3cd39a6c	0.02583047
240	0x3cb72461	0.022356214
241	0x3cef830a	0.029237289
242	0x3dafbbd2	0.08580746
243	0x3dbd29f0	0.092365146
244	0xbd92aaad	-0.0716146
245	0xbd341474	-0.043964818
246	0xbd8b7758	-0.068098724
247	0xbcc7fc7e	-0.02441239
248	0x3bc2ed6c	0.005948713
249	0xbdc247fd	-0.09486387
250	0xbd101de9	-0.035184775
251	0xbd7debb1	-0.06199235
252	0x3cfdbb28	0.030973032
253	0xbdab7e3b	-0.08373686
254	0x3dbb7c5a	0.091545776
255	0x3c9e259c	0.019305043

bias f4 [84]
0	0x3de8790b	0.11351212
1	0x3d2edaf9	0.042689297
2	0x3d1e889d	0.038704503
3	0x3ce28dcb	0.027655503
4	0xbd2d3fb8	-0.042297095
5	0x3b7b23f8	0.0038321
6	0x3df3557a	0.11881538
7	0x3c66478f	0.014055147
8	0x39b1b409	0.00033894207
9	0x3db4d47b	0.0882959
10	0x3d0ec88e	0.034859233
11	0x3db4bf45	0.08825544
12	0xbc833fc1	-0.016021611
13	0x3be90381	0.0071110134
14	0xbd9595cd	-0.07303963
15	0xbc552c52	-0.013011055
16	0x3de52c24	0.1119006
17	0x3b4b3c56	0.0031011305
18	0x3d19fbcb	0.037593644
19	0x3d9d5eb6	0.0768408
20	0x3dd22891	0.10261644
21	0x3c81800c	0.015808128
22	0xbc874f03	-0.016517168
23	0x3d8ab847	0.06773429
24	0x3ddc7012	0.10763563
25	0x3d79fce0	0.061032176
26	0x3d1b01f4	0.03784366
27	0x3cbefe21	0.023314537
28	0x3d5aae8e	0.053389125
29	0xbde114e6	-0.10990314
30	0x3dbefbc2	0.09325363
31	0xbd119954	-0.035546616
32	0x3d0ee419	0.0348855
33	0xbd7a6fc8	-0.06114176
34	0xbd7ab593	-0.06120832
35	0x3c1829ca	0.009287307
36	0xbd9744dc	-0.07386181
37	0xbddf2c08	-0.1089707
38	0xbd02aa19	-0.0319005
39	0x3d8ffe16	0.07030885
40	0x3b6489be	0.003487214
41	0xbd897ad5	-0.067128815
42	0x3d9c1db5	0.07622854
43	0x3d2c02ac	0.041994736
44	0x3d255858	0.040367454
45	0x3d5e3e99	0.054258917
46	0x3cbb0b85	0.022832641
47	0xbdc67115	-0.096895374
48	0xbd9aa5c7	-0.07551151
49	0xbc5f6128	-0.013634004
50	0x3c932a44	0.01796449
51	0xbdeb31b1	-0.11484087
52	0xbdb8785a	-0.0900733
53	0xbd77ab29	-0.060465965
54	0xbc4f568b	-0.012654911
55	0xbd515172	-0.051103063
56	0x3d8bf920	0.06834626
57	0xbd8e3ea6	-0.06945543
58	0x3c51515c	0.012775745
59	0x3d864c9e	0.06557582
60	0xbd521f0e	-0.051299147
61	0xbdbb9f97	-0.09161299
62	0x3b4e3e85	0.003147037
63	0xbd579893	-0.05263574
64	0xbd51e7fb	-0.051246624
65	0x3da8eb61	0.0824802
66	0x3d2c094c	0.042001054
67	0x3c6c0025	0.014404331
68	0xbdd72b8d	-0.105063535
69	0x3d580dbb	0.05274747
70	0x3d379e33	0.044828605
71	0xbdbccf8b	-0.09219273
72	0xbd1b3a11	-0.037897173
73	0xbdb38b8f	-0.08766853
74	0xbdc4ac6a	-0.09603198
75	0xbd98193b	-0.07426687
76	0xbba7b5d7	-0.0051181125
77	0xbd55300d	-0.052047778
78	0xbda8bd06	-0.08239178
79	0xbdde7019	-0.10861225
80	0xbdab07e2	-0.08351113
81	0x3d7e5d93	0.062100958
82	0x3d7ff78e	0.062491946
83	0xbdaee66c	-0.08540043

weight f4 [42, 84]
0	0xbd92701c	-0.071502894
1	0xbca16037	-0.0196992
2	0x3dab1b39	0.08354802
3	0x3c86e222	0.01646525
4	0xbc81d5b1	-0.015848966
5	0xbd1d577b	-0.038413506
6	0x3dd48b4c	0.10378131
7	0xbd91508a	-0.0709544
8	0xbd881105	-0.06643871
9	0x3d805889	0.06266887
10	0x3dc0d2c2	0.09415199
11	0xbd88d119	-0.06680507
12	0x3a855969	0.0010173741
13	0x3dad920f	0.08475124
14	0x3d7b84d8	0.061405987
15	0xbd85da67	-0.065357976
16	0xbb2e6879	-0.0026612564
17	0xbd60a237	-0.0548422
18	0x3d927f41	0.07153178
19	0xbcec8829	-0.02887352
20	0xbd79508e	-0.06086784
21	0xbc44154c	-0.011967968
22	0x3cce90fb	0.025215616
23	0x3d564d84	0.05232002
24	0xbd89d99e	-0.0673096
25	0xbd8782d4	-0.0661675
26	0x3d85fb2c	0.06542048
27	0xbd9b212f	-0.07574689
28	0xbcd0dd5e	-0.025496181
29	0x3d126f62	0.035750754
30	0xbd6f13c1	-0.05836845
31	0x3ccfbaed	0.025357688
32	0xbd6e0c90	-0.05811745
33	0x3c93e4ff	0.01805353
34	0xbd3831b8	-0.04496929
35	0x3c0633d5	0.008191069
36	0x3cb33baf	0.021879045
37	0xbc660044	-0.014038149
38	0x3dcf2660	0.10114741
39	0xbc758c87	-0.014987118
40	0xbd701a45	-0.058618803
41	0xbd0c60bd	-0.034271944
42	0xbd8c4bf9	-0.06850428
43	0x3d971852	0.073776856
44	0x3b2c0761	0.0026249515
45	0x3d53691f	0.051613923
46	0x3c230781	0.00995052
47	0xbdab1435	-0.083534636
48	0xbdcb9373	-0.09940233
49	0xbd1c5835	-0.03817006
50	0x3df0fc97	0.11766928
51	0x3cc604de	0.024172243
52	0xbd2fa51b	-0.042882066
53	0xbc16cbca	-0.009203861
54	0xbce89c95	-0.028394977
55	0x3cee7849	0.02911009
56	0xbbc92b54	-0.0061391983
57	0xbd003501	-0.03130055
58	0xbdfc3596	-0.12314908
59	0xbd92df52	-0.07171501
60	0xbdbbf449	-0.09177453
61	0x3d951133	0.07278671
62	0x3d9d08a2	0.07667662
63	0x3d929001	0.07156373
64	0xbcd1ba96	-0.025601666
65	0x3cc3f2a0	0.023919404
66	0x3d636416	0.05551537
67	0x3c02fb11	0.007994429
68	0x3cd01ec6	0.025405299
69	0x3d23ffbf	0.04003882
70	0x3d8d4c28	0.06899291
71	0xbd8a8863	-0.06764295
72	0x3d5fa5c7	0.054601457
73	0x3da00fb7	0.07815497
74	0xbd8b69c8	-0.068072855
75	0xbd15a2ff	-0.0365324
76	0xbca32f59	-0.019920038
77	0x3d9eeb6e	0.077597484
78	0xbc84a467	-0.016191674
79	0x3cac9634	0.021067716
80	0xbd088af4	-0.03333564
81	0xbc1cd9dc	-0.009573426
82	0x3d03e863	0.032204043
83	0xbcb35846	-0.021892678
84	0x3d85411f	0.065065615
85	0xbdbc9ff3	-0.092101954
86	0xbd751d35	-0.059842307
87	0x3d935f06	0.07195859
88	0xbdb4765a	-0.08811636
89	0xbbd5e255	-0.006527225
90	0x3d973921	0.07383943
91	0x3d76609d	0.06015073
92	0x3bbc5b22	0.0057481686
93	0xbdab6c67	-0.083702855
94	0xbb9fd16c	-0.00487726
95	0xbd07c7b3	-0.033149432
96	0x3cd86960	0.026417434
97	0x3c5d369a	0.013501788
98	0xbd95b693	-0.07310214
99	0xbcbbba34	-0.022915937
100	0x3d4abf24	0.049498692
101	0x3c3a4043	0.01136786
102	0xbc84d62e	-0.01621541
103	0x3ba95048	0.005167041
104	0xbd41327f	-0.047167297
105	0x3d7c73b2	0.061633773
106	0xbdc37c85	-0.095452346
107	0xbdb64ba3	-0.08901145
108	0xba8e592d	-0.0010860317
109	0x3cf0baa2	0.029385868
110	0x3d1f0a51	0.038828198
111	0x3c499337	0.012303165
112	0x3dbf02cd	0.09326706
113	0x3d91b3ad	0.071143486
114	0x3c668f08	0.014072187
115	0x3d28c633	0.041204643
116	0x3c9f5350	0.019448906
117	0x3da21ba7	0.079154305
118	0x3c6753cd	0.014119101
119	0xbd3b9d3f	-0.04580426
120	0x3b9a6569	0.004711796
121	0xbcd0c81d	-0.025486046
122	0x3dd4852d	0.10376964
123	0x3baea219	0.005329382
124	0x3b9437ac	0.004523238
125	0x3d7acfa0	0.061233163
126	0x3d64f706	0.055899642
127	0xbdb255db	-0.08707782
128	0x3d252f5e	0.040328376
129	0xbe12ce03	-0.143364
130	0x3dae90d4	0.085237175
131	0x3c3d5345	0.011555498
132	0x3b728600	0.003700614
133	0x3c428df7	0.011874667
134	0x361658db	2.2403462e-06
135	0x3e211bf7	0.15733324
136	0x3d1daa56	0.038492523
137	0xbb464a71	-0.0030256773
138	0xbcbce716	-0.02305941
139	0xbd6861d9	-0.05673394
140	0x3d2231f7	0.03959843
141	0x3a0ec5f6	0.00054463686
142	0xbd814ab2	-0.06313075
143	0x3d49e2ea	0.049288668
144	0x3d98d529	0.07462532
145	0x3e0a7aad	0.1352336
146	0x3bea010b	0.0071412376
147	0x3d4f91fc	0.05067633
148	0x3ce11e2a	0.027480204
149	0xbcb9f622	-0.022700373
150	0x3e352929	0.17691483
151	0xbd9e7261	-0.0773666
152	0xbbe59704	-0.007006528
153	0xbe0c881b	-0.13723795
154	0xbdccb32d	-0.099951126
155	0x3d41a498	0.04727611
156	0x3d39fb1e	0.0454055
157	0x3cb3f176	0.021965723
158	0xbd89a11b	-0.067201816
159	0x3d01ce8b	0.031691115
160	0x3d89837f	0.06714534
161	0x3c39a51b	0.011330868
162	0xbce5a60b	-0.028033277
163	0xbd1b3611	-0.03789336
164	0xbdfb029b	-0.12256356
165	0xbdddf8e6	-0.10838489
166	0xbd72692c	-0.05918233
167	0x3d9027e4	0.070388585
168	0x3dd13332	0.10214843
169	0xbda3f68c	-0.080060095
170	0x3d90658e	0.0705062
171	0x3d8b17cc	0.06791648
172	0x3d95984b	0.07304438
173	0x3d2c887d	0.042122353
174	0xbc9ec165	-0.019379327
175	0x3db3c628	0.0877803
176	0xbd020008	-0.03173831
177	0x3dc97c56	0.09838168
178	0x3c8c9920	0.01716286
179	0xbc6a670a	-0.014306793
180	0x3daec925	0.08534459
181	0x3baae414	0.0052151773
182	0xbd42c552	-0.04755146
183	0xbc9decb3	-0.019277906
184	0x3d83c168	0.06433374
185	0xbd4783e6	-0.048709773
186	0xbd0cacd1	-0.034344498
187	0x3c79de6e	0.015250785
188	0xbd034167	-0.032044794
189	0xbb521960	-0.0032058582
190	0xbc7ac448	-0.015305586
191	0xbdac63c3	-0.084174655
192	0x3c115182	0.008869531
193	0xbdd8b520	-0.10581422
194	0x3c287ecb	0.010284136
195	0xbbe3638c	-0.006939357
196	0xbca508b5	-0.020145753
197	0x3d3b6a71	0.045755807
198	0x3dec9728	0.11552268
199	0x3b070390	0.0020601489
200	0x3da79de2	0.08184411
201	0x3de78548	0.11304718
202	0x3daea31e	0.08527206
203	0x3db96870	0.09053123
204	0x3da3395b	0.07969924
205	0xbcceece6	-0.025259446
206	0xbde2d388	-0.11075503
207	0x3d1cef8a	0.03831438
208	0x3ccc528f	0.02494171
209	0x3dfb052f	0.12256848
210	0xbcc7f6da	-0.0244097
211	0x3ca3c043	0.019989138
212	0xbd5ce993	-0.05393369
213	0xbd3a0913	-0.04541881
214	0xbd3c6f3d	-0.046004523
215	0x3d85881f	0.06520104
216	0x3cab654f	0.020922331
217	0xbd96ddba	-0.0736651
218	0x3b96d7ee	0.0046033775
219	0x3bd9db47	0.0066484543
220	0xbd63321a	-0.055467702
221	0xbae96dda	-0.0017809228
222	0x3dab66b8	0.083692014
223	0xbdbb0454	-0.09131685
224	0xbc377f7a	-0.011199826
225	0x3cc69fa1	0.024246039
226	0xbd9b8c7a	-0.07595153
227	0xbd89379f	-0.06700062
228	0xbd1edd81	-0.03878546
229	0xbcd401ea	-0.025879819
230	0x3d98db81	0.07463742
231	0x3d920879	0.07130522
232	0xbd636d6e	-0.055524282
233	0x3b390819	0.0028233586
234	0x3d73def7	0.059538808
235	0x3cbd1307	0.023080362
236	0x3d5f4d4f	0.054517087
237	0x3ae05910	0.0017116386
238	0xbd1f9dc7	-0.038968828
239	0x3d979b3b	0.07402655
240	0x3d68b3a5	0.056811947
241	0xbd51645c	-0.0511211
242	0x3d52e7c9	0.05149058
243	0x3d488954	0.04895909
244	0xbc9141f6	-0.017731648
245	0x3d67ad5a	0.056561805
246	0xbd342276	-0.043978177
247	0x3d9149b9	0.070941396
248	0x3dab5f29	0.0836776
249	0x3d87e3d9	0.06635255
250	0x3d586e98	0.052839845
251	0x3d4c379f	0.049857732
252	0xbdb38f30	-0.08767545
253	0xbd9e1da9	-0.07720501
254	0xbd872291	-0.0659839
255	0xbb9224ee	-0.004459969

bias f4 [42]
0	0xbda92d65	-0.082606114
1	0xbcac2975	-0.021015862
2	0xbd2f10dc	-0.042740688
3	0xbd61399c	-0.05498658
4	0x3d69a0ef	0.057038244
5	0xbd9f4c40	-0.077782154
6	0x3d16bb25	0.03679957
7	0xbdf7f4c7	-0.121072344
8	0xbd389cb2	-0.04507131
9	0xbd2bda0b	-0.04195599
10	0xbe00f02c	-0.12591618
11	0x3d9e9863	0.07743909
12	0x3d12c6f8	0.035834283
13	0x3d279a26	0.04091849
14	0x3db657de	0.08903478
15	0xbdb9e2fd	-0.09076498
16	0x3e03d34a	0.12873569
17	0x3d2eb6f8	0.04265496
18	0x3d4bf857	0.049797382
19	0xbd5d6587	-0.054051902
20	0xbe03838b	-0.12843148
21	0xbd05dc0f	-0.032680567
22	0x3d8d2f64	0.06893805
23	0xbcd8418f	-0.026398448
24	0xbdbedc56	-0.093193695
25	0x3d9babf4	0.07601157
26	0xbde11951	-0.10991157
27	0x3e02401a	0.12719765
28	0xbdcfb8b6	-0.10142653
29	0x3cad84be	0.02118146
30	0xbd2ad5ec	-0.041707918
31	0xbcb14783	-0.021640545
32	0x3d596772	0.05307717
33	0xbd3f8816	-0.04676064
34	0x3d1ffb1a	0.03905783
35	0xbda68c4c	-0.08132228
36	0xbc65f7f4	-0.014036167
37	0xbabbdaf2	-0.0014332219
38	0x3d8601ee	0.06543337
39	0xbd82dc9f	-0.063897364
40	0xbd015933	-0.031579208
41	0x3cd9f865	0.026607702

weight f4 [1, 42]
0	0x3b1623ed	0.0022909597
1	0xbb167ba9	-0.002296189
2	0xbc3c9abb	-0.0115115
3	0x3d87f94f	0.06639349
4	0x3d9e3311	0.07724584
5	0x3d7fdb28	0.062464863
6	0x3d03b000	0.03215027
7	0x3c452538	0.012032799
8	0xbd7c233b	-0.061557036
9	0xbd66a8fc	-0.0563135
10	0x3e02912b	0.1275069
11	0xbbb049df	-0.0053799
12	0x3d412e92	0.047163554
13	0x3dc4eaee	0.09615122
14	0x3a860dc0	0.0010227486
15	0xb9d5d394	-0.00040784164
16	0xbc8853e8	-0.016641572
17	0xbcef67e2	-0.02922434
18	0x3d9bd007	0.076080374
19	0xbdce8f5d	-0.10085938
20	0x3e097b17	0.13425861
21	0x3be26251	0.006908693
22	0xb897f864	-7.2465074e-05
23	0x3e079e9e	0.13244101
24	0x3dcaf8c9	0.09910733
25	0xbd6371f0	-0.05552858
26	0x3c1b04fe	0.009461639
27	0xbb0ff5b5	-0.002196652
28	0x3bdd777b	0.006758628
29	0xbc7266ff	-0.014795064
30	0x3d9389fa	0.07204051
31	0x3b893329	0.004187007
32	0x3d5633d8	0.052295536
33	0xbd8507e8	-0.064956486
34	0xbddd1bf1	-0.10796345
35	0x3b2d4066	0.002643609
36	0x3d418066	0.04724159
37	0xbb700ed7	-0.003662994
38	0x3cf606fa	0.030032624
39	0x3a6b8c2f	0.00089854276
40	0x3d12680d	0.03574376
41	0xbc757c4d	-0.014983249
