ModelUnpredictability/one_thousand_brains/predictor_8.model (torch_old, 109395 bytes, 7 tensors)

weight f4 [84, 168]
00000000: 9a38 673c c814 8a3d 107c a4ba 863a 55bd
00000010: 1b56 833d 933b 8cbd 4e93 673d 5cf8 31bd
00000020: a8ff 1cbc 13c1 9a3d b92f 52bd c512 723d
00000030: 1d4a 963d 2736 053d 7f09 583d 91da 833c
00000040: a364 98bc 2df7 86bd 08a5 9ebd e773 1a3c
00000050: 6ac4 2c3b ef87 7cbd 1d7b 97bd fa31 97bd
00000060: 18d0 3abc 6fae 40bc f819 513d 6b9c 73bd
00000070: 062e 653d 4f5d 393d 0529 eb3c 339e 4bbd
00000080: bc67 8f3d 0829 b4bc 2c2e e03c 1a59 693d
00000090: 70fa 943d 2101 18bd 9d83 35bd 05a1 6d3d
000000a0: 3f41 903d 0029 6bbd 94c8 743c 4db6 9cbc
000000b0: 2de6 79bd 4ab4 253d 3960 15bd 00d6 063d
000000c0: 4563 fe3c edec 82bd 778f 52bd 791c 9e3d
000000d0: 5cda 56bd daa6 1cbc 72bd 80bd 1398 253d
000000e0: a588 6cbd 0044 873b 5c41 53bd 613d f3bc
000000f0: 4ffd 69bd 59f9 083d d923 78bd 2a08 12bd
00000100: c022 32bc 48e6 a53c fd92 22bd a6be 4c3d
00000110: 14a6 81bd 4394 44bb 00d6 c33c 2581 54bd
00000120: be45 16bd eb73 2f3d cbee 75bd e150 063d
00000130: 54b0 9abc e5d4 853d 7066 1f3d 051e 17bd
00000140: c03a f9bc 9484 463b 8846 8e3c 7adc 3e3d
00000150: 7499 9ebc ddee 81bd a171 60bc 7ebf 02bb
00000160: 3dc4 99ba 7195 92bd 8929 6c3d c830 f8bc
00000170: 0b5e 8fbd e227 e73c 0557 693d 3cd6 64bd
00000180: 9b6a 5d3c 6be1 67bc 4d03 4abb 8ada cbbb
00000190: 0f05 653d c079 0abd d780 033c bbea d03c
000001a0: c2b8 6b3c 4c27 65bc 369e c33c 3952 d13b
000001b0: 102f 823d 5e85 75bd f6d3 473d 242e 513d
000001c0: 28b3 63bd b8b4 603d d977 ff3c f082 f2bb
000001d0: 5a29 0fbc b435 74bd ffd6 583d b862 013d
000001e0: 4c11 3c3d 4d14 e6bc 244d 403d 75ba ad3b
000001f0: 1dd1 4fbb 6dc6 e83c 17ef 2dbc c584 a93b
00000200: e83b 273d 0029 ee3c 7d66 0f3c 5c80 54bd
00000210: c988 703d f08d 96ba 9a63 78bd 2347 8abd
00000220: f0f5 f33c f643 d13a 4ce4 263d 2a84 06bc
00000230: 3769 86bc fe63 053d 2b77 8d3d a769 853d
00000240: 27f8 1e3b 131a 503d 5c79 bb3c 39f5 903d
00000250: c74d 39bc 69de 6fbd 0a74 af3c e65f 30bd
00000260: 5128 92bd 9414 043d 843d 5c3d 98c6 563d
00000270: 5bdb 313d f1cf b5bc 91a3 70bd 9395 af3b
00000280: 8083 133d 376e 26bd ceeb 333c 0925 173d
00000290: 8434 90bd cdc6 66bd d7dc ca3a 9d8b 8ebd
000002a0: 4598 7ebc 5ee4 463d 3899 213c d43c 8d3d
000002b0: 2b71 b2bb b1e1 ec3c 0069 ccbc 463f 2fbd
000002c0: 1a56 5ebd bc8a 40bd 7e3f 5bbd 25cb a13d
000002d0: 58f9 02bd 9978 91bd b84f 4cbd ab76 1bbd
000002e0: b2de 9fbc e38c 98bc 286c 97bc ae13 f7bb
000002f0: 0531 78bd c18a c63c 18e0 cb3b 9fa9 32bd
00000300: 591c 8d3d 31ae 0dbd 05ec 673c 86b3 573b
00000310: 1259 0e3d 8938 8bbd 19e5 7abd 6623 0b3d
00000320: 17f2 0f3d ac15 d4bb 757a 663d e9cd e2bb
00000330: 05db 333d a5f2 c238 c6a4 873d 0d3d 01bc
00000340: 41bb a0bd 23fc 843d e3d6 753c f588 24bd
00000350: e510 583b 3d3a 783c bf1d 63bd d570 7f3d
00000360: e906 69bd 4475 2c3d 1d6b 97bd c73b 9d3d
00000370: af6e e73c df7e 373d 42b3 0f3d 926f 813d
00000380: 269d 9a3c 6183 6b3c 7efb 9c3c d468 783c
00000390: 54b0 113b 9c9d 51bd c0ee 4f3d 715b c8b9
000003a0: deaf 50bd 41cf 0ebd 1153 d33b f4a9 8dbd
000003b0: c3cc 5e3d 3599 13bd 43f0 9ebd 7034 3d3c
000003c0: 8927 813d a69b 5dbd a38c 40bc 81cf 32bd
000003d0: f75c 91bd 7592 08bd 4a23 ac3c 23cf 49bd
000003e0: 32b5 8a3d 04f3 413d 335f 93ba 89d5 81bd
000003f0: b706 acba 70c8 243d ff26 2e3d 40fc d23b
0.014112616 0.06742245 -0.001254918 -0.052057765 0.06412908 -0.068473004 0.056536965 -0.043449745
-0.009582438 0.07556357 -0.051315043 0.05909993 0.07338355 0.032522347 0.05274343 0.016095432
-0.018602675 -0.06590114 -0.07746321 0.009427047 0.002636219 -0.061653074 -0.07396529 -0.07382579
-0.0114021525 -0.011760338 0.051050156 -0.059475344 0.055952094 0.045255 0.028706083 -0.049711417
0.07002208 -0.021992221 0.027365766 0.05696974 0.0727433 -0.03711045 -0.04431497 0.05801489
0.07043695 -0.057412148 0.0149404 -0.019129897 -0.06101053 0.04045514 -0.03646872 0.03291893
0.031053195 -0.06392846 -0.05140635 0.077202745 -0.052454337 -0.009561265 -0.06286134 0.040428232
-0.057747502 0.0041279793 -0.051576003 -0.029692354 -0.05712634 0.03344092 -0.060581062 -0.035652317
-0.010872543 0.020251408 -0.03969096 0.049986504 -0.06330505 -0.0029995597 0.023905754 -0.051880974
-0.036687605 0.042835157 -0.060042184 0.032791976 -0.018882908 0.06534747 0.03891605 -0.036893863
-0.030423522 0.0030291425 0.017367616 0.04659698 -0.019360282 -0.06344388 -0.013698966 -0.0019950564
-0.0011731457 -0.0715741 0.0576568 -0.030296698 -0.07000359 0.02821726 0.056967754 -0.055868372
0.013514186 -0.014152865 -0.0030824721 -0.0062211202 0.055913027 -0.033807516 0.008026323 0.025502553
0.014387311 -0.01398642 0.023879152 0.0063879755 0.06356633 -0.059941642 0.048786126 0.051069394
-0.05559078 0.054859847 0.031185078 -0.007400863 -0.008737886 -0.059621528 0.05293941 0.031588286
0.045914933 -0.028085852 0.046948567 0.0053017684 -0.0031710335 0.02841493 -0.0106160855 0.005173298
0.040828615 0.029072285 0.008752462 -0.051880226 0.0587242 -0.0011486392 -0.060641862 -0.067518495
0.029780358 0.0015965689 0.040745065 -0.008210221 -0.016407592 0.032566063 0.06907495 0.06514292
0.0024256797 0.050806116 0.022885017 0.070780225 -0.0113100475 -0.058561716 0.021417636 -0.043060206
-0.07136596 0.032246187 0.053769603 0.052435488 0.043422084 -0.02219388 -0.05874974 0.005358407
0.03601408 -0.040632453 0.010981513 0.036900554 -0.070412666 -0.056341935 0.0015477192 -0.06960223
-0.015539234 0.04855763 0.00986319 0.06896368 -0.0054456196 0.028916212 -0.024952412 -0.04278495
-0.05428133 -0.047007307 -0.053527348 0.07900075 -0.031976074 -0.0710308 -0.049880713 -0.037954967
-0.01951537 -0.018621868 -0.01848419 -0.007540188 -0.060593624 0.024236085 0.0062217824 -0.043618795
0.068901725 -0.03458995 0.014155393 0.00329134 0.034752913 -0.067978926 -0.06125364 0.033969305
0.035142984 -0.00647231 0.056269128 -0.006921519 0.043910045 9.295837e-05 0.06623225 -0.007888091
-0.07848216 0.06493404 0.015004846 -0.040169675 0.0032969054 0.015150604 -0.05544829 0.062363464
-0.056891356 0.04210402 -0.07393477 0.07677417 0.02825102 0.044798728 0.035083063 0.063201085
0.018873762 0.014374585 0.01916289 0.015161712 0.0022230344 -0.0511757 0.0507648 -0.00038215102
-0.05094897 -0.03486562 0.0064491113 -0.069171816 0.054394495 -0.03603478 -0.0776067 0.011548147
0.06306369 -0.054103516 -0.01175228 -0.043654922 -0.0709781 -0.033342797 0.02101292 -0.049269807
0.067728415 0.0473509 -0.0011243582 -0.06339557 -0.001312456 0.040230215 0.04251766 0.006438762

bias f4 [84]
00000000: efb6 52bd 6338 913d 84f1 4abd 4b47 05bd
00000010: 31fe 7b3d de70 20bd 10f9 e8bb e172 a837
00000020: 0015 31bb 88b1 723d 848d bfbc 55b2 333d
00000030: 6c1c 503c 2cab 7dbb 93b0 41bd 7238 50bd
00000040: 4f28 71bc f041 993d c359 593c 0c06 233d
00000050: 1ce2 0b3c 2404 673c 0565 67bd 1b26 3ebd
00000060: d8dc f0ba 37de 063d 51dc 963d 6431 30bd
00000070: cefb 8ebc 92a0 c2bc c9f5 8f3d 403a 86bd
00000080: 1574 973d 29f4 e33c 0a7c a1b9 61c1 753d
00000090: 0da8 4c3d 6045 883b 9103 423d aa25 90bd
000000a0: d35c 743d 85e8 633d 587e 443d 7065 5c3d
000000b0: b22c 8ebd e86e 123d 382c 54bb 1dca 24bc
000000c0: 609b 373d 368f 9ebc 31e4 c33c cc98 80bd
000000d0: f4fc d5bc 1afa 39bc 942d 0fbc af15 59bd
000000e0: dcf3 963d 5909 17bc 191b 713d e312 47bd
000000f0: d24b 883c 88fa 69bc 7c54 bebc 2e8a 9f3c
00000100: 5fb6 e7bc 5dc7 a23d 08ad aabc e16f 90bd
00000110: dcde 323d 9742 a3bc 2f24 0cbd af48 093d
00000120: 746f f3ba 0030 9ebb fd20 313d 2d17 70bd
00000130: ea6c e7bc 5017 90bd ed11 e53b 70c6 de3c
00000140: 6172 91bd b31b 063d 48af fabc fbd5 dd3c
-0.05144399 0.07090833 -0.049546733 -0.032538693 0.061521713 -0.03917014 -0.0071097687 2.0080655e-05
-0.0027020574 0.05925134 -0.02338291 0.043871243 0.012702089 -0.0038706763 -0.047287535 -0.05083508
-0.014719083 0.0748328 0.01326603 0.03980069 0.008537795 0.014100108 -0.056492824 -0.04642306
-0.0018376363 0.032926764 0.07366241 -0.043015853 -0.017454054 -0.023758207 0.07029302 -0.06554079
0.07395188 0.027826386 -0.0003080073 0.059998874 0.049964953 0.004158661 0.047366682 -0.07038434
0.059658837 0.05564167 0.047972053 0.053807676 -0.06942119 0.0357503 -0.003237499 -0.010057953
0.04482591 -0.019355398 0.023912521 -0.06279144 -0.026121594 -0.011351133 -0.008738894 -0.052999195
0.07370731 -0.009218537 0.058863733 -0.048601996 0.016637716 -0.014280923 -0.023233645 0.019475069
-0.028285204 0.07948182 -0.02083446 -0.07052589 0.043669567 -0.019929213 -0.034214195 0.033516582
-0.0018572644 -0.0048274994 0.04324435 -0.058615852 -0.028250176 -0.070356965 0.0069906623 0.027194232
-0.07101894 0.03274126 -0.030601159 0.027079573

weight f4 [84, 84]
00000000: 3014 9dbd ce93 adbd 00c5 a93d d0cd c6bd
00000010: d4a3 c63d 4002 75bc 0a0c 443c 4c2c e3bd
00000020: b0ef 10bc d63a 3ebd 35a6 82bd 5696 3f3d
00000030: 89a8 a8bc 431c 64bd 909d 573c 8cc1 8cbd
00000040: 54f3 183d c716 aa3d 84c8 c3bd 8f60 0a3d
00000050: a63d 9d3d 6192 3a3d 77f0 81bd 7cdc 3cba
00000060: f1a8 39bd f8f8 75bd cf4e 53bd 6f57 bb3d
00000070: 1519 9f3c 3557 54bd 4c71 87bd 86a4 efbc
00000080: 5336 a9bd 9803 a93c 3e80 d43c f6ee 163c
00000090: 6162 2cbd 1232 a0bc af6e 7e3d 9ff1 c2bd
000000a0: a35b fb3b 3f23 85bc e3a9 be3c 8b15 dcbd
000000b0: d2b7 ccbd 7fb5 57bd f05f f7bc d89d 933d
000000c0: 0048 88bc e3f2 1dbd 48b5 b0bd 18b1 84bd
000000d0: ebbd 6c3d a3e0 823c 194b c03d 051b bbbd
000000e0: ee07 a23d a897 5bbd 69a8 873d 40d8 9ebd
000000f0: ca8d 293d 7daf 40bd 5ffa dcb9 a605 e43c
00000100: 61f9 d13a beb3 b53d 4a79 c43d 0eef 5ebb
00000110: 027e 7bbd 65e2 843d f127 0bbd a8f9 babc
00000120: ec80 bfbd e669 953c 1227 563d 2d73 6f3d
00000130: 3f4e b0bd 0440 a1bd 01c3 4f3d a772 853d
00000140: 8874 a13d f42a 9cba c68d 113d f8a0 bb3d
00000150: dde2 c8bd 3bdc 6bbd d3b7 4fbd b83d a93a
00000160: 9370 c7bd bde1 99bd 45ef cb3d 63e4 24bd
00000170: ffb9 d7bd 4368 16bb 6479 583d 4ff4 95bd
00000180: 1211 a83d 846d 8ebd 00a8 c43d 4ccd 6f3d
00000190: a30c 2b3d a443 473c 5d28 c83c 1b75 56bb
000001a0: b5f8 1e3a 3751 a93d ee57 f13c fbe3 87bd
000001b0: 884b ce3d 7a20 783d c6cb 20bd 31bb 99bc
000001c0: b037 403d a471 de3c 84f8 3d3d ff41 ac3c
000001d0: e345 e4bc 2e76 89bd b793 d1bd 6d01 c63d
000001e0: 5401 48bd 7968 daba be5c d13d 3b7f af3d
000001f0: 3b94 78bd 3517 9f3c 0a29 e03d 7b95 a73c
00000200: 349e 2d3d ea02 a73d 9d06 abbd 8630 bf3d
00000210: 3a70 7bbc f749 cc3d 5604 2f3d 15d4 12bd
00000220: 2abd c63d 7ac2 3cbd f734 293d 6552 02bc
00000230: f6bf bf3d 6319 49bc 53f3 81bd 2f2a 5cbd
00000240: 3668 4cbd f9c1 773c 2889 ce3d b1b1 1dbc
00000250: c54a 07bd b4ee b0bd b10b 3abd be8d 15bd
00000260: 030e c8bc d9ca 9e3d a743 15bd b15f db3d
00000270: ee56 08bc 0dc9 b23d f241 ec3c 84f5 97bd
00000280: 8a33 583d 94d3 d1bd f52d d9bd 6556 903d
00000290: 3879 c7bd a5d0 90bd 2400 743d 8475 753b
000002a0: d9c7 7a3c 3fab d6bb f1e6 a13d 682c 863d
000002b0: 096f 463c 56cb 64bd 97f2 b4bd 3be2 253d
000002c0: 84df 6e3d f528 a7bd 2f9f 263d 1b9b 50bd
000002d0: b2e4 933c 97e9 8fbd d67a 3e3d 558d 813d
000002e0: 615b c63d 0556 a9bd bf08 3a3d bcec bc3d
000002f0: 20f0 4d3d 2556 8bbc 39de b33c 7cce 4c3d
00000300: e939 7cbd eb65 a63d 426f daba 1aa3 e6bd
00000310: ee19 0e3d 5098 a13d dac9 a5bd c611 883d
00000320: a680 91bc 2c44 a93d 5bcb c93d 4336 b5bc
00000330: b001 323d 8a26 343d 1ce4 953c d3fd 4d3b
00000340: b623 04bd 75b5 94bc e06b a73d f4cd a03d
00000350: 814f 9a3d d0a4 92bd 8a32 99ba 2f64 74bd
00000360: b2cb 243d 130c 6d3d 5a44 c73d b327 863d
00000370: aeb4 8abd fbd3 383d 9cbb 1c3c ae6a 88bd
00000380: b2c9 ae3d f2ce 853d 2de6 59bd 0f79 a0bd
00000390: b587 c9bc b3b7 bc3d dc25 123d 8b7c 8fbd
000003a0: fd86 3b3d 26c6 a73d 4034 48bd 2076 b2bc
000003b0: d413 a7bd 67be 61bd b722 b6bd fc17 c73d
000003c0: 64a3 b83d c7a5 8d3d 89a2 17bd ad4f c53c
000003d0: 8cc1 c7bc 76fc 4a3d c30f 703d e698 28bd
000003e0: 22a7 03bd 9de6 283d 5ee5 2abc 704a c4bd
000003f0: 0475 a5bd 80ed e83c 0936 a7bd a28c a43d
-0.07669866 -0.08475457 0.08289528 -0.09707224 0.096992165 -0.01495415 0.011965761 -0.11092433
-0.008846208 -0.04644283 -0.06379358 0.04677423 -0.020588176 -0.055691015 0.013160124 -0.06872854
0.03734143 0.08305126 -0.0955973 0.03378349 0.07677774 0.045549754 -0.06344693 -0.00072044856
-0.04532713 -0.06005189 -0.05158883 0.09147536 0.01942114 -0.05184098 -0.066134065 -0.029253256
-0.08262315 0.020631596 0.025940057 0.009212246 -0.04208601 -0.019555125 0.062117275 -0.09518742
0.007670836 -0.016252158 0.023274368 -0.107462965 -0.099959984 -0.052663323 -0.030197114 0.07207841
-0.016635895 -0.038561713 -0.08628327 -0.064790905 0.057798307 0.015976256 0.09389324 -0.09136013
0.07911669 -0.053611428 0.066239186 -0.0775609 0.041394986 -0.04704236 -0.0004214821 0.027834725
0.0016019755 0.08872174 0.095934466 -0.0034017 -0.061399467 0.06488494 -0.033973638 -0.022824124
-0.09350762 0.018238973 0.052283354 0.05845945 -0.08608674 -0.07873538 0.05072308 0.06516009
0.07883555 -0.0011914656 0.035535596 0.09161562 -0.09808896 -0.057583075 -0.050712418 0.001291207
-0.09738269 -0.07513759 0.099577464 -0.04025687 -0.10533523 -0.0022950328 0.052850142 -0.07321989
0.08206381 -0.06954482 0.09602356 0.058545396 0.0417601 0.012162123 0.02443331 -0.003272361
0.0006064282 0.082674436 0.029460873 -0.06635281 0.10073 0.060577847 -0.039256833 -0.018766018
0.046928108 0.027153797 0.04637958 0.021027563 -0.027865356 -0.06711994 -0.102332525 0.09668241
-0.04882939 -0.0016663215 0.10222767 0.08569189 -0.06068824 0.019420246 0.109453276 0.02045702
0.042387202 0.08154853 -0.08350871 0.09335427 -0.015346581 0.09975045 0.042728744 -0.03584679
0.09704049 -0.046083905 0.041310277 -0.007954215 0.093627855 -0.012274119 -0.063452385 -0.053751167
-0.04990407 0.01512193 0.10084754 -0.009624884 -0.03303029 -0.08639279 -0.045421306 -0.03651213
-0.024420744 0.07753534 -0.03644147 0.10711611 -0.008321507 0.08729754 0.028840039 -0.07419875
0.052783526 -0.102454334 -0.10604469 0.070477284 -0.097399175 -0.07071046 0.059570447 0.0037454078
0.015306436 -0.006551176 0.07905377 0.065514386 0.012111434 -0.05585798 -0.08835333 0.040498953
0.05831863 -0.08162109 0.040679153 -0.05092917 0.018053386 -0.070269756 0.046503864 0.06325785
0.09685398 -0.0826836 0.045418497 0.09224841 0.05027783 -0.01700885 0.02195655 0.050001606
-0.061578665 0.08124908 -0.0016665237 -0.11261578 0.034692697 0.078903794 -0.08095141 0.06644015
-0.01776154 0.08264956 0.0985324 -0.0221206 0.04345864 0.043982066 0.018297248 0.0031431809
-0.03226062 -0.018152932 0.081748724 0.078517824 0.075346954 -0.07160342 -0.0011688035 -0.059665855
0.04023332 0.057872843 0.09729834 0.06550541 -0.06772743 0.045124035 0.009566214 -0.066609725
0.08534564 0.06533612 -0.05319803 -0.0783559 -0.024600843 0.09214725 0.035680637 -0.070061766
0.04578303 0.08192091 -0.048877954 -0.021784842 -0.08158079 -0.055113222 -0.0889334 0.097213715
0.09015539 0.06916385 -0.03702024 0.024085844 -0.024384283 0.04955717 0.05860878 -0.04116144
-0.032141812 0.041235555 -0.010430662 -0.0958451 -0.080789596 0.028433561 -0.08164603 0.08034636

bias f4 [84]
00000000: 3dc1 1f3d e4a1 353d 40c0 9fbd 0f8a af3c
00000010: d1a1 533d fad1 a3bc 638f 22bd 5ba1 9d3d
00000020: 99d3 b73d b64d ba3d 6511 abba 967a b73c
00000030: ed92 b93d 4ce7 fe3c 1d14 57bd 6538 dd3d
00000040: 7153 9ebd c440 503d 7708 c5bd a453 aa3d
00000050: 5884 b2bd 039d a83d 7eb8 4a3d 6a8c 543d
00000060: 356c b93d 8845 ebba 5328 d5bd 5310 fabc
00000070: e313 81bd 6f19 303d 6c29 fc3c 4979 8abc
00000080: 5c98 cd3d a2e0 bfbc 8746 e2bd c3fe 4c3d
00000090: 50db 43bd d560 f6bc 1b0c e7bd dfdf 88bd
000000a0: 2b02 763d da2b 243d 8507 39bc c0c8 b8bd
000000b0: 74e1 7ebd c880 7b3b 9aa8 9abd 6fe9 463d
000000c0: 173f d03c 683a 64bd aa5b 993d 707a 9ebd
000000d0: 73b6 243d a953 903d da9f 03bd c7ef c63b
000000e0: 7067 99bd 5ad7 9a3d 1b82 e53c dec2 5a3d
000000f0: 94fd bd3c 0b00 9c3d c1b6 4d3c c6cc 98bd
00000100: ba56 10bd 65cd b53d e508 0d3d adfc 993b
00000110: a0ab 51bd 233a 9bbd 4dc4 e7bd d84c 3dbc
00000120: 04b4 93bc 5a36 2dbd 3367 023d fd7d c8bc
00000130: 5f74 b43d 7784 3fbd a03c 7dbd ceed 91bd
00000140: f2c8 85bd a807 b7bd 69e9 843d 11fb 06bd
0.039002646 0.044343844 -0.07800341 0.021428136 0.051667992 -0.019997586 -0.039687525 0.07696792
0.08975906 0.090968534 -0.0013051449 0.02239732 0.09061227 0.03111615 -0.052509416 0.10801772
-0.07730759 0.050843015 -0.09620755 0.083167344 -0.08716649 0.082330726 0.04949235 0.05189172
0.09053842 -0.0017949799 -0.10408082 -0.030525362 -0.06302621 0.042993005 0.03078147 -0.016903536
0.10038826 -0.023422543 -0.11048608 0.050047647 -0.047816575 -0.03007547 -0.11281606 -0.06683325
0.06006066 0.040080883 -0.011293297 -0.09022665 -0.062226728 0.003837632 -0.075516894 0.048562463
0.025420709 -0.055719763 0.07488187 -0.07738197 0.04021306 0.07047207 -0.03213487 0.006071064
-0.07490432 0.07560606 0.02801614 0.053408496 0.023192205 0.07617196 0.012555779 -0.074609324
-0.03523896 0.088770665 0.03443231 0.0046993108 -0.051189065 -0.07579448 -0.11316738 -0.0115539655
-0.018030174 -0.04228816 0.0318367 -0.024474138 0.088112585 -0.046757188 -0.061825395 -0.07125436
-0.06532468 -0.08937007 0.06489832 -0.03295428

weight f4 [42, 84]
00000000: 3cfe 86bc fd73 bd3d d88d 61bd ce07 9bbd
00000010: 4fca 9cbd 40f2 ea3d 8356 cb3c 59f8 7a3d
00000020: 1d92 9ebc 9060 b1bd e173 3e3c a898 e9bd
00000030: 7065 14bd cab1 7ebd 346d c6bd d6d5 8fbc
00000040: 4219 b5bc 3507 c73d 99ae bcbd 791f 993d
00000050: d494 ff3c 8be2 7e3d 728f d53d a60c 98bc
00000060: 8d6b cf3d 8ef8 17bd 2fac ddbc c034 95bd
00000070: 187a c93d 632f 37bc 298e 11bc 3c25 9cbd
00000080: 1151 e13b 58d1 5e3d fcf2 34bc 7342 81bd
00000090: 609e 7f3d 3e95 2b3d 44f0 2dbd 81e7 75bc
000000a0: 6c4b a23d 0529 17bd fc64 9a3d eca6 a2bd
000000b0: e99e ef3d fd6b 1bbd a55f 873c c7c6 8b3d
000000c0: 82b6 c8bd 0260 253d c340 293d 69fd c73d
000000d0: fc26 b9bd eac4 3a3d e35d 983d 8ce2 a0bd
000000e0: 7345 eb3c 9895 6ebd ee3e c23c 7766 85bd
000000f0: 1130 8d3d 6a24 403d 8c80 1f3d e7cd a63d
00000100: d83c fcbc ad82 6e3d dedf a9bd 1bb4 c13d
00000110: 73fb 31bc 8425 96bd 64cc 873d 9686 34bd
00000120: eb79 023b b02e 543c 0019 a5bd 3ac1 213c
00000130: abaf 063d 3e34 b5bd eb08 d8bd e05b a7bd
00000140: a1f6 30bc 118a 58bc 19e5 e2bc 7c7a cebd
00000150: d1ab 5d3d c4a0 17bc df5b d43d 6c91 463d
00000160: 554f 9bbd 7177 f43a a595 50bd 76bf e83d
00000170: 7692 7f3d 0c09 913d cce6 873d 140b bbbc
00000180: 06b0 6f3c d04f a33c 63b1 253d 7b8b 793d
00000190: 78b5 c33c ae1f b4bc b697 22bd 8b90 7dbd
000001a0: eb3d 683d 324d ca3c 14cf 4bbd e270 b8bc
000001b0: a1f6 16bd bb4c 9bbc 39b6 c4bd 542a 4cbd
000001c0: e515 a4bc e853 81bd c6db c7bd c0fc 4d3d
000001d0: 7359 dcbc fa45 98bd 9ff7 833c 7907 bb3d
000001e0: 52e6 84bd bd78 c9bc a8a2 bf3d dd5f 3fbd
000001f0: 67b4 ee3c 90e5 aa3d b7ce dabc 8816 21bd
00000200: c2ce 74bd 6c19 c53c 1a83 d8bd 0611 8d3d
00000210: 3045 e63c 5cdd 6fbd f632 93bc 40e4 85bd
00000220: 16ce 4a3a 67b2 a3bd bbc4 bd3d 130d 833d
00000230: 01f8 62bc 1142 4dbd aca2 5bbb f9f4 223c
00000240: c2cd a43d 2bca 203d c55b d83c 629a e33d
00000250: 0d30 c73d 3030 9b3d 5722 d3bc e3cb 653d
00000260: f872 84ba 394c d6bd af84 edbd df34 91ba
00000270: 7baf e93d 400d 863c 1dbf 1b3d f978 863d
00000280: a754 3a3d b12d c2ba 13ea a9bd 5bfb c6bc
00000290: 4af6 e3bd 0ba8 72bd 1afd 74bd c039 9b3d
000002a0: 9dae 32bb 018a 8f3b 8ab8 abbd 76de e93c
000002b0: 7003 78bd dc5e 853d 23b1 943d a82e 67bb
000002c0: 1318 d23d b368 abbd 6430 fcbc f342 93bd
000002d0: f77a d83b 0834 58bc cb10 383c b9c4 113c
000002e0: d5a9 05bc e669 853d 391c c6bc 9313 abbd
000002f0: e888 e1bd 70f4 92bd cb1f 14bd 7ac8 9bbd
00000300: f4c8 a43d 338c 84bd 46d4 23bd 8137 023d
00000310: af7e 1a3d 3649 6dbc dc31 a03b 46c0 54bd
00000320: c359 1d3d b878 05bd b6ef a3bb 2267 cb3d
00000330: 81bd eb3d 33a0 5fbd 9701 d5bd e965 c83c
00000340: 1035 443d 3d7e 88bd aff6 613d f914 df3d
00000350: 5614 5e3c 0706 aa3d 9287 c7bc a5c7 9dbd
00000360: 3ef3 a8bd 5273 9ebd 544e 2cbc cda1 86bd
00000370: 2041 883d a873 d43d 5bd6 a8bc 1891 a9bd
00000380: d813 283c 87e3 b6bd 3e29 1abd 2144 643d
00000390: 63de 57bd 0757 a6bd 175f c9bd 514e 553d
000003a0: 8eb5 e2bd 84eb 8a3d a936 013d afc9 66bd
000003b0: 6830 cdbb acfa c73d a34d 913c 0b81 86bd
000003c0: c200 793b 712f b83d 8005 e63d efde 203d
000003d0: 4d41 b5bd 957b 763d 69eb d9bd 8bbe 033d
000003e0: 233c d0bc 4125 a5bd 5ba9 ad3d 0422 a0bd
000003f0: 5528 bb3d b468 043d a179 0c3d 90ba 033c
-0.01647865 0.09250639 -0.055066913 -0.07569848 -0.07655775 0.11471987 0.024821525 0.061272
-0.019356782 -0.08660996 0.011624307 -0.1140607 -0.03622955 -0.06218127 -0.096887976 -0.01755802
-0.02210677 0.097181715 -0.09212989 0.07476706 0.031198896 0.062227767 0.10427751 -0.018560719
0.101279356 -0.037102275 -0.027059643 -0.07285452 0.09837741 -0.0111807315 -0.008883991 -0.076242894
0.006876119 0.054398865 -0.01104426 -0.06311502 0.062406898 0.041890375 -0.042465463 -0.015008808
0.07924542 -0.036904354 0.075387925 -0.07941994 0.117002316 -0.037944783 0.016525099 0.06825023
-0.098004356 0.040374763 0.041321527 0.09765131 -0.09040639 0.045597948 0.074397825 -0.078557104
0.02871964 -0.058248132 0.023711648 -0.06513684 0.068939336 0.046909727 0.03894095 0.081447415
-0.030790731 0.05823009 -0.082946524 0.094581805 -0.010863173 -0.07331374 0.06630781 -0.044073664
0.0019909095 0.012950584 -0.08061409 0.009872729 0.032882374 -0.08847855 -0.10548576 -0.08171821
-0.010800988 -0.013216511 -0.027697133 -0.10081956 0.054118935 -0.009254638 0.103690855 0.04847853
-0.07583491 0.0018651319 -0.050923962 0.11364643 0.062395535 0.07081804 0.06635818 -0.02283243
0.01462937 0.019935519 0.040452372 0.060924035 0.023890242 -0.021987762 -0.039695464 -0.061905425
0.056699675 0.024695013 -0.049758032 -0.022514764 -0.036856297 -0.018957486 -0.09605069 -0.049845055
-0.020029971 -0.06314832 -0.09758715 0.05028987 -0.026898121 -0.07435222 0.016109286 0.09132285
-0.064892426 -0.024593705 0.09357196 -0.04672228 0.029138757 0.08344567 -0.026709897 -0.039328128
-0.059767492 0.024059974 -0.10571881 0.068880126 0.028109163 -0.058560714 -0.017968636 -0.06537676
0.00077363977 -0.07993012 0.09266039 0.06398978 -0.013853074 -0.050111834 -0.0033513708 0.009946101
0.08047058 0.039255302 0.026410947 0.111134306 0.09725962 0.075775504 -0.02577321 0.056102645
-0.0010105064 -0.10463757 -0.11597573 -0.0011078379 0.11410423 0.01636374 0.038024057 0.065660425
0.045490887 -0.0014814642 -0.08296599 -0.024289778 -0.1113096 -0.05924229 -0.05981169 0.07579374
-0.0027264722 0.004380465 -0.083848074 0.02854846 -0.060550153 0.065122336 0.07260349 -0.0035275612
0.10258498 -0.08369579 -0.030784793 -0.07190504 0.0066064554 -0.013195999 0.0112344725 0.008897
-0.008158167 0.06514339 -0.02418338 -0.08353343 -0.11012441 -0.07175529 -0.036163133 -0.07606597
0.08046141 -0.064720534 -0.03999736 0.031791214 0.03771847 -0.014482787 0.004888756 -0.05194118
0.03841568 -0.03258583 -0.005002941 0.099317804 0.115107544 -0.054596137 -0.10400694 0.024462657
0.047902167 -0.06664703 0.055166896 0.10892672 0.013554653 0.08301931 -0.024356637 -0.07704095
-0.0824952 -0.07736839 -0.010516722 -0.0657383 0.066530466 0.10373622 -0.020610025 -0.082796276
0.010258637 -0.08930116 -0.037636988 0.055729035 -0.05270232 -0.08122068 -0.0983259 0.05207664
-0.11069785 0.06783202 0.03154627 -0.056344684 -0.006261874 0.09764609 0.017737215 -0.06567582
0.0037994836 0.08993424 0.11231518 0.039275106 -0.08850346 0.06017645 -0.10640604 0.032164138
-0.0254193 -0.08063746 0.084795676 -0.07818988 0.09138552 0.032326415 0.034295682 0.008040085

bias f4 [42]
00000000: 15d9 ab3d 0a52 143d d8db 023d c5dc bc3d
00000010: 948b 933d f9c3 73bd 414b c33c 8403 92bd
00000020: caf1 9dbd 27be 3dbd 7702 44bd 6157 b0bd
00000030: e527 c2bd 37ca 9e3d a7d6 aa3d c522 5d3d
00000040: c559 3a3c 501e 103d 862d 973c f9ae 4dbd
00000050: 61b4 8f3b d886 713d d782 6cbd 4a09 eb3d
00000060: 955a f13c 638b d83d 5802 c0bd 1283 c13d
00000070: bc65 2abd 2cd0 083d 8102 c0bd c1aa 7d3d
00000080: 95d3 873d 0c52 d43d aae1 debc dede 853d
00000090: 6d3f 123d 0941 afbd 4a30 75bd 056a 193d
000000a0: 72c2 103d dd65 3a3d
0.083910145 0.03621105 0.03194794 0.09221796 0.07204357 -0.059513066 0.023839595 -0.07129577
-0.07712133 -0.04632392 -0.047853913 -0.08610416 -0.094802655 0.07753413 0.08341723 0.053988237
0.011373942 0.03518516 0.018454324 -0.050215695 0.0043855165 0.058966488 -0.057741966 0.11476381
0.029462138 0.10573461 -0.09375447 0.09448828 -0.041600928 0.033401653 -0.093754776 0.06193042
0.06632153 0.10367212 -0.027207214 0.06536649 0.03570502 -0.08557326 -0.059860505 0.037454624
0.035341688 0.0455073

weight f4 [1, 42]
00000000: 9616 973d 4f92 4f3d a217 0d3d 5abd 3ebd
00000010: f692 863d c097 a7bd a905 2ebd 21ea d4bd
00000020: 8571 dd3d 93ab c9bd a673 ccbd 1997 923d
00000030: 702c 04bd 147a 88bd d87f d03c e620 69bc
00000040: a48a f63d 3c29 febc 8a4a 563c 34de cb3c
00000050: 09ad a5bd a1b4 f13c f5a8 6fbd c2a2 923d
00000060: 924f 82ba 926c 903c 7ada e4bc 8ef2 c7bd
00000070: ec0c bd3c e88d 8cbb 9dc4 0fbd e654 ba3d
00000080: 3227 f9bc f91f b53c 5538 733d 0579 27b9
00000090: 5bbb 323b c144 10be 06fa 013e 2863 a93d
000000a0: 4aa7 bbbd cb96 aebd
0.07377355 0.05067664 0.034446366 -0.0465673 0.06570999 -0.08183241 -0.042485867 -0.10396219
0.10812668 -0.09847178 -0.09982996 0.07157726 -0.03226894 -0.066639096 0.025451586 -0.014229035
0.12038162 -0.031025521 0.013079295 0.024886228 -0.080896445 0.029505076 -0.05851074 0.0715995
-0.0009941927 0.017629895 -0.027936209 -0.097630605 0.02307745 -0.0042893775 -0.035099614 0.09098224
-0.030414198 0.022109972 0.059379894 -0.00015971444 0.0027272317 -0.14088728 0.12693033 0.08270866
-0.09162767 -0.08524855
