ModelUnpredictability/one_thousand_brains/predictor_115.model (torch_old, 109395 bytes, 7 tensors)

weight f4 [84, 168]
0.0051647224 0.032478128 -0.016911592 -0.0013637008 0.05750466 -0.037391018 0.0047752373 -0.020484254
0.021164007 -0.0142254755 -0.026868824 0.0041373316 -0.049068645 -0.027992986 0.0077097253 0.03437211
0.074291825 0.03762636 -0.001906867 -0.045846064 -0.051243056 0.06586201 -0.06943933 -0.067425095
0.031752057 -0.004300793 -0.06462329 0.06724212 0.009355507 -0.06953722 -0.05956427 -0.06813777
-0.053397078 -0.016157981 -0.011340736 -0.062311176 0.07395039 0.050312992 0.012009246 -0.027400257
0.07750994 0.027450012 -0.040059622 -0.021230923 0.074059896 0.01730296 -0.026583297 0.025016364
0.018384382 0.06470922 0.068969406 0.05098724 0.059508234 -0.06684175 0.040200986 0.074738435
-0.008686797 -0.0008344977 0.046667814 -0.010702317 0.048988245 0.035834663 -0.0030408376 -0.035843935
-0.04041897 0.04265097 0.028594892 -0.05297797 0.0027613628 -0.04816225 0.06681083 -0.03087634
-0.008832767 0.034872 0.004903423 -0.05280889 -0.044060517 -0.028936325 -0.032074627 0.079945
0.060332417 -0.058966976 -0.025056394 -0.011190142 -0.05053119 0.047347646 0.072919965 0.0597828
-0.07136516 0.06618016 -0.066833265 -0.048453093 0.021859186 0.04552064 0.030972991 -0.004742921
0.0072494815 0.049975757 0.053310234 0.064000644 -0.02854057 0.018405193 -0.069474645 -0.039135635
-0.04383111 -0.011448914 0.015805196 -0.03660415 -0.005758249 -0.023969287 -0.04662506 0.024771852
-0.043841295 -0.040817384 -0.07317667 -0.02842208 -0.023674907 0.008259169 0.06524903 0.05769592
-0.017799113 0.016175516 0.051628053 -0.016119309 -0.027055189 -0.03636708 0.04531706 0.053354096
-0.045437753 -0.0536667 -0.0634266 0.07158368 -0.0100522945 0.06868695 0.03119206 0.047288585
0.00011617514 -0.055302244 -0.029521953 0.034563996 0.0499767 0.008606818 0.0542471 -0.053992983
-0.034800857 -0.061648883 -0.05077991 0.0095828585 -0.0028182874 -0.047432 -0.0345529 0.04123518
0.010928336 0.018255208 0.031416394 0.0037951153 -0.010380456 -0.07101951 0.015535111 0.06618918
0.034358434 -0.045177728 0.07604245 -0.0013064807 0.023233837 -0.016779484 0.054277573 0.07629101
-0.065314084 -0.039036036 0.06893352 0.013183906 0.0692925 0.010634391 -0.06718196 0.0053958218
-0.030120794 0.03528595 0.029899575 -0.055149917 -0.0045456532 -0.061350618 -0.028682094 -0.008666199
-0.007085848 -0.048697192 0.0121420985 0.0030331493 -0.04448988 -0.029744143 0.038465675 -0.01586699
-0.025081163 0.06257917 -0.07616481 0.011625103 -0.01066504 0.05257078 0.06169057 0.022862295
-0.065976255 -0.04456601 0.03293478 -0.005781164 0.038800467 0.015353902 -0.074187934 -0.016263416
-0.06782524 -0.013165488 0.011321334 0.006742855 -0.068901256 0.03707478 0.03715982 0.036361378
0.01579732 0.005108964 -0.0013155597 0.057884548 -0.037508238 -0.07943648 0.06379851 -0.025771469
-0.013496183 0.057895802 0.051026803 0.069481365 0.011244827 0.049056392 0.06764602 -0.016638653
-0.06855839 0.07108427 0.061081447 -0.0108241085 -0.0180299 -0.053965777 0.033778813 -0.072562985
-0.015152699 0.064248346 0.0377083 0.048981693 -0.07341816 -0.008081462 0.024599716 0.02476234
-0.046694085 -0.006670877 0.06965816 0.071458325 -0.06946077 0.022333397 -0.040067207 0.0639623
00000000: d53c a93b c907 053d 2e8a 8abc 35be b2ba
00000010: 028a 6b3d 5327 19bd 9879 9c3b 98ce a7bc
00000020: 2460 ad3c f811 69bc 021c dcbc 7492 873b
00000030: 34fc 48bd 8c51 e5bc dda1 fc3b c5c9 0c3d
00000040: 5026 983d 191e 1a3d d7ef f9ba 15c9 3bbd
00000050: 3de4 51bd a9e2 863d 3536 8ebd 2b16 8abd
00000060: 720e 023d abed 8cbb 3759 84bd 3db6 893d
00000070: d747 193c 8869 8ebd aaf9 73bd d18b 8bbd
00000080: e5b6 5abd be5d 84bc 7fce 39bc 013a 7fbd
00000090: 4d73 973d ff14 4e3d 6ec2 443c 8176 e0bc
000000a0: 88bd 9e3d d9de e03c 8f15 24bd 79ec adbc
000000b0: b7ac 973d f0be 8d3c 37c5 d9bc 1eef cc3c
000000c0: d89a 963c 4486 843d d53f 8d3d ffd7 503d
000000d0: e8be 733d 54e4 88bd caa9 243d 7710 993d
000000e0: 1153 0ebc 31c2 5aba c026 3f3d c558 2fbc
000000f0: e6a7 483d 5ec7 123d ca48 47bb 17d1 12bd
00000100: 5d8e 25bd c9b2 2e3d d63f ea3c 6eff 58bd
00000110: fbf7 343b c845 45bd 1ed4 883d 61f0 fcbc
00000120: 4fb7 10bc f1d5 0e3d e5ac a03b 224e 58bd
00000130: cd78 34bd df0b edbc af60 03bd 34ba a33d
00000140: 201f 773d 5b87 71bd 1143 cdbc db56 37bc
00000150: cbf9 4ebd 9bef 413d 1057 953d cfde 743d
00000160: e627 92bd 7789 873d e1df 88bd c076 46bd
00000170: 0912 b33c da73 3a3d 12bb fd3c 816a 9bbb
00000180: 0f8d ed3b 61b3 4c3d d55b 5a3d c512 833d
00000190: eacd e9bc 7dc6 963c b948 8ebd b04c 20bd
000001a0: 4088 33bd 3a94 3bbc e679 813c 3cee 15bd
000001b0: b2af bcbb 3d5b c4bc ebf9 3ebd 57ee ca3c
000001c0: ee92 33bd 2130 27bd a6dd 95bd 6cd5 e8bc
000001d0: e1f1 c1bc 7751 073c 49a1 853d 8f52 6c3d
000001e0: 72cf 91bc 8482 843c f077 533d a40c 84bc
000001f0: d8a2 ddbc a6f5 14bd 629e 393d d389 5a3d
00000200: f01c 3abd 9dd1 5bbd cee5 81bd 779a 923d
00000210: 61b2 24bc beab 8c3d 7e86 ff3c adb1 413d
00000220: 0ea3 f338 9b84 62bd 06d8 f1bc fa92 0d3d
00000230: 5eb4 4c3d 9c03 0d3c 3532 5e3d bf27 5dbd
00000240: 588b 0ebd 8a83 7cbd 98fe 4fbd 6c01 1d3c
00000250: 04b3 38bb 0f48 42bd 5787 0dbd 38e6 283d
00000260: c30c 333c f28b 953c 7aae 003d 78b7 783b
00000270: ca12 2abc ad72 91bd fa86 7e3c 318e 873d
00000280: 6ebb 0c3d 480c 39bd 25bc 9b3d 383e abba
00000290: e354 be3c 2175 89bc 2952 5e3d 763e 9c3d
000002a0: 64c3 85bd 40e4 1fbd 042d 8d3d 4f01 583c
000002b0: 3ae9 8d3d de3b 2e3c b296 89bd 6fcf b03b
000002c0: e2bf f6bc 0088 103d f4ef f43c e1e4 61bd
000002d0: b4f3 94bb c94a 7bbd b6f6 eabc acfc 0dbc
000002e0: 6730 e8bb b576 47bd a7ef 463c cdc7 463b
000002f0: 053b 36bd fda9 f3bc 2f8e 1d3d 7dfb 81bc
00000300: 0377 cdbc 8229 803d 4cfc 9bbd 3777 3e3c
00000310: 6cbc 2ebc 7554 573d 40af 7c3d b549 bb3c
00000320: 8f1e 87bd d98a 36bd 9fe6 063d eb6f bdbb
00000330: 3ded 1e3d ef8e 7b3c d8ef 97bd db3a 85bc
00000340: f6e7 8abd 0fb4 57bc 1e7d 393c 2bf3 dc3b
00000350: 1a1c 8dbd b9db 173d e534 183d abef 143d
00000360: 6269 813c 1969 a73b dc6e acba 5918 6d3d
00000370: 3da2 19bd 98af a2bd cba8 823d b01e d3bc
00000380: 181f 5dbc 2624 6d3d 7b01 513d 3f4c 8e3d
00000390: 393c 383c 5bef 483d ff89 8a3d c94d 88bc
000003a0: 5768 8cbd a194 913d 8a30 7a3d 9a57 31bc
000003b0: 71b3 93bc 380b 5dbd a75b 0a3d e79b 94bd
000003c0: 0743 78bc a394 833d 0574 1a3d 07a1 483d
000003d0: 435c 96bd 1c68 04bc 5885 c93c 64da ca3c
000003e0: 4c42 3fbd 5f97 dabb f0a8 8e3d be58 923d
000003f0: 7341 8ebd 87f4 b63c 831d 24bd abfe 823d

bias f4 [84]
0.056572348 0.05649696 0.04490888 0.07040705 -0.007279054 0.071217485 -0.021893937 0.043899745
-0.0337969 -0.06690111 -0.015503904 0.048709042 0.054939166 -0.0402317 -0.04006741 0.021674426
0.05530859 -0.0012508357 -0.013213643 0.070569694 -0.04330321 0.03014717 0.057906933 0.05109894
0.045419954 -0.03032988 0.0071600266 -0.036413036 -0.023141053 -0.045813654 -0.047798075 -0.065806225
0.064194866 -0.05091015 -0.032668218 -0.068075426 0.011755962 -0.014625839 0.03977793 -0.04966925
0.028773185 0.05523026 -0.068317235 0.061877307 -0.057327274 -0.020959292 0.029854609 -0.023775648
-0.021096434 -0.0718346 0.023647845 -0.048997674 0.044349425 0.044643525 0.05490724 0.051549893
0.061324637 -0.018435383 -0.020959632 -0.004030225 -0.022652991 -0.048923288 -0.0052013644 0.027968982
-0.06607917 0.002939159 -0.06884093 0.03322711 -0.044986535 -0.03217802 -0.035354085 -0.07285505
0.0024081317 0.025386468 0.059718985 -0.03444324 -0.027273888 0.05074017 0.025721077 -0.056970052
-0.060628917 0.076288685 -0.047162678 -0.006806369
00000000: 68b8 673d 5b69 673d 60f2 373d 9231 903d
00000010: 2185 eebb 79da 913d ea5a b3bc 38d0 333d
00000020: 9e6e 0abd 7303 89bd 1604 7ebc 2283 473d
00000030: e407 613d ffc9 24bd b91d 24bd 918e b13c
00000040: 438b 623d 15f3 a3ba 097e 58bc d886 903d
00000050: b55e 31bd 33f7 f63c d22f 6d3d 1f4d 513d
00000060: 460a 3a3d 5e76 f8bc a89e ea3b d625 15bd
00000070: 4e92 bdbc 19a7 3bbd eac7 43bd 6ac5 86bd
00000080: 9978 833d 2987 50bd 1ccf 05bd 216b 8bbd
00000090: 149c 403c 37a1 6fbc 2fee 223d fc71 4bbd
000000a0: beb5 eb3c 2039 623d e8e9 8bbd 0f73 7d3d
000000b0: 01d0 6abd d2b2 abbc a791 f43c 26c5 c2bc
000000c0: 6ed2 acbc 051e 93bd 20b9 c13c c9b1 48bd
000000d0: bea7 353d 21dc 363d 6ae6 603d fb25 533d
000000e0: 8b2f 7b3d cd05 97bc 89b3 abbc fa0f 84bb
000000f0: c492 b9bc c963 48bd 3570 aabb 351f e53c
00000100: 8454 87bd e89e 403b 79fc 8cbd 2619 083d
00000110: cd43 38bd 19cd 03bd 72cf 10bd 0735 95bd
00000120: bfd1 1d3b 48f7 cf3c e59b 743d 5b14 0dbd
00000130: 7d6d dfbc edd4 4f3d 02b5 d23c 6e59 69bd
00000140: 0756 78bd 3e3d 9c3d a72d 41bd f607 dfbb

weight f4 [84, 84]
-0.07828279 0.082045205 -0.07574683 0.030013407 0.039997853 0.0013008602 0.08369535 0.012278261
0.06526906 0.041838735 0.030084921 0.070860475 -0.017582303 0.09829983 0.016206425 0.0487256
-0.031794783 -0.09599433 0.08171546 -0.10701874 0.015199434 0.050718002 -0.004732983 -0.071785286
0.10127128 -0.08021298 0.06687466 -0.07009332 -0.036623906 0.04023095 0.032245018 0.0049056215
-0.026942622 0.10286345 0.049077515 -0.05315047 -0.031150071 0.079831384 -0.06654661 0.045284554
0.08478414 -0.002156279 -0.025926307 0.0885271 -0.09879239 -0.05505482 0.014260059 -0.09437902
-0.014484655 -0.0065272097 -0.007138866 -0.003354619 0.009029274 0.053571463 -0.07171776 0.09586219
-0.031062465 0.06820781 -0.087389834 -0.04436997 -0.10737618 0.056444973 0.0016578581 0.09525763
-0.06697224 -0.105249174 -0.055512197 -0.098691985 0.086409815 -0.023943026 -0.0828606 -0.09591259
-0.08653823 -0.055163454 -0.06474147 0.058791224 -0.038990937 0.016143523 -0.06913829 -0.011298287
0.06830846 -0.010065459 -0.017547248 0.080688745 0.11932551 0.060243137 -0.004832818 -0.029670645
-0.0729329 -0.043926053 0.089240015 0.012914474 0.041860968 -0.019996718 -0.072691895 0.04474848
-0.050581448 -0.02200292 0.01808693 0.09027264 0.10483661 0.038639203 0.0005487257 -0.060234573
-0.02572132 -0.0845892 0.06328041 0.09386322 -0.038314905 -0.009694792 -0.012796416 -0.050436735
-0.091947086 -0.0993068 -0.08519603 -0.057086706 0.09955352 0.029330565 -0.0113791805 0.057871826
-0.01013516 -0.006248064 -0.09917847 -0.0117674945 -0.046323586 0.052322894 -0.07190499 -0.016845781
0.009413155 0.09510315 -0.09690532 0.103153974 0.09045568 -0.011758817 0.061644245 -0.060601156
-0.072029166 0.038678292 0.10284907 -0.019497704 -0.048578195 -0.10993527 0.04908018 0.014305979
-0.02766674 0.09025746 0.022620663 -0.009858616 -0.015437527 0.075413704 0.04746694 0.09873744
0.055181883 0.106184065 -0.09232651 -0.08332823 0.10223738 -0.025779543 0.03209709 0.0145996455
-0.0067672343 0.089162484 0.07694854 -0.061147533 -0.0075898 0.0987108 0.05017904 0.07452149
0.0032756904 0.018159056 -0.07949085 0.003934988 -0.034223273 0.101918764 0.09902971 0.0694077
-0.017111532 -0.006412699 -0.04089791 0.09759537 -0.08501281 0.015214109 0.098106936 -0.011977256
0.075067654 0.05210113 0.0007497816 0.012009332 -0.09348087 0.10095599 -0.107930236 -0.0049046744
-0.098066896 -0.092990674 -0.10549154 -0.02006643 -0.07138543 -0.06958472 -0.10258919 -0.062998846
0.079952665 -0.03115153 -0.040118344 -0.024365664 0.07696663 0.029907955 -0.11010652 -0.028498976
0.006451856 -0.047210597 -0.04447683 -0.05963821 0.07352674 0.017281432 0.020329908 -0.049296234
0.055193763 -0.000589262 -0.07624537 0.06020911 0.052906487 -0.08256997 0.07747827 -0.0041176626
-0.03078823 0.10112499 0.09993949 0.001472117 0.022059085 -0.0492199 -0.07048057 0.016039595
-0.08270863 0.025785338 0.03978392 -0.010198897 -0.043076944 0.07902578 0.005171892 0.03694147
0.034278553 -0.01769662 0.09305824 -0.04944887 0.02180902 0.013207409 -0.07969497 0.028670872
0.029759722 -0.01008996 -0.0067765336 0.058734965 -0.058774076 0.045416046 -0.07273526 0.07372436
00000000: ba52 a0bd 5107 a83d 2721 9bbd adde f53c
00000010: cad4 233d a081 aa3a 7868 ab3d c22a 493c
00000020: c9ab 853d 185f 2b3d a774 f63c 4c1f 913d
00000030: c308 90bc 6c51 c93d 56c3 843c 7f94 473d
00000040: 3f3b 02bd ad98 c4bd 6f5a a73d a42c dbbd
00000050: 0c07 793c aebd 4f3d 2417 9bbb 2a04 93bd
00000060: 5167 cf3d b446 a4bd 95f5 883d 168d 8fbd
00000070: f302 16bd 35c9 243d 5a13 043d 56bf a03b
00000080: c6b6 dcbc 13aa d23d 8105 493d 4fb4 59bd
00000090: 6f2e ffbc a37e a33d 9749 88bd 4c7c 393d
000000a0: 4fa3 ad3d 5c50 0dbb 6863 d4bc b24d b53d
000000b0: aa53 cabd 2a81 61bd 06a3 693c ca49 c1bd
000000c0: 0c51 6dbc 34e2 d5bb 26ed e9bb 2bd9 5bbb
000000d0: 85ef 133c c06d 5b3d c3e0 92bd 6553 c43d
000000e0: b676 febc 89b0 8b3d 71f9 b2bd 49bd 35bd
000000f0: 0be8 dbbd d832 673d 7d4c d93a 6f16 c33d
00000100: be28 89bd e18c d7bd c260 63bd 061f cabd
00000110: a1f7 b03d 2a24 c4bc d1b2 a9bd d26d c4bd
00000120: f53a b1bd 13f3 61bd 2d97 84bd 11cf 703d
00000130: f6b4 1fbd 6c3f 843c 6098 8dbd 731c 39bc
00000140: 4ee5 8b3d 98e9 24bc 3fbf 8fbc 2440 a53d
00000150: ef60 f43d 82c1 763d 9e5c 9ebb da0f f3bc
00000160: d85d 95bd ceeb 33bd 78c3 b63d 3b97 533c
00000170: 6876 2b3d 28d0 a3bc 7ddf 94bd 2f4a 373d
00000180: 7e2e 4fbd 783f b4bc 0b2b 943c dde0 b83d
00000190: 94b4 d63d 2444 1e3d 5cd8 0f3a 87b8 76bd
000001a0: 85b5 d2bc 1a3d adbd 2999 813d 5c3b c03d
000001b0: 17f0 1cbd e8d6 1ebc 0fa8 51bc c096 4ebd
000001c0: c14e bcbd 5d61 cbbd 427b aebd c0d3 69bd
000001d0: b7e2 cb3d a746 f03c be6f 3abc 020b 6d3d
000001e0: f10d 26bc 8fbc ccbb 151e cbbd 73cc 40bc
000001f0: cdbd 3dbd 8850 563d ec42 93bd 2a00 8abc
00000200: a239 1a3c 71c5 c23d 4c76 c6bd 6442 d33d
00000210: d440 b93d 0ea8 40bc ad7e 7c3d eb38 78bd
00000220: 0784 93bd 216d 1e3d 89a2 d23d a6b9 9fbc
00000230: eef9 46bd be25 e1bd 4c08 493d a063 6a3c
00000240: 5ca5 e2bc e7d8 b83d f84e b93c 0886 21bc
00000250: aeed 7cbc 8072 9a3d b26c 423d db36 ca3d
00000260: 6606 623d 0877 d93d ae15 bdbd fea7 aabd
00000270: d561 d13d 9f2f d3bc 3d78 033d 5a33 6f3c
00000280: adbf ddbb d29a b63d 3297 9d3d d675 7abd
00000290: dbb3 f8bb e328 ca3d 8988 4d3d b99e 983d
000002a0: f7ac 563b 4dc2 943c 19cc a2bd 12f1 803b
000002b0: b42d 0cbd c9ba d03d 17d0 ca3d a025 8e3d
000002c0: 7c2d 8cbc 9e21 d2bb 9184 27bd 15e0 c73d
000002d0: 321b aebd 9944 793c 4aec c83d 413c 44bc
000002e0: 12bd 993d ff67 553d fe8c 443a cac2 443c
000002f0: e672 bfbd 04c2 ce3d 870a ddbd 64b7 a0bb
00000300: 4cd7 c8bd e571 bebd f30b d8bd 5b62 a4bc
00000310: 8632 92bd 6f82 8ebd 481a d2bd 8a05 81bd
00000320: 39be a33d 7e31 ffbc 2253 24bd 809a c7bc
00000330: aea0 9d3d 8701 f53c 877f e1bd af76 e9bc
00000340: 176a d33b e65f 41bd 562d 36bd 3247 74bd
00000350: 3095 963d ca91 8d3c e88a a63c d9ea 49bd
00000360: db12 623d b478 1aba 8826 9cbd d49d 763d
00000370: 79b4 583d 721a a9bd edac 9e3d 75ed 86bb
00000380: 9937 fcbc 9e1a cf3d 13ad cc3d 0df4 c03a
00000390: 41b5 b43c ce9a 49bd 1e58 90bd 7865 833c
000003a0: 2463 a9bd c63b d33c 77f4 223d 4619 27bc
000003b0: 7371 30bd 45d8 a13d f978 a93b f04f 173d
000003c0: ab67 0c3d 81f8 90bc 5295 be3d e68a 4abd
000003d0: d4a8 b23c e363 583c 1e37 a3bd 2ddf ea3c
000003e0: a9ca f33c 5c50 25bc af0d debb 1394 703d
000003f0: 16bd 70bd 2d06 3a3d 39f6 94bd ccfc 963d

bias f4 [84]
0.07097051 -0.07331911 -0.07796625 0.03902 0.06231387 -0.08605137 0.05776045 0.0041877073
-0.0194874 -0.061762556 0.027447376 0.0295152 -0.03397244 0.091998406 -0.09034151 -0.08086117
0.07271557 0.037396636 0.0069160755 -0.015058694 -0.017088305 0.06488375 -0.033242486 -0.063934475
0.019248312 0.020411221 0.00015862225 0.07479011 0.023539098 0.01235274 0.0053546894 -0.08299226
0.10339385 0.059556376 0.011371901 -0.07623785 0.050676342 -0.0063581616 -0.0115909185 0.02284015
0.028067647 -0.04788512 0.02886367 0.017546074 0.0902281 -0.017832624 -0.054691445 0.06809655
-0.0927985 -0.022009883 0.010026278 0.03960972 -0.06314227 0.064193845 -0.043486413 0.061749276
-0.012127913 0.015053508 -0.015182084 0.08720701 -0.07346141 0.07805145 0.06911378 0.04113606
-0.08798443 0.048682295 0.09914128 0.026840601 0.083021015 -0.009339701 -0.08270832 -0.039495263
0.028431032 -0.04902388 -0.07727911 0.085421026 0.09288952 0.071947604 -0.0769146 -0.09175835
0.091562256 0.09208811 0.06538841 0.008952293
00000000: fd58 913d 5428 96bd c5ac 9fbd 6fd3 1f3d
00000010: d43c 7f3d b33b b0bd 3996 6c3d 0939 893b
00000020: 0aa4 9fbc bcfa 7cbd 52d9 e03c dcc9 f13c
00000030: af26 0bbd a969 bc3d f804 b9bd 8b9a a5bd
00000040: e7eb 943d 372d 193d 3fa0 e23b beb8 76bc
00000050: c6fc 8bbc c6e1 843d 4629 08bd 14f0 82bd
00000060: a3ae 9d3c 6f35 a73c d653 2639 8f2b 993d
00000070: 11d5 c03c 2663 4a3c 6476 af3b d9f7 a9bd
00000080: 28c0 d33d 63f1 733d 3651 3a3c 9722 9cbd
00000090: ff91 4f3d 2058 d0bb d6e7 3dbc 441b bb3c
000000a0: 1fee e53c 3023 44bd 8173 ec3c c9bc 8f3c
000000b0: 83c9 b83d b915 92bc 2304 60bd 3476 8b3d
000000c0: 240d bebd 124e b4bc 4245 243c cd3d 223d
000000d0: bc50 81bd 1078 833d cf1e 32bd cfec 7c3d
000000e0: 27b4 46bc fda2 763c 47be 78bc 9799 b23d
000000f0: f072 96bd 70d9 9f3d 878b 8d3d 497e 283d
00000100: 2e31 b4bd 1667 473d 950a cb3d d2e0 db3c
00000110: ec06 aa3d 8c05 19bc fb62 a9bd c9c5 21bd
00000120: 32e8 e83c 44cd 48bd 8344 9ebd 38f1 ae3d
00000130: dc3c be3d 4459 933d 6785 9dbd cdeb bbbd
00000140: fe84 bb3d b198 bc3d 5cea 853d a3ac 123c

weight f4 [42, 84]
-0.014683849 -0.07628954 -0.06656412 -0.032317962 0.06197069 -0.037598837 0.09129109 -0.053618576
-0.008143428 -0.061889563 0.0073537338 -0.12921208 0.10051733 -0.0935942 0.007878022 0.106884
-0.03495124 -0.118475616 -0.09944084 -0.08722966 0.032898862 -0.055678908 -0.060727097 -0.09807474
-0.046204343 0.091677636 0.045282293 -0.09333807 -0.07265746 0.076844595 0.09614481 0.087470174
0.039336544 0.04272059 -0.03456721 0.016797312 0.090934075 -0.017238522 -0.023141477 -0.034084365
-0.07682675 -0.0035974183 0.057782635 0.042726558 0.041568507 -0.052245736 0.05830453 0.109119445
0.08096987 0.022085443 0.07034003 -0.0903076 -0.07290021 0.0245945 -0.10349029 -0.012706248
-0.027178507 -0.09269546 0.093310654 -0.0137769785 -0.02971672 0.045199536 0.01310143 0.11575379
-0.08702144 -0.030886795 0.07135811 -0.007572257 -0.038011283 -0.05628223 0.08615406 -0.069089904
0.08840607 -0.029710181 0.025138805 -0.06000109 0.02072814 0.021568188 -0.05279285 0.0008350293
0.0071000303 -0.08289533 0.03141096 -0.04980787 0.005721089 0.038218796 -0.06935598 0.02495058
0.022547185 -0.08085961 0.006614381 0.049742468 -0.049331207 0.015587799 -0.09368185 0.045784045
-0.00926056 0.042943053 0.019659653 -0.07993859 0.04859123 0.030633429 -0.043106586 0.08067082
0.08685002 0.11077282 -0.0777212 0.011174273 0.066785805 -0.019481622 0.001329585 0.09419804
-0.09852267 -0.11108729 -0.096552774 -0.10768185 0.022680277 -0.075600654 -0.06471798 -0.072859116
0.056640543 -0.016188761 -0.08127657 0.09851452 0.046622004 -0.0385586 -0.07791772 0.0076411213
-0.032325506 0.014765389 0.08298827 0.020408597 -0.06882837 0.08391565 0.010349418 -0.090826415
-0.05961115 0.020522367 -0.10123924 0.024418695 -0.06626739 -0.013413965 -0.021625254 0.038365293
-0.008778245 -0.09395525 -0.090158165 -0.027365774 0.041401733 0.03835877 0.010815698 -0.114397906
0.07296893 -0.052139208 0.064788766 0.024407826 0.10452773 -0.0035499644 -0.009031953 -0.11095303
0.011481974 -0.07575135 0.04899236 -0.076978266 -0.02798098 -0.0034639938 0.015174319 -0.08779091
-0.066943765 0.0972462 0.07727395 0.084550545 -0.02899519 0.04530786 -0.07348315 0.09761995
0.057762723 -0.091267504 -0.039025918 -0.048242338 0.026533624 -0.08304064 0.055401742 -0.0920657
0.0431093 -0.004915693 0.08025769 0.079857774 0.088749275 0.077012084 0.07560039 -0.013190377
-0.009604085 0.0985628 0.07026924 0.07692744 -0.06357591 -0.027471077 0.05561757 -0.044592965
0.07423686 -0.07048841 -0.06112232 -0.08277706 -0.075947106 0.041048717 -0.02064616 -0.030026788
-0.065147325 -0.003027267 -0.034339063 -0.030750567 0.014022105 -0.012270752 0.01689219 0.044449456
-0.11865216 -0.09438847 0.083965585 -0.015775576 -0.076711714 0.009862421 0.0002041368 -0.07075917
-0.09042062 -0.068534195 0.11513959 -0.03751675 0.069776215 -0.04076744 -0.01289341 0.08280254
0.040382076 0.009529971 -0.110775344 0.11156468 -0.02932672 0.029174138 0.034978334 0.0027549944
-0.019546278 0.10097829 -0.036265288 0.10816623 0.049432587 0.0649688 -0.060961414 -0.09956259
0.058879238 0.0076010735 0.05364144 0.005170096 0.003931815 0.05381701 0.06293238 -0.041423846
00000000: 8794 70bc b13d 9cbd c552 88bd d75f 04bd
00000010: fad4 7d3d 3d01 1abd d3f6 ba3d 279f 5bbd
00000020: 036c 05bc e97f 7dbd 97f7 f03b 2c50 04be
00000030: 08dc cd3d 51ae bfbd d212 013c 00e6 da3d
00000040: 0829 0fbd 58a3 f2bd a4a7 cbbd 77a5 b2bd
00000050: f5c0 063d 910f 64bd fabc 78bd 69db c8bd
00000060: c440 3dbd 7cc1 bb3d ed79 393d 0828 bfbd
00000070: 6fcd 94bd b360 9d3d 92e7 c43d 9023 b33d
00000080: 5b1f 213d c9fb 2e3d 5996 0dbd 849a 893c
00000090: a53b ba3d cd37 8dbc 3293 bdbc 0c9c 0bbd
000000a0: 5857 9dbd aac2 6bbb 7cad 6c3d 0b02 2f3d
000000b0: bd43 2a3d a0ff 55bd bbd0 6e3d 047a df3d
000000c0: 88d3 a53d 88ec b43c 6f0e 903d 31f3 b8bd
000000d0: b54c 95bd 687a c93c b8f2 d3bd de2d 50bc
000000e0: 76a5 debc 1ed7 bdbd a819 bf3d d6b8 61bc
000000f0: 7b70 f3bc 2623 393d 61a7 563c 5310 ed3d
00000100: 4c38 b2bd 4e06 fdbc 3324 923d b220 f8bb
00000110: b8b1 1bbd 3288 66bd 8a71 b03d 027f 8dbd
00000120: 3e0e b53d c462 f3bc e5ef cd3c b4c3 75bd
00000130: 0fce a93c c5af b03c 513d 58bd dee5 5a3a
00000140: 5fa7 e83b 07c5 a9bd c7a8 003d 5603 4cbd
00000150: f977 bb3b 508b 1c3d 820a 8ebd 2965 cc3c
00000160: e0b4 b83c b999 a5bd 73bd d83b c2be 4b3d
00000170: 850f 4abd f863 7f3c 45dc bfbd 0d88 3b3d
00000180: 9bb9 17bc 0ee5 2f3d 480d a13c d8b6 a3bd
00000190: 9907 473d f5f2 fa3c 8890 30bd be36 a53d
000001a0: 6cde b13d dcdc e23d 4b2c 9fbd 4c14 373c
000001b0: ffc6 883d ec97 9fbc 7845 ae3a e7ea c03d
000001c0: 41c6 c9bd bc81 e3bd 76bd c5bd 4d88 dcbd
000001d0: fdcb b93c 84d4 9abd dc8a 84bd 2937 95bd
000001e0: eaff 673d 4b9e 84bc 5574 a6bd fbc1 c93d
000001f0: b7f6 3e3d 9fef 1dbd 5393 9fbd 5f62 fa3b
00000200: c067 04bd 88ea 713c c1f5 a93d ee2f a73c
00000210: e3f5 8cbd f8db ab3d 9b90 293c 3303 babd
00000220: d22a 74bd 861e a83c 8556 cfbd b709 c83c
00000230: 33b7 87bd 3fc6 5bbc 7227 b1bc ed24 1d3d
00000240: a1d2 0fbc 9c6b c0bd d8a4 b8bd 302e e0bc
00000250: dd94 293d 161e 1d3d 5334 313c 7349 eabd
00000260: bc70 953d ec8f 55bd f9af 843d ecf2 c73c
00000270: a212 d63d 85a6 68bb c2fa 13bc 583b e3bd
00000280: e41e 3c3c 8623 9bbd 36ac 483d c8a6 9dbd
00000290: 5e38 e5bc 2c04 63bb b59d 783c b8cb b3bd
000002a0: d019 89bd 0429 c73d ce41 9e3d d628 ad3d
000002b0: 5287 edbc bc94 393d 557e 96bd f8ec c73d
000002c0: 9b98 6c3d 75ea babd a4d9 1fbd c299 45bd
000002d0: 0b5d d93c 3611 aabd f0ec 623d f18c bcbd
000002e0: 6193 303d d213 a1bb 255e a43d 798c a33d
000002f0: 2ec2 b53d 83b8 9d3d 61d4 9a3d 731c 58bc
00000300: 745a 1dbc 4bdb c93d 52e9 8f3d 228c 9d3d
00000310: 1634 82bd 060b e1bc 40cf 633d 1da7 36bd
00000320: 7f09 983d 3a5c 90bd 665b 7abd 0587 a9bd
00000330: 288a 9bbd b322 283d 2322 a9bc bdfa f5bc
00000340: f66b 85bd 1d65 46bb 1ea7 0cbd 9de8 fbbc
00000350: f9bc 653c 440b 49bc 7d61 8a3c a210 363d
00000360: e7ff f2bd be4e c1bd 26f6 ab3d c83b 81bc
00000370: 081b 9dbd fe95 213c 8e0d 5639 2fea 90bd
00000380: 722e b9bd a85b 8cbd 4ece eb3d 2aab 19bd
00000390: d5e6 8e3d c2fb 26bd e23e 53bc 6194 a93d
000003a0: ad67 253d 9823 1c3c 2fde e2bd 067c e43d
000003b0: 973e f0bc 9afe ee3c 7145 0f3d 238d 343b
000003c0: 841f a0bc b5cd ce3d e98a 14bd 4286 dd3d
000003d0: d379 4a3d 5d0e 853d adb2 79bd 79e7 cbbd
000003e0: 5b2b 713d 6d12 f93b 20b7 5b3d e969 a93b
000003f0: 74d6 803b 3a6f 5c3d b1e2 803d 0dac 29bd

bias f4 [42]
-0.070322186 0.08774219 -0.098183244 0.09913462 0.02566263 -0.045654424 0.097303666 0.05072824
0.058148254 0.006033707 -0.06798524 0.060675118 0.007725143 -0.10505205 0.010112757 0.06932563
0.06273349 -0.011037599 -0.019458747 0.0051085833 -0.032366987 0.052833833 0.072276846 -0.030872185
-0.022732226 -0.08036827 -0.058934003 -0.08309081 0.010003432 -0.072824165 0.069423236 0.013746325
0.041258343 0.047806278 -0.10417051 -0.044087056 0.037497725 0.02176936 0.00786474 -0.10043086
-0.093239725 -0.09694003
00000000: 1405 90bd 2db2 b33d 4c14 c9bd 1707 cb3d
00000010: 703a d23c 2200 3bbd 2547 c73d 6ac8 4f3d
00000020: dd2c 6e3d 67b6 c53b d83b 8bbd 7986 783d
00000030: 3223 fd3b 8725 d7bd faaf 253c 99fa 8d3d
00000040: 6a7a 803d 0cd7 34bc f367 9fbc e765 a73b
00000050: 3f93 04bd 4a68 583d e205 943d aae7 fcbc
00000060: ef38 babc 1f98 a4bd c864 71bd 842b aabd
00000070: 6fe5 233c d624 95bd c52d 8e3d 4438 613c
00000080: 82fe 283d 84d0 433d 5957 d5bd a194 34bd
00000090: 3797 193d a855 b23c 1cdb 003c b2ae cdbd
000000a0: 78f4 bebd 7f88 c6bd

weight f4 [1, 42]
-0.043949928 0.036860522 -0.0767737 0.027376235 0.08330783 -0.070451744 0.14223932 0.10075242
-0.03969213 -0.051091716 0.08661855 0.121503 0.06572256 0.046938844 -0.0018419567 -0.048472084
-0.05458178 -0.047411185 -0.09053911 0.037822258 -0.019903487 0.055021245 0.06650924 0.0077083353
0.04124812 -0.12827829 -0.10867029 -0.11240215 0.09771661 -0.03491887 0.13951062 0.09440638
0.061456673 0.04154834 0.038426273 -0.03177467 0.11799097 0.08868265 -0.08132461 -0.015762554
-0.08942278 0.02524777
00000000: d704 34bd 0ffb 163d 883b 9dbd 2044 e03c
00000010: 4c9d aa3d 0149 90bd 2fa7 113e 4957 ce3d
00000020: 3794 22bd 8c45 51bd 1165 b13d 91d6 f83d
00000030: 8d99 863d f242 403d d06d f1ba aa8a 46bd
00000040: 2591 5fbd 3b32 42bd 926c b9bd 83eb 1a3d
00000050: a30c a3bc f55d 613d ff35 883d 3496 fc3b
00000060: caf3 283d 625b 03be 878e debd 1933 e6bd
00000070: a51f c83d 1707 0fbd dfdb 0e3e 2258 c13d
00000080: feb9 7b3d 982e 2a3d de64 1d3d 2826 02bd
00000090: 40a5 f13d 409f b53d 848d a6bd 7920 81bc
000000a0: 4a23 b7bd 69d4 ce3c
