ModelUnpredictability/one_thousand_brains/predictor_151.model (torch_old, 109395 bytes, 7 tensors)

weight f4 [84, 168]
0	0xbd235738	-0.0398781
1	0xbd8b71c7	-0.06808811
2	0xbd287b66	-0.041133307
3	0x3d904587	0.07044511
4	0xb9fab2f3	-0.00047817043
5	0xbca17659	-0.019709753
6	0xbbeb67c1	-0.0071839993
7	0x3c734e1b	0.014850165
8	0x3d1cb7de	0.038261287
9	0x3d98b4c4	0.07456353
10	0x3b22c0da	0.0024834187
11	0xbb6439c5	-0.0034824472
12	0xbd217c34	-0.03942509
13	0xbd5e8492	-0.054325648
14	0x3cef039e	0.02917653
15	0x3d30ef44	0.04319693
16	0x3d83b82d	0.06431613
17	0xbd18e36d	-0.037326265
18	0xbd05a9ae	-0.032632522
19	0xbd24f7e4	-0.04027547
20	0xbb8d5a44	-0.004313739
21	0xbd816cf5	-0.0631961
22	0x3d491510	0.049092352
23	0xbd195e74	-0.037443593
24	0x3c2e79d1	0.0106491605
25	0x3d7be51f	0.061497804
26	0x3d0b2c79	0.03397796
27	0xbd0c168b	-0.034201186
28	0x3ca2bd2b	0.019865593
29	0xbd74eddf	-0.059797164
30	0xbcd9fd52	-0.02661005
31	0xbd04a8c3	-0.032387506
32	0x3ca6b82c	0.020351492
33	0xbd5d36b5	-0.05400725
34	0xbb38d08d	-0.0028200478
35	0xb92e312e	-0.00016612254
36	0x3da8c152	0.08239998
37	0xbd2ece18	-0.042677015
38	0x3cd0da80	0.025494814
39	0xbd8b9789	-0.068160124
40	0xbc9f8368	-0.01947184
41	0xbd7e4fd0	-0.062087834
42	0x3bc1675a	0.005902213
43	0x3c30eba6	0.01079837
44	0xbd45f9a6	-0.048333786
45	0xbd1ad098	-0.037796587
46	0xbd8baad1	-0.0681969
47	0x3d0d3821	0.034477357
48	0xbc515e6a	-0.012778858
49	0xbd625049	-0.055252347
50	0x3c8c5a70	0.017132968
51	0xbc926cf3	-0.017874217
52	0xbd5f1ee4	-0.05447282
53	0xbd67519c	-0.056474313
54	0x3d0dd6d3	0.0346287
55	0x3b898890	0.0041971877
56	0xbd72fd67	-0.059323695
57	0xbab10902	-0.0013506713
58	0xbd5a787c	-0.05333756
59	0x3cb57f69	0.02215548
60	0xbd71d09b	-0.059036832
61	0xbd5ef38e	-0.05443149
62	0x3d650389	0.055911575
63	0x3d929813	0.07157912
64	0xbd8bbc2d	-0.06823001
65	0xbd816610	-0.06318295
66	0x3da9f86f	0.08299338
67	0x3d661d01	0.056180004
68	0xbaec2943	-0.0018017668
69	0x3d0fa713	0.035071444
70	0x3c09269e	0.008371023
71	0xbd86fc58	-0.065910995
72	0xbc103285	-0.008801107
73	0xbd892342	-0.06696178
74	0x3d25e55d	0.04050194
75	0xbd8a1820	-0.06742883
76	0x3d687346	0.05675056
77	0xbd0654db	-0.03279577
78	0xbacf145f	-0.0015798918
79	0xbbbe14f2	-0.0058008367
80	0x3d5d282e	0.053993396
81	0x3cfb7f12	0.03070024
82	0x3ba90ea3	0.0051592155
83	0xbb163b45	-0.002292351
84	0xbcb8ff23	-0.022582596
85	0x3d17c495	0.03705271
86	0xbcdc3134	-0.02687893
87	0xbc9f4b6c	-0.019445144
88	0x3d37c4b9	0.044865344
89	0xbd843f3f	-0.06457376
90	0xbcb5d2db	-0.02219527
91	0x3da4b263	0.08041837
92	0x3cdaaec3	0.026694661
93	0x3d226f27	0.039656784
94	0xbccfa5cd	-0.025347615
95	0x3d4a5ee2	0.049406894
96	0x3d95e080	0.073182106
97	0xbd073041	-0.033005003
98	0x3d878a43	0.06618168
99	0xbd916194	-0.0709869
100	0xbd6241cc	-0.05523853
101	0xbd407e44	-0.046995416
102	0xbd07b5f7	-0.03313252
103	0x3c4ffe72	0.012694942
104	0xbd86de50	-0.065853715
105	0xbd4ab765	-0.049491305
106	0x3c81d404	0.015848167
107	0xbd0a7ff6	-0.03381344
108	0x3c1bf395	0.009518524
109	0xbd24c546	-0.040227197
110	0x3d519463	0.051166903
111	0x3c479350	0.012181118
112	0xbd366e46	-0.04453876
113	0x3d434a53	0.047678303
114	0x3cebfc60	0.028806865
115	0x3b3500c4	0.0027618865
116	0x3d88e68a	0.06684597
117	0xbc813a77	-0.015774949
118	0x3d0d379e	0.03447687
119	0x3cb48454	0.022035755
120	0xbd54c015	-0.051940996
121	0xbcac9259	-0.021065878
122	0x3dad342b	0.08457216
123	0xbc934f5e	-0.017982181
124	0xbb17f0c6	-0.0023184284
125	0xbd84120f	-0.06448757
126	0x3d9d86d6	0.076917335
127	0x3cdf47cf	0.02725592
128	0x3c5b159e	0.013371853
129	0x3d70d898	0.05880031
130	0xbb9aa9c9	-0.004719947
131	0xbd1dbbb4	-0.038509086
132	0x3d364598	0.044499964
133	0x3d496a74	0.049173787
134	0x3da1898d	0.07887564
135	0x3d23cfa6	0.03999295
136	0xbc8990a7	-0.016792608
137	0xbda120ab	-0.07867559
138	0xbc8312b1	-0.016000124
139	0x3d6eb064	0.058273688
140	0x3d20a63c	0.039221033
141	0xbd8b98b2	-0.06816234
142	0x3d064a70	0.032785833
143	0x3d4a49b8	0.04938671
144	0x3c8ea281	0.017411472
145	0x3c40f0dd	0.011776176
146	0x3b117eac	0.0022200746
147	0x3d210691	0.039312903
148	0xbd44c036	-0.04803487
149	0x3c75efbc	0.01501077
150	0x3d62e0e4	0.055390254
151	0xbd289e66	-0.041166686
152	0xbcb1bed9	-0.021697449
153	0xbd18e31a	-0.037325956
154	0x3bf9691b	0.0076114065
155	0xbd373671	-0.044729654
156	0xbc46361c	-0.012097862
157	0x3cb36dfa	0.021903027
158	0xbc203770	-0.009778842
159	0x3b59117d	0.0033121996
160	0xbd7e8149	-0.062135015
161	0xbd7e15a4	-0.062032357
162	0xbd78b0a3	-0.06071533
163	0xbcf2bc17	-0.029630704
164	0xbd48289f	-0.048866864
165	0x3d90665e	0.07050775
166	0xbd8673b1	-0.06565035
167	0xbbb5412f	-0.005531452
168	0xbd97e59c	-0.074168414
169	0x3cc160dc	0.023605756
170	0xbc27adeb	-0.010234336
171	0xbcf3dea8	-0.029769257
172	0x3cdad46e	0.026712622
173	0xbc62c89f	-0.013841777
174	0x3cdb3cb0	0.026762336
175	0xbda51dd9	-0.080623336
176	0x3cb753fd	0.022378916
177	0x3ce627c0	0.028095126
178	0xbd95dc95	-0.07317463
179	0x3bd78ab5	0.0065778145
180	0x3c90e5b6	0.01768766
181	0x3c8e6522	0.017382208
182	0x3d7fc530	0.062443912
183	0x3cdc7c04	0.026914604
184	0xbd96b192	-0.073580876
185	0x3d8952b7	0.0670523
186	0x3d902efc	0.070402116
187	0xbda6bfd0	-0.08142054
188	0x3bc3448e	0.0059591
189	0x3cb75c23	0.022382801
190	0xbbd2e956	-0.006436507
191	0x3d137418	0.035999388
192	0x3cae7686	0.02129675
193	0xbd80f469	-0.062966175
194	0xbc5ebdd6	-0.013595065
195	0xbce3f281	-0.027825596
196	0xbc2744e7	-0.010209299
197	0x3d1bc117	0.03802594
198	0xbc0f68a7	-0.008752978
199	0xbc365435	-0.011128475
200	0xbc41e27e	-0.011833785
201	0xbd67d3cf	-0.05659848
202	0x3d124436	0.035709582
203	0xbc8611e3	-0.01636595
204	0x3c2e58a5	0.010641252
205	0x3bdb6ffd	0.0066966997
206	0xbda55831	-0.08073462
207	0x3bdc7cd9	0.00672875
208	0xbd2adc0d	-0.041713763
209	0x3c98d1f1	0.018654795
210	0xbd9479af	-0.07249772
211	0x3d82f5c5	0.06394533
212	0x3d2b7509	0.04185966
213	0xbd01cc94	-0.03168924
214	0x3b06fbff	0.0020596979
215	0xbc47f935	-0.012205412
216	0xbd9ee6d2	-0.07758869
217	0xbd62e04b	-0.055389684
218	0xbd3d9f7e	-0.04629468
219	0xbd9f6a6e	-0.07783972
220	0x3d12dada	0.035853244
221	0xbd2be239	-0.04196379
222	0x3d00e325	0.031466622
223	0x3d00a185	0.031404037
224	0x3d4218eb	0.047387045
225	0xbd6dda81	-0.05806971
226	0x3d4cd65f	0.050009128
227	0xbd58e1ba	-0.052949645
228	0x3d7ae1bc	0.061250433
229	0x3cbb2df3	0.022849059
230	0x3cbf8dc6	0.023383033
231	0xbd76bbe6	-0.060237788
232	0x3d802236	0.06256525
233	0xbd799843	-0.060936224
234	0x3d696c38	0.05698797
235	0x3d3e2e64	0.04643096
236	0xbcc991e4	-0.024605699
237	0xbda9b74f	-0.082869165
238	0xbd16826e	-0.03674548
239	0x3d4966b2	0.049170204
240	0x3c890691	0.016726764
241	0xbd76e64b	-0.06027822
242	0xbbc98594	-0.006149957
243	0x3d4204dd	0.04736792
244	0x3b17e5ac	0.0023177667
245	0x3d8421ce	0.0645176
246	0x3d422626	0.047399662
247	0x3cd66008	0.026168838
248	0x3d133142	0.035935648
249	0x3b60c98f	0.0034299826
250	0xbba08454	-0.0048985872
251	0x3c83104a	0.015998978
252	0x3d748859	0.059700344
253	0x3d87c4f3	0.06629362
254	0xbd3a5501	-0.045491222
255	0xbd93ee8a	-0.07223232

bias f4 [84]
0	0x3d1697a3	0.036765706
1	0xbb9af7e9	-0.00472926
2	0xbd4eeac6	-0.050516866
3	0x3c40d8ee	0.01177047
4	0x3d45b3f1	0.04826731
5	0xbcbb3e23	-0.022856778
6	0xbd5560cf	-0.052094277
7	0xbd91c164	-0.071169645
8	0x3d0a68b7	0.03379127
9	0x3c843e77	0.016143067
10	0xbc23c2ab	-0.009995143
11	0x3cf23705	0.029567251
12	0xbc4bec5b	-0.012446488
13	0x3d5f0550	0.054448426
14	0xbd25232c	-0.040316746
15	0x3d734799	0.059394453
16	0xbd4b982e	-0.049705677
17	0xba5768e3	-0.00082172285
18	0xbd95a9f1	-0.073078044
19	0x3cf6adef	0.030112235
20	0xbd0d7c0a	-0.03454212
21	0x3cb5e457	0.022203607
22	0x3d139d10	0.03603846
23	0xbbf8c10c	-0.0075913724
24	0x3d415dc7	0.047208574
25	0x3d4ab6e1	0.049490813
26	0xbd1eb77b	-0.0387492
27	0x3d876a84	0.06612113
28	0x3c525629	0.012837925
29	0x3d9674a6	0.07346468
30	0xbd23f0c2	-0.040024526
31	0xbd2238fa	-0.03960512
32	0x3bf614d4	0.007509807
33	0x3d181cc6	0.037136815
34	0x3d51c355	0.051211674
35	0xbc8e9933	-0.017407035
36	0xbd404a1a	-0.04694567
37	0xbd8a8565	-0.06763724
38	0x3cc32c18	0.023824736
39	0x3d894b69	0.067038365
40	0x3d4e620a	0.050386466
41	0xbcad1a98	-0.021130845
42	0xbcb9c4c2	-0.02267683
43	0x3cd199d4	0.025586046
44	0x3cb6693a	0.022266973
45	0xbd6f430b	-0.058413547
46	0xbd6112a6	-0.054949425
47	0x3d619f79	0.055083726
48	0xbd9345e8	-0.07191068
49	0xbd07bbd6	-0.03313812
50	0x3d28dc15	0.04122551
51	0x3d897ecf	0.0671364
52	0x3d12f521	0.035878304
53	0xbcfa5039	-0.030555831
54	0xbd17dc45	-0.0370753
55	0x3d800afb	0.06252094
56	0xbc121510	-0.0089161545
57	0xbcaa0057	-0.020752115
58	0xbd0bddb1	-0.03414697
59	0xbd8d129c	-0.06888315
60	0xbc9d31df	-0.01918882
61	0xbcf583db	-0.0299701
62	0xbc7ec4ab	-0.015549819
63	0x3b62d1d8	0.003460994
64	0x3a2ff024	0.0006711504
65	0x3d92bfef	0.07165515
66	0xbd1d831d	-0.038455117
67	0x3cfda697	0.030963225
68	0x3c105cb9	0.008811169
69	0xbbfb22e3	-0.007664071
70	0x3d766fec	0.06016533
71	0xbd921d54	-0.071345
72	0x3d5da5d6	0.05411323
73	0x3d622289	0.055208717
74	0xbd1d39cc	-0.038385198
75	0x3d98ea99	0.07466621
76	0x3a76d9e5	0.0009416624
77	0x3d82b1aa	0.06381543
78	0x3c449322	0.01199797
79	0x3d570a6d	0.052500177
80	0xbc1c981d	-0.009557751
81	0xbd90eb2d	-0.07076106
82	0xbc888714	-0.016665973
83	0xbce7deba	-0.028304446

weight f4 [84, 84]
0	0x3dcc28a7	0.09968691
1	0xbc29594e	-0.010336233
2	0x3d2fa412	0.04288108
3	0x3d804061	0.06262279
4	0x3d813c67	0.06310349
5	0x3c924015	0.017852822
6	0x3d6d195a	0.057885505
7	0xbd4e8178	-0.05041644
8	0xbd7b80c1	-0.061402086
9	0xbd8d0085	-0.06884865
10	0x3cc96048	0.024582043
11	0xbc5d1bb9	-0.013495379
12	0x3d7e9794	0.062156275
13	0xbd2d6007	-0.042327907
14	0xbd070db8	-0.032972068
15	0x3b95ddf1	0.0045735766
16	0x3d95313d	0.07284782
17	0xbddb3ee1	-0.107053526
18	0xbdceb718	-0.10093516
19	0x3caa5677	0.020793183
20	0x3d076a21	0.033060197
21	0x3cc037d6	0.023464125
22	0xbd99ac8c	-0.07503614
23	0xbd9a8aad	-0.075459816
24	0x3b92e072	0.0044823224
25	0xbca3c55a	-0.019991565
26	0x3d8bd4ee	0.068277225
27	0x3d15b32d	0.03654783
28	0x3d7153c3	0.058917772
29	0xbcb9eb1f	-0.022695122
30	0xbd813dc4	-0.06310609
31	0xbd61abe5	-0.055095572
32	0xbdb8b4aa	-0.09018834
33	0xbd8bbd95	-0.06823269
34	0x3dac2e66	0.08407287
35	0x3ce9ef17	0.02855639
36	0xbd3e1a94	-0.046412066
37	0xbd00caf6	-0.03144356
38	0x3d3daaca	0.046305455
39	0xbd3f883b	-0.04676078
40	0x3d70cddd	0.058790077
41	0x3d878a32	0.066181555
42	0x3d9c2cde	0.07625745
43	0x3db46805	0.08808903
44	0x3d3d5a4f	0.046228703
45	0xbc82a465	-0.01594753
46	0xbba1d66c	-0.004938891
47	0x3dbd0e54	0.092312485
48	0xbb8ff071	-0.0043926765
49	0x3cbd8f32	0.02313957
50	0x3c8d7f2d	0.017272556
51	0xbc3dac73	-0.01157676
52	0x3dbf53ff	0.09342193
53	0xbcedd9f0	-0.029034585
54	0xbd9a297a	-0.07527442
55	0xbd28790b	-0.04113106
56	0xbd153b22	-0.036433347
57	0xbd594474	-0.053043798
58	0xbd0c81dd	-0.034303535
59	0x3d091055	0.03346284
60	0xbdbd3dd7	-0.09240311
61	0xbca444b3	-0.02005229
62	0x3dd76ca3	0.10518768
63	0xbd8bf090	-0.06832993
64	0x3dd28952	0.10280098
65	0x3ce36ed3	0.027762806
66	0xbd05f409	-0.032703433
67	0xbd8b9738	-0.06815952
68	0xbd2130ec	-0.039353296
69	0x3d764fea	0.060134806
70	0xbcc5e2eb	-0.024156054
71	0x3dc4e961	0.09614826
72	0x3d4e76a7	0.050406124
73	0x3db0be51	0.0863005
74	0xbdc63fcc	-0.09680137
75	0x3d64dfd8	0.055877537
76	0xbcaa0175	-0.020752648
77	0x3d645adb	0.05575071
78	0xbb83e0e6	-0.0040246127
79	0x3d63b90e	0.055596404
80	0x3d8f186b	0.06987079
81	0x3d5667c6	0.05234506
82	0x3d256b98	0.040385813
83	0x3c765f85	0.015037422
84	0x3d6aaa2a	0.057291187
85	0xbd4e4bd4	-0.050365284
86	0x3d6faab0	0.05851239
87	0x3a5f1ce3	0.00085110794
88	0xbd07b49f	-0.033131238
89	0xbd9c7ecb	-0.07641371
90	0x3d7e20e5	0.06204309
91	0x3bd2f348	0.006437693
92	0xbd74f371	-0.059802476
93	0xbd3ad600	-0.045614243
94	0xbc4f70de	-0.012661187
95	0xbb33fe79	-0.002746491
96	0xbd852d20	-0.065027475
97	0xbcd0c3c0	-0.025483966
98	0xbd4c2f59	-0.04984984
99	0xbd0fddd8	-0.035123676
100	0x3d9e3641	0.07725192
101	0x3b9de572	0.004818612
102	0x3dab9656	0.08378284
103	0x3d5abb33	0.053401183
104	0xbd7c7252	-0.06163246
105	0x3aaf17ba	0.0013358511
106	0xbd88d973	-0.066821
107	0xbdb2142a	-0.08695252
108	0x3dc27fad	0.094970085
109	0xbde589c5	-0.11207918
110	0xbdbafe8e	-0.09130584
111	0x3d5d8a79	0.054087136
112	0xbd5762ec	-0.052584574
113	0x3dcbcd2d	0.099512435
114	0x3d9aec1a	0.07564564
115	0xbd01dc0c	-0.031703994
116	0x3d4ec9a4	0.05048527
117	0x3d184564	0.03717555
118	0x3a6e91e2	0.0009100718
119	0x3d9fe137	0.07806628
120	0x3bbfcc3e	0.005853205
121	0x3ca724ac	0.020403229
122	0xbd18ea0b	-0.037332576
123	0xbd81a632	-0.06330527
124	0xbd0fcdf9	-0.03510854
125	0xbd9523fb	-0.07282253
126	0xbd27e3bc	-0.04098867
127	0x3c7f87cb	0.01559634
128	0x3d721f9e	0.059112184
129	0xbd50acab	-0.05094592
130	0xbcdd14f7	-0.026987536
131	0x3dd5892c	0.10426554
132	0x3d477f40	0.04870534
133	0x3d95508a	0.07290752
134	0x3da890ba	0.082307294
135	0x3c3ce608	0.011529453
136	0xbd8f6a7c	-0.07002732
137	0xbd4264d8	-0.047459453
138	0xbda01471	-0.07816399
139	0x3db7aaec	0.08968148
140	0x3d28427c	0.04107903
141	0x3dbb4695	0.09144322
142	0x3d30711e	0.043076627
143	0x3bd39ffd	0.006458281
144	0x3d3ab359	0.045581196
145	0x3d98e5d5	0.07465712
146	0x3aea4ad8	0.0017875088
147	0x3db01d8f	0.08599388
148	0x3d21eb41	0.039530996
149	0xbd1e3ded	-0.038633276
150	0x3d128b7a	0.035777546
151	0x3cd91ddc	0.026503496
152	0x3b6417d1	0.0034804235
153	0xbdf36edd	-0.1188638
154	0x3c816de5	0.015799472
155	0x3dbfa18f	0.09356987
156	0xbdbf7ec1	-0.09350348
157	0xbd8c155a	-0.0684001
158	0xbda26b77	-0.079306535
159	0x3d9f1b59	0.07768888
160	0x3cacbe56	0.021086853
161	0xbd1ce003	-0.03829957
162	0x3d654e99	0.05598316
163	0x3dccc931	0.09999312
164	0x3c9e4642	0.01932061
165	0xbd1e1402	-0.0385933
166	0x3da6c32e	0.08142696
167	0xbcf8481e	-0.030307826
168	0x3d8bc70b	0.06825074
169	0x3d6c26fc	0.057654366
170	0x3ca1ecb7	0.019766195
171	0x3d0dbba1	0.034602765
172	0xbd70cbe3	-0.05878819
173	0x3d44bbd6	0.048030697
174	0x3d6812a1	0.05665839
175	0xbd0eaefc	-0.034834847
176	0xbdbab124	-0.09115818
177	0xbaf10434	-0.0018388093
178	0xbd50f522	-0.051015027
179	0x3d72212a	0.05911366
180	0xbd737ff9	-0.059448216
181	0xbd9efc27	-0.07762938
182	0xbcaa8160	-0.020813644
183	0x3d1ae767	0.03781834
184	0xbdae020d	-0.08496485
185	0x3d146273	0.0362267
186	0x3dbaf69e	0.0912907
187	0xbc8c9367	-0.01716013
188	0x3dc8e6d3	0.09809651
189	0x3da1084f	0.07862913
190	0xbc31facf	-0.01086302
191	0xbdd45770	-0.1036824
192	0x3c4b3e0a	0.012404928
193	0xbdb4a20c	-0.088199705
194	0x3d32d956	0.0436643
195	0x3d4b322e	0.049608402
196	0x3b784906	0.0037885322
197	0x3c70a8fc	0.0146887265
198	0x3d7ed4db	0.062214714
199	0x3d370716	0.044684492
200	0xbd23d0de	-0.039994113
201	0x3c38e1f8	0.011284344
202	0x3d3419ec	0.043970034
203	0x3db5232a	0.08844598
204	0x3cef2486	0.02919222
205	0x3be23736	0.0069035543
206	0x3d9b92fe	0.07596396
207	0xbdc74edf	-0.0973184
208	0xbd992d5f	-0.07479357
209	0xbd9fffd9	-0.07812471
210	0x3d0360d7	0.032074776
211	0x3d11e4be	0.035618536
212	0xbd51828f	-0.0511499
213	0x3d5c7d95	0.0538307
214	0x3dab0d38	0.08352131
215	0x3c532a67	0.0128885275
216	0xbda766cd	-0.081739046
217	0xbda96b1f	-0.08272385
218	0x3d36fc51	0.04467422
219	0xbd9ef225	-0.07761029
220	0x3dbac628	0.091198266
221	0xbd3fbc56	-0.04681047
222	0x3d2036a5	0.039114613
223	0xbcf67655	-0.030085722
224	0x3d216f74	0.03941293
225	0xbc709ea3	-0.014686259
226	0x3d4bea91	0.049784247
227	0x3cadf922	0.02123696
228	0xbd8e0f4c	-0.069365114
229	0xbdaadc3e	-0.08342789
230	0xbcd8b47d	-0.026453251
231	0xbd98982c	-0.074508995
232	0x3c579e9d	0.013160375
233	0x3d4feefe	0.05076503
234	0x3d5d7f37	0.0540764
235	0xbdd0d1ef	-0.10196292
236	0x3bf325d7	0.0074202823
237	0x3cf8cd43	0.030371314
238	0x3bc3901f	0.0059681083
239	0x3c5b5fc2	0.01338953
240	0x3d81bc31	0.06334723
241	0xbd69c71d	-0.057074655
242	0xbd52366b	-0.05132143
243	0xbc966335	-0.018357852
244	0x3d57b9c7	0.052667405
245	0xbd98c580	-0.07459545
246	0xbdb1052a	-0.08643563
247	0x3d246e22	0.040144093
248	0xbc0aadc9	-0.008464285
249	0x3d66b317	0.056323137
250	0x3d4d766d	0.050161768
251	0xbd2de207	-0.042451885
252	0x3da6815e	0.081301436
253	0x3d52e7a8	0.051490456
254	0x3dd42ff6	0.1036071
255	0xbcf01463	-0.029306596

bias f4 [84]
0	0x3d43c419	0.047794435
1	0xbca9a3a9	-0.020707922
2	0x3cff4213	0.031159436
3	0x3d8dbb70	0.069205165
4	0xbab85a76	-0.0014065045
5	0x3ce13f75	0.027496079
6	0xbcde25a5	-0.02711756
7	0xbd8ab4bf	-0.06772756
8	0xbdaac150	-0.08337653
9	0xbdbb5429	-0.09146912
10	0xbcbeb23e	-0.023278352
11	0x3dd62684	0.10456565
12	0x3d8318c1	0.06401206
13	0xbc8dab99	-0.017293738
14	0x3ac1021b	0.0014725359
15	0x3d7133ca	0.05888728
16	0x3d8cdb51	0.06877769
17	0x3c376b11	0.01119496
18	0x3d8b7185	0.068087615
19	0xbd6d6def	-0.05796617
20	0x3cd71688	0.02625586
21	0xbd50f93c	-0.05101894
22	0x3d68d958	0.0568479
23	0xbd19d4a3	-0.0375563
24	0xbcda7d88	-0.026671186
25	0xbcef52c7	-0.029214276
26	0xbd98fa3b	-0.07469603
27	0xbdafc229	-0.08581955
28	0xbd9dae84	-0.07699302
29	0x3db68e88	0.089139044
30	0xbd4b5be1	-0.04964817
31	0xbd322288	-0.043489963
32	0xbdac1528	-0.08402473
33	0x3b2b71b2	0.0026160297
34	0x3da62036	0.081116125
35	0xbd79697f	-0.060891625
36	0xbbd7e71e	-0.0065888306
37	0xbc9681c5	-0.018372426
38	0x3cf38d93	0.029730594
39	0xbdc4e823	-0.09614589
40	0xbca3d8b8	-0.0200008
41	0x3db51caa	0.08843358
42	0xbd01f402	-0.031726845
43	0x3da25265	0.07925872
44	0x3cdc81d6	0.02691738
45	0xbc46685a	-0.01210984
46	0xbd6e2d65	-0.05814876
47	0x3c303db6	0.0107569005
48	0xbce65a0f	-0.028119115
49	0xbd407bba	-0.046992995
50	0xbc67b4a5	-0.01414219
51	0xbd100d76	-0.035169087
52	0xbd67dc1a	-0.05660639
53	0x3dbd52a7	0.0924428
54	0x3cb7f745	0.022456774
55	0x3d9a9bf2	0.075492755
56	0x3c41de07	0.011832721
57	0x3d6ecc39	0.05830023
58	0xbd402efa	-0.0469198
59	0x3d94ba6c	0.0726212
60	0xbd53dbf3	-0.05172343
61	0xbcd766bc	-0.026294105
62	0x3caf24ac	0.021379791
63	0x3d47f139	0.048814032
64	0xbd4a7137	-0.049424376
65	0xbdabacc5	-0.083825625
66	0xbb787be9	-0.0037915653
67	0xbd60c1f0	-0.054872453
68	0xbd7615f8	-0.060079545
69	0x3da81e5e	0.08208917
70	0x3d6d8dc0	0.05799651
71	0x3d94400f	0.07238781
72	0xbb6c28ae	-0.003603499
73	0x3cad30f6	0.02114151
74	0x3c7debd4	0.01549812
75	0x3dbe8341	0.093023784
76	0x3babb0be	0.005239575
77	0xbd6257f4	-0.05525966
78	0x3d90e7fd	0.07075498
79	0x3cb50e3e	0.022101518
80	0xbb44da44	-0.0030037323
81	0x3dac2978	0.08406347
82	0x3dafae6b	0.085781895
83	0xbd046f22	-0.032332547

weight f4 [42, 84]
0	0xbcf64631	-0.030062767
1	0x3d2d29f6	0.042276345
2	0xbb5fea98	-0.0034166928
3	0xbdafb132	-0.08578719
4	0x3daccc8e	0.08437453
5	0xbbb95f37	-0.0056571024
6	0xbd045b15	-0.032313425
7	0xbdcfa612	-0.10139097
8	0xbdb6da13	-0.08928313
9	0x3cf60f41	0.03003657
10	0xbdafc968	-0.08583337
11	0x3dd59054	0.10427919
12	0x3a4bb754	0.00077711535
13	0x3d998fdf	0.07498144
14	0xbd5623c8	-0.052280217
15	0xbc960e4c	-0.018317364
16	0x3d96974b	0.073530756
17	0x3db0cb4f	0.08632528
18	0xbd7d8b52	-0.061900444
19	0x3d91e8b2	0.07124461
20	0xbdb157dc	-0.08659336
21	0x3d3a94ee	0.045552187
22	0x3cc6ac11	0.02425197
23	0x3de6db00	0.1127224
24	0x3d7c8d12	0.061657973
25	0x3c91ae8d	0.017783428
26	0x3db68617	0.08912294
27	0xbd18702b	-0.037216347
28	0xbc80d8ec	-0.015728436
29	0x3cdd62a5	0.027024576
30	0x3dcb7430	0.099342704
31	0x3d9b6950	0.07588446
32	0xbdac56e8	-0.084150136
33	0x3ca9f7f1	0.02074811
34	0x3dd2eeb6	0.10299437
35	0xbda3a84b	-0.07991084
36	0xbd43cde8	-0.04780379
37	0x3da21f80	0.079161644
38	0xbd54fa82	-0.051996715
39	0x3d837c2f	0.064201705
40	0x3d36a71d	0.044592965
41	0x3dc56b99	0.09639663
42	0xbcaeb2d1	-0.0213255
43	0x3db4d5e0	0.08829856
44	0xbcdbdfac	-0.026840053
45	0x3dbdcad8	0.09267205
46	0xbd8ccaf6	-0.06874649
47	0x3d9db668	0.07700807
48	0x3d461a8f	0.048365172
49	0xbd196f71	-0.037459794
50	0x3d9bb75c	0.076033324
51	0xbddf6e17	-0.1090967
52	0xbda5805d	-0.08081124
53	0x3bd5c801	0.0065240865
54	0xbd63ae24	-0.055585995
55	0x3dc1fc4b	0.09471949
56	0x3d90ef95	0.07076947
57	0x3d91f5a1	0.07126928
58	0xbdab8e88	-0.08376795
59	0xbdc8d7a2	-0.09806754
60	0x3d2e045b	0.042484622
61	0x3cb0e138	0.021591768
62	0xbcdfa5ed	-0.0273008
63	0xbd58ce4e	-0.052931122
64	0x3d1ed6cf	0.038779076
65	0xbcd5274c	-0.026019715
66	0x3d523d30	0.051327884
67	0x3d983c8f	0.07433426
68	0xbcc7f95a	-0.024410892
69	0xbd9d1cc2	-0.07671501
70	0x3d0ba586	0.034093402
71	0xbc1cd773	-0.0095728515
72	0x3d70ec0c	0.05881886
73	0x3d63b1f5	0.055589635
74	0x3d42db08	0.047572166
75	0xbd9caa2d	-0.07649646
76	0xbcb56742	-0.022143964
77	0x3db6bfa6	0.08923273
78	0xbd9b8114	-0.07592979
79	0x3d59c7c1	0.053169016
80	0xbd81e787	-0.063429885
81	0x3ddf7248	0.10910469
82	0xbdc936d2	-0.09824909
83	0x3da0189c	0.07817194
84	0xbba9cb31	-0.005181693
85	0x3c82e3aa	0.0159777
86	0x3d55a2b7	0.05215713
87	0xbdbf68d8	-0.09346169
88	0xbde2b3b4	-0.11069432
89	0xbdc7f690	-0.09763825
90	0xbce129b6	-0.02748571
91	0x3ccd074c	0.025027893
92	0x3caf0486	0.021364462
93	0x3d67d1b2	0.056596465
94	0xbd83a4bc	-0.06427905
95	0x3d638bc7	0.055553224
96	0x3dbdace4	0.09261492
97	0xbdafb2f6	-0.08579056
98	0x3d6dfb43	0.05810095
99	0xbd8e0201	-0.06933976
100	0xbd602955	-0.054726917
101	0x3bdf5b3f	0.0068162973
102	0x3ca6ecc4	0.02037657
103	0xbcc6f4eb	-0.024286708
104	0x3b0fa9e1	0.0021921324
105	0xbdaad9e5	-0.08342341
106	0xbcf3bb83	-0.029752498
107	0xbb28460c	-0.0025676517
108	0xbc0ad33e	-0.008473216
109	0x3d112eeb	0.035445135
110	0xbd1d9ed6	-0.038481556
111	0x3d39853b	0.045293074
112	0x3c23516f	0.009968146
113	0xbc0035ab	-0.007825295
114	0xbb0ea31d	-0.0021764704
115	0xbd09e241	-0.03366304
116	0x3de5468f	0.111950986
117	0xbd2b4f5a	-0.041823722
118	0xbbea10c7	-0.0071431133
119	0x3b986dea	0.0046517747
120	0x3d9f57eb	0.07780441
121	0xbd82cb45	-0.06386427
122	0x3d419f57	0.0472711
123	0xbda88efc	-0.08230397
124	0x3ba2b9ff	0.00496602
125	0xbd9666c2	-0.07343818
126	0xbce72db1	-0.02822003
127	0xbc677e2e	-0.014129205
128	0xbdd920c6	-0.10601954
129	0x3d53ddaa	0.051725067
130	0x3d9e6a27	0.07735091
131	0x3daadfb9	0.08343453
132	0x3d8d98f2	0.06913938
133	0xbdbcfb33	-0.092276
134	0x3d21508c	0.039383456
135	0x3cede1fd	0.029038424
136	0x3c377fe7	0.011199928
137	0xbd80ac6c	-0.06282887
138	0x3d284a13	0.041086268
139	0xbc68f021	-0.014217407
140	0x3dd77447	0.10520225
141	0xbdb0de25	-0.08636121
142	0x3db4b38d	0.08823309
143	0xbda4342a	-0.08017762
144	0x3dbbab47	0.09163528
145	0xbd0b7c6d	-0.03405421
146	0xbdd37d87	-0.10326677
147	0x3d25898e	0.040414385
148	0xbdecd3a3	-0.11563804
149	0xbd43d514	-0.04781063
150	0x3d16782d	0.036735702
151	0x3dceae3f	0.100918286
152	0x3cd94ee7	0.026526881
153	0x3d0df3a8	0.034656197
154	0x3d9d9a3b	0.07695433
155	0xbd6e9ab5	-0.05825301
156	0xbc4e7506	-0.012601143
157	0xbddde2e6	-0.10834293
158	0x3c086285	0.00832427
159	0xbcbfb241	-0.023400428
160	0x3cf13ccd	0.029447937
161	0x3c9a9f9a	0.018874932
162	0x3d4bc219	0.049745653
163	0x3dc7e441	0.09760333
164	0xbdda4aa1	-0.106587656
165	0x3d90eebf	0.07076787
166	0xbc300432	-0.010743188
167	0x3bccee93	0.006254026
168	0x3d561cb6	0.052273475
169	0xbdd9dc2e	-0.10637699
170	0xbc4621f6	-0.012093058
171	0xbd801d34	-0.0625557
172	0xbd019257	-0.0316337
173	0xbaa6adb1	-0.0012716559
174	0x3da29983	0.07939436
175	0xbd569c8e	-0.052395396
176	0x3cd367b8	0.025806293
177	0xbd93c05e	-0.072144255
178	0xbd84c394	-0.06482616
179	0xbdb823a9	-0.08991177
180	0xbd1f533c	-0.038897738
181	0x3d4615e9	0.04836074
182	0xbdabaf96	-0.083831
183	0x3cf419ec	0.029797517
184	0xbd233c6b	-0.03985254
185	0xbdbfa68f	-0.093579404
186	0xbda7177c	-0.08158776
187	0x3cae7271	0.021294804
188	0xbc9f39ab	-0.019436678
189	0xbd8355d4	-0.06412855
190	0x3d3ca718	0.04605779
191	0xbc4daf3d	-0.012553987
192	0xbc0e7753	-0.008695441
193	0xbda6de96	-0.08147924
194	0x3d037ee6	0.03210344
195	0x3cb64d45	0.022253642
196	0xba70f232	-0.00091913634
197	0x3d1cfdbb	0.038327914
198	0xbc29bb91	-0.010359661
199	0xbd4bbcee	-0.049740724
200	0xbd9db44e	-0.07700406
201	0x3a6941dd	0.0008898059
202	0xbddb9ce9	-0.107232876
203	0xbb954eab	-0.004556497
204	0x3d92c58f	0.071665876
205	0x3de09057	0.10965031
206	0xbd79235d	-0.06082474
207	0x3d85bdc8	0.065303385
208	0x3db22153	0.08697762
209	0x3dccc628	0.09998733
210	0x3d8909b4	0.06691304
211	0x3d2a94f9	0.041645978
212	0xbbe81d8e	-0.0070836013
213	0xbd70967c	-0.058737263
214	0xbd996be6	-0.07491283
215	0xbc2df21b	-0.0106168045
216	0x3d59dcfb	0.05318926
217	0x3bf3ff74	0.007446224
218	0xbdc765ba	-0.097362
219	0xbbe66f99	-0.0070323464
220	0xbd81bc88	-0.063347876
221	0xbd5fec48	-0.054668695
222	0xbde78611	-0.11304868
223	0xbda96b19	-0.082723804
224	0x3cca230a	0.024674911
225	0x3d642256	0.055696808
226	0x3c69e462	0.014275642
227	0x3da05d90	0.07830346
228	0x3d69446a	0.05695001
229	0x3db0f9cb	0.08641394
230	0xbdb134e3	-0.086526655
231	0xbd2ac690	-0.04169327
232	0x3d80e40f	0.06293499
233	0xbd945061	-0.072418936
234	0xbd37debb	-0.044890147
235	0x3d6ef8d0	0.058342755
236	0x3db24e95	0.087063946
237	0xbd13fd61	-0.036130313
238	0xbdc2a903	-0.09504893
239	0xbda2c925	-0.079485215
240	0x3de0de4c	0.109799
241	0x3d0ef76c	0.03490393
242	0x3d6243c8	0.055240422
243	0x3932dc42	0.00017057455
244	0x3b8e84c7	0.0043493244
245	0x3d68fc3b	0.05688117
246	0x3d8d7e74	0.06908885
247	0x3d6b1b59	0.057399128
248	0xbd2a2ea1	-0.041548375
249	0xbdcaf310	-0.09909642
250	0x3d105e5b	0.035246234
251	0xbd703f88	-0.058654338
252	0xbde978c2	-0.11399986
253	0x3cc21c0f	0.02369502
254	0x3d864908	0.06556898
255	0xbd3295af	-0.04359978

bias f4 [42]
0	0x3d90d604	0.0707207
1	0x3dfd3c46	0.12365012
2	0x3d7bbb89	0.061458144
3	0xbdaafa04	-0.08348468
4	0xbdc61c53	-0.09673371
5	0x3c9275c7	0.017878426
6	0xbc939973	-0.018017506
7	0xbc807941	-0.015682818
8	0xbcc03ce0	-0.023466527
9	0xbd925edc	-0.07146999
10	0x3dec9fad	0.11553893
11	0x3d941a02	0.07231523
12	0x3dd3703d	0.10324142
13	0x3cd2b468	0.02572079
14	0x3d8174fb	0.063211404
15	0x3cf62862	0.030048553
16	0x3d85b5a3	0.06528785
17	0x3dadb089	0.08480937
18	0xbd265c38	-0.04061529
19	0x3d212851	0.03934509
20	0x3cf36219	0.029709863
21	0x3c2c2ec5	0.010509198
22	0x3cc773fb	0.024347296
23	0xbd8efcd2	-0.069818154
24	0x3d0de016	0.034637533
25	0xbda6e069	-0.081482716
26	0xbdac393c	-0.08409354
27	0xbd2151fe	-0.039384834
28	0x3dc29690	0.09501374
29	0x3ccd1662	0.025035087
30	0xbd82a5d6	-0.06379287
31	0xbbc8b91b	-0.006125582
32	0xbd8f6193	-0.07001033
33	0xbc9b575e	-0.018962558
34	0x3d2467be	0.040138
35	0x3b8026a8	0.003910858
36	0x3d210f13	0.039321017
37	0xba3f893b	-0.0007306521
38	0xbc2308ac	-0.009950798
39	0x3dabee61	0.083950765
40	0x3dfa0450	0.12207854
41	0x3d81e3c0	0.06342268

weight f4 [1, 42]
0	0x3cf93afc	0.030423634
1	0xbde81c67	-0.11333542
2	0xbca2c93e	-0.01987135
3	0x3c4a5d96	0.012351414
4	0x3d393d9d	0.045224775
5	0xbc7372e7	-0.014858938
6	0x3cb05830	0.021526426
7	0x3d482080	0.04885912
8	0xbd299dba	-0.041410185
9	0x3d95231f	0.072820894
10	0xbd93f148	-0.07223755
11	0xbd01b840	-0.031669855
12	0xbddc3b8b	-0.107535444
13	0x3d8e6bbf	0.06954145
14	0x3d5a4b11	0.053294245
15	0xbd2fb0e2	-0.042893298
16	0xbd8df88b	-0.069321714
17	0xbcd8509f	-0.02640563
18	0x3bfbc054	0.0076828394
19	0xbd8099e3	-0.062793516
20	0x3d005152	0.031327553
21	0x3c040689	0.008058199
22	0x3cd16897	0.025562568
23	0x3df40dfa	0.11916728
24	0x3c30c984	0.010790233
25	0xbd0dd9b7	-0.034631457
26	0xbd9577fa	-0.07298274
27	0x3db85499	0.09000511
28	0xbd0b6c70	-0.03403896
29	0xbd097867	-0.03356209
30	0x3d0f428f	0.034975585
31	0xbdaff3c1	-0.08591414
32	0x3d262b5a	0.040568687
33	0xbd93951d	-0.072061755
34	0xbce11a0d	-0.027478242
35	0xbb3b4c23	-0.0028579317
36	0x3cd1df68	0.025619224
37	0x3d66a7a7	0.05631223
38	0xbbef6917	-0.007306229
39	0xbd2a221b	-0.04153643
40	0xbd934a48	-0.071919024
41	0xbc7b30d3	-0.015331465
