ModelUnpredictability/one_thousand_brains/predictor_16.model (torch_old, 109395 bytes, 7 tensors)

weight f4 [84, 168]
000000 f5 ae f4 bb a5 90 76 3d 12 28 bb 3c bd f3 39 bc
       -0.0074671456 0.060196538 0.022846255 -0.011349616
000010 10 1d 78 bc fb 0f 69 3d 82 97 8a bc 44 78 9d bc
       -0.015143648 0.056900006 -0.016917948 -0.019222386
000020 8e ce 3d bd 5c 48 0d 3c f0 54 17 3d cb c9 26 3d
       -0.046339564 0.008623209 0.036946237 0.04071979
000030 55 06 f8 3c 27 70 22 bd 0e ee 30 3d 0d 38 cb bc
       0.030276457 -0.039657738 0.043195777 -0.024807
000040 2b 5f 7a 3d 83 77 98 bc f6 83 93 3d 1b e4 63 3c
       0.061125915 -0.018611675 0.07202904 0.013909365
000050 57 b7 91 bd 25 3e d1 3c b4 96 7a bd 27 c5 19 3d
       -0.071150474 0.025542328 -0.061178878 0.037541535
000060 2b 17 58 bd 44 51 27 bd 8e 97 8f 3d 94 ad b0 bc
       -0.05275647 -0.040848985 0.07011329 -0.021567143
000070 b5 5c cb bc a4 73 14 3d 77 40 24 bd b0 fd 32 3d
       -0.02482448 0.036243096 -0.04010054 0.043698967
000080 ee 8f 9d 3d 20 e0 e6 3c d6 b0 86 3d 65 6d ad bc
       0.07693468 0.028183043 0.065766975 -0.021170327
000090 e0 6f 69 3d 05 24 89 3d 47 0c 08 3d 17 2a 4f bd
       0.056991458 0.06696323 0.033214834 -0.05057725
0000a0 fc 41 95 bd 20 da e0 bc e8 27 05 3d 4a 42 a2 bc
       -0.07287976 -0.02744776 0.03250876 -0.019807
0000b0 05 b6 e0 bc 28 6c eb bc 95 b1 cd 3b 20 f4 11 3d
       -0.027430544 -0.028738096 0.006277273 0.035633206
0000c0 dc 89 82 3d fc 0d b6 3c 6d 01 c9 3c c5 1d 36 ba
       0.06373951 0.022223465 0.024536813 -0.0006947185
0000d0 61 3a 40 bd 91 dc 7d bb 26 ef b9 3c fb 08 57 3d
       -0.046930674 -0.0038736204 0.022697043 0.0524988
0000e0 4f aa 94 3d d5 f1 7f bd f5 52 1e bd 74 ae f9 3c
       0.07259046 -0.06248649 -0.038653333 0.030478694
0000f0 d9 6c 5d 3d d3 5b 92 3d 2b 41 9e 3d ff 0e a0 3d
       0.054058883 0.0714642 0.077272736 0.0781536
000100 65 cf 99 bd 7d 31 1a 3c 00 d0 8a bd 97 bf 12 bd
       -0.075102605 0.009411213 -0.06777954 -0.035827246
000110 c0 07 0e bd db 64 06 3d 00 88 7a bc 20 d2 18 bd
       -0.03467536 0.032811027 -0.015291214 -0.037309766
000120 9f d8 99 3c 31 c9 60 bd e0 a4 a3 3c ae 10 98 3d
       0.01878005 -0.05487937 0.01997608 0.074250564
000130 ad f6 90 bd 96 97 7f 3d f6 f6 98 bd 5d 52 55 3b
       -0.070783 0.062400423 -0.07468979 0.0032550313
000140 43 a0 de bb dd a9 00 3d 5e 57 57 3d 09 95 7d 3d
       -0.006794007 0.031411994 0.052573554 0.06190971
000150 9e 5c 32 3d 9a 22 ae bc 7f 11 91 bb 33 c9 27 bd
       0.043545358 -0.021256734 -0.0044271345 -0.040963363
000160 18 5d 2f bd 92 6d ec bc 7f 84 63 3d 09 aa 51 bd
       -0.04281339 -0.028860841 0.05554628 -0.05118755
000170 65 ec 99 bb 1b 3b 22 bd 75 9f 2f 3d 32 af 4a 3d
       -0.00469737 -0.03960715 0.04287668 0.049483486
000180 11 9d 19 bc cd a0 7f bc 9e ca 46 3d f3 cf 94 bb
       -0.009375826 -0.015602303 0.048533075 -0.004541391
000190 b0 98 62 3d cf ca 8d 3d 0a 90 88 bd c2 e6 ca 3b
       0.055321395 0.06923448 -0.06668098 0.0061920593
0001a0 2a d3 75 bd d6 21 0d 3c 70 cb 98 bd 3d af 8c bc
       -0.060015835 0.008614024 -0.074606776 -0.017173404
0001b0 6e 68 44 bc 63 ac cc bc af f8 18 3c 08 57 11 3d
       -0.011987789 -0.024984544 0.009336635 0.03548339
0001c0 de ae 97 3d 29 03 30 bd 60 81 f9 bb 4f 52 d7 bc
       0.074064 -0.042971764 -0.0076142997 -0.026284365
0001d0 a8 bb 0d bd 18 a4 01 bc b1 81 2d bc 62 50 e7 3b
       -0.03460279 -0.007912658 -0.010590003 0.007059143
0001e0 e6 10 3b 3a c2 cd 82 3d bf 84 ec 3c 40 e3 ce 3c
       0.0007136002 0.063869014 0.028871892 0.025254846
0001f0 01 06 3b 3d 58 45 dd 3c f0 6c 92 bd e8 e3 92 bd
       0.045660023 0.027010605 -0.071496844 -0.07172376
000200 a2 81 95 bd d7 95 f1 3c 16 3f d8 3c 65 29 8a bd
       -0.07300116 0.029490395 0.02639727 -0.06746177
000210 22 65 39 bd a0 2b fe bb 28 29 86 3d 8d dd 85 bd
       -0.045262463 -0.0077566653 0.06550819 -0.06536398
000220 5e d7 6b bd 84 5f f1 3c 82 d4 0f 3c 88 46 8b bc
       -0.057578437 0.02946449 0.008778693 -0.017001405
000230 ed 15 3a 3c ae 7f 37 bc 48 65 d7 bc 05 c2 4c 3c
       0.011357767 -0.011199875 -0.026293412 0.01249743
000240 2c a9 67 3a 60 6b 8d bd cc 5f 7c bd a9 55 12 bd
       0.0008837159 -0.06905246 -0.061614797 -0.035726223
000250 58 73 5a 3d f6 5d 97 bd 17 ae 46 3d d1 26 31 3d
       0.053332657 -0.073909685 0.04850587 0.04324991
000260 46 c7 36 3d 12 8d 26 3d 07 17 c1 bc b7 4c 6a bd
       0.044623636 0.04066188 -0.02357055 -0.057202067
000270 9d ef 1b 3d 4b ed 3d bd 05 e3 31 bd 01 ea 9f 3d
       0.03807031 -0.04636888 -0.043429393 0.078083046
000280 fa b4 58 bd 56 41 67 bd a0 20 97 bc b3 3b 4c bd
       -0.052906968 -0.056458794 -0.018448174 -0.04986162
000290 1f 6d 4e bd 32 4c 5b bd a6 6b 46 3c ad 17 73 bd
       -0.050397035 -0.053539462 0.012110626 -0.05934875
0002a0 33 70 9e bd fd f8 77 3d 8d 10 17 bd e5 7d 7b bd
       -0.07736244 0.060540188 -0.03688102 -0.06139936
0002b0 ad f0 a1 bd 51 7c d5 3c 5d 5b cc bc 13 fa df 3b
       -0.079072334 0.026060255 -0.02494591 0.006835231
0002c0 67 39 fc bc 3e 4d 37 bd c6 de 30 bd fd cf 53 3d
       -0.03078909 -0.0447514 -0.043181203 0.051712025
0002d0 6a e6 87 bd 78 ee 8d 3c 66 c4 97 bd 91 ab 9d b9
       -0.06635745 0.017325625 -0.07410507 -0.000300732
0002e0 dc e8 81 3d a2 be ce 3c 2b 8d 8b bc 42 00 81 3d
       0.063432425 0.025237385 -0.017035088 0.06298877
0002f0 b7 f0 82 bd 1f 37 eb 3c 37 75 a0 bd 6e 38 80 3d
       -0.06393569 0.028712807 -0.07834857 0.06260763
000300 ad 42 ee 3c 21 ce a7 3b a9 32 47 3c 65 5c 8e 3d
       0.029084528 0.005121008 0.012158074 0.069512166
000310 e0 5a 85 bd 3c cb 80 3d c4 a1 85 bd d9 df a7 bd
       -0.06511474 0.06288764 -0.06524995 -0.081969924
000320 a3 1c e1 b9 96 25 4d 3d cb d9 a9 bc d9 94 92 3d
       -0.0004293668 0.050084673 -0.020733735 0.07157297
000330 b2 69 09 bc f9 38 d6 bc e7 c7 4f 3d c8 21 e0 bc
       -0.008387016 -0.026150214 0.05072775 -0.027359858
000340 19 07 39 3d fd 73 ee 3c 5c 67 7e 3d ad 11 4f bd
       0.045172784 0.029108042 0.06211029 -0.050553966
000350 00 0b 2d 3d 24 04 f5 bc 5b 80 38 bd f9 64 39 3c
       0.04224682 -0.029909201 -0.045044284 0.011315578
000360 e6 fd b0 bc 8f ae 1c 3d d4 06 e1 bc 88 37 16 bd
       -0.021605443 0.03825241 -0.027469076 -0.036674052
000370 5f 2b 8f 3d 35 5a 7e 3d b9 73 5c 3d ac 32 11 3c
       0.06990694 0.062097747 0.0538213 0.008862179
000380 dd 13 2d 3c f1 26 5b 3d 14 ad 1b bc ec 92 12 bd
       0.010563818 0.053503934 -0.009501714 -0.035784647
000390 3f f1 5f 3d 7e 91 09 bd b7 b4 1c bd eb 4a 39 3d
       0.05467343 -0.033586018 -0.03825828 0.045237463
0003a0 78 f7 8c 3d e9 05 4c bd 45 dd 42 3d 2a 66 2f bd
       0.068831384 -0.049810324 0.0475743 -0.04282204
0003b0 09 9f 89 bc 7f 3d 25 3d db 3a aa 3c 73 c6 73 3b
       -0.016799467 0.04034185 0.020780018 0.0037197142
0003c0 80 d7 7c bd a6 b1 81 bc 3a 80 83 bd d5 f2 80 3c
       -0.061728954 -0.01583178 -0.06420942 0.015740791
0003d0 88 fe 4c 3d 50 e6 ef bc a1 27 c3 bc cb 99 4f 3d
       0.050047427 -0.029284626 -0.023822607 0.050683778
0003e0 ab 66 2a 3d e2 be 9e bc 06 23 44 3c 73 c9 27 3c
       0.041601818 -0.01937813 0.011971241 0.0102409
0003f0 83 9d 9f 3c 3e 92 b7 3c 30 dc 44 bd c6 80 13 bd
       0.019484287 0.0224086 -0.04806155 -0.03601148

bias f4 [84]
000000 04 32 88 3d 7c fb 8b 3d 59 e4 3c 3d 77 3f 08 bd
       0.06650165 0.06835076 0.046116207 -0.03326365
000010 6c 8d 25 3d 53 5c ba bc 72 76 64 3b 2c c8 3a bd
       0.040418074 -0.022749102 0.0034860638 -0.045601055
000020 cf d5 41 bd bb 6a ba bc 87 e1 7a bd 6f 4f d5 3c
       -0.047323044 -0.022755971 -0.061250236 0.026038853
000030 60 fa 70 bd 50 14 91 3d 1d 1a 66 3d 82 59 9c 3d
       -0.058832526 0.070839524 0.056177247 0.0763426
000040 88 3b 8e 3c 42 4e f4 bb 2a b5 57 bd fd ab 24 3d
       0.017362371 -0.007455618 -0.052663006 0.040203083
000050 89 80 d7 3c 40 eb 7c 3d b5 01 43 3d 92 6b 00 bc
       0.026306408 0.06174779 0.04760905 -0.007838147
000060 de 16 ae bb b3 bc 57 3d 65 e6 06 3c 09 48 e5 bc
       -0.0053127846 0.052670192 0.008233641 -0.02798845
000070 a8 9d 01 3c 67 ef a5 3d a6 c6 69 3d e1 a6 ab bc
       0.007911123 0.08102303 0.05707421 -0.020953598
000080 94 9a 5f bd f2 d6 8e bd ea 6d 8f 3d 1b a7 83 bd
       -0.054590777 -0.06974591 0.07003386 -0.06428357
000090 ee 55 21 3d df a6 92 3d 4c 11 63 bd 15 23 1f bd
       0.03938859 0.071607344 -0.055436417 -0.038851816
0000a0 f6 f4 13 3b 1c 36 91 3d e3 9a f5 bc 08 0c 42 bd
       0.0022576428 0.07090399 -0.029981082 -0.047374755
0000b0 ee 76 33 bd 15 05 40 bd 5f 70 d3 3c 1a da 29 bd
       -0.043814592 -0.046879847 0.025810419 -0.041467763
0000c0 06 fa 8a bd 3c cf 82 3d 8c 76 72 3d 75 c4 31 bd
       -0.067859694 0.06387183 0.059195086 -0.043400247
0000d0 33 ae 68 3d a1 6e c0 bc d8 4b 01 bd ef 8d b7 bc
       0.056806754 -0.023490252 -0.03156647 -0.022406546
0000e0 af 36 5b ba a5 c6 da bc 67 07 02 3c 43 5b 4a 3c
       -0.00083623355 -0.02670605 0.007936335 0.01235086
0000f0 71 0e 60 bd 67 8f 98 3d 64 91 03 bd 72 19 ba 3b
       -0.054701272 0.07449227 -0.032121077 0.005679303
000100 8c 7d c8 ba 98 93 56 bd 25 8e b5 3c b1 1c 35 bc
       -0.0015296205 -0.05238685 0.022162506 -0.011054204
000110 2e 69 f0 3c 56 e0 9d 3c c1 b9 8e bd 08 f3 54 3c
       0.029347029 0.01927201 -0.069690235 0.012997396
000120 00 e4 c5 3c dc e0 f9 3c 1a 21 84 bd ed ce 88 bd
       0.02415657 0.03050273 -0.06451626 -0.06680093
000130 63 c2 a7 3c a2 99 2d 3d b6 35 41 3d 06 db 2e bc
       0.020478433 0.042382844 0.047170363 -0.010672336
000140 b5 ba 16 bd da 98 dd bb 55 27 39 3d 1b 2f 98 bd
       -0.03679915 -0.006762606 0.045203526 -0.0743086

weight f4 [84, 84]
000000 d2 3c 4f bd fa c4 04 3d 67 0b 94 3d 76 cc c8 bd
       -0.050595112 0.032414414 0.07228737 -0.09804623
000010 6d 93 ab 3d 1a 81 8a bc 49 38 cc 3c 7b f4 cc 3c
       0.083777286 -0.016907264 0.024929183 0.025018921
000020 cd 96 88 3d 1c 51 65 bd aa f8 b5 3c b4 41 7d 3c
       0.06669388 -0.055985555 0.022213299 0.015457559
000030 c0 5b 75 3d 41 65 58 3c 24 97 b3 3d 75 66 62 3d
       0.059901953 0.013207735 0.08769062 0.055273492
000040 a6 99 1a 3d ed 01 8e 3d f9 76 8b 3d 56 af c0 3c
       0.037744187 0.06933961 0.068098016 0.023521107
000050 55 90 a5 3d 8e 1e d0 bb bd a0 f7 3d c7 dd 89 3d
       0.0808417 -0.0063512987 0.12091205 0.06731754
000060 a0 39 89 3d c1 8d 8c bd 15 d0 99 3c a1 09 2e bd
       0.06700444 -0.06862975 0.018775979 -0.04248965
000070 5e d3 36 bd 4d 58 83 bc 24 a7 97 3d 7f 45 05 bd
       -0.04463517 -0.016033316 0.074049264 -0.03253698
000080 95 4a 30 3d 64 f4 c8 3d 20 63 10 bd bf 2f 83 3d
       0.043039877 0.09812239 -0.035250783 0.06405591
000090 f8 f2 3c 3d f3 91 8a bd 02 e4 92 bd 42 3e 2b 3d
       0.04613015 -0.06766119 -0.07172395 0.04180742
0000a0 06 20 a4 bc 6e 52 cf 3c da 0e d7 bd 49 e4 99 ba
       -0.020034801 0.02530786 -0.105008796 -0.0011741008
0000b0 c4 15 e7 bd f0 91 9a bb 15 db bb bd 3e bd 3c 3d
       -0.11283448 -0.004717104 -0.09172646 0.046078913
0000c0 be 62 cf 3d 98 c2 a3 bd 0b c6 77 bc 9b 65 5d bd
       0.101262555 -0.079961 -0.015122901 -0.054051977
0000d0 c7 18 9f bd 06 c3 35 bb 40 e4 1a bd 23 9f f1 bd
       -0.07768398 -0.0027734651 -0.037815332 -0.11797931
0000e0 00 a6 a1 bd 45 c7 8c 3d 47 2f 28 bc 7d 89 a8 3d
       -0.0789299 0.06873945 -0.010265178 0.08229349
0000f0 63 04 cd 3c d8 dc 6b 3d 23 bf 82 bd 9a df 79 3d
       0.025026506 0.05758366 -0.06384113 0.06100426
000100 52 b9 d9 bc 17 f3 b1 bd ed 2f fe 3c 10 13 ae bd
       -0.026577625 -0.08688944 0.031028712 -0.0849973
000110 5e e9 32 bc 73 d3 85 3d 78 93 7e 3d 13 bb 64 bd
       -0.010919897 0.06534471 0.062152356 -0.05584247
000120 66 cb a5 3d 40 c1 bf 3d 61 88 db 3d c7 c4 aa 3d
       0.08095436 0.093630314 0.107193716 0.083383135
000130 1b 07 8a 3d 35 53 c2 bd 65 74 b0 3d 88 99 a9 3d
       0.067396365 -0.09488527 0.086159505 0.08281237
000140 75 75 ca bd ef de bf 3c d1 77 c6 3c 36 27 af 3d
       -0.098856844 0.023421733 0.024227055 0.08552401
000150 be 0b 3b bd 25 33 e2 bd 5a fa 88 bc 6a 2e 2f 3d
       -0.045665495 -0.11044911 -0.01672094 0.042768873
000160 12 e9 7e bc 34 2f 74 bc a0 7c c3 3d a1 63 c8 b9
       -0.015558498 -0.014903832 0.09545255 -0.00038221202
000170 27 c5 88 3d 5f b4 5e bd dd e5 6c 3c d5 60 41 bd
       0.06678229 -0.054371234 0.014459101 -0.047211487
000180 58 8f bd bd 58 69 90 bc 8e 51 ab bd cf 40 8e bc
       -0.09255856 -0.017628357 -0.08365165 -0.017364888
000190 69 2f de 3a 14 30 be 3d d2 56 41 bc 21 d0 9e bd
       0.0016951385 0.09286514 -0.011800485 -0.07754541
0001a0 7e 77 b7 3d 90 fa d3 3d 7c 6e d0 bc a6 72 99 3d
       0.08958338 0.103505254 -0.025443308 0.074925706
0001b0 5f 2a 8c 3d 55 e0 ae bd ea a8 64 bd 54 d6 d8 3d
       0.06844019 -0.08538882 -0.05582515 0.10587755
0001c0 96 8a 0f 3d 0b 26 e1 bd c0 5a c7 bd 07 7a b8 bd
       0.035044275 -0.10993584 -0.09734106 -0.0900765
0001d0 f5 51 bd 3d 21 43 49 bd 70 e3 8f 3c bf 58 60 bd
       0.09244148 -0.049136285 0.017564505 -0.054772135
0001e0 01 15 4b 3b 22 09 aa bd 5e dd b4 bd b9 0a 88 3d
       0.003098786 -0.08302523 -0.08831285 0.0664267
0001f0 9d a4 56 3d 4f 12 8c bd e0 0b 34 bd f5 90 1e 3d
       0.05240308 -0.068394296 -0.043956637 0.03871246
000200 4d b1 83 bd 87 04 04 3d 66 1a 9e bd 4e 7f 33 bd
       -0.06430302 0.03223088 -0.07719879 -0.04382258
000210 3e 67 1c bd ca c0 86 3d be 0a 3c 3b 6b f6 b5 bd
       -0.038184397 0.0657974 0.0028692926 -0.08884891
000220 1b bb 93 3d 8a e6 b6 3c c8 b0 49 bd f4 8a 19 3c
       0.07213422 0.022326726 -0.049240857 0.009371508
000230 8c 54 8b bd 95 b2 26 3d be 6c 43 3c e8 f6 95 3d
       -0.068032354 0.040697653 0.011927782 0.07322484
000240 e4 1c 3e 3d 30 b7 c6 bd a4 53 aa 3d f5 f3 a2 bd
       0.04641427 -0.09702909 0.083167344 -0.07956687
000250 4c a1 29 3d 29 15 06 bd 18 cd a8 bd 64 27 8e 3c
       0.04141359 -0.032735024 -0.082422435 0.017352767
000260 fc fa 9f bd da 0b a1 bd 50 a4 82 bc b5 28 8a 3d
       -0.07811543 -0.07863589 -0.01594749 0.067460455
000270 5a cf aa 3c ec b6 3d bd 5a 09 18 bc f7 8a 10 3d
       0.020850826 -0.046317026 -0.009279573 0.035288777
000280 a6 d8 a4 3c dd 4a be bc 9e a4 c5 bb b3 57 40 bc
       0.020122837 -0.023229057 -0.006031587 -0.011739659
000290 0e 91 a3 3d c4 ce bc bd f0 11 cc bc 15 ce c6 bd
       0.07986651 -0.09219125 -0.024910897 -0.09707276
0002a0 30 9b eb bc 7c ca 1a bd 2f 87 da 3c f0 e0 57 bc
       -0.028760523 -0.03779076 0.026675789 -0.013176188
0002b0 b3 9d 3e bd ed b8 ee bc 39 63 04 3c 6d 5b 81 3d
       -0.046537112 -0.029140914 0.008080297 0.06316266
0002c0 2c 48 8b bd 60 8f f8 ba 4e 91 51 bd 0f 7c 8e 3d
       -0.06800875 -0.0018963628 -0.051163964 0.06957256
0002d0 4a 8a d9 3c bc 39 dc ba 69 d0 1e bd e0 c1 9d 3c
       0.0265552 -0.0016801874 -0.038772974 0.019257486
0002e0 cd 4b a1 bd 5d c6 ce 3c 31 2e d9 3d e9 da 8a bc
       -0.07875786 0.025241071 0.106045134 -0.016950088
0002f0 3d 6b 4a bd f6 b0 49 3d 5b f4 ae 3d 21 73 c1 bd
       -0.049418677 0.04924103 0.08542701 -0.09445787
000300 bb c5 0b 3d e4 8f 5e 3d 34 7f cc 3d 89 d0 ae bd
       0.034124117 0.054336444 0.099851996 -0.08535869
000310 63 65 c5 bc b4 c3 02 3d 2b 62 69 3d 59 50 b2 3c
       -0.024096197 0.03192492 0.056978386 0.021766828
000320 b3 49 41 3c ce 48 4d 3d 3e 34 28 3d 76 9e b2 3d
       0.011797356 0.05011826 0.041065447 0.0872163
000330 89 15 cc bd 34 b6 20 3d f6 8b a1 3c a6 12 fc bc
       -0.09965045 0.039236262 0.019720059 -0.030770611
000340 1a 39 8a 3b 90 d8 22 bd b4 05 e3 3d 96 11 c9 3d
       0.004218233 -0.03975731 0.11085072 0.098178074
000350 a3 49 b0 3d 18 9a 84 3d 83 2f f6 3c 51 65 e0 bd
       0.08607795 0.064747036 0.030051952 -0.109568246
000360 b7 45 66 bd c3 c9 7e 3d de da 0d 3d f3 b6 67 bd
       -0.05621883 0.062204134 0.034632556 -0.05657096
000370 85 d9 9d bd 9c 3b ca bc 42 af 42 3b 1a 23 1a 3d
       -0.07707504 -0.024686627 0.0029706513 0.03763113
000380 9d 5c 85 3d 12 98 31 3d 4a ff 01 bd 80 40 38 bd
       0.06511805 0.043357916 -0.031737603 -0.044983387
000390 5a 72 be bd 29 10 f5 bb 23 21 bd bb 8b 24 af ba
       -0.092991546 -0.007478733 -0.0057717725 -0.0013362331
0003a0 08 1e 45 3d 52 0c b4 3d d0 2e dc bc 92 07 b1 3d
       0.048124343 0.087914124 -0.02687779 0.08644022
0003b0 6e 5b 10 3d 38 9e fd 3c 0a ac c5 3d b7 ca 83 bd
       0.035243444 0.030959234 0.096519545 -0.06435149
0003c0 be f4 0c bd 73 9b aa bc 72 db bf 3d db 3a cd bc
       -0.03441309 -0.020826077 0.09368028 -0.025052479
0003d0 61 4f d1 3d 33 10 be bd 7c 0d 43 bd 77 8e 39 3b
       0.102202184 -0.092804335 -0.04762028 0.0028313675
0003e0 40 d4 cc bc 7b c9 a0 3d 8d d5 a2 bd 48 5c 40 bc
       -0.025003552 0.07850929 -0.07950888 -0.011740752
0003f0 7e ad 4f 3d cb 8a b5 bd 2f ec 20 3d 71 6c 98 3d
       0.050702564 -0.08864363 0.039287742 0.074425586

bias f4 [84]
000000 ee 13 91 bd 81 ab 95 3c 14 6a 8d bd 0a 43 c9 b9
       -0.070838794 0.018270256 -0.069049984 -0.00038387656
000010 80 cd 96 bc 41 a3 f0 bc f9 5a 50 3d de 27 07 3d
       -0.018408537 -0.02937472 0.05086801 0.032997005
000020 40 d4 a0 bb e5 61 68 bd 7d fe 5e 3d 98 4d 9f 3d
       -0.0049081147 -0.056733985 0.054441918 0.07778472
000030 7c e1 d0 3d d8 f1 a3 3d 57 b8 c3 bd 74 8a 84 3d
       0.10199258 0.080051124 -0.095566444 0.0647172
000040 7a 2e 2a 3d bc c3 b4 3d ae 6c b3 3d a9 4e d9 bd
       0.04154823 0.08826396 0.087609634 -0.10610706
000050 3b b3 b0 3d c0 63 c7 3d da ab 27 3d bf d3 84 bd
       0.086279355 0.09735823 0.040935375 -0.064857
000060 99 b5 8f 3d bb 3f b9 3c e5 18 03 bc e9 43 34 3d
       0.07017059 0.022613397 -0.008001541 0.044010077
000070 70 85 ac 3d d3 6b bd bd ef 45 84 3c 6c 3e cb 3d
       0.08423889 -0.092490815 0.016146628 0.099240154
000080 9b af 17 3d 9a 1e 66 3d e4 5f c9 bd 0e 3c 61 3d
       0.037032705 0.056181528 -0.09832743 0.054988913
000090 8e f6 86 3d a8 36 d9 3b 79 c2 13 3d 51 2c 3c bd
       0.06589995 0.00662883 0.036074135 -0.0459407
0000a0 65 0b b4 3c 7b 5f b5 bd 25 6e 2e 3d 86 a3 5e bd
       0.02197809 -0.08856102 0.04258551 -0.054355167
0000b0 a6 65 90 bc a4 79 43 bd 6f 38 64 bd 27 36 a2 bd
       -0.017626595 -0.047723427 -0.05571788 -0.07920485
0000c0 eb 4f 53 bd fc 29 15 bd ab 9e 02 bc 28 d1 84 3c
       -0.051589888 -0.036416993 -0.0079724 0.016213015
0000d0 d3 38 b7 bd fb 1d 4c 3d 72 7f cc bc 4d cc 15 3c
       -0.08946385 0.04983328 -0.024963114 0.009142947
0000e0 0f 49 da bd 07 45 b0 3d a9 11 38 bd 25 f9 41 bd
       -0.10658466 0.08606916 -0.044938717 -0.047356743
0000f0 7b 9e 8d 3d 3f fc 0c 3d c1 7e ae bb 4c 41 19 3d
       0.069149934 0.034420248 -0.005325169 0.037415788
000100 5b 33 c2 bb 50 3e 73 3c 97 24 68 bd 96 ef 66 3d
       -0.005926532 0.014846399 -0.05667552 0.05638083
000110 9a f8 25 3d b9 de b7 bd 62 ed 98 3d 50 be 74 bc
       0.040520288 -0.08978028 0.07467152 -0.014937952
000120 68 66 02 3a 31 1d 20 bd 4c 41 29 3c c8 3e 74 bb
       0.0004974366 -0.03909034 0.010330509 -0.0037268866
000130 34 d1 89 3d ad 62 8f bd 79 63 b5 bd 58 57 18 bc
       0.067293555 -0.07001243 -0.088568635 -0.009298168
000140 d2 a4 a1 bd 27 1e 4d 3c 79 ec ca 3c 52 74 d7 bb
       -0.07892765 0.012519396 0.024770962 -0.0065751458

weight f4 [42, 84]
000000 83 e2 d3 3b bc cb 8b 3d 73 c6 03 3d 34 e5 4b bd
       0.0064662113 0.068259686 0.032171678 -0.049779132
000010 57 69 42 bd b3 77 81 bd 04 83 8f bd 91 d3 30 3d
       -0.04746374 -0.06321659 -0.07007411 0.043170515
000020 26 c0 69 bd f2 6e 75 bd 76 a1 e2 3a 62 8f 43 3d
       -0.057068013 -0.05992026 0.0017290551 0.047744162
000030 75 40 a9 3d e6 32 71 3d 26 60 2b bd c4 43 1c 3d
       0.08264247 0.05888643 -0.04183974 0.038150564
000040 61 3b 88 bd 21 3e 50 bd 24 08 f0 bc a9 ae f9 bc
       -0.06651951 -0.0508405 -0.029300757 -0.030478792
000050 fd 86 9b bd 56 14 a9 3d 9e d1 d0 3d 1e 92 c1 bd
       -0.07594106 0.08255832 0.10196231 -0.09451698
000060 e2 70 af 3d c4 4e c1 bc 07 cd 23 bd 4e 3d ac bd
       0.085664526 -0.023597129 -0.03999045 -0.084101304
000070 0f fd 35 3d 6e dd 14 3d 1b 50 e4 3c a7 db 8f bd
       0.04443079 0.036343984 0.027870229 -0.07024317
000080 45 64 3c bd e1 29 05 3d 03 d3 b4 bd 77 64 1c 3c
       -0.045994062 0.032510642 -0.0882931 0.009545437
000090 33 ff 2e bc eb b6 06 bd e9 db 45 bc d9 c2 f7 bb
       -0.010680961 -0.032889288 -0.012076356 -0.0075610694
0000a0 1f 3e 21 3c 7a 72 87 bd 64 e4 6c 3b e4 15 9f 3c
       0.009841471 -0.066136315 0.0036146874 0.019419618
0000b0 42 27 58 3a 5c dd 04 3d e7 11 7d 3b 9f 5a 7f bd
       0.0008245596 0.032437667 0.0038615407 -0.062342282
0000c0 81 03 2f 3c 09 35 50 bd 7d 3e 1c 3c 65 68 4a 3d
       0.010681988 -0.05083183 0.009536383 0.049415965
0000d0 e6 e4 87 3d 74 fd ad bd 8b 48 93 3d 71 65 c9 3b
       0.06635456 -0.08495608 0.07191571 0.006146126
0000e0 79 15 31 bd 3f 36 b6 3c 27 6e 81 3b 61 6d be bd
       -0.04323337 0.022242663 0.0039498988 -0.09298206
0000f0 b3 36 6d bb 9b 51 6c 3d 9e c0 d3 3d e3 b5 b5 3d
       -0.0036195933 0.057695013 0.10339473 0.08872583
000100 35 6a 10 3d e9 b0 a9 bc 2e 05 de bd f6 5b 08 bd
       0.035257537 -0.02071424 -0.10840832 -0.033290826
000110 03 24 d2 3c 5c 65 e5 3c 11 92 b5 3d 67 6c 8a 3c
       0.025651937 0.028002433 0.088657506 0.016897393
000120 b4 a7 bf bd 4f 7f d0 3c 89 f2 bf 3d 56 11 81 3d
       -0.09358159 0.02545133 0.09372432 0.06302135
000130 40 f4 fd 3c 61 01 19 3d 6f 88 6c 3d 82 44 a8 3d
       0.031000257 0.03735483 0.0577473 0.08216192
000140 6a 38 3f bd 4d 1c cb 3b 16 17 29 3a 2a 10 04 3d
       -0.04668466 0.006198442 0.00064502785 0.032241978
000150 47 07 77 bd 1a 26 9d 3a 8f 91 00 b8 8a f2 af bd
       -0.060309675 0.0011989505 -3.065314e-05 -0.085911825
000160 9e e4 ac bc 4d 95 0f bd 28 91 83 ba 04 e8 20 3d
       -0.021105107 -0.035054494 -0.0010037767 0.039283767
000170 b7 c1 86 3d 44 d1 c6 bd 98 c4 92 bd e6 50 a3 3d
       0.06579917 -0.09707883 -0.071664035 0.079744145
000180 a2 25 84 3d 8f 63 d6 3c 79 44 55 b9 0a d7 93 bd
       0.064524904 0.02617052 -0.00020338771 -0.0721875
000190 bb 93 64 3c fd dc 0a 3d 5c b5 ef 3d d0 d0 b1 bd
       0.013951237 0.033902157 0.117045134 -0.08682406
0001a0 61 b6 5a 3d df 1c c2 3d f8 9a fe bc f4 7e c6 bd
       0.053396586 0.09478163 -0.031079754 -0.09692183
0001b0 bc a4 ee 3b df bb 80 bc 34 4d d3 bd ea b8 9f 3d
       0.0072828215 -0.015714584 -0.1031746 0.077989414
0001c0 72 65 93 3d 8a 46 b0 b9 2d 38 2f bd f4 a0 84 bd
       0.071970835 -0.00033621892 -0.042778183 -0.06476012
0001d0 96 15 04 3c c8 58 58 bd 92 51 74 3d 6d e0 d9 3c
       0.008061787 -0.052819043 0.059648104 0.026596272
0001e0 a6 78 4d 3d d1 e2 92 bd 21 ef 28 3d f2 3a 91 3d
       0.050163887 -0.07172168 0.041243676 0.07091321
0001f0 a6 66 80 3d f5 b6 7f 3d 2d 3e 96 3c 04 47 f5 3c
       0.06269579 0.06243034 0.018340195 0.02994109
000200 40 34 f8 3c 22 20 25 bd b3 46 a7 bb 1c 4b e7 bc
       0.030298352 -0.040313847 -0.0051048636 -0.028234057
000210 e2 e6 07 bd 1e 03 ab bd 1a ea 6d 3d 5c cb bd 3d
       -0.03317917 -0.08350204 0.058084585 0.09267303
000220 e3 d3 e6 3d 3c 67 25 bd 6b 9a f7 bb 4d 98 b3 3d
       0.11270883 -0.040381655 -0.00755625 0.087692834
000230 45 05 ba 3d b3 aa 21 3d 0a 78 a2 3d 00 aa 9a bd
       0.09083036 0.039469432 0.07933052 -0.07551956
000240 ee 0f 69 bd 13 f1 82 3d 8f e3 4a 3d a4 a8 1d bc
       -0.056899957 0.063936375 0.049533423 -0.009622727
000250 7b 37 75 3d 6b 6d 23 bd 82 a8 04 bd d9 b7 e1 3c
       0.059867363 -0.03989927 -0.032387264 0.027553486
000260 a3 7d 77 bd 77 52 77 3d 13 4e 80 3c af ec 05 bd
       -0.06042255 0.06038138 0.015662229 -0.032696422
000270 64 e0 93 3c f0 99 8c bd cb 89 92 3d 0d 05 cc bd
       0.018051334 -0.06865299 0.07155188 -0.09961901
000280 c1 ee 42 bd 63 d1 e9 bc 77 a6 1d bc 8d 68 29 bd
       -0.047590975 -0.028542226 -0.009622208 -0.041359473
000290 57 7f 1c bb 80 59 b1 3d 01 5b a4 bc fb 47 bb bc
       -0.0023879611 0.08659649 -0.020062925 -0.022861471
0002a0 2a 90 81 b8 5a 3a 2a bc a6 e2 66 3d 8a 12 81 3d
       -6.178052e-05 -0.010389889 0.056368493 0.06302364
0002b0 44 1d 6e 3c ec 22 b5 bd f9 0c 89 bc 73 49 11 ba
       0.014533345 -0.088445514 -0.016729819 -0.0005542256
0002c0 05 70 42 bd 1e 87 e5 3d 9f 98 8e bd 10 58 9c bd
       -0.04747011 0.11207412 -0.06962704 -0.07633984
0002d0 4a 9e a4 bc 94 7c 52 bc 79 50 8c 3b e5 9f a1 bd
       -0.02009501 -0.012847085 0.004282054 -0.078918256
0002e0 1a 9a 5c bd c5 5b ba 3b e0 c1 be bd 75 ff 02 bc
       -0.0538579 0.0056872093 -0.093143225 -0.007995476
0002f0 66 e9 5d 3d c2 83 c2 bc 74 ea 8c 3c 9d 83 26 bc
       0.054177664 -0.023744468 0.01720164 -0.010163215
000300 b2 4f 51 3d 68 60 dd bd a3 bf a4 3c 84 78 f6 bb
       0.051101394 -0.10809404 0.02011091 -0.007521691
000310 20 47 b9 3d fd 72 b7 3c ca 53 26 bc d0 cf 3a bd
       0.09046769 0.022393698 -0.010151813 -0.04560834
000320 c8 b3 ae bd 5f 1a af bd 40 dc ec 3c 37 2a a2 bd
       -0.08530384 -0.08549952 0.028913617 -0.07918208
000330 1b 7b 8a bd a5 6d a6 bd 01 8b 43 bd 16 3f b0 3d
       -0.06761762 -0.08126382 -0.047739986 0.08605783
000340 0a d1 10 3d b8 f3 34 3d f9 26 6d 3c 7d 74 93 3c
       0.035355605 0.04417774 0.014474624 0.017999882
000350 0b 5d b6 bd 0c 2f c6 bd 28 85 4b bd 65 51 ae bd
       -0.08904465 -0.09676942 -0.049687535 -0.085116185
000360 61 a4 cf 3d 48 cb e3 3c f0 88 b2 bd a1 6d ca 3c
       0.10138775 0.027806893 -0.08717525 0.024710478
000370 d2 87 83 bd cf 07 96 3b ff d5 9a 3d 43 b8 04 bd
       -0.0642239 0.0045785676 0.07560348 -0.03240229
000380 6e cf af 3d b1 dc 80 bd 6a 23 a1 bd 3e 0b 42 3d
       0.08584486 -0.062920935 -0.07868083 0.047374003
000390 93 07 21 3d 52 9a 52 3d ed a9 c1 3d 2d 49 5b bd
       0.039313864 0.051416703 0.09456239 -0.053536583
0003a0 19 86 e8 3d ec dc 9e 3b b8 88 84 3d 01 70 48 3d
       0.11353702 0.0048481133 0.064713895 0.04893494
0003b0 3b 5a ea bc 31 dc ba bc 70 b7 9b bd 8b 25 e0 3d
       -0.028607478 -0.022810074 -0.07603347 0.10944661
0003c0 ef 10 1d bb f7 72 84 3d 19 73 04 3d 68 4f e1 bb
       -0.0023966392 0.0646724 0.03233633 -0.006875921
0003d0 0c a0 92 bd 93 0c b8 3d 21 e7 09 3d a3 09 8e 3d
       -0.07159433 0.08986773 0.033667687 0.06935432
0003e0 9e 8d d0 3d 62 eb 4e bd 16 74 32 bd 63 87 04 3d
       0.10183261 -0.050517447 -0.04356774 0.032355677
0003f0 de 37 49 bc a0 b6 3c bc 11 05 75 bb c0 de 8f 3d
       -0.012281386 -0.011518151 -0.0037387053 0.07024908

bias f4 [42]
000000 58 26 59 3c c0 1e 3a 3d 8b 71 c0 3d ec b8 0e bd
       0.013253771 0.04543948 0.093966566 -0.034844324
000010 be 6a 20 bd af 28 8d bd b1 8e 2b bd 29 c3 05 bd
       -0.039164297 -0.068925254 -0.041884128 -0.032656822
000020 9d 79 a9 3d 31 79 25 3d ad 00 f8 bb a6 73 c9 bd
       0.08275149 0.04039878 -0.00756844 -0.09836511
000030 4a 12 2b bd b8 ce 32 bc 61 50 b3 3d 77 51 a1 bd
       -0.04176549 -0.010913543 0.087555654 -0.07876866
000040 d5 db 2a bd bb 96 76 bd 30 db 2f 3d f2 ea 4b bd
       -0.041713554 -0.06020234 0.042933643 -0.04978461
000050 d1 91 55 3d a0 c8 28 bb 27 99 27 bc 4f 98 ad 3d
       0.052141014 -0.0025754347 -0.010229385 0.08476316
000060 3b f2 6d bd 0f c5 84 3d fe e4 a9 3d 81 9d 28 bd
       -0.058092337 0.064828984 0.0829563 -0.041165832
000070 3d 71 87 3b 10 c2 cb 3c 95 96 a2 bd c6 8c bf bd
       0.004133372 0.02487281 -0.079388775 -0.09353022
000080 39 f9 38 3d f9 00 fe 3c 34 f9 aa 3d 1f fd 1f 3c
       0.045159552 0.031006323 0.08348313 0.009764939
000090 8c 31 c0 bd ba 03 aa bd 20 95 46 bd 9b 82 ac 3d
       -0.0938445 -0.08301492 -0.04848206 0.084233485
0000a0 13 fb 83 bd 6f c4 e7 bc
       -0.06444373 -0.028291909

weight f4 [1, 42]
000000 23 9a 6b 3d 4d 06 aa 3d b0 3c ba 3d 76 88 76 bd
       0.057520043 0.08301983 0.090936065 -0.060188733
000010 1a 25 fa 3d 19 79 65 3d 5d 05 00 be 26 fe fc bd
       0.12214108 0.05602369 -0.12502046 -0.123531625
000020 a7 fd 4a bd f8 69 e3 3d 76 5e f1 3c f1 9a 12 3e
       -0.049558308 0.11104196 0.029463988 0.14316918
000030 07 7f 06 3d 9a c5 f9 bb 47 93 c7 bd c4 a6 69 3d
       0.032835986 -0.007622433 -0.09744888 0.057043806
000040 f3 46 f5 3d 02 35 97 bc 34 7a f3 bd be 85 69 ba
       0.11976423 -0.018457893 -0.11888543 -0.0008908174
000050 f4 ee a1 bd 71 54 81 3d 44 eb 8d bc 34 47 c8 bd
       -0.07906905 0.06314934 -0.017324097 -0.09779206
000060 65 f8 b7 3d cd 76 df 3d 59 47 08 be 7c 4a a7 3d
       0.08982924 0.10911331 -0.13308467 0.08168504
000070 94 b2 d5 3d c4 f1 20 bc 70 8b 02 3e 06 bb 46 bd
       0.10434452 -0.009823266 0.12748504 -0.048518203
000080 da 90 00 3d b6 32 ac 3d dd a6 f3 bd eb 0d 91 bd
       0.03138814 0.0840811 -0.11897061 -0.07082733
000090 ca 8c 00 bd 4a be 6b bd a6 7a c7 b6 b2 19 f1 3b
       -0.031384267 -0.05755452 -5.9449403e-06 0.0073577994
0000a0 18 c7 99 ba e0 16 c4 3d
       -0.0011732308 0.095746756
