ModelUnpredictability/one_thousand_brains/predictor_134.model (torch_old, 109395 bytes, 7 tensors)

weight f4 [84, 168]
00000000: 559f 863d 68d0 823d 2962 25bd 185c a23d
00000010: 1f35 18bd 635c a23b 15b5 943d c4ab 673d
00000020: 7866 fabc a8a3 c33d 76f1 8bbb 18fd 223d
00000030: 5756 a43d 1530 99bc fa09 cfbc a7ee 463d
00000040: 135f 8e3d 5963 5c3c 6380 993d c093 bf3d
00000050: 4cce 84bc e8f3 28bd 7420 af3d f6f2 b63c
00000060: 1d4f 03bd d17c fe3c f7a0 ac3d b7a9 a33d
00000070: 8966 cbbc 7a25 51bd 373f 4b3d 22e7 f0b9
00000080: 12b2 3f3d 2f57 64bd b561 4c3b 756c a93d
00000090: 8219 8f3d bf7b 1d3c 3cc3 9dbc 0856 c2bc
000000a0: 61a2 a03c ac51 913d 06e4 39bd 0b48 36bd
000000b0: 9ca2 fcbc 2454 8c3d 6fbe 1c3d 827f 893d
000000c0: 2959 a5bc add7 c8bc dba0 a93d 4b1c 903b
000000d0: 5464 a83d df31 793c 7967 893d e27c 3bba
000000e0: 1853 11bb 35e7 7c3c 3ae5 b53d 5f72 68bd
000000f0: 7965 88bc 54ee 403d b903 fc3c 55cb 333d
00000100: c7d6 55bd 5752 4b3d be2c a53d f64c 883d
00000110: c01a 543d c73b 22bd 892f 9b3c c21a 913d
00000120: fbe9 32bc 7151 753c dc92 ac3d 1ead 283d
00000130: 6ed5 f63b 53e2 b83d c1cf c23d b538 8abc
00000140: da26 323d ede7 b53d 333a 0e3d 8788 23bd
00000150: d7cf 67bd 906a 7e3d 5fb8 893d b227 16bd
00000160: 6fc8 2abd ebe9 0bbd d0e0 953d 1c8e b63a
00000170: d7ee 6d3d 34eb fb3c 2a15 20bd 8276 ac3d
00000180: 7f74 4d3d 9a57 f63c e336 b83d 169f 9e3d
00000190: 4bb7 25bd 1ff1 17bd c06f ad3d 0855 46bc
000001a0: e46a 223c c420 b63d 7c2a 8b3d 6720 063d
000001b0: f5f8 8d3b 6e49 11bd 3032 5bbd 67ff d6bb
000001c0: 9ff1 eb3c c60b 053c 9d96 06bd c654 7ebc
000001d0: 70c6 7e3d 5985 bf3d 9bc9 c8bc ee14 93ba
000001e0: 591f a73d 8eb0 ffbc 2993 3c3d a6df 9e3d
000001f0: f532 ce3c bc6a 853d a99f 203c 8454 a83d
00000200: 7b61 3cbd 8fcc cc3c 48a0 6e3d 749d edbc
00000210: e8c0 303d 39a9 063d 838d 3f3d cca0 0f3d
00000220: a6db b03d e568 96bb c603 b03c d338 46bd
00000230: 229f 963d 1c31 76bc c091 06bd 16ea 093d
00000240: 3b4b b43d 763b 92bc b205 223d 8541 1b3b
00000250: a229 5a3d 57c9 4e3d 6c24 9bbc 691b cfbc
00000260: 7244 683d 83d5 0e3c eace c73b 0b0c 0e3d
00000270: 8a9a 733c e798 603d 9cda 773d 37eb 9cbc
00000280: ae29 403d badd faba e824 8e3d f410 4bbc
00000290: 08d4 9a3d 768c 1abd d7dc 77bc cf04 5dbc
000002a0: c316 0b3d 9504 643d c042 ab3d cb60 5ebc
000002b0: 536a 313d ae67 56bd 067f a03d 481a af3d
000002c0: dc19 343d 0b8c 8e3d 9062 9d3d c7ca ae3d
000002d0: ad64 1a3d cf41 d7bc b69e 0a3d a3e4 b03d
000002e0: 5e6a 64bd d9e5 b13d 5303 0abd 33a9 5e3c
000002f0: d371 94bb 38dd ac3d f22a 7dbc 414e 4b3d
00000300: 2bad ea3c 70ea 1b3d 38ac 7aba 1b6d f63c
00000310: ec6d 8c3d f9e1 453d f77a 5fbd 6e37 31bd
00000320: 7e9b 9ebb 7c65 8a3c 60d9 fb3c c9ae 8e3d
00000330: 1410 b03c b286 4e3c 3006 15bb 1a58 823d
00000340: e5e2 9b3d 91db 8b3c 2a82 90bc 2a60 a8bc
00000350: d9ea 2b3c 70b3 583c 8d48 33bd d28d 173d
00000360: 0446 733d c06b 413d 37ff 5dbd a68e 143c
00000370: e35b 31bc 33cc 723d 029f 04bd ca75 203d
00000380: e17d 2abc aa86 233d eb79 16bd a39c 1abd
00000390: 064e 33bb 07ad 5bbd af1d 203c f24e 33bc
000003a0: 06ef ad3d 04f8 3ebd a14a 2abc 2b08 ae3c
000003b0: 5c14 7d3d 6cdb d9bc 491c 8d3d 7565 dfbc
000003c0: 15b0 3fbd 4424 673d ffce 29bd b8d3 4a3d
000003d0: 2e9f 923d 1a07 123c f51b c23c 119b 1ebc
000003e0: 6bf9 983d 42cc 56bc b7fc 70bd 5c4d 543d
000003f0: 6722 053c d061 36bd 20cf 2abd 8bde ad3d
0.06573359 0.063874066 -0.040376816 0.07927722 -0.037160035 0.004954861 0.07261101 0.056560293
-0.030566439 0.09552699 -0.0042707277 0.03979215 0.080242805 -0.018699685 -0.025273312 0.04856744
0.06951728 0.013451421 0.07495191 0.09354353 -0.016211651 -0.041248232 0.08551112 0.02233265
-0.03205787 0.031065376 0.08429139 0.07991355 -0.024829166 -0.05106113 0.049620833 -0.00045948575
0.04680068 -0.055747207 0.0031186168 0.0827264 0.06987287 0.009612023 -0.019258134 -0.023722664
0.019608678 0.07095656 -0.045383476 -0.0445023 -0.030839257 0.06851986 0.03826755 0.06713773
-0.020184116 -0.024516905 0.08282634 0.004397904 0.08222261 0.015209644 0.06709189 -0.0007152093
-0.0022174772 0.015435983 0.08881612 -0.056749698 -0.016649948 0.047102287 0.030763494 0.043895084
-0.05220678 0.049639072 0.080651745 0.06655304 0.051783323 -0.03960779 0.018943565 0.07085182
-0.010920043 0.01497303 0.08426449 0.041180722 0.007532767 0.09027543 0.09512282 -0.016872743
0.043494083 0.08882127 0.03472347 -0.039925124 -0.056594696 0.062113345 0.06724619 -0.03665895
-0.041695055 -0.03415863 0.0731827 0.001392785 0.058089104 0.030751802 -0.039082684 0.08421041
0.050159927 0.030071069 0.08994844 0.07745187 -0.040458005 -0.037095185 0.0846858 -0.012105234
0.00991318 0.08892968 0.067952126 0.032745745 0.0043326565 -0.03547042 -0.05351466 -0.006561208
0.028801737 0.008120483 -0.03285848 -0.015523141 0.062200963 0.09351606 -0.024510195 -0.0011221447
0.08160276 -0.031212118 0.04603878 0.07757501 0.025170783 0.065144986 0.009803691 0.08219245
-0.045991402 0.024999885 0.058258325 -0.029005744 0.04315272 0.032876227 0.046765815 0.035065457
0.086356446 -0.004590141 0.021486174 -0.048394036 0.07354571 -0.015026357 -0.03285384 0.033670507
0.088034116 -0.017850619 0.039556213 0.0023690176 0.05326236 0.05048498 -0.018938266 -0.025281625
0.0567059 0.008717897 0.006097664 0.034679454 0.014868388 0.05483332 0.060511217 -0.019155128
0.04691475 -0.0019139566 0.06940633 -0.012394179 0.07559973 -0.03773161 -0.015128336 -0.013489916
0.033957254 0.055668432 0.08362341 -0.013572882 0.04331429 -0.05234497 0.07836728 0.085499346
0.043969974 0.06960305 0.07684815 0.085347705 0.03769367 -0.026276497 0.033842765 0.08637359
-0.055765502 0.08686418 -0.033694576 0.013590145 -0.0045301705 0.08440632 -0.0154521335 0.049635176
0.028647026 0.038065374 -0.0009562406 0.030081322 0.068569034 0.048311207 -0.054560628 -0.043265752
-0.0048403135 0.016894095 0.0307433 0.069669314 0.021492042 0.012605356 -0.0022739284 0.0636446
0.07611636 0.01707247 -0.017640192 -0.020553667 0.010493004 0.013226375 -0.04377036 0.037000485
0.059392944 0.0472219 -0.05419847 0.009067213 -0.01082513 0.05927677 -0.032378204 0.039174832
-0.010405988 0.039923348 -0.036737364 -0.037747037 -0.0027359738 -0.05363181 0.009772702 -0.010944115
0.08492856 -0.046623245 -0.0103937695 0.02124413 0.061786994 -0.026593886 0.068901606 -0.027270058
-0.046798784 0.05643107 -0.041457172 0.049518317 0.07159267 0.008912826 0.023694972 -0.009680525
0.07469448 -0.013110222 -0.058834758 0.05183159 0.008125878 -0.044526875 -0.041701436 0.08489712

bias f4 [84]
00000000: f2dd 493d 4992 1bbd a09f 9abd 1ff3 a73c
00000010: 1f98 0d3d 4c3a bcbc 2609 86bd c998 42bd
00000020: 5c54 aa3c d810 933d 8007 d4bc 54c2 53bb
00000030: f6e2 9e3d 5a13 7639 99d2 b9bc dd72 97bd
00000040: f9fd 2f3d 5c9a a6bd 0eed 70bd 08fd 633d
00000050: 5f58 32bd 596c 09bc bbe2 0abd 8b78 73bc
00000060: 81e0 80bd b24f 0d3d c94b 7cbc cb17 1fbd
00000070: 2058 6d3d 977d 5fbd 4c6a ba3c d454 943d
00000080: 935d 43bd c39c 693c b3e2 11bd ee57 ccbc
00000090: daab 813d a055 d2bc 82aa 66bd 5b8a 823d
000000a0: 2963 76bd ed81 54bd f65e 92bd e433 89bd
000000b0: 8689 6ebc 0ed1 0f3d 9f4e ba3c 3be1 393d
000000c0: 4005 7ebd 7a55 323d 9345 6dbd e62d 9cbd
000000d0: 5550 09bd dad8 8bbc c1de 09bd 442a d1bc
000000e0: a406 b73d 21f1 a63c 81fb a73d 118b 30bd
000000f0: 3231 0e3d 7b3b 6abd 44fe 00bd e740 60bd
00000100: 86ca 8dbd b5c6 bb3c 30a9 91bd 49c8 99bc
00000110: 0ece 613d 63bd 5e3b 7ce7 63bd 5662 bd3c
00000120: 032b 7a3d f81d 2fbd f2f5 513d 7a7a 66bd
00000130: 5dfb 2fbd e8da aa3c d5d9 bbbc 1098 51bd
00000140: a6fd 1fbc 9237 e5bc 03c2 603c 7236 353c
0.04928393 -0.037981305 -0.07549977 0.020501671 0.034568902 -0.022977017 -0.06544714 -0.04750899
0.020792179 0.07180947 -0.025882483 -0.0032311874 0.07758133 0.00023467597 -0.022683429 -0.07394955
0.042966817 -0.081349105 -0.058819823 0.05566123 -0.04354131 -0.0083876485 -0.033907633 -0.014860283
-0.06292821 0.03449983 -0.015398928 -0.03884105 0.05794537 -0.05456313 0.022755764 0.07242742
-0.04769666 0.014258566 -0.035616588 -0.024944272 0.06331606 -0.025675595 -0.056314953 0.063740455
-0.06015316 -0.05188172 -0.071470186 -0.066993505 -0.014559155 0.03511148 0.022742568 0.045380812
-0.062016726 0.043538548 -0.05792768 -0.07625942 -0.033523876 -0.017071176 -0.0336597 -0.02553285
0.089368135 0.020378651 0.082022674 -0.043101374 0.034714885 -0.05718563 -0.031492487 -0.054749396
-0.06923394 0.0229219 -0.07112348 -0.018772261 0.05512815 0.0033987395 -0.055640683 0.02311818
0.061076175 -0.04275319 0.051259942 -0.056269147 -0.042964328 0.020856336 -0.022931019 -0.05117041
-0.009765064 -0.0279806 0.013718131 0.011060344

weight f4 [84, 84]
00000000: 940d c73d 5535 333c 1c6a 0fbd 7f7c aabd
00000010: 7d3f 52bd 2f84 af3d 0f18 d5bd 607b 4a3d
00000020: a70d 8cbd 8911 bfbd 279b 2cbd 6fd1 b8bd
00000030: 4377 1e3d cb4c 21bd 6c4c 2c3c 3c01 693d
00000040: 9333 57bd 0541 313d 8407 d53c 6793 edbd
00000050: 9c3c 5fbd f2d4 63bd 54b3 20bd 0c30 8e3d
00000060: ed37 773d 1e40 85bc 724a c63d 7cad bf3d
00000070: fa34 d1bc acff a23d 7a29 d4bd 746f 96bc
00000080: 192e cbbd 47cc bcbc e86a c23a 43a1 c13d
00000090: e35b 06ba 8c52 1d3d 5af6 b0bd 27bb a33c
000000a0: 6a28 dfbd 16c2 ca3d 815e bebd 7ff8 8abd
000000b0: b623 503c f14c eaba f4ea 183d 734f bd3d
000000c0: b90f 533d 22e1 3f3d f129 b73d 3b0e 12ba
000000d0: 1cb3 e9bd 9e1c a43d efac 47bc 033c c23d
000000e0: 87b6 57bd 755f 9e3b 0247 c03d abb3 b0bd
000000f0: 9d48 b2bd 1c16 a5bd c278 18bb b570 ebbd
00000100: c588 673b 46cc 863c f721 b5bd 56c9 c1bd
00000110: 707f db3d 0bc6 da3d aa31 8c3d 846d 873d
00000120: 04d5 d93d 0da3 febb ee79 b3bd 9a9f 94bd
00000130: 069d c0bd 7371 91bd 4f76 dcbd 7dbe cabd
00000140: 5437 d63d 86fc b33d ccd0 adbc b104 d8ba
00000150: ecdd e2bd 0959 76bd 14a2 123d 4f9a 0cbc
00000160: 2ba8 e23b 7d49 2abd 595e 9bbd 81b4 10bc
00000170: 04de 713d 1e40 98bc ccaa 953d 510f d6bd
00000180: 00b4 713d d459 c43b 1d24 f6bd 8f1c 67bd
00000190: b07f 22bd fc12 fc3d c66f 913d a2cc bdbc
000001a0: b015 c2bd 98fe aebd 0fb1 b8bd 1bc1 29bd
000001b0: acb1 7fbc c0c1 a23d 0bdb 4c3d 5571 ce3d
000001c0: 2d6a 583d 4200 1a3c 423c 3c3d 7b5a acbd
000001d0: 0db8 9c3b fbf8 223d a148 ec3d 2845 9e3d
000001e0: 27d9 cd3d 3e0c 01be fb7c 06be 0ad5 b43d
000001f0: 971f 313d e275 ecbd 2446 53bd 20f6 2fbb
00000200: ffbb c0bd 6d0a e83c 06f8 75bd f57a a23d
00000210: a352 ba3d 5402 e2bc 8186 acbc 4a6e 783d
00000220: 1b74 99bd 45bd 89bd f40b 24bb ae08 01be
00000230: acfc a63d 5612 44bd 4d9d 16bd 6d4a 723c
00000240: 5ba5 d33c 5d40 d5bb 6045 3e39 c167 aa3d
00000250: 33d7 893d 353a 54bd e87d a8bd b33a 10bd
00000260: 2738 fcbd 7406 5dbd 127d 5a3d 8e34 0cbc
00000270: 2fa0 cf3d ea4a a73d 8fad 51bd 6b04 9a3d
00000280: 7af4 543c 83c4 48bc 679d 303d e717 813d
00000290: e6e1 a73d 824b be3d 9874 f43d 787d b2bd
000002a0: a3d5 afbd 5722 58bd 47e6 6f3c 26b1 02bd
000002b0: c593 a5bd 2351 1dbd 012f ee3c e6bd b13d
000002c0: 78cc 103d 8882 6ebd 503f 6c3d 57c0 583d
000002d0: b6a3 d73d 7734 833b 353f 4fbd 357c 873d
000002e0: 1624 a63c eed3 c1bd 7134 333d 8d51 8cbd
000002f0: ff62 51bd d8b1 b8bc 0db6 c2bc 63ac 223b
00000300: 2303 a63c 50ea af3d ff37 063d 92a9 3bbd
00000310: dbb9 873a 85e9 50bd 5fa8 253c 27c3 3abd
00000320: b78a eaba 854a 463d 347f 503d 07c7 8dbd
00000330: c699 71bd ccc2 de3c 531a 803d 61d5 c7bb
00000340: a1ef 09bd 2aee e7bc c551 843d 8024 cdbd
00000350: 67ff 86bd 470d ac3d 69f2 c63c d2c4 543c
00000360: 4792 90bd b380 d0bb f4fc 0cbd 6a56 3f3d
00000370: 5e49 62bc f368 08bd 8795 84bd 6261 133d
00000380: fa39 e53d c970 fe3c a910 843d 68d5 61bd
00000390: 3d7a b63d feaf c8bd 3673 5c3d 1ed3 c0bd
000003a0: f284 c73d 5d68 603d 23e0 79bd d6af 4bbd
000003b0: 77c8 81bd 2d5f 07bd 3d09 ab3d 357e 5dbd
000003c0: e69a 92bd 6500 823c 40ce c23d 039b c43d
000003d0: bd0d 4c3d 3bce a0bd a789 ff3c dbf8 ff3c
000003e0: 02ce e63c d376 85bd a5fd b03d 7d0c 8ebd
000003f0: 02be 63bd 60f3 93bd bb8c 1bbd ace4 b0bd
0.09719387 0.010938008 -0.035013303 -0.08324527 -0.05133008 0.08570134 -0.104049794 0.049434066
-0.068385415 -0.093295164 -0.042140152 -0.09024321 0.038687956 -0.039379876 0.010516267 0.056885943
-0.05253942 0.043274898 0.02600456 -0.116003804 -0.05450116 -0.055623002 -0.03923352 0.06942758
0.06035607 -0.016265925 0.09682168 0.093592614 -0.025537957 0.07958922 -0.103594735 -0.018363692
-0.09920902 -0.023046626 0.0014832886 0.09454586 -0.00051253865 0.0384088 -0.08640738 0.019986702
-0.1089638 0.099003 -0.09295369 -0.06785678 0.012703827 -0.0017875714 0.037333444 0.09243669
0.051528666 0.046845563 0.089435466 -0.00055715785 -0.114111155 0.08013271 -0.012187227 0.094841026
-0.052664306 0.0048331567 0.09388544 -0.08628019 -0.08705256 -0.08060858 -0.0023265337 -0.114961065
0.0035329324 0.016454827 -0.08844369 -0.0946223 0.10717666 0.10682305 0.0684541 0.06612685
0.10636333 -0.007770902 -0.087634906 -0.07257004 -0.0940495 -0.07101717 -0.10764753 -0.09899614
0.10459772 0.087883994 -0.021217726 -0.001648089 -0.110774845 -0.060143504 0.0357991 -0.008581712
0.00691702 -0.04157399 -0.07586355 -0.008832098 0.05904962 -0.018585261 0.073079675 -0.1045214
0.059009552 0.0059921537 -0.12018607 -0.05642372 -0.039672554 0.123083085 0.07101397 -0.023168866
-0.09476793 -0.08544654 -0.09018146 -0.041443925 -0.015606325 0.07947111 0.050013583 0.1008021
0.052835632 0.0093994755 0.045955904 -0.08415695 0.0047826828 0.039788228 0.1153729 0.07728034
0.10051184 -0.12602326 -0.13133614 0.088296965 0.043243017 -0.11545922 -0.051580563 -0.0026849583
-0.094108574 0.028325284 -0.060050987 0.079336084 0.09097793 -0.027589 -0.02106023 0.060652055
-0.074928485 -0.067255534 -0.0025031539 -0.12600967 0.08153662 -0.04786905 -0.036771107 0.014788252
0.025835684 -0.006507917 0.00018145656 0.08320571 0.06730499 -0.051813323 -0.0822714 -0.03521223
-0.12315398 -0.053961232 0.053341933 -0.008557452 0.101379745 0.081685856 -0.05119091 0.07520374
0.012997741 -0.012253883 0.04311886 0.06303387 0.081973836 0.09291746 0.11936301 -0.087153375
-0.0858567 -0.052767124 0.014642305 -0.031907223 -0.080848254 -0.038407456 0.029075148 0.086787984
0.035351247 -0.058229953 0.057677567 0.052917805 0.10529272 0.004004057 -0.05059739 0.066154875
0.020280879 -0.094642505 0.043751184 -0.06851492 -0.0511198 -0.02254574 -0.02376845 0.0024821989
0.020265168 0.085896134 0.032768246 -0.04581601 0.0010355072 -0.05100395 0.010110944 -0.045596268
-0.0017894123 0.04841091 0.05090256 -0.06922727 -0.05898454 0.027192496 0.06255021 -0.006098435
-0.033675794 -0.028311808 0.06460909 -0.100167274 -0.06591683 0.0840097 0.024285512 0.012986379
-0.0705915 -0.0063629984 -0.034420922 0.04671327 -0.013811437 -0.033303212 -0.064738326 0.035981543
0.11192699 0.03105964 0.0644849 -0.05513516 0.08910034 -0.09799193 0.05382081 -0.094152674
0.09742154 0.05478703 -0.06100477 -0.049728237 -0.06337064 -0.03304975 0.083513714 -0.05407544
-0.07158451 0.015869329 0.09511995 0.09599879 0.04981779 -0.07851835 0.031193567 0.031246593
0.028174404 -0.065168045 0.08642129 -0.06935976 -0.055601127 -0.072241545 -0.037976008 -0.08637366

bias f4 [84]
00000000: 7a78 cabd 2443 f1bd 8d2d a83c 9f31 c5bd
00000010: bb75 73bd 551f e53d 2de5 1cbd c4a4 28bd
00000020: 8c10 c93d 3a43 82bd c379 4e3d f0f8 a7bd
00000030: 41cd de3d 0a65 ab3c 81dd 983c dcff 933d
00000040: 1093 9dbd 8795 1dba 387b a73d 67c2 d43c
00000050: 1af1 1cbc db17 8dbd 90b5 a9bc ed53 7a3d
00000060: ae15 213d 076d f2bd 6cee 53bc 0be3 d63d
00000070: 3738 443c 29b9 a2bd 29fd 553c 72b9 7d3d
00000080: ff7a b83d 6dda 9abd 9b3c a9bc b535 ca3d
00000090: ef34 a83c 7f3e 913d 76c0 d9bc d2a2 c13c
000000a0: ef52 9bbd bf7e efbd 1243 a03d 6e8e f8bd
000000b0: 6faf 04be 7901 9b3d 4771 9c3d b1da b1bd
000000c0: af75 943b e098 87bd 6c7d f5bc 1586 8d3d
000000d0: ca2f 96bd 4cd7 b83d 707f 8dbd 763d 9b3d
000000e0: 437a 1dbc 436c 9dbd cbe4 d63d 2581 6b3d
000000f0: 48a3 573d 6154 a2bc 3e47 043d bb54 033d
00000100: 330a 043d 54a6 10bd fd3e b9bd c155 4ebd
00000110: 4269 1ebd a279 1bbd 4b90 7f3d 2e6e dfbc
00000120: 70f4 debc 94bb 83bd a424 973d c6f9 9f3d
00000130: d649 46bd cb39 f6bd f30a b1bd dff3 45bd
00000140: 128a 9cbd c837 563b 5cd3 c6bc 53c9 33ba
-0.0988626 -0.11780384 0.020529533 -0.09628605 -0.05943845 0.11187617 -0.038304497 -0.041172758
0.09817609 -0.06360479 0.05040909 -0.08201778 0.10878993 0.020922203 0.018660309 0.07226536
-0.076940656 -0.0006011356 0.08177799 0.025971605 -0.0095789675 -0.06889316 -0.020716459 0.061115194
0.039327316 -0.118372016 -0.012935262 0.10492524 0.011976293 -0.07945473 0.013060846 0.061944433
0.09007835 -0.07561193 -0.020658782 0.09873525 0.020533053 0.07091998 -0.02658103 0.02363721
-0.07584178 -0.11694097 0.07825293 -0.12136541 -0.12957548 0.0756864 0.076387934 -0.0868429
0.0045306305 -0.066209555 -0.029967032 0.0691034 -0.07333334 0.090254396 -0.069090724 0.07580082
-0.009611669 -0.07686665 0.104928575 0.05749621 0.05264595 -0.019815626 0.032294504 0.032063227
0.03223629 -0.035314873 -0.09045217 -0.05037475 -0.0386746 -0.037957795 0.062393468 -0.027274217
-0.027216166 -0.06432262 0.073800355 0.078113124 -0.04841026 -0.12022742 -0.086446665 -0.048328277
-0.07643522 0.0032687057 -0.024270706 -0.0006858308

weight f4 [42, 84]
00000000: fe86 a13d 8d7a a43a ef62 db3b 6c94 cabd
00000010: 3c3b 873d ced8 bcbc 574e 6bbd 2e15 8c3d
00000020: cc2e a73d 5615 1e3c 3f6c e4bb 8300 73bd
00000030: 265d 803d 90a5 9dbc 30c2 bb3c 775f a83d
00000040: be28 64bc 8e29 f23b 51ae 0b3d 1e9d a2bd
00000050: d606 bbbd 6895 e6bd 4284 a63d bbec 473d
00000060: 6430 88bd 6e76 be39 3133 54bc 7892 d4bd
00000070: 4845 a23b ef9c 843d 3698 973d ba72 fb3c
00000080: 66fa f33c d0c5 913d 992a c8bd e1bd 9abd
00000090: d443 b1bd 718e 483b bd80 96bc 699f 6dbd
000000a0: f8a8 21bd 290d 073c 2ffa 293c 662a 21bd
000000b0: 6bf2 b4bd 0e54 f4bb a79d a5bd e0b3 813d
000000c0: b521 8bbd ef60 eebd e1f1 c13d bf7f 563d
000000d0: 26a6 72bd 0e82 793d fa83 46bd f162 7bbc
000000e0: 9902 a23d ed02 d33d eaec b6bc 5520 d83c
000000f0: 855d 333d deb4 1ebd 5111 26bd 91dc 993d
00000100: 04c5 003d 619d 833d d25c 853d b3af 2ebc
00000110: dbf2 933d c295 423d 51b8 923d 5243 ccbd
00000120: e66a ca3d 94fd 5abb 88c2 edbc aa7a d63d
00000130: 140e 963c 5ffa f23c 48ef 743d 21f5 3f3d
00000140: 8b70 40bc f37a 17be 33c9 9a3d d580 84bb
00000150: 52cb c6bd 0193 c53d 306a a33d 8169 343c
00000160: 811d 133d 39d3 77bd b482 903d db97 923d
00000170: 24f6 cfbd 4c5e 563d 5c2a 4c3d 8c91 573d
00000180: e8fe 4f3d 4694 793d 4eea b6bc 876b c03c
00000190: 2d0e abbc 3b3f 483d d1c4 913b bf7a 89bd
000001a0: 53da 98bd 27dc 7bbd 3331 93bd ab9d 3abd
000001b0: 3030 683d bb38 b8bd 58cb 3c3d 5bb3 20bc
000001c0: aa9f 2fbb 5162 f5bd 0de7 813d 1f70 bf3d
000001d0: 34b6 94bd c8d8 12bd 076e dfbd ab8b b9bd
000001e0: bac7 943d 8b7b 753c ee5d 963b 0419 843d
000001f0: 522c 2d3c 86e7 ca3d e0e5 ccbd 32af 19bd
00000200: 7ee9 87bd e8fb 31bd 743b 993b 68fc 9d3c
00000210: 6621 dfbc 631f b83d 8a4b 79bd 1ff4 e1bd
00000220: 4a27 b73d 378c d83c 2768 43bc 05b6 d4bd
00000230: 7e3b ed3d 0826 163d 5ec7 ba3d fd9e cb3d
00000240: 2cb5 b0bb eccd aebd e262 ed3c ff26 af3d
00000250: d155 023d 0ff0 423d 60af 83bd 6ced a63d
00000260: 0779 1bbd 0c8a 9cbd 2270 b5bd 381e b13c
00000270: e400 dc3a 41c8 dc3d 3193 b5bd 6164 6bbd
00000280: 0fbd 72bd fc2b c8bd 1054 553c 4b79 573d
00000290: 17e3 4d3d 33d9 383d 42f9 bcbc d8a9 953b
000002a0: 578d 083d 9724 9c3d d0e0 ca3c e7af 0ebc
000002b0: ad47 63bd 6020 7f3d 0022 293d 49cc 49bc
000002c0: c0e3 9a3d 9664 6d3d 20f2 86bd 5d00 c93d
000002d0: ff04 d73c c1e9 82bd 62de 9dbc 7589 7ebd
000002e0: 5f2b c9bd 929b 843d 599f 8bbc 250b cf3d
000002f0: c689 9cbd 4f0e bfbd d97c bf3d 9641 fbbd
00000300: cc33 54ba e2e1 6e3d b040 723d 8c1f 17bc
00000310: c281 d7bd 70e7 d83c e0cd cbbd 0edb 883d
00000320: f4df 933d 7761 cb3d a845 3e3d 0e12 863d
00000330: 919d 95bd 9432 5bbd 2bda 09bd fb7e e33d
00000340: 519a 86bc a174 1bbd 1378 cc3d 1430 85bc
00000350: ed33 94bd f006 1cbc f807 b6bd 8de5 e23d
00000360: def3 383d 3410 bbbd 3a40 a0bd d8d9 16bd
00000370: 524d d9bd e5d1 853d 0638 62bd ac46 923d
00000380: 0b25 c33b 522a 37bd e6b3 813d 4001 8e3c
00000390: 2d23 8ebd 3e7d d73d 9a2d 0f3d fb2d abbd
000003a0: 357e 293c 60f4 8fba e395 e0bc 4b3a 50bd
000003b0: b8ae 40bc bced c7bc 78db a83d 28ac 4a3d
000003c0: e72e 9abd b82a 7ebd 70ff 863d 7f33 b8bd
000003d0: 70d6 723d 69e1 26bc 2cbc ef3d 865e 433d
000003e0: f358 afbd 7c11 3fbd 3c2f e33c b92d f23b
000003f0: a422 9fbc 1c7f 5d3d c891 8dbd 5aa3 c3bd
0.07887076 0.001254873 0.0066951434 -0.098915905 0.06603095 -0.0230526 -0.057447758 0.06839977
0.08163223 0.009648642 -0.0069709118 -0.05932666 0.06267767 -0.019243985 0.022919744 0.082213335
-0.013925729 0.0073902076 0.034101788 -0.07940124 -0.09132163 -0.11258966 0.08130695 0.04880975
-0.06649855 0.0003632786 -0.012951658 -0.10379499 0.0049521066 0.06475245 0.07402079 0.030694354
0.029782485 0.07117808 -0.0977375 -0.07555748 -0.08655515 0.003060248 -0.018371934 -0.058013353
-0.03946778 0.008242884 0.01037459 -0.039347075 -0.088353 -0.007456309 -0.080867104 0.063331366
-0.067935385 -0.11639582 0.09469963 0.052367922 -0.059240483 0.060915045 -0.048465706 -0.015343414
0.07910652 0.103032924 -0.022329766 0.026382605 0.04379036 -0.038746707 -0.040543858 0.07512773
0.03143789 0.06426502 0.06511845 -0.010662007 0.072240554 0.0475061 0.07164062 -0.09973778
0.098836705 -0.0033415304 -0.029023424 0.10472615 0.01831726 0.029660402 0.05979851 0.046864633
-0.011745582 -0.14792995 0.07557907 -0.0040436783 -0.09706749 0.096471794 0.07979238 0.011011482
0.03591681 -0.060504172 0.0705618 0.071578704 -0.101543695 0.052336022 0.049845085 0.05262904
0.050780207 0.06093242 -0.022328522 0.023488773 -0.020880783 0.048888426 0.004448511 -0.06712865
-0.07463517 -0.06148925 -0.071871184 -0.04556052 0.05668658 -0.089951955 0.04609236 -0.009808387
-0.0026798048 -0.11981643 0.063428976 0.09347557 -0.07261315 -0.03585127 -0.10909658 -0.09059843
0.07264657 0.014983068 0.004588834 0.06450084 0.010569649 0.09907441 -0.10004783 -0.037520595
-0.06636332 -0.043453127 0.004676277 0.019285396 -0.027237605 0.089903615 -0.060863055 -0.110328905
0.08943041 0.026434047 -0.011926687 -0.1038628 0.11583613 0.036657363 0.091200575 0.09942434
-0.005392691 -0.0853537 0.028977815 0.0855236 0.031820122 0.04759222 -0.064299345 0.081507534
-0.037957218 -0.07643518 -0.08859278 0.021620855 0.0016784933 0.10780383 -0.08865965 -0.057468776
-0.05926233 -0.09774014 0.01302053 0.05260591 0.050265398 0.045129012 -0.023068074 0.004567366
0.033337917 0.076241665 0.024765402 -0.008708931 -0.055488277 0.062286735 0.04129219 -0.012316772
0.07562971 0.057957254 -0.065891504 0.098145224 0.0262475 -0.06392241 -0.01927108 -0.062142808
-0.098227255 0.06474985 -0.017043756 0.101095475 -0.07643466 -0.09328901 0.09349985 -0.12268369
-0.00080948765 0.058320887 0.059143722 -0.00922383 -0.10522796 0.026477545 -0.09951377 0.06682406
0.0722045 0.09930699 0.046453148 0.065464124 -0.07305444 -0.053515032 -0.033655327 0.11108204
-0.016431006 -0.037953023 0.0998384 -0.016258277 -0.072364666 -0.009523138 -0.08888239 0.110789396
0.045154445 -0.0913395 -0.0782475 -0.036828846 -0.10610451 0.06534175 -0.05522921 0.07142386
0.0059553436 -0.044718094 0.06333141 0.01733458 -0.06940303 0.10521935 0.0349556 -0.083583795
0.0103450315 -0.0010982864 -0.027415222 -0.050836843 -0.011760406 -0.024405353 0.08244985 0.049480587
-0.07528477 -0.06205246 0.065916896 -0.08994197 0.059286535 -0.010185578 0.11705813 0.047697566
-0.085618876 -0.046647534 0.027732484 0.0073907045 -0.019425698 0.0540763 -0.06912571 -0.09552641

bias f4 [42]
00000000: c41d 993d 3bd6 71bd d376 a7bd 582a 6fbb
00000010: 8d03 f03d 0959 d73d 9a96 aebd f211 bcbd
00000020: c456 49bc 9ae6 773d 1dfc d4ba 0aae 4abd
00000030: 9269 f13d 19f7 c4bd 397b 74bd 56ae 92bd
00000040: 03f0 823c 4345 203d 0eb4 f73d e772 babc
00000050: 51bd aebd e69d a23d 847b 8a3d e872 e6bb
00000060: 2e8c 2dbd 5f61 433d 554d 2c3d ed4e 31bd
00000070: 9a5e 01be 9594 193d a42a 47bc de65 823d
00000080: 59c9 f639 d946 17bd 7ccf 973d f52e f93c
00000090: 316d 24bc da7b 4d3c 5302 7fbd a759 c33d
000000a0: dd12 543c 326c 673d
0.074763805 -0.059042197 -0.08176961 -0.0036493745 0.11719427 0.10515029 -0.08524819 -0.0918311
-0.012288753 0.060522653 -0.0016249452 -0.049482383 0.11787714 -0.09617443 -0.059687827 -0.07162158
0.015983587 0.039128553 0.120948896 -0.022759868 -0.08532203 0.07940273 0.0676184 -0.007032741
-0.042370014 0.047700282 0.042065937 -0.04328816 -0.12633744 0.037495214 -0.012156162 0.06367086
0.00047070792 -0.0369328 0.074126214 0.030417899 -0.010035799 0.012541736 -0.062258076 0.09538584
0.0129439505 0.056499667

weight f4 [1, 42]
00000000: 1f3d 1cba aa02 97bd 07b5 503c 1ba2 f43d
00000010: a9f9 49bd ff78 f3bd df3d 16bd 4ec5 883d
00000020: 1219 f13d 3293 e4bd 8f95 9739 d543 2dbd
00000030: 7dd5 92bd f065 453d dc65 163b 1d0d bbbb
00000040: c0c3 043d 53e8 9e3d 060a 8cbb 4386 4cbb
00000050: 4c8c aabd 38bc 15be 8f17 0cbc 40fb dcbd
00000060: f2e4 aeb8 6b23 50bd 415d abbd d76a 0abc
00000070: 214c d03d 3fa7 90bd 1a2f c83d 9c28 13bd
00000080: d4ff 6037 2bdb daba 7014 d5bd 07ce 1a3d
00000090: f4b8 213e 066f ae3d 05a0 fa3d 1320 b2bb
000000a0: 8cd5 0a3c 1f9b 9dbd
-0.00059600355 -0.07373555 0.012738473 0.11944982 -0.04931036 -0.118883125 -0.0366801 0.06678258
0.1177236 -0.11160888 0.00028912394 -0.042301018 -0.07169626 0.04819292 0.0022948897 -0.0057083503
0.032413244 0.07759156 -0.004273656 -0.0031207956 -0.08327541 -0.14622581 -0.008550539 -0.1079011
-8.339611e-05 -0.050815027 -0.08367396 -0.008448324 0.101707704 -0.0706315 0.09774609 -0.0359274
1.3411005e-05 -0.0016697397 -0.10404289 0.03779414 0.1579321 0.0851727 0.122375526 -0.0054359525
0.008473765 -0.076956026
