ModelUnpredictability/one_thousand_brains/predictor_99.model (torch_old, 109395 bytes, 7 tensors)

weight f4 [84, 168]
000000 5f 08 4e 3d 0d db 19 bd 8a 79 87 3c 91 d0 47 bb
       0.050300952 -0.03756242 0.016537447 -0.0030489305
000010 11 e7 cc bc 18 fb 6d ba 00 fc f8 bc de f4 80 bc
       -0.025012525 -0.00090782484 -0.0303936 -0.015741762
000020 c4 8c d2 3b 24 0a 4e bc 02 74 7e bd cb 59 2c bd
       0.006425472 -0.01257566 -0.062122352 -0.04207782
000030 6d 0a 67 bd ee ed 32 3d 7b 53 c9 3c 0e 36 0f bd
       -0.056406427 0.04368394 0.02457594 -0.03496366
000040 de 47 83 3d 9a 13 11 3d f8 d9 10 bd 5e ab 93 3c
       0.06410192 0.035419084 -0.03536412 0.01802605
000050 ed 7a 62 3d 05 9d 98 bd 82 22 84 bd 90 7c 70 bd
       0.055293012 -0.07451824 -0.06451894 -0.058712542
000060 ad 03 1e 3d 72 66 32 bd 2a 20 33 3d 74 fa 7a 3d
       0.038577724 -0.04355473 0.043731846 0.061274007
000070 c7 0d a3 bc 81 83 fc bc a3 b6 3d bd 0b 90 43 bd
       -0.01990403 -0.030824425 -0.046316754 -0.047744792
000080 c9 cf 36 bc 08 04 45 3d 51 12 8b 3d 24 a8 60 bd
       -0.011157938 0.048099548 0.06790603 -0.05484785
000090 3a 9f 96 3c cd 3d 97 3d 16 63 99 3d ff 23 93 bd
       0.018386472 0.073848344 0.07489602 -0.071846
0000a0 74 a2 31 3d 0c fc 65 3d 24 eb 80 3d 10 b0 82 3d
       0.043367818 0.056148574 0.062948495 0.063812375
0000b0 d4 79 c7 bc e0 21 ad 3c fd 67 ce bb 4e 5e 5d bd
       -0.024350084 0.021134317 -0.0062990175 -0.054045014
0000c0 bf 5e d4 3b 10 4b fb ba 91 31 bf bc 33 d8 3c 3d
       0.006481021 -0.0019172151 -0.023339065 0.04610462
0000d0 9c 0e ec 3c 2f 02 90 3d 62 fb 27 3b b2 71 64 bd
       0.02881556 0.070316665 0.0025632014 -0.05577249
0000e0 1e 61 a6 bd 61 0d 85 3d 1b 8a 85 3d 1e c9 06 bc
       -0.081239924 0.064966924 0.06520482 -0.008226661
0000f0 92 57 ed bc da b8 c2 b9 45 8f 45 bd dc f1 7c 3c
       -0.02897242 -0.0003714029 -0.048232336 0.015438523
000100 ed 79 eb bc 01 54 52 3c 0b 3b 76 3c f8 07 16 3d
       -0.028744662 0.012837411 0.015028725 0.036628693
000110 8e eb 6a 3c 71 05 3d 3d 50 72 78 3d ee ed ca 3b
       0.014338387 0.046147767 0.060655892 0.006192914
000120 02 04 a7 3c 96 db 52 3d 94 2f 42 bd d1 20 57 3c
       0.020387653 0.051478945 -0.047408655 0.013130383
000130 38 9f d9 bb bb 3e a3 3c 88 3a ce 3c e7 86 ba bc
       -0.006641295 0.019927373 0.025174394 -0.022769405
000140 d7 80 80 3b 4b 76 8a bd 05 bb 61 3d 38 df 85 3c
       0.003921609 -0.06760844 0.055109996 0.01634179
000150 d2 7a 84 3d 0e 92 14 3d 1b e8 95 bd 28 86 7b 3c
       0.064687386 0.0362721 -0.07319661 0.01535181
000160 c9 3b 8c bd 1f 25 95 3d ed 76 3c 3d 46 1c e4 3c
       -0.068473406 0.07282471 0.046011854 0.027845513
000170 3a d7 8d 3d 1a bf 61 bd 24 7e 3a bc a9 24 2f bd
       0.06925817 -0.05511389 -0.011382613 -0.04275957
000180 7e 80 8c bd 5f 5a 98 bd f2 4b 64 3d ba 18 08 3d
       -0.068604454 -0.07439112 0.05573649 0.033226706
000190 c2 a0 19 bd 80 be 11 bb 0d 52 ea bb 2c 63 e7 bc
       -0.037506826 -0.002223879 -0.0071508945 -0.028245531
0001a0 e7 15 0a 3d c7 d0 39 3d 0b e1 93 bd 39 64 46 bd
       0.033712294 0.04536512 -0.07220658 -0.048435424
0001b0 48 6e fc bb b1 5c 1c 3d 20 d5 0d bd b3 e9 d0 bc
       -0.0077035762 0.038174335 -0.03462708 -0.025502061
0001c0 c6 f1 7c bb 1b e9 10 bc 98 ef 79 bc f7 40 5d bd
       -0.0038596257 -0.008844639 -0.0152548775 -0.054017033
0001d0 ae 7d b1 bc 43 ba 50 3d 38 bb 88 3d d3 aa 3e bd
       -0.021666374 0.050958883 0.06676334 -0.04654963
0001e0 6d cf 7d bd fd 97 61 3d 6b d1 93 3d 60 df 11 bd
       -0.061965395 0.055076588 0.07217678 -0.035613418
0001f0 0b 2c 8a 3b a1 5e 62 3b 57 da 93 3d de 43 00 3c
       0.004216676 0.0034541267 0.072193794 0.007828681
000200 02 76 03 3d 2f 6d 11 3c 5f f3 47 bd 1c bf 81 bd
       0.032094963 0.008876129 -0.04881608 -0.06335279
000210 ad 63 73 bd 12 4e 83 3d 0b 6f 89 3d 75 00 87 bb
       -0.05942123 0.06411375 0.06710633 -0.0041199275
000220 5d 20 9b bd b4 51 93 bd de 2f 57 3d 88 bf 92 bd
       -0.07574532 -0.07193318 0.052535884 -0.07165438
000230 0a e8 86 bc 0a 27 20 3c 02 fe 94 bb db 46 90 bd
       -0.016468067 0.009774933 -0.0045468817 -0.070447646
000240 a5 b6 16 3c 81 b7 0e 3d b6 ce 8d bd 35 71 08 bd
       0.009198819 0.03484297 -0.069241926 -0.033311088
000250 f2 0d 1b 3d 0c 9c b0 3c e1 c2 bd 3b 30 1a fd bc
       0.037855096 0.021558784 0.0057910536 -0.030896276
000260 92 80 18 bd c7 a8 0d bd 17 c4 1b 3d 63 92 7d bc
       -0.03723199 -0.034584787 0.038028803 -0.015476796
000270 1d e2 39 3d f4 07 d4 bc a7 c5 cd bb a7 2f b4 3b
       0.045381654 -0.025882699 -0.0062796655 0.0054988447
000280 f4 83 97 bd 8d d7 6e 3d 2e d6 7b 3d 14 9a 35 bd
       -0.07398215 0.058311034 0.061483555 -0.044336393
000290 f8 6c 3b 3a a2 bd 22 3d c7 b6 6d 3d e6 44 fc bb
       0.00071497215 0.03973163 0.05803564 -0.007698643
0002a0 83 61 38 3d ae fa 0d bc 1c 1a 57 bd d4 31 1d bc
       0.04501487 -0.008665724 -0.052515134 -0.0095943995
0002b0 b9 97 85 3c 67 d5 9b bc 8b c8 a4 bc a3 c6 01 3d
       0.016307699 -0.019022657 -0.020115158 0.031683575
0002c0 5d c0 f2 bc 5d 8c 96 bd 25 d9 ed 3c 95 89 98 3c
       -0.029632742 -0.07350991 0.029034207 0.018620292
0002d0 92 96 c1 bb 1f 5f 67 3d f8 ee c9 bc 52 e2 87 bc
       -0.005907842 0.0564872 -0.024650082 -0.01658741
0002e0 2b a4 04 3a 3d 01 8e bb 00 fb 54 bd 55 c7 5c bd
       0.00050598633 -0.0043336437 -0.051997185 -0.053901035
0002f0 0b 74 9a bd c7 82 8a bd af 2a ab bc b1 ad 8a bc
       -0.07541665 -0.06763225 -0.020894377 -0.016928526
000300 a4 f9 4d bd ab 51 c6 3c 08 87 d5 3c ae 4b 3c 3d
       -0.050286904 0.024208864 0.026065364 0.04597061
000310 fd ba 38 bc 2a e5 2f bc 3e 6a df bc 76 28 34 3b
       -0.01127505 -0.010735789 -0.02727234 0.0027489937
000320 7f 6e 13 3d e6 4a 87 3d 6f 94 ab 3c 5c 76 57 bd
       0.03599405 0.066060826 0.020944802 -0.05260311
000330 3a 0a 8c bd dd 86 89 bd dd 0d 68 bd 40 c9 d6 3c
       -0.06837888 -0.06715176 -0.056653846 0.02621901
000340 4b cf 64 bd f8 87 71 bd 47 a0 98 3d 90 f0 d8 bc
       -0.055861752 -0.05896756 0.074524455 -0.026481897
000350 29 30 cd 3c 23 94 ec bc 99 8c 55 bc 41 28 3e 3d
       0.025047379 -0.02887923 -0.013034009 0.046425108
000360 55 11 09 3d 4e 31 e6 bb c2 d8 ef 3b 64 6a 70 bd
       0.033463795 -0.0070249205 0.0073195407 -0.058695212
000370 75 ca 61 bc e3 8d 03 3c f0 51 be bb a9 5d d7 3c
       -0.01378118 0.008029434 -0.0058081076 0.026289778
000380 2a 6a 69 3d 91 1c 13 bc 92 08 80 bd d7 a0 6e bb
       0.05698601 -0.008978979 -0.06251635 -0.0036411786
000390 6e 90 f2 3c 4d 27 d0 bc 4f 28 d1 3c f2 52 d3 3c
       0.029609885 -0.025409365 0.025531916 0.025796387
0003a0 83 38 29 bc b1 29 0a bd 6b f3 18 bd 8e 21 7c bd
       -0.010328415 -0.033731166 -0.037341516 -0.061555438
0003b0 3b a4 0b bd 6c e0 7c ba b6 3c 61 bc 0c 3d 8a bd
       -0.03409217 -0.00096464786 -0.013747385 -0.06749925
0003c0 60 78 99 b9 34 10 71 3d f0 da 5f 3d d0 3c 91 3d
       -0.0002927212 0.058853343 0.054652154 0.07091677
0003d0 2b c8 8e 3d 0a 16 45 3d 26 c2 89 3d e5 d0 85 bd
       0.06971773 0.04811672 0.06726484 -0.06533984
0003e0 2f 26 ea 3c a0 68 b0 ba 9d 8c 7b bd 21 b2 87 3c
       0.02858266 -0.0013458915 -0.061413396 0.01656443
0003f0 35 4c ba 3c b7 12 64 bc fd 86 f4 bc f7 a0 44 3d
       0.022741416 -0.013920478 -0.029849524 0.04800507

bias f4 [84]
000000 18 b8 8e 3d 36 cf 60 bd ae ea e0 3c 58 68 14 3d
       0.06968707 -0.05488511 0.027455654 0.036232322
000010 c3 d3 c1 3c a2 6e a5 bb 30 ba 66 bd a5 25 95 3d
       0.023660546 -0.005048589 -0.056329906 0.07282571
000020 9f 1f 91 bd b2 3a 97 bb 42 52 4a ba dd a2 08 bd
       -0.07086109 -0.0046151513 -0.0007717946 -0.033358444
000030 38 3c be 3c 63 5b 3d 3d b1 44 a5 bc 7f 8d 42 3c
       0.023222074 0.04622973 -0.020174356 0.011874556
000040 48 a1 15 3c d6 de 86 bd e8 81 8d 3c 2a af 82 bd
       0.009132691 -0.06585471 0.017273858 -0.06381066
000050 04 24 53 3d 40 32 cf bc a8 04 0d 3d 8f 74 ae 3c
       0.05154802 -0.025292516 0.03442827 0.021295814
000060 0a c1 ed 3c 13 b0 91 bd 50 a1 d3 bc df 43 b1 bc
       0.029022712 -0.071136616 -0.025833756 -0.021638809
000070 5d d6 af 3c d3 17 82 bd fa bf 58 bc bb 78 e5 bc
       0.021464521 -0.063522 -0.0132293645 -0.02801167
000080 84 72 2b 3c a9 7c 92 3c 4b 44 00 3d 69 bc 66 3d
       0.010464314 0.017881708 0.03131513 0.056332026
000090 e9 c7 48 bd 92 b7 92 bd 1a b6 0f bd d5 f2 88 bd
       -0.049018774 -0.071639195 -0.035085775 -0.066869415
0000a0 1e 3e 9b bc 71 7b e2 3c f2 3e 80 bd 35 f8 88 3b
       -0.018950518 0.027646752 -0.06262006 0.004179979
0000b0 4e f9 d8 3c 4a 7b 0f 3d 23 19 33 bc 79 c8 5f bd
       0.026486065 0.035029687 -0.010931286 -0.054634545
0000c0 a6 04 2e 3d 3f d2 c3 bb 06 4e 45 3d f8 7a 48 bb
       0.0424849 -0.005975991 0.048170112 -0.0030590873
0000d0 26 85 80 bd 80 16 7f 3d 3b e3 8a bd ba 69 81 3d
       -0.06275396 0.062277317 -0.06781622 0.06318994
0000e0 4a 45 09 3d 58 24 7b bd 21 10 32 3d b9 35 9d 3b
       0.033513345 -0.061313957 0.043472413 0.004797664
0000f0 a7 c7 bd 3d 15 68 43 3d d2 10 2f bd 68 f9 68 bc
       0.09266596 0.047706682 -0.04274065 -0.014219619
000100 f1 a0 4c bd 65 15 6f bd 93 b5 5c bd 1f 32 5c 3d
       -0.049958173 -0.058370013 -0.0538841 0.053758737
000110 e6 3b f2 3c df 9b f7 3b 0b 7a 28 bd ab fa c5 3c
       0.029569577 0.007556423 -0.041132014 0.02416738
000120 5b 6c b8 bd 70 45 78 bd ba 14 55 3c 4f f9 96 bd
       -0.09005042 -0.060613096 0.01300543 -0.073717706
000130 28 38 d0 3c f8 9b 3d bd 28 f8 03 bd 8c 00 e4 3c
       0.025417402 -0.04629132 -0.032219082 0.027832292
000140 7a f9 a2 bc 95 5b 17 3c 81 50 b9 3d cb 68 63 bd
       -0.01989435 0.009238143 0.09048558 -0.05551986

weight f4 [84, 84]
000000 d3 af cc 3d 8d 8c ae bd 60 5a df 3d ca b9 45 bd
       0.09994473 -0.08522902 0.109059095 -0.048272885
000010 43 c0 cd bd 2e 26 2d 3b dd e2 78 3c e7 e5 35 bd
       -0.10046437 0.0026420462 0.015190807 -0.044408705
000020 4d bd 21 bd cb fa 9f 3d 3c 2b b4 39 e3 3a b8 3d
       -0.039487172 0.07811507 0.00034364488 0.08995607
000030 80 a4 8f 3d df da d5 3c 61 1f 80 bd b9 be 63 bd
       0.07013798 0.026105342 -0.06255985 -0.05560181
000040 b6 ea ad bc 69 e1 a5 bd 0c 24 cd 3d 01 48 9c 3d
       -0.021230083 -0.08099634 0.10016641 0.07630921
000050 99 2e cd 3d 31 dd 18 3d de 41 24 3d 8f 2c d0 bd
       0.100186534 0.03732032 0.04010188 -0.10164749
000060 fe 80 60 3d 62 7c d5 bb bf 18 d0 bd ba 21 54 3c
       0.054810517 -0.0065150717 -0.1016097 0.012947494
000070 7b cd a6 bd a9 99 ea 3d 4e 93 13 bd a9 e5 ca bd
       -0.08144661 0.114550896 -0.036029153 -0.099070854
000080 94 bc b9 bd 0e 6c 85 bd 20 7d 0c bd 32 00 98 bd
       -0.090691715 -0.065147504 -0.034299016 -0.07421912
000090 a1 d2 82 bd 64 9e 9e bd 2e c5 d2 3d 07 39 c6 bd
       -0.063878305 -0.07745054 0.10291515 -0.09678846
0000a0 c6 f1 40 bd 5f d6 b2 bd f4 bc 47 3d c9 3a 51 3c
       -0.047105573 -0.08732294 0.048764184 0.012770363
0000b0 c4 f8 98 3d f5 2c 34 3c 31 f8 cd 3c 92 3c fb 3c
       0.07469323 0.010997047 0.025142761 0.03066853
0000c0 86 95 8f bd 01 81 66 bc 0f 3a f8 bc 54 79 b6 bd
       -0.07010941 -0.014068843 -0.030301122 -0.0890986
0000d0 1c 7b f9 bb 4d be 10 bd b5 ed b4 bd a5 57 87 3d
       -0.0076135527 -0.035337735 -0.088344015 0.06608514
0000e0 c0 9d 83 bd 57 4f 1f 3c f3 86 1b 3b 59 db c5 bd
       -0.06426573 0.009723506 0.002373156 -0.09660978
0000f0 f8 60 e0 bc 87 b4 c1 3d 6a 21 92 3d 76 4a 8e bd
       -0.027389988 0.09458261 0.071352795 -0.06947796
000100 9a c2 2e 3c f8 7d 3f bb 3f 8b b4 3c 63 cb be bd
       0.010666514 -0.002921937 0.022039054 -0.09316137
000110 24 7a 33 3c 35 a8 62 bd a7 54 cd 3d c6 59 62 3d
       0.010954414 -0.055336196 0.10025912 0.055261396
000120 4a 9c 9f 3d 0b 35 d6 3d 93 07 f9 bc 34 72 5f bd
       0.07793482 0.10459336 -0.03039912 -0.054552272
000130 0b 46 86 bc 01 a3 b1 bd b9 37 37 bd 8f 1f 9c 3d
       -0.016390821 -0.08673669 -0.044730876 0.07623207
000140 8e ab cd bd 98 ad 6b bd 6f 1b df 3c 46 8e 38 3d
       -0.10042487 -0.0575386 0.027234761 0.045057558
000150 e3 a2 ca bd 9e f6 2e 3d 1c ef 01 3e 4d 33 90 3d
       -0.098943494 0.04271566 0.12688869 0.07041035
000160 69 07 fa bd dc 32 ca bd 68 59 51 bd 0d b7 4c 3d
       -0.122084446 -0.09872982 -0.051110655 0.04997926
000170 12 bc b1 3d c2 51 99 3d c0 d4 c9 bd 04 2e 0b 3d
       0.0867845 0.07486297 -0.09855032 0.03397943
000180 f3 7f 61 bd f5 bf ae bd 2d 1c 68 3d ab ac cf bd
       -0.055053663 -0.08532707 0.056667496 -0.10140356
000190 36 c8 04 bc d8 78 fe 3c 25 51 a6 3d 98 f5 ae 3d
       -0.008104375 0.031063482 0.08120946 0.08542937
0001a0 28 48 38 3b 36 ea ee bc 0a da bc bd 34 2a 81 bd
       0.002811918 -0.029164415 -0.09221275 -0.06306878
0001b0 b9 f6 a4 3d b4 05 fe 3c 0a b6 0e bd 91 4b 8d 3d
       0.08054871 0.031008579 -0.034841575 0.06899179
0001c0 8f e3 b0 bd 95 dd 19 bd fb ef 45 bd b3 00 a7 3d
       -0.08637153 -0.037564833 -0.048324566 0.0815443
0001d0 88 63 d1 3d a8 c5 ae bb 04 89 12 3d 0a 42 a7 bd
       0.10224062 -0.005333621 0.0357752 -0.08166893
0001e0 8b cf 31 bd 39 71 cb 3d 46 ad 97 3d 59 78 83 bd
       -0.04341082 0.09933705 0.07406096 -0.06419439
0001f0 33 4a 5c bd 9e 1d b9 bd a3 32 49 3d ae 55 ed bd
       -0.0537817 -0.09038852 0.049120557 -0.11588608
000200 be e5 07 be 6b 37 41 3a 98 a4 75 3d 6e 9b 97 bd
       -0.13271233 0.00073706236 0.059971422 -0.07402693
000210 4c 33 4a bd c6 b2 cb bd 5a c7 77 bd cb 50 ac 3c
       -0.049365327 -0.09946208 -0.06049285 0.021034619
000220 a6 75 5e bd 02 69 52 3d 0c ee 59 3d 6c 40 ad bd
       -0.054311417 0.051369675 0.053205535 -0.08459553
000230 63 c3 eb 3d 08 ec 8e 3d 6e 37 95 3d 47 29 3e bd
       0.115118764 0.06978613 0.07285963 -0.046426084
000240 9d b4 f0 bd 90 12 f9 bb d6 43 c3 3b 5a 15 a9 3d
       -0.11753199 -0.00760109 0.0059590144 0.082560256
000250 a6 19 0b bd 7e ed 85 3c b9 ab 33 3d f4 dd 86 3d
       -0.033960007 0.016348597 0.04386494 0.06585303
000260 98 fe 9c 3d 8b 0b dc 3c 62 19 d0 3d cb 58 6d bd
       0.076657474 0.026860973 0.101610914 -0.057946008
000270 4a c6 ac 3d e2 ca 38 3d c1 0b 17 bd 70 06 d1 3d
       0.08436258 0.04511536 -0.036876444 0.10206306
000280 0c b9 09 3b d6 cf f3 bd bc 89 ef 3d 6c fd 23 3d
       0.0021014838 -0.11904876 0.116961926 0.040036604
000290 30 e8 04 3c 98 af 9a bd 8c cd 1a 3d c7 42 9d 3d
       0.008111998 -0.07553023 0.03779368 0.076787524
0002a0 b8 21 3b bd 88 b4 e3 3c 32 66 2c bc 10 76 fc ba
       -0.045686454 0.027796045 -0.010522412 -0.001926126
0002b0 59 60 95 3d 6d 49 9a bc 63 20 c3 3d 50 83 c1 bd
       0.072937675 -0.01883384 0.09527662 -0.09448874
0002c0 b3 d1 a6 bd 63 a9 c8 3d 9a 36 c4 3d d8 25 a9 3c
       -0.08145466 0.09797933 0.09580727 0.020647928
0002d0 0c 1e 96 bd 0e e6 55 3a 6a 28 6a bd 9f fb 98 3d
       -0.0732995 0.0008159586 -0.057167448 0.07469868
0002e0 d3 5a 27 3d ed f4 9f 3d 2b d0 1e 3c 88 2d d4 3d
       0.0408581 0.07810388 0.009693186 0.10360247
0002f0 d9 cc 76 bd 18 5f 9a 3d f6 e8 af 3d d8 2c 37 bd
       -0.06025395 0.07537669 0.08589356 -0.0447205
000300 21 ca 4d bd 8b 3d 7e bd bb 05 a4 3d bf ec 81 3d
       -0.050241593 -0.06207041 0.080089055 0.06343984
000310 2d b7 39 3d 51 13 2a bb bd ac af bd ba e7 e3 bb
       0.045340706 -0.0025951455 -0.08577869 -0.006955114
000320 2f 9f d3 3d 24 cc 90 bd 2d e4 e8 3c e7 fa 34 bd
       0.10333096 -0.07070187 0.028429115 -0.04418459
000330 9f a2 6a 3d 8c 2e 13 bd 1a c4 ca 3d dc 14 d9 3d
       0.057283994 -0.035933062 0.09900685 0.10599682
000340 89 1b 46 3c 5a 50 ac bd a0 b6 28 bd 70 ab 6d 3d
       0.012091526 -0.08413763 -0.04118979 0.058024824
000350 1a ca d2 3d 51 ff 80 3c c1 cb c7 3d ea 6e 81 bd
       0.10292454 0.015746744 0.0975566 -0.06319983
000360 6d 9e b1 3c 74 c4 c2 3d f1 bc 72 bd ae 13 d4 bd
       0.021681989 0.09510127 -0.05926222 -0.10355316
000370 d0 36 6d bd 3d a2 bf 3d af bf df 3d e5 4e f4 bb
       -0.0579136 0.09357116 0.109252326 -0.007455694
000380 72 ca 51 bd bf 92 cd bd c4 6d 95 3d 0a 20 13 bd
       -0.051218458 -0.10037755 0.07296327 -0.035919227
000390 5b f9 2d 3b 9a 82 54 3d 14 51 a8 bc 60 02 bb bd
       0.0026546333 0.051882364 -0.020546474 -0.09131312
0003a0 a7 a6 cc bd 87 70 89 3d b6 8e da bd 2f 5d 6c 3d
       -0.09992724 0.06710916 -0.10671751 0.057706054
0003b0 e6 ee 8e bc c1 d0 88 bd 5e 65 3e 3d fa 16 b9 bd
       -0.0174479 -0.06680442 0.04648339 -0.090375856
0003c0 63 f2 11 3d 34 97 4d bd 6a 2b 26 3d 52 d6 41 bc
       0.03563155 -0.050193027 0.040568747 -0.011830883
0003d0 d5 65 1d 3d f0 7c f7 bc 67 1b fc 3c 3d b5 cc 3c
       0.038427193 -0.030210942 0.030774785 0.024988765
0003e0 c6 93 96 3d ce f9 18 3d ec f8 0e bd af ea 09 3c
       0.07352404 0.037347607 -0.03490536 0.008417769
0003f0 cc a0 d9 bc 75 86 b7 bd 03 dd 35 bd 36 93 ba 3c
       -0.026565932 -0.089611925 -0.044400226 0.022775274

bias f4 [84]
000000 3a 6a b5 3d 71 f7 e4 bc 04 5c ed 3d d6 83 27 3d
       0.08858152 -0.02795002 0.11589816 0.040897213
000010 f7 1f cd bd df 63 04 ba 97 6a b4 bd dc d0 7b 3c
       -0.100158624 -0.00050502823 -0.08809393 0.01536962
000020 50 60 fd bb 9e 50 c3 3d a8 41 aa 3d 6c 73 ac bd
       -0.0077324286 0.09536861 0.08313304 -0.084204525
000030 2d 0d 98 bd aa 64 86 bd 22 4a c7 3c bb 8b ba 3d
       -0.07424388 -0.06562169 0.024327341 0.09108683
000040 bc 52 c8 bd 17 4d c0 3d 2c c5 70 bd e2 22 b5 bc
       -0.09781405 0.09389704 -0.058781788 -0.02211136
000050 f4 c1 07 3d 7f 33 bd 3b 21 d4 a9 3c c0 cb d4 bc
       0.033143952 0.005773961 0.020731034 -0.025976062
000060 b0 9a 29 bc 35 03 b6 3d e5 42 a5 3d b5 7a 9c bd
       -0.010351822 0.088873304 0.080694 -0.07640592
000070 d5 3d bf 3d 68 37 5c 3c af 94 55 bd 67 ff c3 3d
       0.093379654 0.013440944 -0.05214375 0.095701985
000080 75 2b e7 3d f0 92 48 bd b0 77 c4 3d 00 cb 84 bd
       0.11287586 -0.048968256 0.09593141 -0.06484032
000090 6a da 83 3d ca 91 cc bd 59 82 0f bd b6 f2 4a bd
       0.064381436 -0.099887446 -0.03503642 -0.049547873
0000a0 e9 ca 8b bd 5d 52 b7 bc 3a b7 a5 bd 6e a5 3b 3d
       -0.068258114 -0.022378141 -0.08091588 0.045812063
0000b0 a4 b5 1d 3d a9 19 18 3d d7 ff ef 3d e0 34 9e bc
       0.038503304 0.037133846 0.117187195 -0.019312322
0000c0 b9 71 5b bc ff 1c 7e bd 24 01 90 3a 61 33 19 3c
       -0.013393813 -0.06203937 0.0010986668 0.009350629
0000d0 d2 21 7a 3b f9 cc d0 bd 55 e3 70 bd 2f 12 c7 3d
       0.003816713 -0.101953454 -0.05881055 0.09720265
0000e0 5d ec 84 bc ee 27 4c bd 75 58 73 3c 8e 54 bd 3b
       -0.016225988 -0.049842767 0.014852633 0.005777902
0000f0 be ca a0 3d 15 3d 9f 3d 94 1d 00 3d ac 5f 04 3d
       0.0785117 0.07775322 0.031278208 0.032317802
000100 90 48 69 bd af e3 a4 bd c8 65 1e bd 80 04 51 bd
       -0.056953967 -0.0805124 -0.038671285 -0.051029682
000110 ba d1 1c bc 57 1d b7 3d 87 09 33 3d 46 97 82 bd
       -0.009571487 0.08941143 0.043710258 -0.06376509
000120 2a 26 dd 3d 39 7b bf 3d 6b 9f d3 bd eb 13 e3 bd
       0.10798295 0.09349675 -0.10333141 -0.110877834
000130 a5 f3 ae 3c 46 17 c7 3d 26 0c a8 bc 5e db ab bd
       0.021356413 0.09721236 -0.020513605 -0.0839145
000140 d5 07 f0 bc 8f 7b 44 3c cb 94 10 3d da ec 92 bd
       -0.02930061 0.011992349 0.03529815 -0.07174082

weight f4 [42, 84]
000000 c4 51 df bd e3 e7 37 bd fe e7 a0 bd 9b 7e d0 bc
       -0.109042674 -0.04489888 -0.07856749 -0.025450995
000010 14 01 ec bc d6 bc e6 bc 0f 3e 06 3c 0a 8b c5 bd
       -0.028809108 -0.028166216 0.008193507 -0.0964566
000020 18 dd 23 3c 3a f9 d4 3d 0a 71 3a bd 3b 8b bc bb
       0.010001443 0.10399099 -0.04551796 -0.0057539023
000030 0a 09 97 bd 70 b7 b8 3d 64 4d a5 bd 04 2e c7 bd
       -0.07374771 0.09019363 -0.08071402 -0.09725574
000040 71 8e bc 3c a5 23 86 3d fe 8f fe 3b 2b 85 5c 3c
       0.02301714 0.065497674 0.00776863 0.013459484
000050 07 23 23 3c 90 58 e0 3d e5 c3 2d bd 4a 64 13 3d
       0.009957082 0.10954392 -0.042423148 0.035984315
000060 5d dc df bb 82 56 88 bd dc 0c 8e bd 0d ba 61 3d
       -0.0068316893 -0.06657125 -0.069360465 0.055109072
000070 e4 b8 da 3d 33 80 cb 3d 80 86 e0 bc b6 9a 99 3d
       0.10679796 0.099365614 -0.027407885 0.07500212
000080 20 68 e9 3c 8d 89 70 3d 1f ef 81 3b 52 0d ed 3d
       0.028492033 0.05872493 0.003965273 0.11574806
000090 f2 4b c6 3d ca 41 ab 3d 13 13 3a bd 1a d3 c0 3d
       0.09682454 0.08362158 -0.045428347 0.094152644
0000a0 1f 12 a3 bd 2f 57 9c 3d b5 fe 89 3d a2 1c 57 3d
       -0.07962441 0.076338165 0.06738035 0.05251754
0000b0 76 36 95 bd 62 37 dd 3c 37 36 d0 bd 37 c7 e9 bc
       -0.07285778 0.027003948 -0.10166591 -0.028537376
0000c0 df ac ba 3d cd a7 42 3c 72 f2 96 bd 18 00 6a 3d
       0.09115004 0.011880827 -0.073704615 0.057128996
0000d0 cd 47 b1 3d 83 7a 60 bb 20 85 c0 bd 80 d8 a8 3d
       0.08656273 -0.003425271 -0.094003916 0.08244419
0000e0 e8 a0 28 bd 77 c1 3e 3c 90 00 67 3c de d8 a9 bd
       -0.041169077 0.011642805 0.014099255 -0.08293317
0000f0 1b 0d 12 bd b2 8d a6 3d da 04 76 3d 47 b9 73 bd
       -0.03565703 0.08132495 0.06006322 -0.059502866
000100 a9 57 a6 bd 9e 7b 34 bd a5 8e 52 bd 36 5b be 3c
       -0.081221886 -0.044063203 -0.051405568 0.023236852
000110 d1 4c 63 bd ae eb 87 bc 2b 72 77 3c 17 da 0a bd
       -0.05549318 -0.016591873 0.015102903 -0.033899393
000120 82 d1 8f bc bb 0d bf 3c 42 7b 2a 3d 69 46 00 bc
       -0.017555956 0.023321977 0.041621454 -0.007829287
000130 a1 36 d8 3d 24 39 d0 bd c7 45 3e 3c 03 f2 74 bd
       0.10557295 -0.10167149 0.011613316 -0.059801113
000140 31 b3 c1 3b 54 ef 0c 3d 75 b1 8d 3d 28 db 41 bc
       0.005911254 0.03440793 0.06918613 -0.011832036
000150 c7 09 ad bb 06 3b de bc 08 35 c8 bd 54 f9 d7 bd
       -0.0052807066 -0.027127754 -0.0977574 -0.105456024
000160 78 d6 eb 3c de 8f 00 3d 5d ee 3a 3c 34 b4 7f bd
       0.02878879 0.031387202 0.011409369 -0.062427714
000170 c7 de 95 3d d5 ae 8a 3b 73 04 14 bd fe 86 dd bc
       0.07317882 0.0042322674 -0.036137056 -0.027041908
000180 41 ae 0c 3c cc 7c 65 3d 3d db ba 3d f8 29 94 bd
       0.008586467 0.05602722 0.09123848 -0.072345674
000190 4e 5d 03 3d c0 13 50 bb 31 8b 84 3d a7 e8 e4 bc
       0.032071404 -0.0031750053 0.06471861 -0.027942969
0001a0 a9 62 65 3d 60 76 b8 3d da 9c 87 bc 52 20 b6 bd
       0.056002293 0.09006953 -0.016554285 -0.08892883
0001b0 1b 75 14 3d 02 df c1 bd be 34 97 bd 27 ec b9 3c
       0.036244493 -0.094663635 -0.07383107 0.022695614
0001c0 53 29 75 bd 67 be 97 3d 3b f5 80 bd 36 04 d2 bd
       -0.059853863 0.07409363 -0.06296774 -0.102547094
0001d0 27 07 0c bd 4d c0 e9 3b 84 0e 58 3c 13 f1 af 3a
       -0.03418651 0.0071335197 0.013187055 0.0013423286
0001e0 fe 5f 05 bd a7 fe ab 3d be f4 bb bb d3 a6 79 3d
       -0.03256225 0.083981805 -0.0057359627 0.06095011
0001f0 e0 8b 9a 3d 8a 01 86 3d 90 30 00 3e 82 93 1e 3d
       0.0754621 0.06543262 0.12518525 0.038714893
000200 88 37 d6 bb 98 a3 f0 3b 7f 01 a4 bd 09 63 b9 bd
       -0.0065373816 0.0073437206 -0.08008098 -0.090520926
000210 31 cd 6b bb 5d d8 d5 3c d4 e7 2d 3d 95 a9 9a bd
       -0.0035980458 0.026104147 0.042457417 -0.075518765
000220 3d 79 9c bd d9 46 59 3d 9a 5c 85 bd d4 59 ab 3d
       -0.07640312 0.05304608 -0.06511803 0.08366743
000230 07 11 7a 3d c7 e1 2b 3d 05 36 bd bd 2c 31 ae 3c
       0.061051395 0.041963365 -0.09238819 0.021263681
000240 6e 25 6f 3d ae 29 b7 bd f3 18 f2 3d 48 42 e3 3c
       0.058385305 -0.08943497 0.11821165 0.027741566
000250 10 32 30 3d 9d b7 e7 bc 8c c9 a2 3d 5a 29 07 bd
       0.043016493 -0.028285796 0.07948598 -0.03299842
000260 70 de 08 3d 17 66 87 bd e9 3b 84 3b e7 17 da 3b
       0.033415258 -0.06611269 0.004035462 0.0066556814
000270 8b a7 a3 3d 8d 5a a6 3d 8a 8c 3b bd 77 fa b4 bd
       0.07990941 0.0812274 -0.045788325 -0.08836835
000280 d2 dd f3 bd e0 a4 60 3c bb 91 81 bd b5 63 42 bd
       -0.11907543 0.013711184 -0.06326624 -0.04745837
000290 82 ad 93 bd b0 13 70 3d 13 e0 f6 bc bc 3c b2 3d
       -0.07210828 0.058612525 -0.030136144 0.087029904
0002a0 ed 76 32 3b ef 95 fa bc f7 a7 da bd c4 e5 c6 3d
       0.002723153 -0.030589072 -0.10676568 0.09711793
0002b0 cc b9 b3 bc 44 72 86 bd c0 1e 58 bd f4 0e f7 3c
       -0.02193918 -0.06564763 -0.0527637 0.030158497
0002c0 f3 46 29 bd 20 e6 98 3d 0b 20 f4 bc 03 47 da 3d
       -0.041327428 0.07465768 -0.029800436 0.10658076
0002d0 ca 1b 8c 3c d3 94 be 3c 85 4c 0a bd 66 74 44 3d
       0.017103095 0.023264324 -0.03376438 0.04796257
0002e0 26 f9 13 bd 3d 18 b1 bd cd 58 14 3d 92 cb 3b 3c
       -0.03612628 -0.08647201 0.0362175 0.011462109
0002f0 70 3f 8c 3d 57 e8 16 bd 45 9c c1 bd d6 12 03 3d
       0.06848037 -0.03684267 -0.09453634 0.032000385
000300 e5 ad 5f bd d2 47 98 3b d2 1d 1c bd 52 9a 0c 3d
       -0.054609198 0.0046472335 -0.038114376 0.03432686
000310 25 cf ed 3d a0 c8 d1 bd dd 2d de ba 44 b1 64 bd
       0.11611775 -0.10243344 -0.0016950924 -0.055833116
000320 4b 56 62 bc 4c eb 62 3d 46 da b2 bc 6d f2 78 3d
       -0.013814519 0.055400178 -0.021832597 0.06077807
000330 41 75 d7 3d c1 d7 6c 3d f2 50 8c 3d e9 a1 e9 3c
       0.10520411 0.057822946 0.068513766 0.028519588
000340 5b 11 ae 3c cb 2a 7b bc fd 52 a9 bc 81 f9 5d 3d
       0.02124851 -0.015330027 -0.020669455 0.054193024
000350 5a 4d d7 bd fc c0 97 bd 8f cd 8c 3d 4f 91 6e bd
       -0.105128005 -0.07409856 0.06875145 -0.058244046
000360 15 fe 9a 3d a9 7c 6e 3d e1 20 ef bc 59 bd 0e bc
       0.075679936 0.058224354 -0.029190483 -0.008712136
000370 86 b6 a2 3c 38 38 f1 bb 0a af 25 3d f8 32 b4 bb
       0.019862425 -0.007361438 0.040450133 -0.00549924
000380 c4 d0 41 bb ef 6a 8e 3d ae 81 1c bd 72 66 62 bd
       -0.0029573897 0.0695399 -0.03820961 -0.05527348
000390 aa 5f 0e bd 18 34 ea 3c 6b 2f bc 3c f0 50 e1 bd
       -0.0347592 0.028589293 0.02297183 -0.11001766
0003a0 f1 b7 bc bd c3 e8 f2 3d fa 46 58 bd ba 40 2c bc
       -0.092147715 0.11860802 -0.052802064 -0.010513479
0003b0 a4 12 cd bc 7c 86 78 3d 1b f9 38 3d 85 c3 b9 3c
       -0.025033303 0.06067513 0.04515944 0.022676239
0003c0 bb 4d 4b bd 6e ff 94 3d f2 14 25 3d 05 49 8f bd
       -0.049634676 0.07275282 0.040303178 -0.06996349
0003d0 34 57 31 bd 6b bb dd bd e3 ce 49 bd 9f 8f da bc
       -0.043296054 -0.10826763 -0.04926957 -0.026679812
0003e0 51 ac fb 3c 3c ae 62 bd e0 ec dd 3d b7 55 b2 3b
       0.030721815 -0.055341944 0.10836196 0.005442347
0003f0 dd 5f 05 bd 22 dc 84 bd b6 7e 99 3d 56 c7 94 3c
       -0.032562125 -0.064872995 0.07494871 0.018161457

bias f4 [42]
000000 b2 8e 20 bd d3 39 84 3c a9 f5 9b 3d 2d 3f 11 bd
       -0.039198585 0.016140854 0.07615215 -0.03546064
000010 03 1f 53 3c 84 d2 d4 bc 5a 95 73 3d 6c f4 91 3d
       0.012885812 -0.025979288 0.059468605 0.07126698
000020 e7 01 3e 3d 0a ef 7b bd a3 58 9d bb e6 79 5c bd
       0.046388533 -0.061507262 -0.004801826 -0.05382719
000030 da 81 55 3b 7a 8b 87 bd f6 c3 8b bc 2d ac 8a bd
       0.0032578618 -0.066184 -0.017061215 -0.06771121
000040 ea 16 11 be dd 65 c9 3b 70 a6 c9 3d 94 54 d9 ba
       -0.14168897 0.0061461763 0.098461986 -0.0016580992
000050 7a bd 86 3d 34 75 d4 bc 07 4c 87 bd 8d 73 6f 3d
       0.065791085 -0.025934793 -0.06606298 0.058459807
000060 07 4b 91 bd dc ab 09 bd f8 83 06 bd 40 4c bb bc
       -0.070943885 -0.033611163 -0.0328407 -0.022863507
000070 58 06 a5 bd 93 2e ab 3d a2 15 f0 bd ef e6 e2 bd
       -0.080578506 0.08358493 -0.11722876 -0.11079203
000080 e4 7a 8a 3d 52 06 47 3d 74 81 7e bd 59 09 6a 3c
       0.06761721 0.048590012 -0.062135175 0.014284455
000090 bc e4 12 3d f1 04 6f bd 56 d6 b6 bc e2 a1 ba 3d
       0.03586267 -0.058354322 -0.022319 0.09112908
0000a0 5f 53 35 3c 69 0d 59 bd
       0.0110672405 -0.052991305

weight f4 [1, 42]
000000 6f 3b 45 3a d6 53 2b 39 b3 64 57 3d 2e dd 7f 3d
       0.000752381 0.00016339062 0.05258627 0.062466793
000010 7c cb 3a 3b 2d 7d f6 3a 54 84 b8 3d e0 e5 dd 3c
       0.0028502634 0.0018805616 0.090096146 0.027087152
000020 a3 b9 ee 3c 43 05 24 3c 8a 84 13 3e b9 a5 df 3d
       0.029141253 0.01001102 0.14406028 0.10920281
000030 ca 0e cc 3d 98 bc 04 3e 79 f0 9b 3c a6 92 d5 3d
       0.09963758 0.12962568 0.019035565 0.104283616
000040 85 00 0f 3e 14 bc 09 3e 34 84 15 be 8e 6f 2f b9
       0.13965042 0.13450652 -0.14601213 -0.00016730858
000050 7d 94 d9 3c 40 88 e9 35 e0 91 97 3d cf 88 cf bd
       0.026560063 1.7399507e-06 0.0740087 -0.10133516
000060 22 b5 df bb 5b 84 65 bd 4c 1b e9 3d 43 a3 9a 3c
       -0.0068270126 -0.056034427 0.113821596 0.018876677
000070 a7 5f e8 bc a6 21 8b 38 27 25 a8 3d c4 8c f9 3d
       -0.028365923 6.634304e-05 0.08210211 0.12185052
000080 fe c2 1f ba 02 21 b5 ba 10 17 c0 bc b4 00 74 bc
       -0.0006094425 -0.0013819041 -0.023448497 -0.014892746
000090 8d bf 9d ba ff bc 3b 3c 5c 05 30 bb 54 38 89 bd
       -0.0012035236 0.011458634 -0.0026858663 -0.06700197
0000a0 fc d8 ad bc 1c 58 10 bc
       -0.02122163 -0.008810069
