ModelUnpredictability/one_thousand_brains/predictor_113.model (torch_old, 109395 bytes, 7 tensors)

weight f4 [84, 168]
000000 b3 70 d3 3b 29 5c de bc 06 d3 31 3d 18 2d e8 3c
       0.006452644 -0.027143555 0.04341414 0.028341815
000010 bf 20 8e bd f9 2f e7 3c 9d 97 48 bc 78 06 15 bd
       -0.069398396 0.028221117 -0.012243179 -0.036383122
000020 91 6a 53 bb 9d b0 00 3d a8 d1 8e bd 5d 02 9c 3d
       -0.0032259563 0.03141843 -0.069735825 0.07617638
000030 9a 1c 67 3d 2a 07 ae 3c d9 5f 4d bd 3e dc 34 bd
       0.05642376 0.02124365 -0.050140236 -0.04415535
000040 9b 92 8c bd 3c 6d 53 3c 37 7e d9 bb 1f e1 de bc
       -0.068639 0.0129044615 -0.0066373604 -0.027206955
000050 56 ba a8 bc f3 df 45 3d 97 16 75 3c 53 94 0d bd
       -0.020596664 0.048309278 0.014958999 -0.03456528
000060 d9 d3 8c bd b1 95 85 ba b7 8f 20 bd 2c a4 41 3c
       -0.06876344 -0.0010191706 -0.039199557 0.011818927
000070 29 0c 84 3d de 27 6a bd d9 ca a6 3c 29 28 ca bb
       0.06447632 -0.057166927 0.020360397 -0.0061693382
000080 24 7a 5a 3d 5a ce 1e bc fb e3 80 bd 1f a8 a0 3c
       0.05333914 -0.009692753 -0.06293484 0.019611416
000090 3c ab 80 3b 38 e6 80 ba 19 7f 6c 3a 97 a3 4d 3d
       0.0039266627 -0.0009834236 0.00090216246 0.05020484
0000a0 6a 3a 85 3d c1 5a 86 bd ad 16 53 3b cd 2b 2a bd
       0.06505282 -0.06560279 0.003220956 -0.041545678
0000b0 c8 60 e4 bc 27 bf 2b 3d d1 3f 87 bc 59 80 16 3d
       -0.02787818 0.041930344 -0.016509922 0.036743496
0000c0 c4 77 46 3c 08 10 9b 3d a6 c0 87 bb 35 3b 04 bc
       0.012113515 0.07571417 -0.0041428385 -0.008070757
0000d0 d1 9c 75 bd 08 8d a3 bc a1 f6 7a bd c7 1e 1f bc
       -0.059964005 -0.01996471 -0.06127036 -0.009711928
0000e0 64 b3 fd b9 68 cc 77 b8 c4 12 04 3b e7 55 19 3d
       -0.00048389577 -5.9079757e-05 0.0020152787 0.03743544
0000f0 99 a0 79 bc 21 8e 40 3d 78 aa 56 3d 5d 42 65 bd
       -0.015236043 0.047010545 0.052408665 -0.055971492
000100 5a 60 cc bc 7d 16 50 bc 8d a1 53 3d c1 28 86 3d
       -0.024948288 -0.012700674 0.05166774 0.06550742
000110 86 18 9d 3c f1 f2 d5 bc ec d4 1c bd d0 0c 65 bd
       0.019176733 -0.02611682 -0.038288996 -0.055920422
000120 92 1b 77 3c d6 4d 61 3d 3a 98 b7 3c 21 69 33 bd
       0.015082257 0.05500587 0.022411454 -0.04380143
000130 bb b3 7e 3d 88 d6 99 3d c8 eb 63 3d 56 d5 95 3d
       0.062183123 0.07511622 0.05564478 0.07316081
000140 fd 55 2d bd 77 bb b1 3c e0 50 9f 3b 27 a8 8d 3d
       -0.042318333 0.021695836 0.004861936 0.06916838
000150 af e8 42 3d ad d1 40 3d 8a 58 db 3c ed 8d 5b 3d
       0.047585186 0.047074962 0.026775617 0.053602148
000160 64 2e c4 3b 7b 50 76 bc 11 16 3d 3d 7d a1 3c 3c
       0.0059869755 -0.0150338365 0.046163622 0.011513111
000170 bf 66 c6 bc 93 4b d1 3a 7e 89 a1 3c 38 52 77 bd
       -0.024218915 0.0015967957 0.019718882 -0.060381144
000180 81 c2 45 bd 7d e0 48 bd b7 67 9c bc 1b 21 4d bd
       -0.048281197 -0.049042214 -0.019092424 -0.0500804
000190 a5 72 35 bd 38 a2 88 bc b3 2a 9f 3d 8f cb 3e bc
       -0.044298787 -0.016678914 0.07771816 -0.011645212
0001a0 04 e5 aa bc e0 04 90 3d 1d 7e e8 bc c8 7e 3c bc
       -0.020861156 0.0703218 -0.028380448 -0.011504836
0001b0 3e 8b 11 bd 66 81 41 bc 25 d7 61 bd 89 c0 73 3d
       -0.035533182 -0.011810636 -0.05513682 0.059509788
0001c0 aa ed 72 3d a0 a6 8a bd b7 23 77 3d ec fc 3c 3c
       0.059308685 -0.067700624 0.060336795 0.011534911
0001d0 4a b1 0e bd 53 14 8b bd 46 9e 48 bd 59 28 67 3d
       -0.034837045 -0.06790986 -0.048979066 0.056434963
0001e0 bd 1c 92 3c 70 18 66 3d 52 f9 5a bd 74 e2 28 3b
       0.01783597 0.05617565 -0.053460427 0.0025769742
0001f0 0a 16 8e bd 80 a3 21 3d 2e 34 3c bd a3 55 d6 bc
       -0.06937797 0.039462566 -0.0459482 -0.026163882
000200 1c 67 8f 3b e1 22 cf bc 34 0e 50 bb 7f 46 6c 3d
       0.0043763053 -0.025285186 -0.0031746747 0.057684418
000210 00 0d 79 bd 74 25 d6 bb 66 7e 74 3d d0 5c 9d bc
       -0.060803413 -0.0065352265 0.059690855 -0.019209296
000220 87 65 b0 bc 63 19 81 bd 68 d2 b0 bc 1b 97 73 3c
       -0.021532787 -0.0630367 -0.021584705 0.014867569
000230 cb 64 6f bc a0 f1 6a 3c 6f e3 6c 3d 61 ad 13 bd
       -0.014611433 0.014339834 0.057834085 -0.03605402
000240 92 d4 36 bd 97 09 e7 3c 82 03 5b bc 29 62 32 3d
       -0.044636317 0.028202815 -0.013367536 0.043550644
000250 c4 51 3a bd cc aa 6a 3d 37 2e 6b bc a7 2f 5a 3d
       -0.045488134 0.05729179 -0.01435428 0.0532681
000260 23 60 54 bb 20 aa 12 3d 11 14 23 bd 6f 5b 0a 3d
       -0.0032405935 0.035806775 -0.03981406 0.033778604
000270 22 12 ce 3c 95 5f 0e bd 47 d7 4f bd f8 2a 1a 3d
       0.02515513 -0.034759123 -0.050742414 0.037638634
000280 04 5e 83 3d 5c 5b 40 3c 1f 88 92 3d 5f 9f 63 bd
       0.064144164 0.011740532 0.07154869 -0.05557191
000290 b4 ea 96 3d 80 ad 93 3d 34 bc 92 bd e6 1d 88 3d
       0.07368985 0.07210827 -0.07164803 0.06646328
0002a0 98 35 d0 bc 7a c9 14 bd d8 0a 76 bc f3 50 36 bd
       -0.02541618 -0.036324956 -0.015017234 -0.044510793
0002b0 64 f7 55 bd 54 d7 82 3c b5 25 22 bd bd ca c7 3c
       -0.052237883 0.015971817 -0.03958674 0.024388665
0002c0 ec 71 71 bd 3b a6 a8 3c 86 83 62 3d df 07 63 bc
       -0.058946535 0.020587077 0.05530121 -0.013856857
0002d0 84 85 4e bc 95 11 93 3d 21 15 b2 3c 95 c2 29 3d
       -0.012605075 0.07181088 0.02173859 0.041445334
0002e0 75 14 89 bb 9c 65 e3 bc 97 d4 d9 bb ef da 55 bd
       -0.004183347 -0.027758412 -0.006647657 -0.052210744
0002f0 29 6f 89 3d f3 98 13 3d 2c 5d 9a 3d 77 7d 16 bd
       0.06710655 0.036034536 0.075373024 -0.036740746
000300 bf c7 b4 bc 35 4b 8c 3d 96 12 6f bb e0 72 e4 bb
       -0.022067903 0.06850282 -0.0036479584 -0.006971702
000310 e4 81 88 3d e0 b8 99 3d 5d d4 1c 3d 56 24 58 bd
       0.066654 0.07505965 0.038288463 -0.052769028
000320 0f 48 8a 3d e8 5f 57 bd 22 bc 5c bd c3 89 16 bd
       0.06752025 -0.052581698 -0.053890355 -0.036752474
000330 8a d3 90 3c f9 c4 b8 bc 3d c0 81 3d 50 3e d1 bc
       0.017678995 -0.022554861 0.06335495 -0.025542408
000340 c1 df 10 3d 0b b4 35 bd 3c 68 cb 3b 5f c1 93 3d
       0.03536964 -0.044361155 0.006207494 0.07214617
000350 b2 9f 4c bd fd eb 82 bd a4 84 3c bd 29 fb cd bc
       -0.049956985 -0.063926674 -0.046024933 -0.025144177
000360 f7 31 06 3d 94 93 8d bc 34 09 77 3c ff 06 93 3c
       0.032762494 -0.017282285 0.015077878 0.017947672
000370 ad 08 3f 3b 08 3e b8 bc d2 13 22 3d a9 65 3b bd
       0.0029149458 -0.022490516 0.039569683 -0.045751248
000380 98 ad 1f bc c6 4f 5a 3d eb ca 54 3b 41 d9 67 3d
       -0.009745978 0.053298734 0.0032469581 0.056603674
000390 42 33 30 bc 2b 36 42 3d 1c be 7d bd ba 8a 49 3d
       -0.010754408 0.04741494 -0.06194888 0.049204566
0003a0 20 e6 89 3b c2 1d 9f bb 77 ca 76 bd 29 c8 84 3c
       0.0042083412 -0.0048558423 -0.06025168 0.016208725
0003b0 57 a1 c6 bc d2 92 cc bb 1d 6b 8d 3d d3 94 81 3c
       -0.024246855 -0.0062430883 0.06905196 0.015818035
0003c0 d3 49 8d 3d 78 1e 60 bd de 5b 1f 3d 23 3f ad 3b
       0.068988465 -0.054716557 0.03890597 0.0052870675
0003d0 f5 2d fc 3c 20 33 21 3d ef 83 50 3d fd 06 90 bd
       0.030783633 0.039355397 0.05090707 -0.07032583
0003e0 60 ba 94 bd 6a df d7 bc 5b 39 23 3d e5 b0 78 bd
       -0.07262111 -0.02635165 0.03984962 -0.060715575
0003f0 72 0f d3 bc f6 8d 4c bc 19 ab ce 3c f8 b8 4b bd
       -0.0257642 -0.012485018 0.02522807 -0.049736947

bias f4 [84]
000000 a5 25 1d bd 82 f9 81 bd f8 85 50 3d 9d 34 21 3d
       -0.03836598 -0.06346418 0.050909013 0.039356817
000010 dc d6 6d bb c9 f5 1a 3d 47 5a 13 3c ae 6b fa bc
       -0.0036291396 0.037832055 0.008993692 -0.030568924
000020 18 28 cc 3c f9 dc d9 3c c8 0f 9f bd d2 2f 6a 3d
       0.024921462 0.026594626 -0.07766682 0.05717451
000030 87 b0 29 3d 19 7e 0e bd 41 84 17 3d bd 6b 89 bd
       0.041428115 -0.034788225 0.03699136 -0.067100026
000040 54 3c 1b bd ec 01 77 bd 67 2d 6f 3d c2 6a 2b 3b
       -0.03789933 -0.060304567 0.05839291 0.0026156162
000050 00 d7 e8 bc 82 00 93 bd e3 c1 5c 3d a9 e0 9d 3a
       -0.028422832 -0.07177831 0.053895842 0.0012045103
000060 31 2f 50 bd 3c b9 01 bd 88 74 40 3d 21 04 5f bd
       -0.050826255 -0.031670794 0.046986133 -0.054447297
000070 08 bc 95 bc 35 ac 8d 3d b0 48 04 bc 02 25 07 3d
       -0.018278137 0.069176115 -0.008073971 0.032994278
000080 f1 73 7f 3d 35 0c be bc 6f aa 1f bd bf d4 6b 3d
       0.06236643 -0.02319918 -0.038980898 0.057575937
000090 0c 27 21 bd 6e ef 8b ba bb 96 97 3d ba 9f 01 3d
       -0.03934388 -0.0010676214 0.074017964 0.031646468
0000a0 07 98 5f 3d dd 66 8c bd 8a 33 ac bb 2c df 77 bd
       0.054588344 -0.06855557 -0.0052551674 -0.060515568
0000b0 5a 3f 9d bd 5a 43 8c bd 55 7a 78 3d ab aa 5d bd
       -0.07678099 -0.06848784 0.06066354 -0.05411784
0000c0 ff 60 10 3c 80 84 89 3d 5a 29 77 3d 25 5d 98 3d
       0.008812188 0.067147255 0.06034217 0.07439641
0000d0 08 82 92 3d 81 a1 94 bd ba fb c7 3c e8 13 80 3c
       0.07153708 -0.07257367 0.024412025 0.015634492
0000e0 00 28 f6 3a e6 be 70 3d dc a8 7b bd 2a 32 ab bc
       0.0018780231 0.058775805 -0.061440334 -0.020897944
0000f0 e4 81 06 3d 74 a4 20 bd 6e 9f 26 bc f7 3d 7c 3d
       0.032838717 -0.039219335 -0.010169847 0.06158253
000100 a2 9f 8f bb 80 70 8b bc 5d 37 71 3c cf 9a 3a bd
       -0.0043830434 -0.017021418 0.014722672 -0.045557793
000110 c6 56 4c bd c2 6b 03 3c 41 23 41 3c c6 c7 79 3c
       -0.04988744 0.008021297 0.01178819 0.015245384
000120 e6 c0 9e bd d2 c6 41 bc cd ee c9 3c cd c3 57 3c
       -0.07751636 -0.011827188 0.024650002 0.013169241
000130 26 c1 39 bd a5 51 4d bd f9 64 43 3d 55 59 70 3d
       -0.045350216 -0.05012669 0.047703717 0.058678944
000140 b4 51 85 bc 54 03 a6 bb ed 1d 29 bd 49 71 80 bd
       -0.01627431 -0.0050663147 -0.041288305 -0.062716074

weight f4 [84, 84]
000000 a2 f4 16 bd 28 cc aa bc 94 e8 83 3d 2f a9 1e 3d
       -0.036854394 -0.020849302 0.06440845 0.038735565
000010 54 3e 16 bd 56 5a 7f 3c 9c 4e 18 3c 99 bb 44 bc
       -0.036680534 0.015585503 0.009296086 -0.012007617
000020 1e 1f 97 bd 29 d8 65 bc ed ed ed 3c f8 da 6b bd
       -0.07378982 -0.014028587 0.029044116 -0.05758187
000030 5d d8 b9 bc b0 be 10 bd c5 7b a0 bd bd 8a c3 bc
       -0.022686178 -0.035338104 -0.07836107 -0.023869867
000040 ce 02 02 bd e2 16 92 3d 46 f7 b5 bd 79 22 72 bd
       -0.031740956 0.07133271 -0.08885054 -0.059114907
000050 95 62 49 bb 8f 64 98 3d 91 19 a0 bd ff 1a 34 3a
       -0.0030728925 0.07441055 -0.078173764 0.0006870478
000060 23 16 56 bd 6e 45 71 bd 0e e0 52 3c 3b 04 b6 3b
       -0.052267205 -0.058904104 0.012870802 0.0055547035
000070 a1 57 bb 3c 52 c3 94 3a 26 b0 c0 bd 34 b1 a7 3d
       0.022868933 0.0011349714 -0.09408598 0.08188096
000080 cb 97 a2 3c de e8 62 bd 8e 60 b5 bc 61 f7 36 bd
       0.019847771 -0.05539786 -0.022140767 -0.044669513
000090 60 c2 aa bd 63 84 17 bb 3c bf bc bd cb 6f d5 bd
       -0.08337855 -0.002311968 -0.092161626 -0.104217134
0000a0 28 44 dc 3d 35 85 0c 3d dc 0f 4c 3c d8 ad b7 bc
       0.10755187 0.034306724 0.012454953 -0.022421762
0000b0 9d ae 6e 3d 17 c4 3b bd 1c 87 2f bb 73 49 39 bd
       0.058271993 -0.045841303 -0.0026783412 -0.045236062
0000c0 ab c5 72 3d 35 75 a5 3d 56 d6 1c bd 06 b0 06 3d
       0.059270542 0.08078996 -0.038290344 0.032882713
0000d0 ed 05 99 3c 3b 1c 81 3d d3 91 3f bd 20 e9 90 3d
       0.018679583 0.06304213 -0.04676993 0.07075715
0000e0 04 c3 c2 bc dd c3 2a 3d 00 3b 25 bb a8 ff 32 3d
       -0.023774631 0.041690696 -0.0025212169 0.043700844
0000f0 65 4f 86 3c 41 5f 8a 3d dd 0b 6f 3c ca f6 b0 bb
       0.01639528 0.067564495 0.014590231 -0.0054005133
000100 6e 19 84 bc 18 a3 ff bc fd 9a 8b bd ba 19 c5 bc
       -0.016125407 -0.031205699 -0.06816671 -0.024060119
000110 2d b3 31 bd 8c 2c 3f bd 6b f1 d8 3c 5e 8a ac bc
       -0.043383766 -0.046673343 0.026482305 -0.021062072
000120 45 50 b0 3d 38 49 c0 3b 7e 00 53 3d 73 53 0e bc
       0.0860906 0.0058681034 0.05151414 -0.008686888
000130 26 34 81 3d f4 5f 6d bd fb 02 54 bd 2d 33 91 3c
       0.06308775 -0.057952836 -0.051760655 0.017724598
000140 2d 16 9d bb 0c 68 4b 3c bb e6 95 bd 14 0a d2 bc
       -0.0047939033 0.012414943 -0.07319399 -0.025639571
000150 15 1b 74 bd b1 2d c9 bc cc b2 9d 36 8b ba 0b bd
       -0.05959614 -0.02455792 4.6997793e-06 -0.034113448
000160 6f 27 01 3d 23 17 c0 bd bd a6 2f bd f0 7d 37 bd
       0.031531747 -0.09379413 -0.042883623 -0.044797838
000170 91 db 7a bd b6 ad 16 bb 7d f3 0d bd 9c a5 b2 bd
       -0.06124455 -0.0022991723 -0.034656037 -0.08722994
000180 68 31 2c 3d 02 34 ef bc 63 a5 67 3c d4 ba a0 bc
       0.042039305 -0.029199604 0.014138552 -0.019620337
000190 81 f1 05 bd f5 45 8c bc 27 2e c5 3d 94 9a 5f bd
       -0.03270102 -0.017123202 0.096279435 -0.054590777
0001a0 83 d9 31 bc 09 53 ac 3d 60 99 56 bd 11 88 77 bd
       -0.0108550815 0.08414275 -0.052392364 -0.060432497
0001b0 c1 4d 71 3d 5c 19 c2 3c ad 1b 2b bd 43 a7 20 bd
       0.058912043 0.023693733 -0.04177444 -0.039222013
0001c0 43 74 39 bd 8c 95 9a 3d 44 4f aa bc 89 23 c8 bd
       -0.04527689 0.07548055 -0.02078975 -0.09772403
0001d0 cc 12 b8 3c 55 51 62 3d 7a 4c e8 3d 60 e1 55 3d
       0.0224699 0.055253346 0.11342712 0.052216887
0001e0 66 78 22 bc 7a e3 1c bc 08 35 52 bd c4 c8 a6 3c
       -0.009916401 -0.009575719 -0.051320106 0.020359404
0001f0 8a 89 96 bd 93 58 bf 3c 69 27 80 3c b6 b1 b9 3d
       -0.07350452 0.023357665 0.015643792 0.09067099
000200 49 d4 68 3d 52 32 83 bb ab 24 93 3d f7 e6 7a bd
       0.056843076 -0.0040038014 0.07184728 -0.06125542
000210 8e fd 92 bd 9f 7e e5 3d f8 a6 89 3d 36 a1 2b 3d
       -0.07177268 0.11205792 0.067213 0.04190179
000220 bc ce 53 bd 5c 7d 98 bc 60 91 45 3d 4e 39 96 bd
       -0.05171083 -0.018614464 0.048234344 -0.07335149
000230 16 71 6b 3d 67 b8 ba bd eb 0d 81 bd c6 6a ce bc
       0.057480894 -0.09117203 -0.06301483 -0.025197398
000240 8a 3c ac 3b 21 89 9d 3d f3 aa 7b bc 20 61 ab 3d
       0.0052562403 0.07692171 -0.015360582 0.083681345
000250 b1 d8 1f 3d 6e 91 4f 3c 9f 7d 91 3d 73 c6 4d 3b
       0.039025012 0.0126689505 0.071040384 0.0031398803
000260 cb 0b 34 3d 40 4e 28 bd ce 5c 96 3c 0a ef cc 3c
       0.04395656 -0.04109025 0.0183548 0.025016326
000270 82 0d 43 3d 80 2c 5c bd 6a 10 67 bc d0 33 30 bc
       0.047620304 -0.053753376 -0.0141030345 -0.010754541
000280 89 e1 ed 3c f4 f3 f8 bc 7d a1 2e bd 21 fd 9b 3d
       0.029038208 -0.030389763 -0.042634476 0.0761664
000290 7b bb b0 ba 71 b2 c9 bd 41 5f 73 3d 65 ac bd 3b
       -0.0013483608 -0.09848488 0.059417013 0.0057883733
0002a0 a1 48 64 3b ce b2 a8 3d cf 62 54 bd 90 e5 34 3d
       0.003483333 0.08237229 -0.051852044 0.04416424
0002b0 e4 db d4 3c 03 0b a0 bd e2 7c 84 3d ea 0f 59 bb
       0.025983758 -0.078146 0.06469132 -0.0033121058
0002c0 87 cd 04 bd 64 b2 b8 bd ce dd 7e bc a8 a4 d9 3c
       -0.03242257 -0.090184 -0.015555812 0.026567772
0002d0 d6 30 dc bd 13 ef a7 3d 97 b8 ab bd 13 26 8a bd
       -0.10751502 0.08199897 -0.08384817 -0.06745543
0002e0 78 20 26 3d 7e 3d 92 3d 52 9f 78 3d 4e a2 a9 3d
       0.04055831 0.07140635 0.060698815 0.0828291
0002f0 8e d6 54 3c ed 98 d1 3b 13 20 96 3d ed bd 85 bd
       0.012990607 0.006396404 0.073303364 -0.06530366
000300 4f c6 45 3c 87 58 8e 3d 81 7c 58 3c 07 2e 48 bd
       0.012071206 0.06950479 0.013213278 -0.04887202
000310 ee 00 9e bc 3f 95 39 3b ee 50 9a 3d 5c cc 1f bc
       -0.019287553 0.0028317717 0.07534967 -0.009753313
000320 21 7b 81 bc 00 3a 1a bb 2f 47 85 3d 07 2e ba bc
       -0.015805783 -0.0023533106 0.06507718 -0.022727026
000330 a0 aa e5 3c 71 6f 75 3d d3 55 11 bd 63 8b 9d bd
       0.028035462 0.059920732 -0.03548224 -0.076926015
000340 aa bd 28 bd 5d 39 51 3c 56 42 c8 bd 02 47 b7 bd
       -0.041196503 0.012770024 -0.097782776 -0.089490905
000350 a4 d4 95 bb 20 cf 15 bc 52 25 a4 bd 17 2c 98 bd
       -0.004572468 -0.009143621 -0.08014931 -0.074302845
000360 ce dd 54 bc 34 55 35 3c 91 3f 67 3d cd bd b6 3d
       -0.0129923355 0.011067677 0.056457106 0.089229204
000370 67 39 56 3d 1c 35 a4 bd 7b ff 1e 3c 29 d2 8a 3d
       0.052300837 -0.08017942 0.009704466 0.06778366
000380 77 cd 87 3d 7b 3f 8e bd 45 dd b8 bd ca 02 b0 3d
       0.06630986 -0.06945702 -0.09026579 0.08594282
000390 18 64 ff bc 6c 4a d9 bc b8 ec 63 bc e8 13 10 3d
       -0.031175658 -0.026524745 -0.013911419 0.035175234
0003a0 83 89 43 bd b3 57 e2 bd 40 99 08 3d 26 f0 8d 3b
       -0.047738563 -0.110518835 0.033349276 0.0043316064
0003b0 2f 15 dc bc 22 75 1d bc f1 cd 8c bc 71 4b cc bd
       -0.02686557 -0.009610446 -0.017188044 -0.09975327
0003c0 0f a2 55 3d 96 3c 05 3d 52 80 d2 bc ad ed 3d 3d
       0.052156504 0.032528482 -0.025695954 0.046369243
0003d0 32 99 b7 3c 15 54 e4 ba a7 26 ac ba 4c ee 75 bd
       0.022411916 -0.0017420078 -0.0013134078 -0.06004171
0003e0 ba e5 a1 3d 54 cf 25 3c da e7 fb 3c 55 44 97 3d
       0.07905145 0.010120232 0.030750204 0.0738608
0003f0 cf 82 b6 bc f1 00 9e bd f6 d1 9a 3d 69 e3 be 3c
       -0.022279171 -0.07715023 0.07559578 0.023301797

bias f4 [84]
000000 e3 a6 8e 3d 12 61 cf ba c3 52 a8 bd 43 d5 54 3d
       0.06965425 -0.0015821776 -0.082189105 0.051961195
000010 65 b1 98 3d bc 67 8e 3d 61 73 48 3d b6 8d d4 bd
       0.0745571 0.069533795 0.04893816 -0.10378592
000020 37 47 a7 3d 8b 05 8d bd 4f a9 3f bd 24 f2 91 3d
       0.0816788 -0.06885823 -0.046792325 0.07126263
000030 32 9a 9e bd 99 46 1e 3d 94 0b 80 bd 14 e8 3d bd
       -0.07744254 0.038641546 -0.06252208 -0.046363905
000040 72 e9 8f 3d 48 e9 8c 3d 24 8b a9 bc 2d f3 b7 3d
       0.07026948 0.06880432 -0.02069623 0.08981929
000050 29 dd ad bd e0 29 4d bc b5 f7 93 bd 49 e5 9e 3b
       -0.084894486 -0.012522191 -0.07224981 0.0048491103
000060 44 3e 5f 3d 59 5d 7d 3d 01 d2 a3 bd 49 f2 42 3d
       0.05450274 0.0618566 -0.079990394 0.047594342
000070 59 bd 63 bd 01 01 62 3d a2 e2 a9 3d 60 03 d1 3d
       -0.055600498 0.05517674 0.0829518 0.10205722
000080 43 36 a8 3d 78 fa 42 3d aa 74 3e 3d 7a ca c4 bd
       0.082134746 0.047602147 0.04649798 -0.09608932
000090 ea 5c 7e bd 50 ab 2d bd 09 cc 1a bd f3 b8 46 3d
       -0.06210033 -0.042399704 -0.03779224 0.048516225
0000a0 33 58 a4 bd 59 35 25 bd fb 06 a1 bd e6 c6 d6 bd
       -0.08024635 -0.04033408 -0.078626595 -0.104871556
0000b0 2f 22 37 3c b0 d6 ee 3b 95 f9 28 3d e8 79 11 bd
       0.011177584 0.0072887763 0.041253645 -0.03551665
0000c0 f4 93 54 3d 5f ee be 3d 24 0f e6 bb 9a d4 c6 3c
       0.05189891 0.093228094 -0.007020848 0.024271298
0000d0 dc c4 c2 3d 08 b6 4c bd 98 73 ad bd 35 65 82 bd
       0.09510204 -0.049978286 -0.084693134 -0.0636696
0000e0 75 cc ad 3d aa 6b a4 bc 28 a3 c5 bd 82 23 c0 3d
       0.08486263 -0.02007087 -0.0965026 0.093817726
0000f0 f2 d4 9d bc ee 07 77 3d c5 e1 fd 3c 5a 20 a0 bd
       -0.01926658 0.060310297 0.030991444 -0.078186706
000100 0d f9 82 bc c9 24 24 3c 04 b6 0a 3d 6f b2 c5 bd
       -0.015987897 0.010018536 0.03386499 -0.09653174
000110 27 0e 91 bd 88 9f c3 3c 90 b1 c0 3a 26 11 9a 3d
       -0.070827775 0.023879781 0.0014701355 0.07522802
000120 4d 48 90 bd 2c 28 12 3c 67 0f c8 3c 18 da 8b bd
       -0.0704504 0.0089207105 0.024421407 -0.068287075
000130 47 37 94 bd 11 db 51 3d 5a ba 92 3b 5c 83 93 bd
       -0.07237106 0.05123431 0.0044777812 -0.07202789
000140 69 5b d7 bd d8 74 79 bd b0 9d 77 bd 3d e8 f5 bd
       -0.10515482 -0.060902447 -0.060453117 -0.120071866

weight f4 [42, 84]
000000 09 83 95 bc 9b 18 20 bd f6 ae 07 3c 41 53 97 3d
       -0.018250959 -0.039085966 0.00828146 0.07388926
000010 b0 ad 5e 3d ed 31 c2 3d 4b 05 96 bd 0b da 53 bd
       0.05436486 0.09482179 -0.07325228 -0.051721614
000020 da 7e 8c bd 04 dc 2e bd d9 4e c1 3c 0a 42 a0 3d
       -0.068601325 -0.042690292 0.023597168 0.07825096
000030 6e 8c 8f 3c c1 5f 17 3d 17 51 8d 3d ac f5 27 bd
       0.017523017 0.036956552 0.06900232 -0.041005775
000040 69 f1 59 bd ba 98 d3 3d 6c aa c2 3d 6c 0b cf bd
       -0.053208742 0.10331865 0.09505162 -0.101096004
000050 4b 6f 7f bd 2f 3f 93 3c bf d8 7f 3d 01 ab cf 3d
       -0.062361997 0.017974464 0.062462565 0.10140038
000060 2f 42 e2 bd ff 88 cd bc e1 31 81 3d f8 33 ab 3d
       -0.1104778 -0.025089739 0.06308342 0.083595216
000070 20 a5 b3 3d d9 03 99 bd f3 d4 93 3b b1 07 b4 3d
       0.087717295 -0.07471437 0.0045114695 0.087905295
000080 3e 36 28 3d ab 32 1f bc 0f ef f8 3c 96 0e 45 3d
       0.041067354 -0.00971667 0.03038743 0.048109613
000090 e1 7a d7 3d b1 aa 25 bd 1e bb 3c 3d 0b df f1 bd
       0.10521484 -0.040445987 0.046076886 -0.1181012
0000a0 41 36 5c 3d 9b 9d 0d 3d 05 2f 1d bd 14 a8 a6 3d
       0.053762678 0.034574132 -0.03837492 0.08137527
0000b0 ca 40 b3 3d b3 e0 27 bd 6a ef 0c 3d c8 1e bc bd
       0.08752592 -0.040985774 0.03440801 -0.091855586
0000c0 5b b5 10 bc d4 61 c6 3d f1 ec 61 3d 3c 8a 30 3d
       -0.008832301 0.09686628 0.055157606 0.04310058
0000d0 e3 26 58 3c 11 36 79 bd 57 61 e5 3d a3 69 78 bc
       0.013192865 -0.060842577 0.11200207 -0.0151619045
0000e0 0b e6 29 bd 9e df 19 3d 57 c5 94 bd 2f 04 cf bd
       -0.04147915 0.037566774 -0.07264202 -0.1010822
0000f0 bf 16 fa bb df a1 a7 3c 74 76 a2 bc c7 d4 62 bd
       -0.007632106 0.020462928 -0.019831873 -0.0553787
000100 b8 87 bf bd 74 8b 48 3d 3c 0a 90 3d a7 d7 bb bc
       -0.09352058 0.048961118 0.07033202 -0.02292998
000110 aa 77 c6 3c 39 5d 94 3d 2e c4 ce 3d 80 6a 75 bd
       0.024226982 0.07244343 0.10096012 -0.05991602
000120 42 ea b0 bc da 94 a4 bd 53 ef 86 bc 85 21 b8 bb
       -0.021596078 -0.08036204 -0.01647154 -0.00561923
000130 17 e3 5c 3d fb 96 88 3d 02 dc 5e 3c 9e fe ad bd
       0.053927507 0.06669422 0.013602259 -0.0849583
000140 f6 cd a4 bd 50 96 34 3b 8e 4a 8c 3d 67 66 39 3d
       -0.080470964 0.0027555414 0.06850158 0.045263674
000150 69 ea 10 3c aa d7 db bd db 5a df bd 0b 49 78 3d
       0.00884495 -0.10734494 -0.10906001 0.060616534
000160 cd 72 60 bd 5f d7 3e 3d 62 86 92 bd 42 0e ef bc
       -0.054796983 0.046592113 -0.07154538 -0.029181603
000170 16 43 2e bd 8b 57 77 3d ae 00 d6 bd ae 26 c3 3d
       -0.042544447 0.06038622 -0.104493484 0.09528862
000180 ea 0f 4e bd 46 ae a0 3d 68 06 a3 3d 13 70 16 3c
       -0.050308146 0.0784574 0.07960206 0.009181994
000190 b7 fb 69 3d 0b 89 c4 bd ea c9 9e 3c c9 24 c1 3c
       0.05712482 -0.09596451 0.01938339 0.02357711
0001a0 b2 da a4 3d 7d f9 a3 3d 2c 42 92 bd 15 fe 21 3d
       0.08049525 0.080065705 -0.071415275 0.039548952
0001b0 d8 cc 0d bc c4 2f 1a 3d b6 98 25 3d c7 ce 8e 3b
       -0.008654796 0.03764321 0.04042884 0.004358146
0001c0 7a b6 b6 bd 7a bf 65 bc 09 3c 85 bb 27 9b 70 3d
       -0.089215234 -0.014022702 -0.0040659946 0.058741715
0001d0 4f e5 a0 bd 78 a9 9a 3d a5 d5 d9 bd a3 eb 34 bd
       -0.07856237 0.07551855 -0.106364526 -0.044170033
0001e0 d9 0a 4c 3d 8b 99 96 3d f3 95 78 bc e2 e8 88 bd
       0.049815033 0.07353505 -0.015172469 -0.06685044
0001f0 4e 15 0d bd 4e 42 f6 3d de c6 42 bc 75 6f 14 bc
       -0.034444146 0.12024365 -0.011888234 -0.009059777
000200 bb 35 a5 bc f4 80 35 3c 62 9d 10 3c cb fc 8b 3d
       -0.020167222 0.011078108 0.0088265855 0.06835326
000210 81 ca b1 3d 08 d7 5d 3d ad df 24 3d d7 13 c9 bd
       0.08681203 0.054160148 0.040252376 -0.09818237
000220 e6 b4 98 3d 18 25 d5 bb 8b 17 6f bc 84 ea 51 bc
       0.07456379 -0.006504666 -0.014593015 -0.012812261
000230 fa 26 42 3d c1 a8 e8 bd ff a3 cf 3d 6e 59 b2 3d
       0.047400452 -0.11360312 0.10138702 0.087084636
000240 8a 04 d5 bc 96 92 60 bb 4a 34 1d 3c 4d 73 da bd
       -0.026003141 -0.003426706 0.009594986 -0.10666523
000250 a5 14 8b bb a9 42 b8 3d 49 e6 b4 3d b9 0a b0 3d
       -0.0042444044 0.089970894 0.08832986 0.08595795
000260 3e 69 8c 3d 5a 00 63 bd 76 a2 fd 3d 03 85 a6 bd
       0.06856011 -0.055420257 0.123845026 -0.08130839
000270 ec 8c 85 3c a1 bd fc 3c 86 f7 a6 3c f2 96 20 3d
       0.016302548 0.03085214 0.0203817 0.039206453
000280 0e e2 80 3d e3 af 94 3d c1 3e c3 bd c4 15 84 3d
       0.062931165 0.0726011 -0.09533454 0.06449464
000290 0c 28 19 3d e0 ab 8f bc 58 3c 1f 3c 54 9e a7 bd
       0.037391707 -0.017538011 0.009718977 -0.081844956
0002a0 cf 37 29 3d d4 79 8e bb 36 a9 a2 3d 11 d2 73 3d
       0.04131299 -0.004348019 0.07942431 0.059526507
0002b0 2b 6d 79 bc 31 6b 08 bd 16 81 b4 3d e6 30 6a bd
       -0.015223782 -0.03330535 0.08813684 -0.05717554
0002c0 6e ff 4d 3c 1c 24 fa bc 72 47 04 3d ef ec 95 bd
       0.012573106 -0.030534796 0.032294698 -0.07320582
0002d0 85 c3 f4 ba 14 c5 13 3d 2b 50 68 bd e2 eb f7 bc
       -0.0018673992 0.03607662 -0.05671708 -0.030263845
0002e0 09 24 aa bd a5 f0 8d 3d 35 1f c5 bd 88 3f c0 3d
       -0.083076544 0.06930665 -0.09625093 0.093871176
0002f0 f0 26 bb 3d 26 e1 c4 bd eb 5b bd bd d9 3a 88 3d
       0.09138286 -0.09613256 -0.092460476 0.06651849
000300 de eb 10 3d ca 61 27 3d 1f f4 c7 bd 7d 05 cb 3d
       0.03538119 0.040864743 -0.09763359 0.09913156
000310 43 cd cc 3d 23 92 81 bc a0 7a 57 ba 84 f6 92 bd
       0.10000088 -0.015816754 -0.00082198717 -0.071759254
000320 d9 e4 2d bd fb 7e a5 3d 81 c6 74 bd 1c 91 ec bc
       -0.042454574 0.0808086 -0.05975962 -0.028877787
000330 2a 76 d6 bc a2 0c 93 bd a9 4e e7 3c c8 85 82 3d
       -0.026179392 -0.07180144 0.02823575 0.06373173
000340 85 32 a8 bd c4 e1 c2 3c ca a0 b2 bd 64 a3 b0 3c
       -0.08212761 0.023789294 -0.08722074 0.021562286
000350 56 2c 3f bd db e4 83 bd bb 01 48 bd 97 29 cd bd
       -0.04667314 -0.06440135 -0.048829775 -0.10017698
000360 da f1 83 ba ed 6e 90 bd 57 8c e8 3c 80 af a4 bd
       -0.0010066584 -0.070524074 0.028387232 -0.080412865
000370 c9 3c f8 bb c9 39 99 bd 35 1f a0 bd ab 65 a5 3d
       -0.0075756055 -0.07481725 -0.07818452 0.08076032
000380 68 f4 08 3d 48 a1 46 bc fd f9 24 3d 40 e0 4d bd
       0.03343621 -0.012123413 0.04027747 -0.05026269
000390 be 80 c4 3c 7f 2c c2 bc 0e 19 9e 3d f9 68 34 3d
       0.02398717 -0.023702858 0.077196226 0.044045422
0003a0 e5 f9 6e bd db 47 b9 3b 21 97 b2 3d fe 9e 34 bd
       -0.058343787 0.005654318 0.08720232 -0.04409694
0003b0 b3 a1 a3 3d eb 7d c3 3b 72 ea ee bd f5 a6 dc 3d
       0.07989826 0.0059659383 -0.11665811 0.10774032
0003c0 74 de 03 3d 50 51 c3 bc dd 87 ca 3d d1 fe bf bc
       0.03219457 -0.023842484 0.09889195 -0.023436936
0003d0 2c 26 e8 3d 8b 04 78 3d 82 07 de 3a fd 93 c4 bc
       0.11335406 0.060551208 0.0016939493 -0.023996348
0003e0 b1 e7 d0 3d 63 a1 03 3d 2b 3d 76 bd 57 ba 92 3c
       0.10200442 0.032136332 -0.060116928 0.01791112
0003f0 95 ea ec 3c 3f 7f bc bd d7 9e 3c bd 1e 57 bf 3d
       0.028920451 -0.09203958 -0.04604992 0.09342788

bias f4 [42]
000000 ce 88 ce bd 8e 17 0e 3d cf 0f fc 3c bd 1a e9 3d
       -0.10084687 0.034690432 0.030769257 0.11382053
000010 cd 14 45 3d f5 56 81 bd 76 e6 d0 bd 75 32 9f 3d
       0.04811554 -0.06315414 -0.10200207 0.07773296
000020 52 ee 01 3d b4 44 89 3d e7 5b b1 3d 1a 95 40 3d
       0.03172142 0.06702557 0.08660107 0.047017194
000030 5a 46 3a bd 20 d9 4a bd 84 10 5a 3d a9 27 3c 3d
       -0.04547725 -0.049523473 0.053238407 0.04593626
000040 d8 f7 28 3d 35 09 cc bc f3 eb 20 3d c3 fe cf bd
       0.041251987 -0.024906734 0.03928752 -0.10156014
000050 a9 c6 2c bd ae 5d 58 bd cc fe 8c bd 20 4d 8a 3d
       -0.042181645 -0.052823715 -0.06884536 0.06752992
000060 03 82 a4 3c 71 fc a5 3d 65 c9 d0 bc c4 a8 6b bd
       0.020081526 0.0810479 -0.025486657 -0.057533994
000070 cc 73 2a bd 12 ac d4 3b 50 da 1c bd 00 5e 6d 3c
       -0.04161434 0.006490239 -0.038294137 0.014487743
000080 3f e2 4e bd c0 dc 08 3d f3 ac bc bc ba e9 c3 bd
       -0.050508734 0.03341365 -0.023031687 -0.09566064
000090 f1 13 9e 3d b0 ac b4 bd d2 3c 86 bd 2b 4a 15 bb
       0.07718647 -0.08822 -0.06554569 -0.0022779803
0000a0 79 21 91 3c 4d 7c ba bd
       0.017716156 -0.0910574

weight f4 [1, 42]
000000 d8 53 c3 bd fa 38 94 bd 8d 43 16 3c b3 eb 02 3e
       -0.09537476 -0.0723743 0.009171379 0.12785225
000010 a9 cf f5 3b d0 a2 2e 3b 3b 3c 81 bd 92 6a 0d 3e
       0.0075015617 0.0026647337 -0.06310316 0.13810185
000020 6f dd 24 bd 96 be 3b 3d 4e 6c 81 3d a2 2f 8e 3a
       -0.040250238 0.045836054 0.063194856 0.0010847936
000030 fa 14 5a 3d 7d da a2 bc 15 e2 c6 3d e3 b8 a8 ba
       0.05324266 -0.019879574 0.097110905 -0.0012872483
000040 15 ee ec 3d e9 76 26 3d c4 bc 3f bc f2 6d 0e be
       0.11568848 0.040640745 -0.01170272 -0.13909128
000050 d4 44 62 3d 49 7d a4 bd 55 8b 60 3d 29 b9 70 bc
       0.05524142 -0.08031709 0.054820377 -0.014692583
000060 12 e6 8e bc be 88 6f ba 1c fd 9c bc 41 83 da bd
       -0.01744369 -0.00091375026 -0.01916366 -0.10669566
000070 8d 4c b5 bd 98 e8 1f 3d ec 59 e7 3d 9c 3e 4f bd
       -0.088524915 0.039040178 0.11296448 -0.05059682
000080 11 93 bb bc b8 c6 dc 3b d2 30 f9 3c 13 7e fc bc
       -0.022897275 0.0067375563 0.030418787 -0.030821836
000090 d3 d6 57 3d 7a 75 07 be cb 91 eb bb 73 fd 16 bd
       0.052695107 -0.13228408 -0.0071890107 -0.0368628
0000a0 12 86 1f 3d 27 ee 5d bd
       0.03894622 -0.054182198
